LaneFollowingModel/pruned/model.tflite (tflite, 555768 bytes, 11 tensors)

dense/bias f4 [64]
0.07882299 -0.06821795 0.08708684 0.022254024 0.02490591 0.036499187 -0.041123666 -0.030177154
-0.11902081 -0.12374547 -0.043020487 -0.023930542 -0.08814705 0.08668052 -0.058242578 -0.074930556
-0.07031144 -0.00091261434 0.009882686 0.065826535 -0.018934503 0.0780006 0.0056122625 0.04418058
0.006955754 -0.0010440354 0.036643926 -0.03782373 -0.047034852 -0.13513239 0.11300399 -0.03129371
0.052988023 0.061598793 0.03038055 -0.04734534 -0.0011767542 -0.094781205 0.07041062 0.077298604
0.082085095 0.02184721 -0.08611395 -0.044234406 -0.08041243 -0.06981418 -0.007564186 -0.08490618
0.07959749 -0.055145107 -0.038914196 -0.034131695 0.10513444 -0.01228729 0.10589523 0.07515258
-0.024569295 0.060425363 0.06326068 0.06530284 0.05877006 -0.028954694 0.10849809 -0.170638
00000000: f36d a13d dab5 8bbd 965a b23d 124e b63c
00000010: 7b07 cc3c 2c80 153d 4a71 28bd 1436 f7bc
00000020: 2fc1 f3bd 446e fdbd 4036 30bd fc09 c4bc
00000030: 7186 b4bd 8e85 b13d c58f 6ebd 3175 99bd
00000040: 72ff 8fbd 833c 6fba fdea 213c 10d0 863d
00000050: 881c 9bbc c7be 9f3d 12e7 b73b b2f6 343d
00000060: 18ed e33b 04d8 88ba f117 163d 0eed 1abd
00000070: 9ea7 40bd 2560 0abe a36e e73d d52d 00bd
00000080: f809 593d 044f 7c3d a2e0 f83c 30ed 41bd
00000090: 523d 9aba a61c c2bd 7133 903d bb4e 9e3d
000000a0: 3b1c a83d ecf8 b23c 835c b0bd 232f 35bd
000000b0: 46af a4bd bdfa 8ebd fedc f7bb 4be3 adbd
000000c0: 0204 a33d d6df 61bd 7e64 1fbd adcd 0bbd
000000d0: ba50 d73d a150 49bc 99df d83d 99e9 993d
000000e0: 8c45 c9bc 9680 773d d18e 813d 7fbd 853d
000000f0: e0b8 703d 6532 edbc 3f34 de3d babb 2ebe

conv2d_3/bias f4 [128]
-0.02809209 -0.1651175 -0.06343477 -0.05184555 -0.061585832 -0.0614814 -0.06055522 -0.17805165
-0.116365775 -0.054935396 -0.043973755 -0.007164773 -0.08986402 -0.11307489 -0.01133009 -0.028980965
0.007662675 -0.18254331 -0.08647264 -0.12613203 -0.14695227 -0.06319953 -0.19522811 -0.07904534
-0.1271738 -0.08233626 -0.00069215026 -0.16671285 -0.104928836 0.13089645 -0.08332815 0.008852729
-0.018221373 -0.06548735 0.0042599053 -0.016861215 -0.09198864 -0.015858129 -0.023336362 -0.07250107
-0.022073256 -0.04439097 -0.026852118 -0.025668481 -0.057866633 -0.024948472 -0.09886751 -0.06586081
-0.081547886 0.2157943 -0.13971011 -0.1117982 -0.011882837 -0.021302704 -0.12797765 -0.067253925
-0.01634417 -0.023444528 -0.010853864 -0.04424833 -0.032803677 -0.042092346 -0.08515466 0.0026153293
-0.015212313 -0.091617405 -0.04283769 -0.03252949 -0.15423957 -0.024790894 -0.11818946 -0.09261034
-0.06856105 0.0022668648 -0.005906976 -0.09986786 -0.04714828 -0.09797433 -0.045122616 -0.07567409
-0.109652236 -0.08581044 -0.05992509 -0.05167723 -0.0012448524 0.19814932 0.21278092 -0.08098479
-0.02121791 0.09763455 -0.23483498 -0.15516156 -0.08555668 -0.00029828533 -0.22291782 0.004701674
0.21465944 -0.09897686 -0.059298147 0.10298537 -0.092493996 -0.06291602 -0.06687117 -0.046908125
-0.008173332 -0.011004821 -0.1891668 -0.03174113 0.110203564 -0.00536217 -0.13441114 -0.12592958
-0.028626522 -0.032384265 0.11386796 -0.16480108 -0.118517764 -0.08391672 -0.12527432 0.0048896037
-0.03283065 -0.0051168795 -0.106626704 -0.1060104 -0.030373197 -0.023551181 -0.070109226 -0.0733131
00000000: 6221 e6bc 9014 29be 17ea 81bd 005c 54bd
00000010: 6d41 7cbd ecd3 7bbd c008 78bd 2c53 36be
00000020: 2e51 eebd f003 61bd d31d 34bd 79c6 eabb
00000030: a10a b8bd cf93 e7bd d8a1 39bc 7d69 edbc
00000040: 2d17 fb3b a2ec 3abe 9118 b1bd c128 01be
00000050: a87a 16be c16e 81bd e1e9 47be 86e2 a1bd
00000060: d939 02be ea9f a8bd 6b71 35ba c6b6 2abe
00000070: eee4 d6bd b809 063e f3a7 aabd 090b 113c
00000080: fd44 95bc 3b1e 86bd ad96 8b3b 8820 8abc
00000090: 8a64 bcbd e8e8 81bc e62b bfbc 717b 94bd
000000a0: f9d2 b4bc 4ed3 35bd f9f8 dbbc b546 d2bc
000000b0: 9005 6dbd bd60 ccbc 0d7b cabd 08e2 86bd
000000c0: 9402 a7bd 2ef9 5c3e 2b10 0fbe 74f6 e4bd
000000d0: 3bb0 42bc 0283 aebc 930c 03be 6dbc 89bd
000000e0: 35e4 85bc bd0e c0bc 68d4 31bc bd3d 35bd
000000f0: 265d 06bd 0669 2cbd 9165 aebd f265 2b3b
00000100: 113d 79bc e8a1 bbbd 9376 2fbd a43d 05bd
00000110: faf0 1dbe 4616 cbbc 510d f2bd 7daa bdbd
00000120: bc69 8cbd ae8f 143b 4e8f c1bb 8587 ccbd
00000130: 8e1e 41bd c4a6 c8bd 7ed2 38bd 04fb 9abd
00000140: 5a91 e0bd 62bd afbd 0374 75bd 81ab 53bd
00000150: 512a a3ba a8e7 4a3e 3ee3 593e 5bdb a5bd
00000160: 2fd1 adbc 9ff4 c73d 9578 70be ace2 1ebe
00000170: 5738 afbd 2e63 9cb9 9244 64be 8010 9a3b
00000180: afcf 5b3e 61b4 cabd 9de2 72bd fee9 d23d
00000190: 7e6d bdbd 1dda 80bd c1f3 88bd bc22 40bd
000001a0: 70e9 05bc 914d 34bc f1b4 41be fd02 02bd
000001b0: 68b2 e13d 24b5 afbb 13a3 09be aff3 00be
000001c0: 2b82 eabc 5da5 04bd 9b33 e93d 9dc1 28be
000001d0: 71b9 f2bd 87dc abbd e947 00be f838 a03b
000001e0: 6f79 06bd 7fab a7bb 1a5f dabd fb1b d9bd
000001f0: 36d1 f8bc 68ee c0bc 6d95 8fbd 2e25 96bd

conv2d_2/bias f4 [64]
-0.038650528 -0.016628552 -0.118561 -0.025634812 -0.0038662734 0.0059922896 -0.08583176 -0.015495211
-0.050714444 0.025239825 0.021375487 -0.059385717 -0.08564768 -0.019172652 -0.029970808 -0.036078602
-0.032675948 -0.011443846 -0.044764724 -0.084572636 -0.04216503 -0.05376756 -0.034791376 -0.02927848
-0.17526422 -0.14909095 -0.06662169 -0.0381702 -0.045576014 -0.028495163 -0.10547821 -0.028621966
-0.049470834 -0.034323268 -0.022165444 -0.092385195 -0.0713323 -0.07091054 -0.002889262 -0.09736989
-0.012838685 0.010318654 -0.0030595683 -0.135332 -0.04827215 -0.13064304 -0.028633649 -0.08498996
-0.13479795 -0.023997953 -0.07337653 -0.13122013 -0.12923037 -0.011611362 -0.037399784 -0.07548285
-0.019414278 -0.080317885 -0.003674534 -0.064963914 -2.6851922e-08 -0.054001085 -0.05163723 -0.089525834
00000000: 0450 1ebd 9a38 88bc 1cd0 f2bd 1900 d2bc
00000010: 4e61 7dbb f85a c43b 90c8 afbd a0df 7dbc
00000020: f3b9 4fbd c0c3 ce3c a51b af3c 703e 73bd
00000030: 0d68 afbd f70f 9dbc 5785 f5bc 28c7 13bd
00000040: 37d7 05bd f87e 3bbc 375b 37bd 6b34 adbd
00000050: 3db5 2cbd 5f3b 5cbd 6781 0ebd 6cd9 efbc
00000060: 7778 33be 4cab 18be f470 88bd 5b58 1cbd
00000070: eaad 3abd b06e e9bc f604 d8bd 9d78 eabc
00000080: eea1 4abd 8e96 0cbd 4e94 b5bc 7334 bdbd
00000090: ab16 92bd 8c39 91bd c659 3dbb dd69 c7bd
000000a0: 5959 52bc 920f 293c 0a83 48bb 7994 0abe
000000b0: 05b9 45bd 4ac7 05be 1d91 eabc 370f aebd
000000c0: 7908 0abe 5b97 c4bc 6f46 96bd 925e 06be
000000d0: f754 04be 953d 3ebc 8430 19bd c196 9abd
000000e0: b10a 9fbc b47d a4bd 73d0 70bb cd0b 85bd
000000f0: 00a8 e6b2 3e30 5dbd 8f81 53bd 5259 b7bd

conv2d_1/bias f4 [64]
-0.15837961 -0.03600571 0.006914591 0.0011819073 0.035227966 -0.015287188 -0.12555975 -0.031802617
-0.0428282 0.0127748465 -0.023549918 -0.031263858 -0.014880589 0.0091473805 -0.0715865 -0.079418786
-0.050605662 -0.10675958 -0.017080555 -0.015302986 -0.006314026 -0.050456863 -0.019341268 -0.027225459
-0.026583849 0.021561919 -0.025250614 -0.036303 -0.038479004 -0.019518014 -0.019680843 -0.022729585
-0.022711802 -0.06629827 -0.090652294 -0.027820656 -0.028839868 -0.010805561 -0.024116166 -0.022969827
-0.022588596 -0.14295626 -0.055186603 -0.032101616 -0.017513603 -0.02163583 -0.1550615 -0.009952741
-0.110229135 -0.051344264 -0.022545826 -0.13834544 -0.12791494 -0.043951355 -0.010649225 -0.060828112
-0.045313664 -0.07187306 -0.01421374 -0.052857608 -0.011673486 -0.0022586032 -0.018609062 -0.0058130315
00000000: 442e 22be b97a 13bd cb93 e23b 3aea 9a3a
00000010: 334b 103d 1d77 7abc bc92 00be 7643 02bd
00000020: 9f6c 2fbd 974d 513c c2eb c0bc 880e 00bd
00000030: b7cd 73bc e5de 153c f19b 92bd 51a6 a2bd
00000040: e247 4fbd c4a4 dabd 85ec 8bbc 60b9 7abc
00000050: e4e5 cebb dbab 4ebd 9471 9ebc ed07 dfbc
00000060: 5fc6 d9bc 9fa2 b03c 60da cebc 74b2 14bd
00000070: 299c 1dbd 3ee4 9fbc b839 a1bc 6533 babc
00000080: 1a0e babc 63c7 87bd e9a7 b9bd 25e8 e3bc
00000090: 9641 ecbc cf09 31bc 448f c5bc 382b bcbc
000000a0: b80b b9bc 2063 12be 590b 62bd fc7c 03bd
000000b0: b078 8fbc a03d b1bc 71c8 1ebe d210 23bc
000000c0: d0bf e1bd 5d4e 52bd 06b2 b8bc 6daa 0dbe
000000d0: 22fc 02be 5606 34bd 167a 2ebc e626 79bd
000000e0: d29a 39bd 2f32 93bd bfe0 68bc 3881 58bd
000000f0: 2642 3fbc 1305 14bb 0872 98bc 3e7b bebb

conv2d/bias f4 [32]
-0.12263853 -0.028392779 -0.0015680655 -0.009330938 -0.15197465 -0.013538822 -0.15268317 -0.012175661
-0.01732213 0.015350619 -0.016290981 -0.010509545 -0.025432022 -0.005936615 -0.011944071 -0.019906623
-0.007970997 -0.0138428705 -0.014571926 -0.05369167 -0.015284602 -0.014365337 -0.012038776 -0.118075654
-0.05459965 -0.016785698 -0.0076970663 -0.15050441 -0.008102961 0.016102003 -0.0059591243 -0.0056604394
00000000: e929 fbbd f997 e8bc 8c87 cdba cae0 18bc
00000010: 3e9f 1bbe efd1 5dbc fa58 1cbe 6c7c 47bc
00000020: 24e7 8dbc 2a81 7b3c aa74 85bc 3a30 2cbc
00000030: d156 d0bc f087 c2bb 11b1 43bc 3713 a3bc
00000040: c998 02bc 35cd 62bc 16bf 6ebc cceb 5bbd
00000050: 446c 7abc 975c 6bbc 493e 45bc a6d1 f1bd
00000060: e2a3 5fbd 2982 89bc ac37 fcbb d41d 1abe
00000070: 48c2 04bc 59e8 833c c244 c3bb 357b b9bb

sequential/dense/MatMul f4 [64, 128]
0.1950607 -0.07399874 -0.04958298 0.11388108 0.0593517 0.028553149 -0.13395798 -0.18402562
0.19770622 0.12612413 -0.008202685 0.18216577 -0.0057168696 -0.09132873 -0.10259204 -0.071368635
-0.04924775 -0.14851157 0.20494728 0.10049384 0.17914464 0.100882694 0.03590956 0.027672347
0.11207096 -0.1011315 0.15706462 0.16668113 -0.12876281 0.20975485 -0.1152596 -0.10014859
-0.29425004 -0.043670412 -0.20656267 0.1293327 -0.09271603 -0.122009054 0.22110772 -0.10442691
0.12672353 -0.21683468 0.2362698 0.07364777 0.11454018 0.24905363 0.06093252 0.04673558
0.14299119 0.03228225 -0.11010819 -0.029316146 0.152955 -0.03296088 -0.15165323 0.14200471
-0.078667544 -0.07997398 -0.20896272 -0.14150462 -0.0721313 -0.032388568 0.16382025 -0.19513488
-0.088303424 -0.22915322 -0.17148887 0.16821584 0.12363288 0.20347987 0.18689772 0.040547546
0.030317921 -0.040225007 0.18774669 -0.047056124 -0.038008593 0.101350084 -0.05701389 -0.23478924
0.20474254 0.08062891 -0.15926813 -0.16908589 0.2299208 0.10190803 0.16324416 -0.30369163
0.28134966 0.06419569 -0.12748523 0.1044574 -0.025635643 0.14571275 -0.042745784 0.08522526
-0.046972856 0.17949179 0.089471534 0.14031865 0.08922271 0.15320596 -0.011551072 -0.17458028
-0.1522398 0.22990319 -0.17934896 0.24448046 0.078631915 -0.071727924 -0.06670807 -0.057078194
-0.27520552 -0.05853516 -0.11710644 -0.03126219 0.11271183 -0.054680254 0.17888737 0.19951971
-0.0008442281 0.073779725 0.19501212 0.095787704 0.3224295 0.08591663 -0.24555643 -0.19525371
0.07053156 0.10183713 -0.12398954 -0.02340782 -0.0489266 -0.22891727 0.10370778 -0.06470959
0.06306544 0.068736956 0.099125676 -0.10382372 0.068239614 0.09835252 -0.10338848 -0.06968144
-0.089287154 -0.12504117 -0.06320109 0.046850193 0.09420297 -0.18415749 0.043891408 -0.046574406
-0.07229663 0.094110474 -0.07369007 -0.12585008 -0.06624161 -0.044056118 -0.2142125 -0.21976817
-0.23133187 -0.0021685788 -0.14288127 -0.1522479 0.09772126 -0.14306767 1.7111646e-05 -0.012314278
-0.15967354 -0.1878458 -0.047575723 0.024708953 -0.07607797 -0.14913486 -0.19299108 -0.091501355
0.006729123 -0.06942507 0.08573206 -0.029418947 0.038322456 -0.17076674 0.09604512 -0.057329696
-0.119570956 -0.14603144 -0.16231011 0.08153865 0.0011584364 -0.09614389 -0.06718722 -0.10466665
-0.078724965 -0.22243619 -0.2167627 0.014343516 -0.0397748 -0.13412943 0.04708355 0.00044939716
-0.0004978098 0.13839905 -0.11291472 -0.21469961 -0.12082843 -0.089705385 -0.19860756 0.0707292
-0.15020722 -0.18698272 0.06951585 0.06452144 -0.1586035 -0.0050528585 -0.23835549 -0.01288511
0.09886702 -0.078070775 0.05011824 -0.08383164 0.008100414 0.06679155 0.10059738 -0.18895373
0.061100516 -0.15399247 -0.020592187 0.08402852 -0.006334951 0.092822224 0.046630457 0.0743039
0.0047625354 -0.16239555 -0.22242272 -0.06923266 -0.024980873 -0.05805583 -0.1271729 -0.02256582
-0.023144042 -0.05586291 -0.0357546 -0.051456068 0.10216193 -0.12537786 -0.12610367 -0.05778658
0.082501486 0.097954765 -0.05612313 -0.094126835 -0.04000042 -0.10207575 -0.18122299 -0.21096592
00000000: febd 473e a78c 97bd 8617 4bbd 7c3a e93d
00000010: c51a 733d 4be8 e93c 482c 09be 3671 3cbe
00000020: 8073 4a3e af26 013e 8e64 06bc aa89 3a3e
00000030: 9454 bbbb 8f0a bbbd c71b d2bd b829 92bd
00000040: 02b8 49bd 6b13 18be b3dd 513e b7cf cd3d
00000050: b171 373e 969b ce3d e715 133d 1eb1 e23c
00000060: 7685 e53d 081e cfbd 8cd5 203e 75ae 2a3e
00000070: 66da 03be fac9 563e 3a0d ecbd b41a cdbd
00000080: f1a7 96be bfdf 32bd 2a85 53be cb6f 043e
00000090: e7e1 bdbd e2df f9bd 106a 623e c7dd d5bd
000000a0: d0c3 013e e909 5ebe b6f0 713e a4d4 963d
000000b0: 0b94 ea3d ea07 7f3e 6194 793d cf6d 3f3d
000000c0: 486c 123e 643a 043d 6780 e1bd 6a28 f0bc
000000d0: 3ca0 1c3e fd01 07bd fc4a 1bbe af69 113e
000000e0: 731c a1bd 66c9 a3bd 53fa 55be 96e6 10be
000000f0: 93b9 93bd e0a9 04bd 7fc0 273e 70d1 47be
00000100: 6dd8 b4bd 24a7 6abe c79a 2fbe c640 2c3e
00000110: 3c33 fd3d 075d 503e 1e62 3f3e 2f15 263d
00000120: 4a5d f83c fac2 24bd ab40 403e ecbd 40bd
00000130: e6ae 1bbd a290 cf3d 6687 69bd 976c 70be
00000140: 07a8 513e c520 a53d 2f17 23be da24 2dbe
00000150: 5c70 6b3e 28b5 d03d 7a29 273e 787d 9bbe
00000160: 100d 903e 0879 833d 7d8b 02be c3ed d53d
00000170: d701 d2bc b935 153e 3416 2fbd 958a ae3d
00000180: 9c66 40bd b2cc 373e da3c b73d b1af 0f3e
00000190: 65ba b63d 06e2 1c3e b540 3dbc 2cc5 32be
000001a0: c0e4 1bbe be6b 6b3e 41a7 37be 1659 7a3e
000001b0: c509 a13d 17e6 92bd 3e9e 88bd d3ca 69bd
000001c0: bde7 8cbe 90c2 6fbd 80d5 efbd c80c 00bd
000001d0: 76d5 e63d 67f8 5fbd 402e 373e e54e 4c3e
000001e0: 304f 5dba d319 973d 42b1 473e 582c c43d
000001f0: 7b15 a53e 0ff5 af3d 2573 7bbe 97f0 47be
00000200: da72 903d fc8f d03d 3aee fdbd c2c1 bfbc
00000210: 4267 48bd 4a69 6abe bf64 d43d 7686 84bd
00000220: 7428 813d f6c5 8c3d 6702 cb3d 88a1 d4bd
00000230: 36c1 8b3d 0c6d c93d 57bd d3bd 25b5 8ebd
00000240: 2fdc b6bd cb0a 00be 936f 81bd fde5 3f3d
00000250: 7ded c03d c893 3cbe 7ac7 333d cec4 3ebd
00000260: 4110 94bd febc c03d d2ea 96bd d8de 00be
00000270: aea9 87bd 3074 34bd 865a 5bbe e80a 61be
00000280: 43e2 6cbe b71e 0ebb 784f 12be e0e6 1bbe
00000290: 1522 c83d 5580 12be fb8a 8f37 d3c1 49bc
000002a0: 7681 23be a65a 40be c3de 42bd 6e6a ca3c
000002b0: c4ce 9bbd cfb6 18be 749f 45be 1065 bbbd
000002c0: fa7f dc3b bb2e 8ebd 4a94 af3d 0100 f1bc
000002d0: 02f8 1c3d 7add 2ebe 4eb3 c43d 8bd2 6abd
000002e0: 9ee1 f4bd 4489 15be 9f34 26be bcfd a63d
000002f0: add6 973a 16e7 c4bd 7499 89bd 785b d6bd
00000300: 8e3a a1bd 50c6 63be 0bf7 5dbe 1101 6b3c
00000310: e7ea 22bd 3a59 09be aeda 403d 119d eb39
00000320: 737f 02ba 7bb8 0d3e d53f e7bd 37da 5bbe
00000330: e574 f7bd 75b7 b7bd c85f 4bbe 79da 903d
00000340: eccf 19be 6678 3fbe 535e 8e3d d123 843d
00000350: f568 22be 7392 a5bb 7613 74be 121c 53bc
00000360: cb7a ca3d 92e3 9fbd c948 4d3d ecaf abbd
00000370: 99b7 043c 02ca 883d 0006 ce3d 167d 41be
00000380: 8944 7a3d 34b0 1dbe f2b0 a8bc 2517 ac3d
00000390: 6c95 cfbb 9419 be3d 94ff 3e3d a52c 983d
000003a0: 0b0f 9c3b 054b 26be c8c2 63be dac9 8dbd
000003b0: b0a4 ccbc f3cb 6dbd 9d39 02be f4db b8bc
000003c0: 9398 bdbc 82d0 64bd 6a73 12bd 99c3 52bd
000003d0: 463a d13d 0e63 00be 5221 01be 9fb1 6cbd
000003e0: 8af6 a83d 829c c83d 5ee1 65bd 92c5 c0bd
000003f0: 7bd7 23bd 170d d1bd 8592 39be 7307 58be

sequential/dense_1/MatMul f4 [1, 64]
-0.17200984 -0.0216058 -0.07458306 0.069852725 -0.22850086 -0.17404255 0.13567778 -0.43028882
0.56651765 -0.26745114 -0.21069324 0.045674473 -0.0785432 0.33265188 0.17412484 0.13402544
-0.06758017 -0.21789977 0.0035002301 0.2968807 -0.17705598 0.21093494 0.21069546 -0.29060838
-0.1720322 0.42332953 0.11373753 -0.08776034 -0.20640999 0.094829954 0.1531712 -0.06983598
0.070915796 0.12408015 0.0558345 -0.25995678 0.15309513 0.06173025 0.3114478 -0.15100442
-0.057857133 0.035552435 0.026402976 -0.005793043 -0.0943526 -0.11355452 -0.27007505 0.013660738
0.3310718 0.13931899 -0.14539188 0.07784196 0.13318837 -0.05851412 0.20419884 -0.34940857
-0.056318764 -0.17293622 -0.09575701 0.0906735 -0.11747425 0.18795726 -0.2618622 -0.7512853
00000000: 5923 30be a6fe b0bc 01bf 98bd f20e 8f3d
00000010: 21fc 69be 3638 32be 1eef 0a3e d14e dcbe
00000020: 4d07 113f 5bef 88be f8bf 57be 2815 3b3d
00000030: 42db a0bd 5951 aa3e c84d 323e f73d 093e
00000040: 7967 8abd 1e21 5fbe 1e64 653b bf00 983e
00000050: 2a4e 35be 54ff 573e 8dc0 573e 9fca 94be
00000060: 3629 30be a6be d83e 39ef e83d b1bb b3bd
00000070: 245d 53be 3536 c23d e9d8 1c3e 2b06 8fbd
00000080: 4d3c 913d bc1d fe3d b7b2 643d 0e19 85be
00000090: f8c4 1c3e dcd8 7c3d 1676 9f3e e7a0 1abe
000000a0: 9afb 6cbd 6e9f 113d 0e4b d83c 91d3 bdbb
000000b0: f03b c1bd 468f e8bd 4747 8abe 4ad1 5f3c
000000c0: 3e82 a93e a3a9 0e3e 9ce1 14be 9b6b 9f3d
000000d0: 8862 083e 80ac 6fbd 8019 513e aee5 b2be
000000e0: 81ae 66bd 3116 31be 401c c4bd 07b3 b93d
000000f0: 5796 f0bd de77 403e cd12 86be 3c54 40bf

sequential/conv2d/Conv2D f4 [32, 3, 3, 1]
0.08133708 0.050229385 0.14963853 -0.05571377 0.056160916 0.029294083 -0.0017271037 -0.028696029
0.08750815 0.021546585 0.03447835 -0.111104414 -0.0709226 -0.010834512 0.05886883 -0.28851473
0.1960734 0.065087 -0.18993421 -0.32485306 -0.22248346 -0.11394817 -0.5193037 0.21955791
0.29932934 -0.52405125 -0.018061852 -0.15958233 0.12175474 0.03760271 -0.2998402 0.1638461
0.09088518 0.22092208 -0.17415103 -0.23408791 -0.020438464 0.060345497 -0.039694585 -0.026752036
0.04550114 -0.018794203 0.078053676 -0.12694779 0.009947088 0.01851662 0.15865788 -0.21347569
-0.15310709 -0.041086268 0.17619257 -0.25307554 0.21569508 0.04337973 0.11231197 0.12582691
0.058769684 0.04831923 -0.008404312 -0.010783292 0.07274091 -0.010571768 -0.0135580255 -0.21879876
-0.00046869932 -0.015259636 0.1715313 -0.28302276 -0.31010795 0.05627032 0.25917667 -0.32540834
-0.34441942 0.18938418 0.14714123 -0.015729697 -0.18860283 0.13567205 0.091761954 -0.10837633
-0.092326894 -0.01342316 0.17322426 -0.011864995 -0.16605002 0.17922425 -0.18179592 -0.0013328798
0.19842589 -0.2218755 0.08211218 -0.1717426 0.067409106 -0.1332175 0.16144799 0.24788587
-0.34170562 -0.23516293 -0.09312221 -0.3936789 0.24577211 0.08064388 -0.38051534 -0.0057495884
0.039006285 -0.20424396 -0.086968 0.22015752 -0.18808785 0.18798898 -0.021627326 0.008524841
0.23995265 -0.26212436 -0.020979062 0.078637704 -0.114516355 0.14169763 0.07185952 -0.22924265
-0.27767324 0.053049285 -0.28944775 -0.2859801 0.09204361 0.1827516 0.20356812 0.021275911
-0.038548384 0.013471517 -0.25123352 -0.11377679 -0.3478444 0.20443793 0.12513408 0.1427106
0.02116208 0.1978713 -0.088121735 0.1709125 -0.014219677 -0.025505034 -0.21827452 -0.23727916
-0.17415424 0.121838205 0.004159038 0.028631723 -0.11193814 0.19432569 -0.1225232 -0.0145483725
-0.19579537 -0.04976005 -0.11409066 -0.29758942 0.15620181 0.17690918 -0.0011980431 -0.0057578837
-0.046779707 0.046399437 -0.059834596 -0.19620459 -0.012050311 0.08160808 0.1920041 -0.03471285
-0.052199546 -0.1624603 0.16123828 -0.13232386 -0.43440837 -0.2821593 -0.41992882 0.39613757
-0.35791492 -0.055961043 0.06595583 -0.04228218 -0.116358325 -0.053031184 -0.045425273 0.009374358
-0.10683063 0.0011360546 -0.0085449545 -0.06715689 -0.029804565 -0.11784086 0.19641514 -0.09299176
0.088110164 0.1388691 -0.07902647 -0.22198512 0.0887476 -0.116555184 -0.2595353 -0.21572083
-0.24169755 0.04061363 -0.18195768 -0.054749988 0.12331522 0.16243385 0.10652019 0.13055484
-0.06581723 0.0010164718 0.088323414 0.083637536 -0.046236746 0.065056235 0.006099099 -0.02077858
-0.041376736 -0.055288605 0.08988137 -0.07228596 -0.16096336 0.17934568 -0.12877902 0.02751286
-0.028726732 0.19954295 0.18698166 -0.3849799 0.15647745 -0.2859028 -0.14762056 -0.13969083
0.14551803 -0.008093925 0.020710506 -0.09866624 -0.13729748 -0.223569 -0.1497056 0.017822446
-0.35712653 0.21695568 0.10640764 0.119159035 0.05211699 -0.03234478 0.25405955 0.1994097
0.06297928 0.1052762 0.0016208095 -0.063664496 0.058516808 0.02892204 -0.4743082 0.13846183
00000000: 0e94 a63d 54bd 4d3d d83a 193e 1f34 64bd
00000010: fd08 663d 25fa ef3c fc5f e2ba ef13 ebbc
00000020: 7937 b33d 7782 b03c 2c39 0d3d b68a e3bd
00000030: de3f 91bd 3d83 31bc 7120 713d 34b8 93be
00000040: 77c7 483e 554c 853d 1d7e 42be 2453 a6be
00000050: b4d2 63be a85d e9bd 16f1 04bf cad3 603e
00000060: b241 993e 3928 06bf 73f6 93bc 8d69 23be
00000070: 8d5a f93d 4d05 1a3d a884 99be 46c7 273e
00000080: 0222 ba3d 6639 623e a654 32be beb4 6fbe
00000090: 916e a7bc d72c 773d ca96 22bd 1627 dbbc
000000a0: 675f 3a3d 4df6 99bc 9bda 9f3d 9afe 01be
000000b0: 1cf9 223c 2bb0 973c 3677 223e 5f99 5abe
000000c0: 1bc8 1cbe 134a 28bd d36b 343e 1e93 81be
000000d0: 2cdf 5c3e f2ae 313d d103 e63d c5d8 003e
000000e0: 7bb8 703d 63ea 453d 3db2 09bc 68ac 30bc
000000f0: 30f9 943d 3535 2dbc 7b22 5ebc c80c 60be
00000100: c2bb f5b9 8d03 7abc e7a5 2f3e 5ce8 90be
00000110: 78c6 9ebe b57b 663d ceb2 843e ec9b a6be
00000120: be57 b0be eded 413e 31ac 163e 91db 80bc
00000130: 1a21 41be 9ded 0a3e b1ed bb3d 69f4 ddbd
00000140: e215 bdbd d0ec 5bbc b361 313e 6565 42bc
00000150: 0409 2abe 9086 373e b628 3abe 06b4 aeba
00000160: 2830 4b3e 5533 63be 6e2a a83d 4bdd 2fbe
00000170: c90d 8a3d 2b6a 08be 9f52 253e cbd5 7d3e
00000180: 0af4 aebe 8dce 70be dbb6 bebd 4890 c9be
00000190: afab 7b3e 9e28 a53d e8d2 c2be 0b67 bcbb
000001a0: 0ec5 1f3d 5425 51be 471c b2bd f970 613e
000001b0: 1a9a 40be 2f80 403e ca2b b1bc c6ab 0b3c
000001c0: 26b6 753e 2a35 86be 48dc abbc ce0c a13d
000001d0: 8d87 eabd 2f19 113e 162b 933d 96be 6abe
000001e0: 302b 8ebe 354a 593d 7f32 94be fc6b 92be
000001f0: 5c81 bc3d 3c23 3b3e 2974 503e d24a ae3c
00000200: e9e4 1dbd a3b7 5c3c aea1 80be ce03 e9bd
00000210: a918 b2be 2d58 513e 2623 003e ba22 123e
00000220: 195c ad3c c69e 4a3e 2b79 b4bd b003 2f3e
00000230: a6f9 68bc efef d0bc 5b83 5fbe 4ff9 72be
00000240: 7d55 32be 4f86 f93d 8a48 883b 138d ea3c
00000250: d33f e5bd 50fd 463e 72ed fabd 4c5c 6ebc
00000260: 957e 48be 32d1 4bbd 5da8 e9bd a45d 98be
00000270: 5ef3 1f3e ae27 353e a807 9dba a1ac bcbb
00000280: 149c 3fbd 560d 3e3d 1f15 75bd dbe9 48be
00000290: ab6e 45bc 2322 a73d b99c 443e 102f 0ebd
000002a0: 31cf 55bd fe5b 26be a61b 253e e87f 07be
000002b0: c66a debe 2f77 90be e900 d7be 8bd2 ca3e
000002c0: a040 b7be 6837 65bd da13 873d 1430 2dbd
000002d0: 464d eebd 3a37 59bd da0f 3abd e896 193c
000002e0: 04ca dabd abe7 943a 2300 0cbc 8d89 89bd
000002f0: b428 f4bc 8c56 f1bd 0d21 493e 7772 bebd
00000300: 1a73 b43d b433 0e3e a1d8 a1bd 1150 63be
00000310: 4dc1 b53d 7cb4 eebd d0e1 84be ece5 5cbe
00000320: 907f 77be 7a5a 263d 1d53 3abe 8641 60bd
00000330: b18c fc3d 0f55 263e 4227 da3d 2bb0 053e
00000340: 2fcb 86bd 223b 853a e8e2 b43d 284a ab3d
00000350: be62 3dbd 343c 853d f3da c73b d737 aabc
00000360: a77a 29bd 4e76 62bd b913 b83d a90a 94bd
00000370: 94d3 24be 65a6 373e a6de 03be a662 e13c
00000380: 5354 ebbc fd54 4c3e 1f78 3f3e 161c c5be
00000390: a03b 203e da61 92be d829 17be 1d0b 0fbe
000003a0: ae02 153e 629c 04bc 14a9 a93c 8711 cabd
000003b0: b697 0cbe 46ef 64be 6d4c 19be 6100 923c
000003c0: 4ad9 b6be a129 5e3e 40ec d93d a709 f43d
000003d0: a078 553d f67b 04bd 1814 823e 0e32 4c3e
000003e0: 48fb 803d 0c9b d73d 5871 d43a 8862 82bd
000003f0: 52af 6f3d eaed ec3c 86d8 f2be f0c8 0d3e

sequential/conv2d_1/Conv2D f4 [64, 3, 3, 32]
0.098941416 -0.041909616 -0.21858367 0.07497286 0.073727235 0.18902653 -0.02657135 0.09979694
-0.008889457 0.05977481 0.08128833 0.038873207 0.056112792 0.099039994 0.13873896 0.117399044
0.02762616 0.0374722 0.15032119 -0.049172964 0.042814195 -0.040939964 0.015099949 0.07154905
0.04890968 0.08878903 0.3688034 0.1054363 -0.018517677 0.089553334 -0.021248138 0.08205789
-0.12920411 0.023766002 0.09511071 0.1282818 0.10731044 0.21355478 0.043892715 0.20819074
-0.036968134 0.14231594 0.03784962 0.0716732 0.14297922 0.30148497 0.15617196 -0.01762764
-0.16132233 0.09176812 0.09959765 0.60794246 -0.0063829347 0.1766417 0.09344079 0.0006962112
-0.009365666 0.28635132 0.5075605 0.018858725 0.16792661 -0.054276124 0.14859568 0.21965645
-0.21094584 -0.0027087224 0.04165041 -0.042558767 -0.1358572 0.096149676 -0.12849846 -0.058615115
-0.049616776 -0.09959801 -0.24062365 0.24436449 -0.06421725 0.14734578 -0.020779846 -0.135994
-0.27317256 0.022278003 0.0634855 -0.113052554 -0.012433287 -0.20120296 -0.090639785 -0.23906723
-0.11779022 -0.082356215 0.43788812 -0.29481962 -0.018628119 -0.23254503 -0.059782654 -0.19151902
-0.08266884 -0.0453865 -0.055007055 -0.008746473 -0.033373896 0.03238994 -0.10706586 -0.30413312
-0.0001538855 -0.19668332 -0.06564187 0.022732256 -0.078060515 0.01985134 -0.024753122 -0.1251307
-0.024064664 -0.117700346 -0.13069281 0.2070633 -0.069652274 -0.15358196 -0.17097613 -0.11198828
-0.026297383 0.05025331 0.25042266 -0.1180369 0.079058066 -0.15066075 0.07425167 0.024762359
-0.0022850272 0.06777419 0.1468502 0.13177608 7.337415e-05 0.011503188 0.07344113 0.0011194116
0.065278746 0.14798014 0.050085813 -0.0052952524 0.06267353 0.20924886 -0.048274603 -0.06771671
0.12417493 -0.06916064 -0.05086792 0.5539457 0.0018644742 0.17392042 -0.06592466 -0.0022780222
0.037221 0.12773985 0.265342 -0.0015019195 -0.05414418 0.052768376 0.25081474 0.11612176
-0.17220324 -0.0005412126 0.15629734 0.23341076 0.012894792 0.047586273 -0.16026963 0.19048949
0.009346178 -0.038839318 0.13830236 0.12045048 -0.0065505253 0.13338055 0.052924525 0.004883585
0.16617756 -0.04016955 0.018006077 -0.01748304 -0.048495006 0.033534233 -0.0048371945 -0.015421082
-0.019988613 -0.039704144 0.19233878 -0.045636047 0.12950912 0.038256645 0.15847933 -0.0926773
-0.124334365 -0.14804645 0.036724616 0.11090312 0.00023395239 0.018629739 -0.117723964 0.21358478
-0.035707116 -0.17615911 -0.107757166 0.12254443 -0.1948037 0.02716934 0.020435259 9.468524e-05
-0.15916942 -0.23119761 -0.16366316 0.083032876 0.050836742 -0.14953513 -0.11819592 -0.12705679
-0.14384499 -0.105117306 0.100782566 -0.1764188 -0.24769254 -0.07074566 0.08047551 0.052641504
0.041535553 0.07326326 0.17664184 0.021160634 0.030779848 0.22232264 -0.08160632 0.08443532
0.051768135 0.23109232 -0.08434095 0.2324323 0.19872345 0.28659615 0.13265978 -0.050086908
0.0064843167 0.044456262 -0.036800485 0.894825 -0.06639275 0.10491138 -0.10394341 -0.029282924
0.08515822 0.16000217 0.13700768 0.0811091 -0.116030574 -0.09456066 0.13775942 0.15430266
00000000: cca1 ca3d 6ba9 2bbd 66d4 5fbe 5f8b 993d
00000010: 4efe 963d 2c90 413e 29ac d9bc 5762 cc3d
00000020: 16a5 11bc 6ed6 743d 7f7a a63d 8339 1f3d
00000030: 87d6 653d 7bd5 ca3d 9611 0e3e e96e f03d
00000040: 4250 e23c 737c 193d cced 193e 9769 49bd
00000050: f05d 2f3d aab0 27bd c765 773c 4f88 923d
00000060: 8455 483d 06d7 b53d cdd3 bc3e fdee d73d
00000070: 62b2 97bc bd67 b73d 9310 aebc f80d a83d
00000080: 154e 04be ebb0 c23c 67c9 c23d 4e5c 033e
00000090: 93c5 db3d 1bae 5a3e d9c8 333d f42f 553e
000000a0: e66b 17bd 45bb 113e 3408 1b3d 66c9 923d
000000b0: 2569 123e 3d5c 9a3e 8beb 1f3e d767 90bc
000000c0: ae31 25be edf0 bb3d daf9 cb3d 1ea2 1b3f
000000d0: f027 d1bb 90e1 343e e35d bf3d f181 363a
000000e0: 7372 19bc a49c 923e 7cef 013f 9d7d 9a3c
000000f0: f4f4 2b3e a450 5ebd 7729 183e 9fed 603e
00000100: 3002 58be d284 31bb 9f99 2a3d 1a52 2ebd
00000110: 261e 0bbe 1fea c43d 1a95 03be 6716 70bd
00000120: f63a 4bbd 0bfa cbbd 0c66 76be af3a 7a3e
00000130: 5584 83bd d0e1 163e 7f3a aabc 0342 0bbe
00000140: 46dd 8bbe 5c80 b63c b004 823d 1988 e7bd
00000150: fcb4 4bbc 2608 4ebe 5aa1 b9bd 0ace 74be
00000160: 003c f1bd 60aa a8bd df32 e03e 99f2 96be
00000170: ff99 98bc 4920 6ebe a8de 74bd 901d 44be
00000180: 484e a9bd 32e7 39bd 144f 61bd 5e4d 0fbc
00000190: 11b3 08bd 50ab 043d 5845 dbbd 56b7 9bbe
000001a0: 535c 21b9 5a67 49be 3f6f 86bd ff38 ba3c
000001b0: 31de 9fbd 479f a23c 0fc7 cabc 4322 00be
000001c0: 4223 c5bc e10c f1bd 56d4 05be 6708 543e
000001d0: daa5 8ebd 9744 1dbe 5e14 2fbe 1d5a e5bd
000001e0: 9c6d d7bc 6ad6 4d3d 6637 803e 55bd f1bd
000001f0: 32e9 a13d d046 1abe 4211 983d 6eda ca3c
00000200: 65c0 15bb 32cd 8a3d e65f 163e 4ff0 063e
00000210: 72e0 9938 de77 3c3c 4e68 963d 38b9 923a
00000220: ddb0 853d 1b88 173e c826 4d3d cc83 adbb
00000230: fb5a 803d 5545 563e 97bb 45bd 0faf 8abd
00000240: 6d4f fe3d 18a4 8dbd e15a 50bd 63cf 0d3f
00000250: 5f61 f43a 3218 323e 8203 87bd df4a 15bb
00000260: 0c75 183d 3cce 023e e8da 873e 0edc c4ba
00000270: 4ac6 5dbd a723 583d ca6a 803e 3fd1 ed3d
00000280: 0c56 30be 2ae0 0dba 690c 203e 3b03 6f3e
00000290: ad44 533c d3e9 423d b91d 24be ad0f 433e
000002a0: b620 193c fa15 1fbd 229f 0d3e beae f63d
000002b0: caa5 d6bb e994 083e 63c7 583d 7b06 a03b
000002c0: 732a 2a3e d388 24bd 7b81 933c 9838 8fbc
000002d0: b3a2 46bd 315b 093d 5481 9ebb b5a8 7cbc
000002e0: 29bf a3bc d0a0 22bd 75f4 443e ddec 3abd
000002f0: 0a9e 043e 00b3 1c3d 6848 223e 99cd bdbd
00000300: 04a3 febd 7d99 17be 8d6c 163d 2d21 e33d
00000310: 1e51 7539 659d 983c 4319 f1bd f8b5 5a3e
00000320: a041 12bd 0e63 34be caaf dcbd 93f8 fa3d
00000330: 9f7a 47be 3c92 de3c d867 a73c c091 c638
00000340: 4ffd 22be 11bf 6cbe 5197 27be 240d aa3d
00000350: 303a 503d bd1f 19be b410 f2bd 2d1b 02be
00000360: 1a4c 13be be47 d7bd 1767 ce3d 21a7 34be
00000370: 1da3 7dbe 1ae3 90bd 58d0 a43d 9e9e 573d
00000380: 2f21 2a3d 0c0b 963d 99e1 343e 1159 ad3c
00000390: 0526 fc3c 8ca8 633e 3721 a7bd 6dec ac3d
000003a0: d30a 543d 77a3 6c3e f3ba acbd bc02 6e3e
000003b0: 297e 4b3e bbbc 923e f7d7 073e ee27 4dbd
000003c0: 647a d43b c517 363d 1bbc 16bd 4013 653f
000003d0: ecf8 87bd c7db d63d 48e0 d4bd bee2 efbc
000003e0: 6f67 ae3d 9cd7 233e be4b 0c3e 871c a63d
000003f0: 70a1 edbd 05a9 c1bd ce10 0d3e 8401 1e3e

sequential/conv2d_2/Conv2D f4 [64, 3, 3, 64]
-0.08895241 -0.13377832 -0.13549237 0.06354798 0.01778258 0.08851406 -0.07312154 0.13896585
-0.30609655 0.015446726 -0.20712127 -0.17499834 -0.29135153 0.05265895 0.12431974 -0.23798364
-0.035519905 -0.024620902 -0.06804231 -0.024377927 -0.07614483 -0.05397308 0.04820599 -0.09003638
0.01145409 0.061248664 0.019545384 -0.29062226 -0.07559549 0.102659084 -0.15055114 -0.006492256
0.051095672 0.039309304 -0.04591659 -0.1461498 -0.2841846 -0.06514047 -0.12092036 0.07877402
0.049727663 -0.10981731 0.020624582 -0.30439475 0.1134547 -0.20729966 -0.1773475 -0.08137333
-0.13621052 -0.09124516 0.0052219583 -0.14761926 0.1358355 -0.002599485 0.08301894 0.04213926
0.2287179 -0.15555659 -0.10737651 0.10379928 -0.16797307 -0.034018014 -0.047317002 0.018185068
-0.124597795 -0.15603472 -0.025412342 0.13694887 -0.030667221 0.10456053 -0.163197 0.10420114
-0.2563916 -0.014635895 -0.16384716 -0.13303183 -0.34086907 -0.050096896 0.100713156 -0.41883454
-0.09115529 0.0194635 0.0035652963 0.13148196 0.007819555 0.069688514 -0.047198657 -0.17736454
0.008569238 0.12577203 0.038930826 -0.1755268 -0.18664739 -0.1325226 -0.21382627 -0.13685052
0.1410493 0.022653004 -0.14394331 -0.3590516 -0.16266741 -0.18228023 -0.05430514 0.017059257
0.030603576 -0.19597834 -0.14925179 -0.28239003 0.058863312 -0.16558243 -0.13920271 0.013614545
-0.08099609 -0.12361371 0.043559834 -0.12690912 0.0918982 0.030082513 0.07074769 0.054995906
0.11046833 -0.121041834 -0.16569051 0.027397119 -0.22297505 -0.06330636 -0.056645308 -0.016792614
-0.10495141 0.088611335 0.025661886 0.039903913 -0.12345438 0.03944363 -0.09011612 0.16312777
-0.024427949 -0.11156234 -0.0006750756 -0.02415565 -0.08306054 -0.34890902 0.113127075 -0.15297264
-0.109466486 0.107301086 -0.06432196 0.057046782 0.04261918 0.013332307 -0.23903689 -0.19397686
0.089719705 0.038067747 0.038755357 -0.06792234 -0.120980464 0.06195293 -0.021552559 0.13351052
0.145945 0.015692407 -0.10859281 0.046670977 -0.031302236 -0.09630121 0.0017496713 0.005677251
0.09505932 -0.028992789 -0.09899464 -0.14276059 0.06998036 0.0083682 0.071261674 0.18398665
-0.134047 -0.0271168 0.012210464 -0.044212367 0.07151456 0.12745795 -0.27478635 0.118550226
-0.06077399 -0.006283423 -0.0899113 -0.070061386 -0.065165594 0.040516224 -0.016153015 -0.04654162
-0.15285625 0.07040117 -0.15725774 -0.03408087 -0.009014172 -0.21714813 0.04810096 -0.08135913
-0.24381194 0.051067453 -0.10077541 -0.32980528 -0.39536873 0.1463208 -0.07360284 0.03075369
0.0014006111 -0.033780344 -0.08132438 -0.14455323 0.010233056 -0.041396163 0.06298021 0.0887005
-0.032369193 -0.110910736 -0.14990817 -0.07712447 -0.28196633 -0.07833215 -0.26311886 -0.24849491
-0.00806922 -0.040676694 -0.022238497 -0.17361088 -0.09188664 0.01546427 -0.17852959 0.12871705
0.011671632 -0.15043831 -0.096965246 0.057073932 -0.07010807 -0.1989689 -0.17830397 0.15784068
-0.1354332 0.051267702 -0.2100302 -0.005512367 -0.23054308 -0.12947647 0.0411345 -0.060540143
0.009932206 -0.16910057 -0.30454254 0.08213308 0.0061697015 0.008499425 0.12756969 -0.06704833
00000000: ae2c b6bd 2ffd 08be 83be 0abe 7125 823d
00000010: c6ac 913c dc46 b53d bfc0 95bd 104d 0e3e
00000020: b0b8 9cbe 4414 7d3c 9917 54be c432 33be
00000030: 072c 95be e9b0 573d 599b fe3d fcb1 73be
00000040: 527d 11bd c6b1 c9bc c459 8bbd 38b4 c7bc
00000050: d2f1 9bbd e012 5dbd a573 453d fe64 b8bd
00000060: efa9 3b3c e1df 7a3d a41d a03c 71cc 94be
00000070: cfd1 9abd ed3e d23d 142a 1abe febc d4bb
00000080: b249 513d cb02 213d 0913 3cbd 4ba8 15be
00000090: a580 91be 5e68 85bd 18a5 f7bd 4654 a13d
000000a0: 3caf 4b3d e6e7 e0bd e2f4 a83c a1d9 9bbe
000000b0: f05a e83d 5d46 54be 959a 35be 0fa7 a6bd
000000c0: c57a 0bbe bede babd f61c ab3b 8129 17be
000000d0: 7618 0b3e 1f5c 2abb d605 aa3d 379a 2c3d
000000e0: 0635 6a3e 3a4a 1fbe 37e8 dbbd b894 d43d
000000f0: 2201 2cbe 7956 0bbd 79cf 41bd daf8 943c
00000100: 212d ffbd 91c7 1fbe 8b2d d0bc 533c 0c3e
00000110: d339 fbbc d523 d63d 1d1d 27be 6867 d53d
00000120: c345 83be 65cb 6fbc 8dc7 27be 7f39 08be
00000130: 6486 aebe 6732 4dbd b342 ce3d 7b71 d6be
00000140: a0af babd eb71 9f3c bfa7 693b 35a3 063e
00000150: 971d 003c dab8 8e3d 6153 41bd 0d9f 35be
00000160: fd65 0c3c 62ca 003e ee75 1f3d 4cbd 33be
00000170: 7e20 3fbe 01b4 07be 46f5 5abe 8b22 0cbe
00000180: 3a6f 103e cb92 b93c e065 13be 9cd5 b7be
00000190: 4992 26be aba7 3abe 116f 5ebd dbbf 8b3c
000001a0: 5ab4 fa3c 8cae 48be 76d5 18be 6d95 90be
000001b0: a81a 713d 718e 29be 288b 0ebe 8a0f 5f3c
000001c0: 47e1 a5bd 2f29 fdbd cc6b 323d 77f4 01be
000001d0: 2035 bc3d 9a6f f63c 2ae4 903d 6343 613d
000001e0: 383d e23d c8e4 f7bd c6aa 29be ec6f e03c
000001f0: 9253 64be c4a6 81bd e904 68bd aa90 89bc
00000200: c4f0 d6bd dc79 b53d e038 d23c 4972 233d
00000210: a6d5 fcbd a58f 213d cd8e b8bd f70a 273e
00000220: 1f1d c8bc cc7a e4bd 8ef7 30ba 12e2 c5bc
00000230: a51b aabd 34a4 b2be 2baf e73d dca4 1cbe
00000240: f72f e0bd acc0 db3d 3bbb 83bd e3a9 693d
00000250: 7391 2e3d c06f 5a3c 16c6 74be dfa1 46be
00000260: f7be b73d edec 1b3d f0bd 1e3d de1a 8bbd
00000270: 9bc4 f7bd 5bc2 7d3d fe8e b0bc fbb6 083e
00000280: 9b72 153e 5d8d 803c e865 debd 112a 3f3d
00000290: c636 00bd 9239 c5bd 3a55 e53a 3c08 ba3b
000002a0: 76ae c23d 4982 edbc b4bd cabd d52f 12be
000002b0: dd51 8f3d c61a 093c a4f1 913d ff66 3c3e
000002c0: 9e43 09be 0d24 debc 660e 483c 0718 35bd
000002d0: 3a76 923d 5684 023e ccb0 8cbe 76ca f23d
000002e0: 26ee 78bd 2ce5 cdbb 6a23 b8bd 587c 8fbd
000002f0: 8a75 85bd 57f4 253d 5453 84bc 6da2 3ebd
00000300: 5986 1cbe 7d2e 903d 2c08 21be 6298 0bbd
00000310: 2db0 13bc 145c 5ebe 8305 453d 9e9f a6bd
00000320: d6a9 79be 1b2c 513d 5763 cebd 3ddc a8be
00000330: c56d cabe 1fd5 153e 16bd 96bd 2aef fb3c
00000340: b694 b73a 425d 0abd 668d a6bd c305 14be
00000350: 8ca8 273c 068f 29bd c5fb 803d 9ca8 b53d
00000360: 8f95 04bd 2b25 e3bd 8781 19be 6ff3 9dbd
00000370: e45d 90be 9b6c a0bd 84b7 86be 7375 7ebe
00000380: c334 04bc 9b9c 26bd 822d b6bc 0dc7 31be
00000390: 102f bcbd d95d 7d3c 76d0 36be 67ce 033e
000003a0: 5f3a 3f3c 800c 1abe b795 c6bd 5bc6 693d
000003b0: d294 8fbd 81be 4bbe 5195 36be fda0 213e
000003c0: 00af 0abe 15fe 513d 2812 57be 16a1 b4bb
000003d0: 7c13 6cbe 7b95 04be a67c 283d f1f8 77bd
000003e0: b1ba 223c b328 2dbe 00ed 9bbe 6335 a83d
000003f0: 352b ca3b 2c41 0b3c a1a1 023e a350 89bd

sequential/conv2d_3/Conv2D f4 [128, 3, 3, 64]
-0.009533849 -0.022574535 -0.09046472 -0.01771032 -0.027065104 -0.12514962 0.0307735 0.034615304
-0.08683376 0.05191358 -0.09906793 0.026866868 0.03020771 -0.18700303 0.03965364 0.18132532
-0.100272104 0.038705297 0.014090915 -0.052468855 0.0280862 -0.20983931 -0.03601502 -0.09736688
-0.18189013 -0.07841992 -0.008406314 -0.02358676 0.072306715 0.2607772 0.019086666 -0.008077079
-0.039138187 0.030246379 0.07316169 0.07929956 0.18794908 -0.037211746 0.013276645 0.06653521
-0.22615246 0.019246379 -0.0031923316 0.09375743 0.059791856 -0.16719377 -0.11106514 -0.09416512
-0.045558415 -0.028402107 0.16842519 -0.056359984 -0.06569608 -0.08391658 -0.27309623 -0.0067151277
0.032908786 -0.13770168 -0.13789985 -0.1600499 -0.07074019 0.026432684 -0.01809487 -0.091653876
-0.025275622 0.015903585 -0.119370006 -0.012380067 -0.05539188 -0.12459061 0.10134528 -0.06852851
-0.07297219 -0.04562969 -0.085108586 -0.19478902 0.06333588 -0.23308344 0.05652131 0.013309037
-0.1641373 -0.09489981 -0.053089447 -0.1571628 -0.010066771 -0.15574248 0.11409351 -0.11679682
-0.27543697 0.018125096 -0.030877512 -0.047966022 -0.028774045 0.23738725 0.01571825 0.020012079
0.07110438 0.08291706 0.10140778 0.118112445 0.12839563 -0.065806076 -0.090587676 0.014025962
-0.19919606 0.026338616 -0.06912705 0.06299847 0.06248009 0.13788821 -0.16152856 -0.19614364
-0.12343187 -0.028430063 -0.008409785 -0.14339519 0.008433143 -0.17546761 -0.24508342 0.039032247
-0.05152717 -0.06504155 -0.1762327 -0.18712686 -0.07303057 -0.008046715 0.10270002 -0.0597139
-0.0070666717 0.018037321 -0.28125915 -0.12864514 -0.086370155 -0.063529246 0.07230845 -0.033622816
-0.07292766 -0.044863373 -0.05470408 -0.17557141 0.011414273 -0.24464037 0.010760431 0.11642458
-0.11251739 0.047821663 0.17436051 -0.14272758 0.0535083 -0.08894891 -0.024662988 -0.22989593
-0.20019582 0.04012797 -0.022688568 -0.03568062 -9.41772e-05 0.13509817 -0.089333735 -0.022316277
0.007177122 0.2669451 0.06877371 0.03822451 0.13177724 -0.21160331 -0.016243733 0.030514708
-0.026919587 0.01451612 -0.096092485 0.24439715 0.06895958 0.17323285 -0.09575923 -0.0430469
-0.08789828 -0.104505986 -0.024063187 -0.27346385 -0.20982443 -0.16995764 -0.16624507 -0.0478463
0.067062356 -0.08791839 -0.05277052 -0.19862433 -0.040467795 -0.0189051 0.035262942 0.03690056
-0.070861354 -0.155098 -0.070858344 -0.0128776245 -0.21969506 -0.1192158 -0.08508948 -0.08768132
-0.0732094 -0.16463308 -0.02620938 0.08399611 0.045628924 -0.08447995 -0.15752183 0.012221103
-0.04320277 0.08069431 0.013574895 -0.13915862 0.04995004 -0.18458964 0.021854779 -0.2538332
-0.17159908 -0.21464545 0.001552735 -0.06286622 -0.23335443 -0.18557152 0.019282764 -0.15421073
-0.1264208 -0.045944728 -0.00077551295 -0.19587946 0.056299523 -0.09558104 -0.040391516 -0.055178363
-0.14409608 -0.063926205 -0.12266358 -0.05831755 0.03377893 -0.16038445 -0.098710544 0.059828848
-0.008105789 -0.07852141 0.035223007 -0.08303077 -0.20431237 -0.14851047 -0.19870418 -0.05341363
-0.087500215 -0.027813803 -0.012038984 -0.1517523 0.100669436 0.11155302 0.08671811 -0.048448108
00000000: dc33 1cbc 3bee b8bc 9145 b9bd 3c15 91bc
00000010: a3b7 ddbc 3927 00be b518 fc3c c7c8 0d3d
00000020: e6d5 b1bd 56a3 543d 20e4 cabd e817 dc3c
00000030: 2976 f73c b97d 3fbe db6b 223d 58ad 393e
00000040: 765b cdbd 7289 1e3d 95dd 663c 95e9 56bd
00000050: 0815 e63c 1ee0 56be 7c84 13bd 4968 c7bd
00000060: 6841 3abe 9f9a a0bd a3ba 09bc 0539 c1bc
00000070: 8b15 943d 9784 853e a45b 9c3c ba55 04bc
00000080: 5d4f 20bd 41c7 f73c ccd5 953d cf67 a23d
00000090: b975 403e 586b 18bd 4986 593c 9d43 883d
000000a0: 8394 67be 95aa 9d3c 7036 51bb e503 c03d
000000b0: 4ee8 743d d834 2bbe 1f76 e3bd a4d9 c0bd
000000c0: 769b 3abd 89ab e8bc a777 2c3e bad9 66bd
000000d0: ab8b 86bd 75dc abbd 45d3 8bbe 930a dcbb
000000e0: 5dcb 063d ab01 0dbe 9e35 0dbe 1fe4 23be
000000f0: 3ce0 90bd 5b89 d83c b13b 94bc 07b5 bbbd
00000100: d20e cfbc 3c48 823c 4378 f4bd c4d5 4abc
00000110: 99e2 62bd 5d29 ffbd 1d8e cf3d ad58 8cbd
00000120: 7272 95bd 33e6 3abd 694d aebd c676 47be
00000130: 3eb6 813d 6dad 6ebe e482 673d 260e 5a3c
00000140: 9c13 28be d55a c2bd 5274 59bd 49ef 20be
00000150: 19ef 24bc f57a 1fbe dca9 e93d 2c33 efbd
00000160: 1306 8dbe 157b 943c d6f2 fcbc 0578 44bd
00000170: 8cb7 ebbc a515 733e 8fc3 803c 5ff0 a33c
00000180: 2c9f 913d 6bd0 a93d e2ae cf3d f0e4 f13d
00000190: 257a 033e 56c5 86bd 0886 b9bd 26cd 653c
000001a0: 0dfa 4bbe 15c4 d73c 7c92 8dbd 5805 813d
000001b0: 1feb 7f3d 9132 0d3e be67 25be e1d9 48be
000001c0: d9c9 fcbd 2ae6 e8bc 32c9 09bc 30d6 12be
000001d0: 2a2b 0a3c c8ad 33be 26f7 7abe 47e0 1f3d
000001e0: 270e 53bd 8134 85bd 5876 34be 2f9e 3fbe
000001f0: 0d91 95bd 5ed6 03bc 6354 d23d 9096 74bd
00000200: 8a8f e7bb 01c3 933c 3301 90be 8dbb 03be
00000210: d6e2 b0bd 9f1b 82bd 7416 943d 14b8 09bd
00000220: 195b 95bd a8c2 37bd 6311 60bd fec8 33be
00000230: ee02 3b3c 0183 7abe 854c 303c 0370 ee3d
00000240: 846f e6bd a6e0 433d 908b 323e 2e27 12be
00000250: 852b 5b3d d92a b6bd 090a cabc d769 6bbe
00000260: 2200 4dbe 3a5d 243d 60dd b9bc d825 12bd
00000270: 0081 c5b8 2d57 0a3e 9bf4 b6bd a0d0 b6bc
00000280: 102e eb3b 07ad 883e 3bd9 8c3d 4e91 1c3d
00000290: 9df0 063e 8aae 58be 9411 85bc fbf9 f93c
000002a0: 7786 dcbc 05d5 6d3c 23cc c4bd 3f43 7a3e
000002b0: ae3a 8d3d f463 313e 6a1d c4bd f251 30bd
000002c0: 0304 b4bd 3c07 d6bd 2920 c5bc 7403 8cbe
000002d0: 37dc 56be 6009 2ebe 263c 2abe 7bfa 43bd
000002e0: fd57 893d 8f0e b4bd e725 58bd 2d64 4bbe
000002f0: 8fc1 25bd dede 9abc e06f 103d 0b25 173d
00000300: c21f 91bd 03d2 1ebe 2e1e 91bd acfc 52bc
00000310: bef7 60be 6a27 f4bd 6543 aebd 4492 b3bd
00000320: cfee 95bd 9395 28be 0eb5 d6bc 2706 ac3d
00000330: 65e5 3a3d d303 adbd 674d 21be 053b 483c
00000340: 63f5 30bd 0f43 a53d 3d69 5e3c 997f 0ebe
00000350: 6a98 4c3d 1105 3dbe cb08 b33c 6df6 81be
00000360: abb7 2fbe 04cc 5bbe 2485 cb3a 01c0 80bd
00000370: 77f4 6ebe 7606 3ebe e3f6 9d3c 6be9 1dbe
00000380: 7474 01be 8a30 3cbd cb4b 4bba a094 48be
00000390: 549a 663d febf c3bd 9371 25bd b502 62bd
000003a0: ec8d 13be beeb 82bd 0b37 fbbd 62de 6ebd
000003b0: c65b 0a3d d23b 24be c128 cabd 180f 753d
000003c0: 25ce 04bc d5cf a0bd 0046 103d 090c aabd
000003d0: 4337 51be 2113 18be 1c79 4bbe 40c8 5abd
000003e0: 5033 b3bd c6d9 e3bc 293f 45bc f464 1bbe
000003f0: c72b ce3d e975 e43d 4499 b13d 8671 46bd
