LaneFollowingModel/pruned/model.tflite (tflite, 555768 bytes, 11 tensors)

dense/bias f4 [64]
00000000: 6f65 8cbd 1ff3 523e 3632 c7bd 8dee fa3e
00000010: 458d 91bd 0be0 98bd 389e e8bd 5167 b03d
00000020: 12ec fb3d fc53 8f3e c321 68bd defc 06bf
00000030: 2c2d 8abd ba71 cd3d 9410 90bd 351c 523e
00000040: 90e5 0d3e 1b89 e33d 6fa2 4c3c 43b5 803e
00000050: 93d1 6ebd d6de 423e 701a 57bd eb4a 793e
00000060: 44f6 67bd 5031 763e 09f5 cbbc f057 73bd
00000070: 470d 573e 5d29 0bbe 7c65 bb3e 244b 49bd
00000080: 24f2 8fbd 69e4 5ebd b0a7 6a3e 7456 95bd
00000090: b0e2 463e 13f8 6c3e 43a5 b6bc 692d 7bbd
000000a0: 0d57 1ebe e0d4 81bd ff70 61bd 947a 813e
000000b0: a590 843e 19ef 663e 45ba cb3e cf98 9ebd
000000c0: e773 82bd 9830 843b 49a0 49be fb97 3c3d
000000d0: a06c 0d3e e429 bebd 768f 2d3d f630 f43d
000000e0: 57d3 8e3e 02e3 503e bb66 92be db32 343e
000000f0: b360 bebd 5a3b be3d 4627 11be 1c96 b7bd
-0.068552844 0.20600556 -0.09726374 0.49010125 -0.07107023 -0.07464608 -0.11358303 0.08613456
0.12300886 0.27993762 -0.056672823 -0.52729595 -0.06746897 0.10031457 -0.07034412 0.20518573
0.13857102 0.11110135 0.012489899 0.25138292 -0.058305334 0.19030318 -0.052515447 0.24344985
-0.05663134 0.24042249 -0.024897115 -0.059410036 0.21001159 -0.13589998 0.36600864 -0.049143925
-0.070286065 -0.054417048 0.2291553 -0.0729188 0.19422412 0.23141508 -0.0222956 -0.061322603
-0.15462895 -0.06339431 -0.055039402 0.25288832 0.25891605 0.22552146 0.3979055 -0.0774399
-0.06369763 0.004034113 -0.1969005 0.046043377 0.13810968 -0.09285334 0.042373143 0.11923401
0.27895615 0.20399097 -0.28594002 0.17597525 -0.09295788 0.09288664 -0.14175138 -0.08964178

conv2d_3/bias f4 [128]
00000000: 6bc0 b1be c31c 03bf 4ffa e5be 169a b8be
00000010: 977b fcbe 3d33 9dbe 32ab 4dbe 5b54 633e
00000020: 0119 09bf 2823 97be deb4 c6be 6158 19be
00000030: fcdd d9be 8ab8 3dbc 6adf 70be b82e b6be
00000040: a696 b1bd bf7d d7be c6d5 5dbe 844e 85be
00000050: 4707 c0be 3d0f 633c 03c9 91bd 70ab 30be
00000060: b016 33bd 6c80 8ebe 471d a9be 49e5 d9be
00000070: b4c9 703e c582 1cbe dfc7 fdbe ad31 bfbe
00000080: b54b 08be 95d7 febe a5c2 d5be 94e0 47bb
00000090: 36ee 69be b6f6 9dbe e345 33bf db2a fbbd
000000a0: aaa5 64be fc8a 90be 5759 8bbe 5ba6 a4be
000000b0: 4740 b2be 4626 9ebe 21b4 6bbe 9a5c d83e
000000c0: 3582 81be da3b 11bf 5381 de3d c679 9cbe
000000d0: 8476 fabd 7abe b5be 6849 acbe 6b7f 2cbf
000000e0: 6caa 2cbe 0976 2dbd 4915 07be a4c7 a8be
000000f0: 5cbf 3dbe 7aab a8be c000 95be 0817 d1be
00000100: 5527 f2bd 4739 1dbe 0acf 13be f863 18bd
00000110: 9467 4ebf 7ecf 013b 791d b6be 183a 19bf
00000120: 74af 563d c0ea a9bd f337 babe a889 f5bd
00000130: d511 46bf fd5f a7be 387c 85be 6db5 dcbe
00000140: f093 91be 3f2c a9be feb2 cabe 4bc5 73bd
00000150: df08 36bf 3b12 45be 215f e1be be89 81be
00000160: e0f9 45be 3a15 bebe 2dc5 a5be 9058 6ebe
00000170: 5138 d1be 6398 fbbd eb3f c4be 5d4d f1bd
00000180: f70b eabe efbf 2dbd 53d0 a3bd 9c6e b63c
00000190: b274 0abe 04bf 92be f5c9 c4be fbce b2be
000001a0: d55d 61bd 7627 7abe 5a08 8ebe 79f1 05bf
000001b0: fa6c c0be 3677 81be afbc eabe 899b dfbd
000001c0: ce8b a13e 68c3 973e 0674 abbe b730 6fbe
000001d0: 134f a6be 351e 733d 2232 92be 8289 07be
000001e0: 1266 0cbf 13dd 8cbe 30ca bfbe b602 093d
000001f0: 391b 41bd a8e9 1dbf abd3 1bbe 8a73 f2bd
-0.34717116 -0.5121576 -0.44917533 -0.36055058 -0.49313042 -0.30703154 -0.20084837 0.22200148
-0.5355378 -0.2951901 -0.38809866 -0.1497512 -0.42552173 -0.011579642 -0.23522726 -0.3558252
-0.08671312 -0.42088124 -0.2166358 -0.26036465 -0.37505552 0.013858614 -0.07118418 -0.17252898
-0.04372281 -0.27832353 -0.3303015 -0.42557743 0.23514444 -0.1528426 -0.49566552 -0.37342587
-0.1331013 -0.4977385 -0.41750064 -0.003049885 -0.22844777 -0.30852288 -0.70028514 -0.122640334
-0.22328821 -0.28231037 -0.27216598 -0.3215817 -0.34814665 -0.30888575 -0.23017932 0.4225815
-0.25294653 -0.5673195 0.108645104 -0.30561656 -0.12229636 -0.35496885 -0.33649755 -0.67381924
-0.16861886 -0.042348895 -0.13191713 -0.32964814 -0.18530029 -0.32943326 -0.29102135 -0.40837884
-0.11823908 -0.15353881 -0.14434448 -0.037204713 -0.806268 0.0019807513 -0.3556936 -0.5985427
0.05241342 -0.08296728 -0.3637081 -0.119891465 -0.7737096 -0.3269042 -0.26071334 -0.43107167
-0.2843318 -0.3304157 -0.39589685 -0.059514325 -0.71107286 -0.19245236 -0.4401789 -0.253004
-0.19333601 -0.3712557 -0.32376996 -0.23275971 -0.40863279 -0.12284925 -0.38330016 -0.11782334
-0.45712253 -0.04241937 -0.07998719 0.02226954 -0.13521078 -0.28661358 -0.3843533 -0.3492354
-0.055021126 -0.24429116 -0.27740747 -0.52321583 -0.37583143 -0.25286263 -0.4584708 -0.10918338
0.31551975 0.2964127 -0.33486956 -0.23358427 -0.32482204 0.05935498 -0.28553873 -0.13236049
-0.54843247 -0.27512416 -0.37458944 0.03344985 -0.047145102 -0.61684656 -0.15217464 -0.118384436

conv2d_2/bias f4 [64]
00000000: 7e31 26be 204a b6bc 056f 0cbf 0f11 94bd
00000010: d2e9 10be 26d9 b7bd 0e7e a7be 96c6 e1bc
00000020: b57b a5bd d0fb 1abc aafe c0be 9118 71be
00000030: 478f 8fbe d4af 5fbd f2e1 38be 159d 27bd
00000040: f313 b4be 57f5 88be b3bb 64bc fdb3 68bd
00000050: 7d08 0ebe 6e5f 223d 22ed a1be 3f33 4cbe
00000060: 69e6 20be 438b 17be 9024 c0bc c829 a0bc
00000070: cee6 6abd b29c c3bd 81e1 c23e fa61 02be
00000080: 2f06 b3be 6d15 ccbd a7b2 4fbe 8780 45be
00000090: 4c22 f8bd 2ced 893e 1a71 c0be f193 26be
000000a0: ffdc 51bd 445a e9be 5acf 72be ad75 aebe
000000b0: a1ce 43be 9613 fbbc 63f4 8fbe b967 81be
000000c0: 2aac 67bd 60ba 03bd 0fcc a4be 4b3d a0be
000000d0: 8d64 ccbe a48e babe ab74 ffbd a78b 8fbe
000000e0: 7f43 e7bd c414 d0bc 7bbc 6abe d176 0dbf
000000f0: 9554 49bd cfa2 13bc fe0d adbd 6bfa e0be
-0.16229817 -0.022252142 -0.548569 -0.07229816 -0.14151695 -0.08976965 -0.3271336 -0.027560513
-0.08080236 -0.009459451 -0.37694293 -0.23544528 -0.28039 -0.054611042 -0.18054941 -0.04092129
-0.3517147 -0.2674968 -0.013960767 -0.056812275 -0.13870426 0.03964179 -0.3162623 -0.19941424
-0.15712894 -0.14799218 -0.023454934 -0.019551173 -0.05734902 -0.09551372 0.3806267 -0.12732688
-0.34965655 -0.09965024 -0.20282994 -0.1928731 -0.121159166 0.2693876 -0.3758629 -0.16267373
-0.05123615 -0.4557668 -0.23711911 -0.34074154 -0.19121791 -0.030648988 -0.2811614 -0.25274447
-0.056560673 -0.032160163 -0.32186934 -0.31296763 -0.39920464 -0.3643695 -0.124734245 -0.28036234
-0.11292171 -0.025400527 -0.22923462 -0.55259424 -0.04915293 -0.009010985 -0.084499344 -0.43941054

conv2d_1/bias f4 [64]
00000000: a123 a4be db29 01bd 014b 91be e1d5 9fbd
00000010: 98bd b4bc 3c34 39bc 84ea c5bc 7c66 d8be
00000020: 9f46 c5be 6e40 76be db1f dfbd 4081 c5bd
00000030: e86e 8dbc 6af9 18bd c5f0 b3bc b99e 9dbd
00000040: b4fa acbe ba73 05bd e308 a3bd 8f9d c3be
00000050: 084b dbbe 28f7 79be cb7b b3bd 4b20 e4be
00000060: 6148 93be cfbc 58bd d660 a1bd b92b 54bc
00000070: f4ab 4abd de16 0cbe 358a 97be cad4 6fbe
00000080: e6b3 bebd 0463 cabe 4a8a f6bd f8d4 d0bd
00000090: 4049 29bd 9904 95be 0a1c 64bd 8df6 4fbb
000000a0: af64 97bd 89ad a6bd 8f5e 1cbe c662 84bd
000000b0: a299 abbd a3bd 72be edb5 46be 7a07 f2bd
000000c0: 74be 89be 7829 b7be 548d 4abe b1bc 35be
000000d0: 1620 07bd 36d3 a8be 73b8 4dbd 6160 c1bc
000000e0: b5a8 b9bc 4f9f a5bc ee57 f3bc f04b b1bd
000000f0: a361 11bd 260b 21bd 09f5 22be f61b 75be
-0.32058433 -0.031534057 -0.28377536 -0.07804466 -0.022063062 -0.011303958 -0.024159677 -0.4226569
-0.38530442 -0.24048015 -0.10894748 -0.09643793 -0.017264798 -0.037347235 -0.021965394 -0.076962896
-0.3378502 -0.03258107 -0.079606794 -0.38206145 -0.42830682 -0.24410689 -0.08763846 -0.44555888
-0.28766158 -0.052914437 -0.07879798 -0.012949877 -0.049480394 -0.13680598 -0.2959763 -0.23421016
-0.09311657 -0.39528668 -0.12038095 -0.101968706 -0.041329622 -0.2910507 -0.055690803 -0.003173265
-0.07392251 -0.08138568 -0.15270446 -0.06464152 -0.083789125 -0.23705153 -0.19405337 -0.11817832
-0.26903117 -0.35773826 -0.19780475 -0.17747761 -0.032989584 -0.3297364 -0.050224733 -0.023605527
-0.022663454 -0.020217566 -0.029705014 -0.08657062 -0.035493504 -0.039317273 -0.15913786 -0.23936448

conv2d/bias f4 [32]
00000000: df15 8fbe b9a2 f2bd 0362 8cbd cd24 f4bd
00000010: 4b50 fcbd cbf7 31bd f3bb e0bd 1ee8 41be
00000020: 6bec 47be de7a 2bbe 0df9 4dbe 7712 f6bd
00000030: 165a 18be c883 e4bd 380e 64be d9fd f2bd
00000040: b9f0 4ebd 20a6 03be d101 f8bd c016 f7bd
00000050: 026c adbe 62fc 74be b8a2 dabd 2835 75be
00000060: c7ce 2fbe 0bd4 39bd e243 94bd 1cc2 08be
00000070: 6834 4fbe 24b0 8fbd c535 2ebe 2ec4 51be
-0.27946374 -0.11847443 -0.06854632 -0.11921082 -0.12320002 -0.043449204 -0.109733485 -0.18936202
-0.1952378 -0.16746089 -0.20114537 -0.12015241 -0.14878115 -0.11157948 -0.22271049 -0.11864824
-0.05052254 -0.1285634 -0.121097215 -0.12064886 -0.33871466 -0.23924401 -0.106755674 -0.23946059
-0.17168723 -0.045368236 -0.0723951 -0.13355297 -0.20234835 -0.07016018 -0.17012699 -0.20484993

sequential/dense/MatMul f4 [64, 128]
00000000: ab5c 60bc cbbb 3abe ba1f 9fbd 23de d73c
00000010: 567a 98bd c9bf f6bd 80ee 05be 8b7b ebbd
00000020: 2826 90bd edbf 7c3d f1a9 d83d 8c64 6abe
00000030: 5524 d5bd 7f1d e93d b49d 7fbd 1a99 cebd
00000040: 8a86 3fbe 531c 3b3d 811e 46bd 3e0b 5abe
00000050: ea5e 3abd 8925 e9bd 1c56 41bd 0260 c8bd
00000060: 2903 b13d bfbc d33c 295f 953d a05d 2dbe
00000070: 1dc6 57be e271 10bd 6d14 e239 6db6 fdbd
00000080: 4f39 5cbe 03e2 83be 93d8 c2bd 10f8 903d
00000090: 297d b3bd 48b6 8c3d d90b 3fbe 023a 3bbe
000000a0: fd9b c43d 2e95 c93c 90fb a03d 1f88 02be
000000b0: f8da 3bbe b624 f3bd fea9 07be 9510 ddbd
000000c0: 7d39 05bc a2dc 60be 4843 41be 2b9c 8c3d
000000d0: 940d b4bd 2c78 28be 0c6e d83d be07 003e
000000e0: 3cfd 07be 059e 9d3d 28a1 b83d 7ca7 67bd
000000f0: 3e61 8a3d 65e2 efbc ca8d 65bd dad3 38be
00000100: 68ba 16bc a3f6 b03d 3ecc f6bd 3c72 8cbc
00000110: 7068 ca3b 53a2 66be 0d0d 99bc b119 8ebd
00000120: 9eb4 59be 7c11 77be 2777 1cbd 7987 36be
00000130: c8e3 e6bd 3ae6 e43d 311b 48be 1e78 a13d
00000140: f454 66be b317 f6bd 921b 0fbc b0d0 ebbd
00000150: 5443 66be 5224 39be 1a14 08be 75c1 c83d
00000160: faaf 44be 244a 48be d132 00bd 0bcb 08bc
00000170: a812 4fbe d375 003d b544 0d39 cb50 c1bc
00000180: 359f febd 4582 22bd cbc4 babd 9bb9 69be
00000190: 1840 65be 03cb 27be 935f a8bd fa7d 26be
000001a0: f39e 4a3d 832e 1ebe bec6 1bbe 14c9 943d
000001b0: 5419 43be cbcb efbd f95d 40bd 7eea 3b3d
000001c0: e533 0dbe a72d a03d ae94 8e3d 2e62 c7bd
000001d0: 0774 a93d 473a 6b3d e546 a4bd 0867 99bd
000001e0: 531d 113e cbaa f3bd ce0d 953d ed3b 433d
000001f0: e906 78bd 5da0 aabc a03b 8cbd 5193 20bd
00000200: 12dd cdbe 6038 efbb 5cf7 87be 51c9 e1bc
00000210: 03c8 89be dbe3 4ebd 60e7 e7be 1940 ec3e
00000220: cd9b 51bf c7a9 1ebf 2169 e5bd 616a d5be
00000230: 5ff2 4cbf 5392 4c3d 0e21 9abd 8d78 bd3e
00000240: 33fd 95be d690 9fbe 2c13 6d3e ae2e 8e3e
00000250: 4b75 8dbe 365a 50be dcd8 1dbe 76ca 7e3c
00000260: 0d96 c13d c337 afbd 7caf b4bd 31fa b53d
00000270: 9d52 de3d 5ef3 5f3e 44c6 a4be df54 51be
00000280: 4468 03bf 2716 5e3e acbe fcbe 0cf5 86be
00000290: 298a b8bd 0fb2 b9bd f4c9 14be 15b8 86be
000002a0: 4f1a b13d 320e 0fbf 1323 a5be 9534 523d
000002b0: 098e 78be 1e26 a83b c5b9 94bd 5fd1 543d
000002c0: 5930 5cbd 9def 9f3c 1d02 873c 2e07 d2be
000002d0: f68c 71ba 3dd4 67be e8c8 fa3e ffd4 693c
000002e0: 3d31 52bf e47f 293f 30fa a33d 426c d3be
000002f0: 6e5c ae3e b02b a1ba 5675 5f3c 4a91 35bf
00000300: 6b46 75be bb65 b5be 3e8a 213d aa05 523e
00000310: 7fa2 c1be acd1 2cbe a89c 95bf e341 c33e
00000320: cf65 cdbc 2dd8 ad3c c2fc 263f 994c cb3e
00000330: 58c0 0bbe 4d3c cbbe 5cc0 92be 6bea f5bd
00000340: 545e 06be fc71 943e f273 5ebe 65b9 70be
00000350: 15fc 37be 589d a63e 8d7b 243f a9c3 02bf
00000360: 0224 753e de34 823e db78 8abf 7eca 07be
00000370: d2b9 0fbf a644 253f fada b33e 056c d5be
00000380: 5fb9 e03d e99b 883e 6829 de3d 0328 f6be
00000390: 3b06 5d3e 6d2d d0bd 8d4c dbbc 4fb0 3cbc
000003a0: 5244 91be c1e9 9dbf a547 763c 5b39 8bbe
000003b0: 6e02 4f3f f7b5 183d 5b02 2abe a20c 093f
000003c0: 3215 993c 5063 5b3e cc91 003f 784c 76be
000003d0: f03f 19bf aa14 0e3e 38e4 e8be 7871 0d3e
000003e0: 0c63 20bd 2749 3c3f 6a19 993e 0267 833e
000003f0: 57bc 663e 5715 13bf 0fe1 a63e ef86 4e3d
-0.013693969 -0.182357 -0.07769723 0.02635104 -0.07445209 -0.12048299 -0.13079262 -0.11498173
-0.07038528 0.061706472 0.10579289 -0.22889918 -0.104073204 0.11382579 -0.062406257 -0.100877956
-0.18703666 0.04568131 -0.048368935 -0.21293351 -0.045500673 -0.113841124 -0.04720126 -0.09783937
0.08643181 0.025846837 0.07293541 -0.16930246 -0.21071668 -0.035264857 0.00043121297 -0.123883106
-0.21506236 -0.2575837 -0.095139645 0.07078564 -0.08764107 0.06870705 -0.18656863 -0.18283847
0.09600065 0.024607267 0.07860482 -0.12747239 -0.18345249 -0.118722364 -0.1324844 -0.107941784
-0.008131382 -0.21959165 -0.18873322 0.06865724 -0.08791652 -0.16452092 0.10567865 0.12502953
-0.13280195 0.076961555 0.09015113 -0.05655621 0.06756829 -0.029282758 -0.056043424 -0.18049565
-0.009199716 0.08640792 -0.12050675 -0.017144315 0.0061770007 -0.2252286 -0.01868298 -0.06938494
-0.21260306 -0.24127764 -0.03819957 -0.17825116 -0.112739146 0.11176725 -0.19541623 0.07884239
-0.22493345 -0.12016239 -0.008734601 -0.11514413 -0.22486621 -0.18080261 -0.13288918 0.09802524
-0.19207755 -0.19559532 -0.031298462 -0.0083491905 -0.2022196 0.031362366 0.00013472403 -0.023598095
-0.1243271 -0.039675016 -0.091195665 -0.22824709 -0.22387731 -0.16386037 -0.08221354 -0.16258994
0.049467992 -0.1544743 -0.15212533 0.07264915 -0.1905263 -0.11708792 -0.04696462 0.045877926
-0.13789327 0.078212075 0.06961952 -0.09735523 0.082740836 0.057428624 -0.080213346 -0.07490355
0.14171343 -0.118978105 0.07278024 0.04766457 -0.060553465 -0.02082842 -0.0684731 -0.039202992
-0.40207726 -0.0073004216 -0.26555908 -0.027561815 -0.2691041 -0.05051027 -0.45293713 0.46142653
-0.8187836 -0.6197781 -0.112016924 -0.41682723 -0.8005733 0.049944233 -0.07525836 0.37006035
-0.29294738 -0.3116519 0.23151845 0.2776999 -0.2762855 -0.20346913 -0.15414757 0.0155512
0.09452448 -0.085555576 -0.088225335 0.08885611 0.10855601 0.21870181 -0.32182515 -0.20442532
-0.5133097 0.21688138 -0.4936422 -0.2635883 -0.09010727 -0.09067165 -0.14530164 -0.26312318
0.08647596 -0.55881035 -0.32253322 0.051319677 -0.24272932 0.005131497 -0.07261995 0.051957484
-0.053757045 0.019523436 0.0164805 -0.41021103 -0.0009214425 -0.22639556 0.48981404 0.014271974
-0.8210638 0.6621077 0.08006704 -0.41293532 0.34054893 -0.0012296345 0.013638815 -0.7092482
-0.23952644 -0.35429177 0.03943848 0.20509973 -0.37819287 -0.16876858 -1.1688433 0.38136205
-0.02507296 0.021221245 0.6522943 0.39706877 -0.13647592 -0.39694443 -0.28662384 -0.12007602
-0.13121921 0.28993213 -0.21723917 -0.23508222 -0.17967255 0.3254192 0.64251024 -0.51079804
0.23939517 0.2543096 -1.0818132 -0.13260838 -0.56142914 0.64557874 0.35128003 -0.41683975
0.10972857 0.2668145 0.10847741 -0.48077402 0.21584408 -0.10164914 -0.0267699 -0.011516645
-0.28372437 -1.2336961 0.01503173 -0.27192196 0.8086308 0.03728291 -0.16602461 0.535349
0.018686865 0.21424603 0.5022247 -0.24052608 -0.59863186 0.1387507 -0.45486617 0.13812816
-0.03915696 0.7354912 0.29902202 0.25664526 0.22532783 -0.57454437 0.3259358 0.05042165

sequential/dense_1/MatMul f4 [1, 64]
00000000: 55dc 893b 87d6 6d3e facc 13bd 8958 13be
00000010: d604 383e ca55 dc3d fc51 f8be 156c 393e
00000020: 1d1d e93d a595 86be 93fe 14bc a5d0 c13e
00000030: 72ca eb3b 886b 893d 8b08 3fbe 6775 a43e
00000040: 8a7b 963d 9634 163e eec1 d2bd 6bec cf3d
00000050: 15e0 253c 1fde 6dbe 9354 123e 8d1d a73e
00000060: 088f 193e e38a 643e 7273 ca3d 2cb3 dcba
00000070: c95b 01be 0cae 313e 71ab b1bd e042 74be
00000080: 0771 00be ebd7 8c3d b8e9 7a3e 4f66 29be
00000090: 34b7 a9bd 6f59 e53e d1ee 88be ffe2 e13d
000000a0: 9064 f4bd 47d8 523b 1eee 20be d830 b43d
000000b0: 40de 0abf d4c6 c1be 4eb6 d5bd 528f 39bc
000000c0: 95ca 093e e466 bdbc 8ce0 0ebe 9efa 453e
000000d0: aea0 0ebe 475b 403e 9c6b 1f3e 2f5f aebe
000000e0: 4502 f43d 967a ad3e c7c7 09bf 49ae 5ebe
000000f0: 7ea6 07be ddf2 25be 2eb0 db3a d223 b5bd
0.004207174 0.23226367 -0.036084153 -0.14389242 0.17970595 0.107585505 -0.4850005 0.18107636
0.11382506 -0.26286045 -0.009093898 0.37854496 0.007195764 0.06709963 -0.18655603 0.3212082
0.07347782 0.14668497 -0.102908954 0.10152515 0.010124226 -0.23229264 0.14290075 0.32639733
0.14995968 0.22318606 0.09885301 -0.0016838065 -0.1263267 0.1735155 -0.08675278 -0.23853636
-0.12543117 0.068771206 0.24503219 -0.16542934 -0.08286896 0.44794795 -0.26744702 0.11029624
-0.11933243 0.0032172368 -0.15715834 0.08798379 -0.54245377 -0.37847006 -0.104351625 -0.011325674
0.13456185 -0.023120351 -0.13952845 0.19333884 -0.13928482 0.1878482 0.15568393 -0.34056994
0.119144954 0.33882588 -0.5382046 -0.21746172 -0.13247105 -0.16205926 0.001676088 -0.08844723

sequential/conv2d/Conv2D f4 [32, 3, 3, 1]
00000000: 4ca1 d53d fcc8 08be 0ae3 393e 113b 833c
00000010: d619 1dbc db92 b13c 71bf 2bbf c3ad 103f
00000020: 1ca3 51bf df0c f6be a8b1 7dbe 061c f0be
00000030: 4798 693e ccae 2d3e cb78 44bd 8415 9abd
00000040: c620 2ebd 9e10 973d df65 2ebe 6ce8 debe
00000050: 4cde 01bf 1524 14bf 199e c5be 08fa 913e
00000060: 77df 3f3d d5d0 213e 287f 33be b087 70be
00000070: 7b06 8dbd d338 30be ea61 a5bc 3417 5cbe
00000080: fa19 433d 4b37 eb3c 2a41 233d 99d0 d4bd
00000090: ad4a acbc b6b7 a53d 5f23 8a3e ad90 b1be
000000a0: f264 b4bd 02d1 373e 322b a0be de3f 7bbd
000000b0: 6bc5 fcbd 3c74 dcbe 7671 40be 855c d6be
000000c0: cf11 c8be c79a 44be 6314 a4be 96e8 bebe
000000d0: 0a5e b73e c075 c8be bae8 903e 8706 f4be
000000e0: 8f1b 63be 989b bbbe 6b6a a23c 1d89 2cbd
000000f0: 8b98 c23d d8a0 8dbd d7b0 b4be 22fa 3e3c
00000100: 8c0c 93bd 5838 933c 92ec 8b3d d703 c1bd
00000110: 09f9 743d 6b31 40bd 78b4 b63c 2ef2 cdbd
00000120: dd0a aa3c f841 993c a4fe 293d d9f9 a43e
00000130: 8d8f ecbc 0bda fbbe 05b4 1fbd 7003 823b
00000140: 8a40 fa3d 3dae 43be 7706 bdbe 5e9f a13e
00000150: 881f 823e 42b2 503e 7af1 babe 86e8 233c
00000160: a3aa bfbd 36d4 233e d658 283d c9a9 aa3d
00000170: 82d7 8d3d 3f0c 24bd 0ad4 a9bd 0887 d9bd
00000180: 535d d4ba 939d 60bd 786a 56bd e5c2 b9bc
00000190: 6755 463e 4b4b f9bd 032b ca3e 8b09 82bf
000001a0: ea84 b93e 1e99 a7bd 89f0 c7be 5c55 64bc
000001b0: cad6 60bd ad0f 7dbd 6c9b f93d cdff f83c
000001c0: d28e 953e d83d fcbe 75b6 cb3d 798d 9d3e
000001d0: e813 b2be feb0 04be 755e 4b3e 9f0f 97be
000001e0: b33b 71bd 02d1 333e 1a3d 4abf 1219 4fbe
000001f0: 6052 eebd 80cb c73e 7340 8cbe 079c f1bd
00000200: b8c3 903e 495c 21bf a822 5f3e 8d84 92bd
00000210: 9146 c0bc 59d1 833e 7002 65be 5cc0 eabc
00000220: 7e47 f3bb 849f 35bb af10 4c3e 37b3 763e
00000230: ea28 36bc 5451 58bd 42a8 03bf 8769 5dbe
00000240: 5cd7 3b3d af27 66bd 7f7d 65bd ec0d e6be
00000250: 6a3d 36be c349 babe 3c75 e33e 664a 0cbf
00000260: ed71 91be 023b e8bd 86e0 13bd 7886 8abc
00000270: feb9 04bd 3e15 c63d 00b3 21bd 4ef1 50bb
00000280: ad99 e93c e684 4ebd 54fd 9d3d 1127 05be
00000290: 4364 ccba a0db 16bf 1807 2cbe a54e dfbe
000002a0: 3ea7 233e 8e43 5c3e 2050 583d ab02 cd3d
000002b0: 6929 1dbd 15b6 debe 5531 b33e 9529 4cbd
000002c0: e499 e3be f78e e0be 2017 e3be 5e50 d9be
000002d0: 5eee f53d 9abd 023e 44d7 20bd 0da1 193d
000002e0: c493 d03d 7afa f33d 304b 5b3d 892c b63b
000002f0: 4d15 b53d 6620 95be c40f 9d3d 5c94 d8bd
00000300: 32f1 88be ad5e 9a3d 440c 983d 8a18 283c
00000310: ad99 a8ba a5fc 98bd fa89 393e 39f2 e4be
00000320: 368a 443c 5002 5fbd 38eb 22bf 1cb6 3abd
00000330: 61c3 d33d b88e ecbd b0b6 75be 35d4 debc
00000340: b46e 563d a0b7 04be 952a 9d3d 001a 83bd
00000350: 8aa6 6f3d 7e34 1c3d fac1 f03b 430b 79bd
00000360: d87c 90be 5d52 babe 3c9b eebd e9b5 df3c
00000370: 517e a0be c49c 2bbb 91ce f93c cc22 d6be
00000380: 4923 673e 2462 9b3e b341 393e 164c 16bf
00000390: 13ab 10bf e8e9 c4bd c33d ae3d e225 35be
000003a0: b1bd 70be 4451 b53e 09ec 29bf c9ba 2cbe
000003b0: a100 d73e 6dde 183e fffe 00be d321 81be
000003c0: a223 4c3e 91bc 0ebd 536d 8cbe 449b 3c3d
000003d0: 7add 92bd 7726 17bf 4eb5 9abe 6d51 bb3e
000003e0: 9981 aebd cf49 7abe b827 233e e0e2 8f3d
000003f0: 2553 d9bd 64d6 643c 0b94 653c d98d 883d
0.104311556 -0.1335792 0.18153015 0.016019376 -0.009588679 0.021676471 -0.6708899 0.5651514
-0.8188951 -0.48056695 -0.24774802 -0.4689638 0.22811995 0.16961211 -0.04796676 -0.07523635
-0.042511724 0.07376216 -0.17031048 -0.435367 -0.50729823 -0.57867557 -0.3859718 0.2851107
0.046843972 0.1580232 -0.17528975 -0.2348926 -0.06886002 -0.17209177 -0.02018829 -0.21493226
0.047632195 0.02871289 0.039857067 -0.10391349 -0.021031702 0.08091681 0.2698011 -0.3468069
-0.08808316 0.17950824 -0.31282955 -0.061340205 -0.12342342 -0.4305743 -0.18793282 -0.41867462
-0.39076087 -0.19199668 -0.32046804 -0.37286824 0.35813934 -0.39152336 0.28302556 -0.4766123
-0.22178482 -0.36642146 0.019826135 -0.04212295 0.095017515 -0.06915444 -0.35291168 0.011656316
-0.071801275 0.017971203 0.068322316 -0.094245605 0.05980781 -0.04692213 0.022302851 -0.10055958
0.020757133 0.018708214 0.04150261 0.3222187 -0.028877044 -0.4918979 -0.03899004 0.003967695
0.12219341 -0.19109435 -0.36918995 0.315669 0.2541468 0.203805 -0.36512357 0.010004168
-0.09358718 0.15998921 0.041100346 0.08333165 0.069258705 -0.04005074 -0.08292396 -0.10621458
-0.0016202129 -0.054837774 -0.05234763 -0.02267594 0.19368516 -0.12172564 0.3948594 -1.0159162
0.36234218 -0.08183502 -0.390507 -0.013936367 -0.05489234 -0.061782528 0.121878475 0.030395413
0.29210526 -0.49265933 0.0994691 0.30771998 -0.34780812 -0.12958142 0.19860251 -0.29504105
-0.058894824 0.17560199 -0.78999484 -0.20224407 -0.116368055 0.39022446 -0.2739292 -0.11797338
0.28274322 -0.6303144 0.21790564 -0.07154188 -0.023471149 0.25745657 -0.22364211 -0.028656177
-0.007424294 -0.0027713487 0.1992824 0.24091803 -0.011118153 -0.052811936 -0.51428616 -0.21622287
0.04585968 -0.05619019 -0.056027886 -0.44932497 -0.17796865 -0.363844 0.4442538 -0.54801023
-0.2840723 -0.1133938 -0.036102794 -0.016909823 -0.03240394 0.096720204 -0.03947735 -0.003188211
0.028515661 -0.05041971 0.07714334 -0.13003184 -0.0015593845 -0.5892887 -0.16799581 -0.4361469
0.15981767 0.21510145 0.05281079 0.100102745 -0.03836957 -0.43498293 0.34998575 -0.049844343
-0.44453347 -0.43859074 -0.4435358 -0.42444128 0.120083556 0.1276764 -0.039267793 0.037507106
0.10184434 0.11913009 0.0535385 0.005559508 0.088419534 -0.2912628 0.07669023 -0.10575172
-0.26746517 0.07537589 0.074242145 0.010259757 -0.0012863182 -0.07470063 0.1811904 -0.4471605
0.011995843 -0.054445565 -0.63640165 -0.04558383 0.1034 -0.11550659 -0.23995471 -0.027200798
0.05235167 -0.12960672 0.076741375 -0.064014435 0.058508433 0.038135998 0.0073473426 -0.060801756
-0.28220248 -0.36390963 -0.11650702 0.027308421 -0.31346372 -0.002618597 0.030494006 -0.41823423
0.22572054 0.30348313 0.18091469 -0.5870985 -0.5651104 -0.096149266 0.08507874 -0.17690232
-0.23509862 0.35413563 -0.66375786 -0.16868128 0.41992667 0.14928599 -0.12597273 -0.25221118
0.19935468 -0.0348478 -0.27427158 0.04604651 -0.071711496 -0.5904307 -0.3021645 0.3658556
-0.085208125 -0.24442218 0.1593312 0.07025695 -0.10611562 0.01396713 0.014012347 0.0666768

sequential/conv2d_1/Conv2D f4 [64, 3, 3, 32]
00000000: 615d 2d3e eab1 80bd 21e7 eabe 98f0 e73c
00000010: 9bc4 1a3e 0316 26be 1fc1 bf3e 93b5 fbbc
00000020: 7f3b 633e f2c0 743e bb56 d8bc 4a79 c53e
00000030: f257 28be 1b27 38be 658a 183f 30db 1d3e
00000040: 1558 96bd f406 453d 75ef 6cbd a75a ab3e
00000050: 2b0f 90be c2fa 4f3e bca4 883e 65e0 9dbd
00000060: 4248 b3be d15d ffbc 3187 133f f305 303e
00000070: 6323 303d 9964 9dbd bf9c 84be 1fc8 043f
00000080: 6180 8bbe 13ca 7f3e 26b6 8bbe fc71 9ebc
00000090: cfca febe a116 4ebc 355f b53e a9cc d0bc
000000a0: b7d0 4fbb 6819 13bd d01e 08be bf77 c03d
000000b0: cd6d bf3d 31e8 72bd e29a 543e 29d6 27be
000000c0: 6879 d6bb 793c f43d f358 f2bc 750d 58bd
000000d0: 87f1 54be 7946 4e3d 07b9 a93e cac0 553d
000000e0: 7307 2abf 1109 183e 7377 8dbe b3f6 c3be
000000f0: 64ee 2dbd 46fe 1dbf 85d7 993d 6844 233d
00000100: 843d 73bf 2d6a 86bd 4b41 14be baea 3cbd
00000110: fb93 87bf b864 9fbe a2c4 b53d 0f70 6cbe
00000120: 10ca ad3c 7ab1 963e 2870 11bf 1edb 3dbe
00000130: 672b 343d 85fe 083e 445c 86bf beb5 40bf
00000140: ef69 f1be 8ad4 4fbd 16cf 04bf bdcd 12be
00000150: 8e33 2fbf cb70 30bf 3305 e33e d7e0 01be
00000160: e442 11be 6910 4ebc 09db 0ebe 92e9 1dbe
00000170: 6a44 3abe a6bc 24bf 1f56 1fbe 865b 63be
00000180: 163b dcbe d2b9 1fbf 38d8 2ebf e850 76be
00000190: 3745 6d3e f08f 17bf 93db a73d 5947 59bd
000001a0: ab49 abbe f7ce 27bf 9f40 edba 52aa c8bd
000001b0: 5a39 2b3e 699b dcbd 287d 843d e3ef e1be
000001c0: e549 353e ddf5 17bc 78f5 cbbe 2611 a7be
000001d0: 09f8 2abf e125 783d 20bc 143e e8e6 63be
000001e0: 3596 b5bd e6d2 183e 8aa3 acbe 3d35 f5be
000001f0: d5c3 26be f5b1 a3bd a297 36be 53e7 cf3e
00000200: 279b 91be bd62 82bf 78c6 77bf 3818 50be
00000210: cfd3 3f3e 9fe7 29be 9d36 74bd f1a8 9dbd
00000220: dece a4bd b7e6 3bbf 87ac 1bbe 495f 5fbe
00000230: 1b72 533e d086 b23d 03b7 5a3e 1821 9bbe
00000240: 078f eabe 7d4f dbbd 602b 88be 628a 6cbe
00000250: b301 82be a67f e23d 81f2 d93c 8958 fcbd
00000260: ec31 07bf 74d3 273e 1038 f0bd 1c71 8dbe
00000270: b577 00be 721c e7be af06 2cbf 914d d6bd
00000280: 85f8 3fbe e045 d3be 45e7 96be 53f4 2ebe
00000290: 6d86 8d3c da62 603e 9a46 e4bd 0e4e a4bd
000002a0: 2ccd ad3e fa02 32bd 8669 26be c84e ac3e
000002b0: 9daf ae3e 2645 e3be 43b3 033d 7fa1 76be
000002c0: 3320 da3d 312a 77bd a06e 2bbe f593 1fbf
000002d0: aa2f ddbe 6e89 32bd f68e a83e 47a2 473d
000002e0: e6e9 413e 617a f7be ef21 143c 1e55 84be
000002f0: 99f7 14bd 96b9 663e 4c01 cd3d d6a3 97bd
00000300: 2c63 a6be 11dd b03d 9331 cebe 10fa d1bd
00000310: 8b92 393e 7d6d 00be a4cf d03d 783e a0bc
00000320: 5b0a 623d 5f02 fcbd d7e8 a8bd a17a 1bbe
00000330: b779 97bd 3e4d 04bf 3045 c43d 04d9 94be
00000340: 2e20 303d 031d 2d3d fa34 093d ed96 88bb
00000350: c266 e7be f400 4d3e 10e9 3fbe 89d9 0abe
00000360: 07af c93e 1180 52bf 6b83 babd 46bd 13bf
00000370: d97d 5ebe 3faf 7a3d 924e d43c bcf8 ae3e
00000380: e75e c2be 5a31 48be ea08 86be e910 9cbe
00000390: a923 073d 4b4e 09bf e9e0 bfbd 37bd 0a3d
000003a0: ec72 303e ce9d 51bd edcc bfbd 08d6 cdbd
000003b0: d898 a83d 0d7c 3b3d 7239 a83e 6e2c c8be
000003c0: 06c6 fb3d cd48 083d 4588 b9bd 487a c33e
000003d0: 870f f2bd 72fc e1bc 2ff3 e2bd df18 0cbc
000003e0: 1e45 85be 99e7 59be 55e8 4d3e 4c7b 5ebd
000003f0: d376 57bd e1cd 63be 347e 0abf a723 563e
0.16930152 -0.062839344 -0.45879462 0.028312966 0.15114062 -0.16219334 0.37452027 -0.03072623
0.22190665 0.23901728 -0.026408544 0.385691 -0.16439798 -0.17983668 0.59586173 0.15415645
-0.07341019 0.048102334 -0.05784555 0.334676 -0.28136572 0.203105 0.26688182 -0.077088155
-0.35016066 -0.031172665 0.5762816 0.1718977 0.043002497 -0.07685203 -0.25900838 0.5186786
-0.27246383 0.24979429 -0.27287406 -0.019341461 -0.49764106 -0.012578637 0.354242 -0.025488215
-0.0031710097 -0.0359129 -0.13293004 0.0939784 0.09347115 -0.059303466 0.20762208 -0.1639029
-0.0065452345 0.11925597 -0.02958343 -0.05274721 -0.2079526 0.050360177 0.33148977 0.05218581
-0.66417617 0.14847209 -0.27630195 -0.38274154 -0.042463675 -0.61716115 0.0751181 0.03986016
-0.9501574 -0.0656322 -0.14478032 -0.04612229 -1.0592035 -0.3113153 0.08875395 -0.23089622
0.021214515 0.2943228 -0.5681176 -0.18540618 0.043986704 0.13378341 -1.0496907 -0.75277317
-0.47151133 -0.050739802 -0.5187849 -0.14336295 -0.6843804 -0.6892211 0.44339904 -0.12683426
-0.14185673 -0.012577155 -0.13950743 -0.15421131 -0.1819016 -0.64350355 -0.15560196 -0.22202882
-0.4301383 -0.62392914 -0.68298674 -0.24054301 0.23170935 -0.59204006 0.08196177 -0.053046558
-0.33454642 -0.6555018 -0.0018100924 -0.09798111 0.16721097 -0.1077183 0.06469184 -0.44128332
0.1770397 -0.009274927 -0.39835715 -0.3263027 -0.6678472 0.060583 0.14524889 -0.22256052
-0.0886654 0.14924201 -0.3371852 -0.4789218 -0.16285641 -0.07992927 -0.17831281 0.40606174
-0.28438684 -1.0186383 -0.96787214 -0.20321739 0.18733142 -0.16592263 -0.059622396 -0.07698239
-0.08047269 -0.7339892 -0.15202533 -0.21813692 0.20648997 0.0871712 0.21358876 -0.30298686
-0.45812246 -0.107085206 -0.26595592 -0.23099664 -0.2539192 0.11059503 0.026604893 -0.12321574
-0.5281055 0.16389257 -0.11729443 -0.27625358 -0.12545665 -0.4513889 -0.671977 -0.10464013
-0.18747146 -0.41264248 -0.2947332 -0.1708539 0.017276013 0.21912709 -0.11146279 -0.080227
0.33945596 -0.04345987 -0.16251191 0.33653855 0.34118357 -0.44388694 0.03215338 -0.24085043
0.10650673 -0.06034297 -0.16741419 -0.6233514 -0.43200427 -0.043588094 0.3292157 0.048738744
0.18936881 -0.48335555 0.0090412935 -0.2584619 -0.03636894 0.22531733 0.10010013 -0.07404296
-0.32497537 0.08635915 -0.40272197 -0.10252774 0.18122308 -0.12541766 0.10195854 -0.019561037
0.055185657 -0.1230514 -0.08247536 -0.15183498 -0.07396262 -0.5168036 0.09583509 -0.2907182
0.04299944 0.042263996 0.033497788 -0.0041683824 -0.45195585 0.20019895 -0.1874125 -0.13559546
0.39391348 -0.82226664 -0.09107097 -0.57710683 -0.21727695 0.061202284 0.025916371 0.34174144
-0.3796303 -0.19550076 -0.26178676 -0.3048165 0.032992993 -0.5363509 -0.0936907 0.033871856
0.17231339 -0.051175885 -0.09365258 -0.10050589 0.08232278 0.0457726 0.32856327 -0.39096397
0.12293629 0.033272553 -0.090591945 0.3817923 -0.11819368 -0.027586196 -0.1108154 -0.008550852
-0.26029295 -0.21279754 0.20108159 -0.054316804 -0.052603554 -0.22246505 -0.5409882 0.20912038

sequential/conv2d_2/Conv2D f4 [64, 3, 3, 64]
00000000: 9dc9 a3be a8f1 853e 1090 eb3d cfb7 b13e
00000010: 752b 083e 3822 aa3c fea8 71bd 0c8a 1ebf
00000020: 76ac 0f3e 98bf adba 71cd cbbe 76b6 853e
00000030: 089c 0dbf e85f 75bf 203d f13d ca0f bc3c
00000040: 829a ca3d bc88 803b bba7 8fbe f3e9 4bbd
00000050: 0291 b23e 128d 623e 8667 fcbd 613c dc3e
00000060: dd19 28be d4b7 853e 66e1 3dbe 0803 cc3e
00000070: 2f97 06be e3a9 9bbe c509 053e 315e 6ebf
00000080: 3242 91be e74f fabd 8165 053e f393 b83d
00000090: 58a1 da3e f10f af3d 4fbc a1be 9453 b63d
000000a0: 5fb4 cc3e 0094 40be 7265 053d 3808 b03d
000000b0: e89e 68be 422d f23d bf8a 73bf a09e 913d
000000c0: d170 f0be 5635 c4be fbf1 2fbf fe6f bf3d
000000d0: 8b6a c63d e615 4c3e 3897 48bf 432d 4fbc
000000e0: be32 febd 45b2 803e c33b 7fbe d1ee 2fbe
000000f0: d391 313c 0fe0 a9bc b17d 0fbf 8d31 88bf
00000100: 032f 9dbe 7aa2 413e d86f 0d3f 679d 463d
00000110: 56cb 68be c62f 323e b027 b6be 7ba6 e3be
00000120: 6a25 bf3e 86d0 8bbe 1668 423d 6856 b13e
00000130: fddd 39bf 94fb 04bf 3beb 163e 7d02 f33d
00000140: 3c11 843d ea9b d1bd ebef 77bf 458b 873d
00000150: ac13 553d 44e8 863d 3161 98be 262b 68bd
00000160: 6031 0dbf cb4d f4ba f528 2ebf 319e 173e
00000170: 2e33 53be 80e7 ffbd 21b6 24be 74f4 b6be
00000180: 58a7 b6be 4ce7 81be e4f0 27bd cdcf 183e
00000190: 3a06 043e 9b4a b03d ef86 e7be 7ed1 a3bd
000001a0: 4bab 03be 16d7 efbe a32b 113e 7a47 a23d
000001b0: 628a 2cbe 4bf6 1e3e ce82 3ebf 9b72 03bb
000001c0: 4bda 52bf 2758 98be efc1 a5be 577f fdbe
000001d0: 0919 2c3e 3312 bc3e 3500 cbbe 14df 8a3d
000001e0: 9d19 0abe f83d 383d e28c 86be 74d8 2abe
000001f0: 28e6 c13e fec3 263d 2836 1fbf 3b82 1bbf
00000200: 569e 26be d445 233e 175f d53e dce0 06bd
00000210: 12f4 02bd 000c 093e 7efd 3cbf 21b9 9cbe
00000220: 832f 893e 78fc 253b 7f95 003f 7c3b 04bf
00000230: 9ee8 13bf 5a3d 68be b991 d93d a658 c73e
00000240: c7dc c93e 80e6 fcbe 20ee a1be 4997 9a3e
00000250: 931c 963e bca2 52be 1803 ffbe 1780 033d
00000260: 3d91 443b f7b5 8bbe fe7f b8be d4ed 17bd
00000270: 2777 183e 6582 c53e a050 47be dcae 61bd
00000280: 907d 66be 6d53 a7bd b175 20be 9fca f23d
00000290: a7b1 96be 77a0 6d3e 6646 ebbe 0baa 92be
000002a0: 6b9f 58be ccd0 d23c c0e7 713d 7f49 ea3c
000002b0: caf3 773d efaf b43d d019 c7bb aef6 283e
000002c0: 6873 46be 1dcc fcbe fabf 82be d2d3 7fbe
000002d0: cf33 c23d dbe6 203e af29 353e eff3 463e
000002e0: 5a44 593e aabe 4e3e e2ff e33e fb09 853e
000002f0: 91aa 3f3e 7ff4 0c3e fc4c efbe faf7 4d3e
00000300: d73a a63e 1b4a a13d 5243 1fbe 5bef f2ba
00000310: ae86 413e 45e8 d33e bcae 4f3e d21f d03d
00000320: 3161 5fbe 4eeb 7c3e 8eb2 063e f519 e53d
00000330: 66eb cabe f1a5 1f3d 319f 5a3e 2135 97bf
00000340: 2eba ed3c 6997 fc3d f050 273e 6b1f 893e
00000350: 67a3 65be 7dc7 ed3e ec2b b1bd ddb7 1a3e
00000360: 7b1d 803e e063 8c3d 5cc7 9e3e ec95 82be
00000370: 1193 963e 2e75 92be d055 9d3e 10d2 c83e
00000380: 8d54 5a3d c6cd 993d 5b73 083e 3f8d 3abe
00000390: c27b e2bd b9fe e6bc f63a 0f3e 2853 8bbe
000003a0: 0047 69be 6fff abbe e1ad 213e a7c3 07bd
000003b0: d6a1 e3be 8f1c e3be e27b 85be a594 12bf
000003c0: db37 1d3e dd58 4ebd 0f0d 15be b6e1 1f3d
000003d0: 9f53 dbbd 3f83 f5bd bbc0 cbbe fc23 7c3d
000003e0: b301 16bf 349b 6cbd eed0 7f3d c9bd 04bc
000003f0: 8285 b7bd c1fa 6abf e156 193e 1f42 cebe
-0.31989756 0.26160932 0.11502087 0.34710547 0.13297828 0.02076827 -0.058999054 -0.6192939
0.14030632 -0.0013255952 -0.39805177 0.2611577 -0.5531621 -0.95849466 0.11779237 0.022956748
0.09892751 0.00392255 -0.28057656 -0.04978366 0.34876257 0.22124127 -0.12324433 0.43014815
-0.16416116 0.26116812 -0.18543014 0.39846063 -0.1314361 -0.3040305 0.12992008 -0.93112475
-0.28370816 -0.122222714 0.13027002 0.09012594 0.4270122 0.085479625 -0.3158898 0.0890266
0.39981362 -0.18806458 0.03256745 0.085953176 -0.22716868 0.118250385 -0.95133585 0.071103334
-0.46961072 -0.38321942 -0.6872861 0.09347533 0.0968829 0.19930229 -0.7835574 -0.012645069
-0.12412022 0.2513601 -0.24925141 -0.17180945 0.01083799 -0.020736722 -0.56051165 -1.0640122
-0.3069993 0.18909636 0.55248785 0.048489954 -0.22733817 0.17401037 -0.35577154 -0.44462952
0.37333232 -0.27307528 0.047462545 0.34636235 -0.7260435 -0.5194638 0.14738171 0.11865709
0.064486 -0.10234816 -0.9685046 0.066183604 0.052020714 0.0658727 -0.2976165 -0.056681775
-0.55153465 -0.0018638907 -0.68031245 0.14806439 -0.20624992 -0.12495327 -0.16085102 -0.35733378
-0.35674548 -0.25371778 -0.041001216 0.1492302 0.12893 0.0860798 -0.45220134 -0.07998942
-0.12858312 -0.46843785 0.14176802 0.07923789 -0.16849664 0.15523641 -0.7441834 -0.0020057324
-0.8236434 -0.29754755 -0.32374522 -0.49511215 0.16806425 0.36732635 -0.39648595 0.0678083
-0.13486333 0.044980973 -0.2627936 -0.16684133 0.37870908 0.040714256 -0.6219201 -0.6074559
-0.16271338 0.15944606 0.4167411 -0.032929286 -0.031971045 0.13383484 -0.738243 -0.30609992
0.2679406 0.0025327485 0.5022811 -0.51653266 -0.5777682 -0.22679654 0.106234975 0.3893482
0.39426252 -0.49394608 -0.31626987 0.30193546 0.29318675 -0.2056989 -0.49807048 0.032104578
0.0029993795 -0.27287266 -0.3603515 -0.037092045 0.14889203 0.38576046 -0.1946435 -0.0550984
-0.22508836 -0.08170209 -0.15669896 0.11855053 -0.29432413 0.23205744 -0.45952147 -0.28645357
-0.21154563 0.025734328 0.059058905 0.028599499 0.06053523 0.08822619 -0.006076075 0.16500351
-0.19379961 -0.49374476 -0.25537091 -0.24983147 0.09482538 0.15713064 0.17691682 0.19428991
0.2121748 0.2018992 0.4453116 0.25984177 0.1871741 0.13765143 -0.46738422 0.20114127
0.32466766 0.078754626 -0.15553024 -0.0018534468 0.18899032 0.41388145 0.202815 0.10162319
-0.2181442 0.24699137 0.1315405 0.111865915 -0.3963272 0.038976613 0.21349789 -1.1813089
0.029019441 0.12333567 0.16339469 0.26781783 -0.22425614 0.4644126 -0.086509556 0.15109201
0.25022492 0.06854987 0.31011474 -0.25505006 0.29409078 -0.28605026 0.30729532 0.39222765
0.05330329 0.07509951 0.13325255 -0.18217944 -0.11058761 -0.028197633 0.13987336 -0.2721188
-0.2278099 -0.33593318 0.15788986 -0.033145573 -0.4445941 -0.44357726 -0.26071078 -0.57258064
0.15353338 -0.050377715 -0.14555763 0.039033614 -0.10709309 -0.11987924 -0.3979548 0.061557755
-0.5859634 -0.0577652 0.06245511 -0.008101889 -0.089610115 -0.9178887 0.14974548 -0.4028482

sequential/conv2d_3/Conv2D f4 [128, 3, 3, 64]
00000000: dd7a f63b 5262 d03e 682f 273b 96ca e9bd
00000010: 529a cbbc 73de 013e 1626 94bf f17e 81bf
00000020: 31fa 12be 3277 87bd 1713 fbbe b037 75bf
00000030: b303 6fbe 2f51 c2bd 362c c1bf 52f7 32bf
00000040: 868f 643e 1dcb 12bf d859 873c b081 f3bb
00000050: 5505 08be f9fa c8be f38a a43d d2dd 963e
00000060: 3006 75be baa8 22be 8ec0 c9bf 0884 16be
00000070: 8d14 a53d 1dd1 de3e baef 07bf 44a9 61bf
00000080: 263f f9be c4f5 343c 13c6 24bf 14c4 84bf
00000090: 8646 aa3e de77 d9bf bde0 60bf beb6 29bf
000000a0: cf82 b3be f6c6 9abe 477c d3bf 4466 d93e
000000b0: e874 03bf 0537 9dbf 5b4b 163f 2c69 23bf
000000c0: 81f6 ec3e 9a0d 1cba 2943 64bd d96e d7be
000000d0: 55db ec3e 1a05 31bf 4c89 b93e 2561 2dbe
000000e0: 113f 883d c566 bfbd 5744 d1be 16c5 a4bf
000000f0: e60b 153e 3f4e cbbf 971c d73e 21e0 1a3f
00000100: 1fff 21bd 7b3f e3be c22c f7bd 9be0 2cbe
00000110: fe39 77be 28cc 303e 1451 63bf 2225 15bf
00000120: e67e 26bf 95fa 5fbf 8054 3cbf 078a 5dbf
00000130: a581 5bbe 1722 803e 25a1 65bf 585d eebe
00000140: 15f3 38be 1db6 8fbf 7c6f ebbe e119 22bf
00000150: 290b 883e 800e d7be 31ba 313e 8d23 463e
00000160: 2ec1 b63e fa40 2bbd c68f 4bbf 46a1 a03e
00000170: b6ec f03d 6966 a0bd 0da4 debf 5afe 28bf
00000180: f950 e03e bc06 c4bc 93ac 5c3e 3a4e 48bf
00000190: 32f7 a83e de2a 07c0 32bc 27bf 8c16 7ebe
000001a0: 582a 04bf 1630 34bd da87 35bf 9d41 bebd
000001b0: 8fc1 d6be d2a3 36bf 56ad f5bd e613 10bf
000001c0: d5b5 e63e 33ba 293e b769 eabd 1513 aebe
000001d0: 40f8 e8bd caf5 42bc c88c 863e 185a e1be
000001e0: b628 cebd 4f21 6b3e ada1 533e 4d18 b9bf
000001f0: 249f f0be e9aa 27bf cd11 00bf 734f a8bc
00000200: bb42 2b3e bfc8 73bd ab78 b8be aac9 043d
00000210: 3ea4 a3bd f64b 83bc f67c e5be 162b 023f
00000220: 3559 1cbf e0fd 8bbf 4563 af3c 4364 f5be
00000230: fbda e5be f634 163f 9749 0dbf 0e84 42bf
00000240: 4556 13be 5a54 76be b2ea 84bf a020 dfbe
00000250: 085c 9cbe 247d 29be 2f58 f73e 912f 9cbe
00000260: d543 323f 9fe5 9b3e 5a8d dbbd 8cac 153f
00000270: 68b8 7d3e 7fbc 88be 315f 81bf afb5 53be
00000280: 4128 9abe 0320 44bd 7671 453e 41aa 763e
00000290: ebcd 2a3e df57 eabf 8535 d0bb 0d3e 15bf
000002a0: 5d45 4fbe 0b87 8bbe 8321 5a3e 8836 18bd
000002b0: a5df 10bf 5b94 29bf 6688 42bf 1db1 c1be
000002c0: 468c 22be c19a 093f 3aaa 233e b01d bdbe
000002d0: 4cf4 07bf d3d7 99be 8c46 573e 1409 41bf
000002e0: 32be c5be 6ca2 953e 60c1 103f 6794 71bf
000002f0: 6d07 7dbf feff f9be e9ab 09c0 e81f 71be
00000300: 414c 103e a106 cb3d 79b6 853e d039 e9bd
00000310: d347 38bf 845e 9bbd 7a6b adbe 59b1 bdbe
00000320: 6ef4 51bf 366b 1f3f 1174 9dbe e88a debe
00000330: 8039 e53b 3e0d 94be 0e34 29bf b652 823e
00000340: 5cce 6cbe d4aa 363f a073 01be aa3a 8a3e
00000350: 29e9 edbe 93a1 963d 60f3 6ebf 9cd0 473e
00000360: 1421 52bf cedb 02be f9b0 46bf c768 a63e
00000370: 0d40 8abd 64f4 12be 6b82 b4be 3300 6d3d
00000380: cd5d 2abe 278d 063d 756e 11bf 781a 043b
00000390: d934 1a3e 5533 36bf 4fc5 1ebf f2c7 03bf
000003a0: 6d6d 1cbf 3fd6 54be 6eec 17bc 7867 8f3c
000003b0: 3a34 993e 7e97 363e 0b54 ed3e 3877 f3be
000003c0: b50c 34be 2748 17bf abf6 61bf b5e0 89bf
000003d0: bc0b 623e fdc9 e9bd 633f 7bbe bcb8 01be
000003e0: 87b8 bb3c cbe2 9bbe d4e5 3fbf d1fa 0abf
000003f0: 7ae6 293e 4b7e 55be 8efd e63e 3e2a 803e
0.0075219707 0.40700012 0.0025510434 -0.11415593 -0.02485386 0.12682514 -1.1574123 -1.0116864
-0.14353253 -0.066145316 -0.49038002 -0.957881 -0.23341255 -0.09488141 -1.5091617 -0.6990863
0.22320375 -0.57341176 0.016522333 -0.0074312314 -0.13283284 -0.39253977 0.08034315 0.2946611
-0.23928142 -0.15884677 -1.5761888 -0.14698803 0.080605604 0.43518916 -0.5310017 -0.88148904
-0.4868099 0.011044923 -0.6436474 -1.0372338 0.3325693 -1.6989706 -0.87842923 -0.6629447
-0.35060737 -0.3022992 -1.6522301 0.42460835 -0.5135026 -1.2282416 0.58708733 -0.63832355
0.46281818 -0.00059529545 -0.05572811 -0.42076758 0.46261087 -0.6914841 0.36237562 -0.16931589
0.06652654 -0.093457736 -0.40872452 -1.2872646 0.1455532 -1.5883254 0.42014 0.60498244
-0.039549943 -0.4438437 -0.12069084 -0.16882555 -0.24143216 0.1726538 -0.8879559 -0.58259785
-0.6503738 -0.8749173 -0.73566437 -0.8653874 -0.21436174 0.25026008 -0.8969901 -0.4655559
-0.18061478 -1.1227452 -0.45983493 -0.6332074 0.26571015 -0.4200325 0.17356183 0.19349499
0.3569426 -0.041810013 -0.79516256 0.31373042 0.11763899 -0.07832033 -1.7393814 -0.6601311
0.43811777 -0.023928992 0.21550207 -0.78244364 0.33001095 -2.1119914 -0.6552154 -0.24813288
-0.5162711 -0.04399117 -0.7091042 -0.092898585 -0.41944548 -0.7134372 -0.11995952 -0.5628036
0.45060602 0.16574936 -0.11445945 -0.33998933 -0.11375475 -0.011899421 0.26279283 -0.4401405
-0.10066359 0.22961925 0.20667143 -1.4460541 -0.46996415 -0.65495163 -0.5002716 -0.020545697
0.16724674 -0.05951762 -0.36029562 0.032418884 -0.07990311 -0.016027432 -0.448219 0.50846994
-0.6107362 -1.0936852 0.02140964 -0.47928056 -0.4489363 0.5867456 -0.55190414 -0.7598275
-0.14388378 -0.24055615 -1.0384123 -0.43579578 -0.30538964 -0.16551644 0.48309466 -0.3050504
0.69634753 0.30448624 -0.1072032 0.5846641 0.24777377 -0.2670631 -1.0107175 -0.20674776
-0.30108836 -0.04788209 0.19281563 0.24088384 0.16680114 -1.8308066 -0.0063540363 -0.58297807
-0.20241304 -0.27251467 0.21301846 -0.03716138 -0.56591254 -0.66242 -0.7598938 -0.3783044
-0.15873823 0.5375176 0.15982905 -0.36936712 -0.5310714 -0.30047473 0.21023005 -0.7540448
-0.3862167 0.2922548 0.56545067 -0.9436707 -0.98839456 -0.4882812 -2.1511176 -0.23547328
0.14091589 0.09913374 0.26115778 -0.1138798 -0.71984595 -0.07586387 -0.3387106 -0.37049368
-0.82013595 0.62272966 -0.30752614 -0.43465352 0.00699538 -0.28916353 -0.66095054 0.25453728
-0.23125595 0.71354413 -0.12641764 0.26997882 -0.4646695 0.073550366 -0.9334011 0.19513172
-0.82081723 -0.12779161 -0.7761379 0.32501814 -0.06750498 -0.1435104 -0.3525575 0.057861518
-0.16637345 0.032849457 -0.5680917 0.0020157378 0.15059222 -0.71172076 -0.6201982 -0.5147697
-0.6110447 -0.20784853 -0.009272678 0.017505392 0.29922658 0.17831227 0.46353182 -0.47551894
-0.17582972 -0.5909447 -0.8826701 -1.07717 0.22074789 -0.11415479 -0.24535899 -0.12668127
0.022915138 -0.30446467 -0.74960065 -0.54288965 0.16591826 -0.20848958 0.45115322 0.25032228
