LaneFollowingModel/pruned/pruned_model.tflite (tflite, 558068 bytes, 11 tensors)

dense/bias f4 [64]
0	0xbdbecf6a	-0.09316905
1	0x3e63e387	0.22254764
2	0x3d0c0a29	0.034189377
3	0xbdaa5842	-0.08317615
4	0x3e9f5495	0.31119218
5	0xbdb87da4	-0.09008339
6	0xbdd36a37	-0.10322993
7	0xbe7a9839	-0.24472131
8	0xbe0f4e75	-0.13994773
9	0x3d87bb44	0.06627515
10	0xbd8c4cef	-0.068506114
11	0x3e370402	0.17872623
12	0xbe195a1b	-0.14975779
13	0x3e17046b	0.14747779
14	0x3e598546	0.21242246
15	0xbd391e55	-0.045194943
16	0x3e5b8754	0.21438342
17	0x3e770aae	0.24125168
18	0xbd7ea6f4	-0.062170938
19	0x3e3f7e08	0.18700421
20	0xbe60203a	-0.21887293
21	0xbdab4fbc	-0.083648175
22	0x3e906096	0.2819869
23	0xbdaf9383	-0.085730575
24	0x3c072d9c	0.00825062
25	0xbdc73bf7	-0.09728234
26	0xbd0a1b90	-0.033717692
27	0xbdc77690	-0.09739411
28	0x3e8e2a07	0.2776644
29	0x3e5b753b	0.21431439
30	0x3cbf7a70	0.023373812
31	0xbd83e1a9	-0.06439526
32	0x3e9de92a	0.30841953
33	0xbde4e173	-0.111758135
34	0xbdcb49ca	-0.099261835
35	0xbdbbe6fd	-0.09174917
36	0xbd0c9086	-0.034317516
37	0x3e94ba5c	0.2904843
38	0x3cdbf6f3	0.026851153
39	0xbd813108	-0.0630818
40	0x3ec4ef45	0.38463798
41	0x3ea6dd55	0.32590738
42	0x3e26ddab	0.16295497
43	0xbd94ecb1	-0.07271708
44	0xbe672ed1	-0.22576453
45	0xbd335167	-0.043778803
46	0xbd88d120	-0.066805124
47	0x3e980194	0.29688704
48	0xbd8c7961	-0.06859089
49	0xbe50eda4	-0.20403153
50	0xbde7cd98	-0.11318511
51	0x3cb721e5	0.02235503
52	0xbd5ac16e	-0.053407125
53	0x3afe2dd1	0.0019392316
54	0x3d23efed	0.040023733
55	0x3db456f4	0.088056475
56	0xbd682629	-0.056677017
57	0xbd8ab8c7	-0.06773525
58	0xbd95cad5	-0.07314078
59	0x3c1bc78a	0.009508023
60	0xbd847342	-0.06467296
61	0x3d4be1a5	0.04977574
62	0xbd78f239	-0.060777877
63	0x3ec09b0d	0.37618294

conv2d_3/bias f4 [128]
0	0xbc29c5a5	-0.010362064
1	0xbe539e54	-0.20665866
2	0xbe1ff759	-0.156217
3	0xbe7a3da4	-0.24437577
4	0x3dc2f2c7	0.09518962
5	0xbd4809f0	-0.048837602
6	0xbe0cf9d7	-0.13767181
7	0xbd808dd5	-0.06277052
8	0xbda74dc3	-0.08169129
9	0xbdcc9e11	-0.09991086
10	0xbeb19157	-0.34681198
11	0xbe8cb8be	-0.27484697
12	0xbeb6a360	-0.3567152
13	0xbe65bf0e	-0.22436163
14	0xbebe8ccd	-0.37216797
15	0xbf3f55c4	-0.7474024
16	0xbe272502	-0.16322711
17	0xbf469af8	-0.77580214
18	0xbe85ff4d	-0.26171342
19	0xbe244fd0	-0.16046071
20	0xbe2343b2	-0.15943792
21	0xbef6fbc9	-0.48238972
22	0xbde235dd	-0.1104543
23	0xbe339252	-0.17536286
24	0xbdc98e5e	-0.098416075
25	0xbe6813c0	-0.22663784
26	0xbd03ccca	-0.032177724
27	0xbe3a7208	-0.18207562
28	0xbd9834f4	-0.07431975
29	0xbed1232c	-0.40847147
30	0xbe7d043a	-0.24708644
31	0xbeb9d4e2	-0.3629523
32	0xbd45778f	-0.048209723
33	0xbd43d181	-0.04780722
34	0xbd7e129c	-0.062029466
35	0xbd8a30f4	-0.06747618
36	0xbd2202fb	-0.039553624
37	0xbe91e3aa	-0.28494006
38	0xbea0104b	-0.3126243
39	0xbf1ca2cd	-0.61185914
40	0xbafa240e	-0.0019084231
41	0xbe4be2f2	-0.19910792
42	0xbdb18b5f	-0.08669161
43	0xbe84c74e	-0.25933307
44	0xbd12645d	-0.035740245
45	0x3d32f503	0.043690693
46	0xbe79bca0	-0.24388361
47	0xbe0b771e	-0.13619658
48	0xbed92d23	-0.4241725
49	0xbd049f69	-0.032378588
50	0xbd665243	-0.056230795
51	0xbdc1f029	-0.09469635
52	0xbceac88a	-0.028660078
53	0xbeb6f402	-0.35733038
54	0xbddcd7c2	-0.1078334
55	0xbe7737d9	-0.24142398
56	0xbdd02cd4	-0.101648
57	0xbd9775a7	-0.07395487
58	0xbd8cfe31	-0.06884421
59	0xbda13906	-0.078722045
60	0xbe7d3a1f	-0.24729203
61	0xbe6313b6	-0.22175488
62	0xbe28e72b	-0.16494434
63	0xbe4237da	-0.18966618
64	0xbe3f0231	-0.1865318
65	0xbeb6a257	-0.3567073
66	0xbe046c65	-0.12931974
67	0xbed9d542	-0.42545515
68	0xbe4d54b1	-0.20051838
69	0x3b951093	0.004549095
70	0xbe5fd435	-0.21858294
71	0xbe569818	-0.20956457
72	0xbdb1defb	-0.08685108
73	0xbeac41b4	-0.33643878
74	0xbdff5942	-0.124681965
75	0xbe491e41	-0.19640447
76	0xbe2d3a58	-0.16916788
77	0xbe160f2c	-0.14654225
78	0xbe2f6e53	-0.17131929
79	0xbe940ee0	-0.289176
80	0xbf041d55	-0.5160726
81	0xbe388223	-0.18018393
82	0xbe997f5d	-0.29979983
83	0xbe583453	-0.2111371
84	0xbdf665f7	-0.12031167
85	0xbe307df0	-0.17235541
86	0xbe7d03ae	-0.24708435
87	0xbecf05f5	-0.40434232
88	0xbeb2c683	-0.34917077
89	0xbe3ddbb8	-0.18540847
90	0xbec02e4a	-0.37535316
91	0xbe9a684f	-0.30157706
92	0xbd76dc19	-0.060268495
93	0xbea49b83	-0.32149896
94	0xbd894fe1	-0.06704689
95	0xbf083b00	-0.53215027
96	0xbebf717d	-0.37391272
97	0xbe04dbf0	-0.12974524
98	0xbd1f335f	-0.03886735
99	0xbda044d1	-0.07825626
100	0xbd7bb87e	-0.061455242
101	0xbe87ba6c	-0.26509416
102	0xbe3360c9	-0.1751739
103	0xbd01ac44	-0.031658426
104	0xbdfbec63	-0.123009466
105	0xbe33255d	-0.17494722
106	0xbdd26929	-0.10273964
107	0xbe54cf15	-0.2078212
108	0xbd233dcf	-0.039853867
109	0xbd61637b	-0.055026513
110	0x3ae631bb	0.0017562428
111	0xbefef4a2	-0.49796015
112	0xbdac4eab	-0.08413442
113	0xbf305293	-0.68876
114	0xbe610b03	-0.21976857
115	0xbe5ac94c	-0.21365851
116	0xbe5df6fc	-0.21676248
117	0x3c6eeef2	0.014583336
118	0xbeb196c2	-0.34685332
119	0x3f200a53	0.62515754
120	0xbe359a60	-0.1773467
121	0xbf483f51	-0.78221613
122	0xbe8efbf5	-0.27926603
123	0xbe404502	-0.18776324
124	0xbf341ff9	-0.70361286
125	0xbd8c44e6	-0.06849079
126	0xbda8eadd	-0.082479216
127	0xbdec69b2	-0.11543597

conv2d_2/bias f4 [64]
0	0x3d4f37dd	0.050590385
1	0xbd1a065e	-0.03760373
2	0xbe36678c	-0.17812937
3	0xbd84726a	-0.06467135
4	0xbea05aad	-0.3131918
5	0x3d04f626	0.032461308
6	0x3cfc095a	0.030766178
7	0xbe207454	-0.15669376
8	0xbe0f820e	-0.14014456
9	0xbeb2afca	-0.3489974
10	0xbde188bc	-0.11012408
11	0xbc4771a2	-0.012173088
12	0xbe717fb7	-0.23583876
13	0xbd1dc01c	-0.038513288
14	0xbe9ce682	-0.30644614
15	0xbda293ad	-0.07938323
16	0xbd145cc5	-0.036221284
17	0xbe280c69	-0.16410984
18	0xbe31d038	-0.17364585
19	0xbb38c778	-0.0028195065
20	0xbe17a117	-0.14807545
21	0xbef048ca	-0.46930534
22	0xbd8bf94f	-0.06834661
23	0xbc8c3ff5	-0.01712034
24	0xbe3c6966	-0.18399581
25	0xbe631a64	-0.22178036
26	0xbda72e46	-0.08163123
27	0xbed43f5f	-0.41454598
28	0xbd8849c0	-0.06654692
29	0xbda1f2f0	-0.07907665
30	0xbf0f7349	-0.56035286
31	0xbed98565	-0.42484584
32	0xbdc160da	-0.09442301
33	0x3e3f580f	0.18685935
34	0xbe3b5b06	-0.18296441
35	0xbd83aa99	-0.06429023
36	0xbee89490	-0.45425844
37	0xbde96825	-0.11396817
38	0xbf042ded	-0.5163258
39	0xbdc1a4c0	-0.09455252
40	0xbe3ddcaf	-0.18541215
41	0xbdb330dd	-0.08749554
42	0xbec25e07	-0.37962362
43	0xbeb14de0	-0.34629726
44	0xbdb6285e	-0.08894418
45	0xbcf22dc6	-0.029562842
46	0x3b93e414	0.004513273
47	0xbd80f99e	-0.06297611
48	0xbd639fa2	-0.05557216
49	0xbebaac25	-0.3645946
50	0xbe70e8f1	-0.2352636
51	0xbed310f9	-0.41223887
52	0xbd07c8f6	-0.033150636
53	0xbdc77b60	-0.09740329
54	0xbe5d20a3	-0.21594481
55	0xbe72a654	-0.23696262
56	0xbde1cbc8	-0.11025196
57	0xbdc2c05e	-0.095093474
58	0xbe44f31e	-0.19233367
59	0xbc950356	-0.018190067
60	0x3d74056f	0.059575494
61	0xbdb8c7ce	-0.09022485
62	0x3c72042d	0.014771503
63	0xbda933f6	-0.08261864

conv2d_1/bias f4 [64]
0	0xbf0ba6cb	-0.5455138
1	0xbe27d1f0	-0.16388679
2	0xbdc10630	-0.09425008
3	0x3e125ac5	0.14292438
4	0xbbd6a513	-0.00655044
5	0xbd73387f	-0.05938005
6	0xbd8b760c	-0.06809625
7	0x3d3349f7	0.04377171
8	0xbd7a1ce4	-0.06106271
9	0xbe775efa	-0.24157324
10	0xbde5dd4e	-0.11223851
11	0xbecfcc7e	-0.40585703
12	0xbdc830f5	-0.09774963
13	0xbd3b3d19	-0.045712564
14	0xbd886cf9	-0.0666141
15	0xbc73e55f	-0.014886229
16	0xbe179c16	-0.14805636
17	0xbdcc13fc	-0.09964749
18	0x3d0e7eea	0.034789003
19	0xbe5aca78	-0.21366298
20	0x3d514cb3	0.051098537
21	0xbd6fee03	-0.058576595
22	0xbe2f64fa	-0.17128363
23	0x3e7963f3	0.24354534
24	0xbd44ed8f	-0.048078116
25	0xbe777747	-0.24166594
26	0x3e136411	0.14393641
27	0x3b53afdb	0.0032300863
28	0xbe618a50	-0.22025418
29	0xbe7a8d4f	-0.24467967
30	0xbe4de2b7	-0.20106016
31	0xbe3053e5	-0.17219503
32	0xbd0ba64c	-0.03409414
33	0xbdab567a	-0.083661035
34	0xbf175e6b	-0.59128445
35	0xbe81f18c	-0.25379598
36	0x3d48bee4	0.049010172
37	0xbdd73a99	-0.105092235
38	0xbdae385a	-0.08506842
39	0x3e6c15f8	0.23055255
40	0x3e484d4b	0.19560735
41	0xbd64dac0	-0.05587268
42	0xbde6a4f3	-0.1126193
43	0xbf0a2882	-0.5396806
44	0xbce1c759	-0.027560877
45	0xbd2a2321	-0.041537408
46	0xbe2f2ee0	-0.17107725
47	0xbd83842e	-0.06421696
48	0x3d935308	0.07193571
49	0xbe9ccbce	-0.3062424
50	0xbdee3dad	-0.116328575
51	0xbe2d776f	-0.16940092
52	0xbdafdf00	-0.08587456
53	0xbe3d2ed9	-0.18474902
54	0xbd80d489	-0.06290538
55	0xbde9267e	-0.11384295
56	0xbde27b51	-0.11058677
57	0xbe7bcff9	-0.24591054
58	0xbe74e968	-0.23917162
59	0xbe45ca99	-0.19315566
60	0xbe6b5ce3	-0.22984652
61	0xbd8a0766	-0.067396924
62	0xbeab49d7	-0.33454773
63	0xbd579dc4	-0.05264069

conv2d/bias f4 [32]
0	0xbdc4c7ae	-0.096083984
1	0xbda0faea	-0.07860358
2	0xbe558192	-0.20850208
3	0x3e2ed059	0.17071666
4	0x3e4beaa6	0.1991373
5	0xbd4d66b6	-0.05014678
6	0xbd9dfa80	-0.07713795
7	0x3c5916a1	0.013250024
8	0xbe52591b	-0.20541804
9	0xbda24bd0	-0.07924616
10	0x3e533602	0.20626071
11	0x3d8be1a3	0.06830146
12	0xbd12eb2d	-0.035868812
13	0x3e3ff9eb	0.1874768
14	0x3d727ca7	0.05920091
15	0xbe643694	-0.22286445
16	0x3e4f3094	0.20233375
17	0xbc8aa840	-0.016925931
18	0xbe6ce95e	-0.23135898
19	0xbd2c6a6e	-0.042093687
20	0xbd033441	-0.032032255
21	0xbd3bce1e	-0.045850866
22	0xbf021372	-0.5081092
23	0x3d96dd62	0.07366444
24	0x3d94fdb5	0.07274953
25	0xbe52df41	-0.20592977
26	0x3caed94c	0.02134385
27	0xbe835f70	-0.2565875
28	0x3da6c587	0.08143144
29	0xbee01990	-0.43769503
30	0xbe85a6d9	-0.26103857
31	0xbe7955ea	-0.2434918

sequential/dense/MatMul f4 [64, 128]
0	0x3db9d16b	0.090731464
1	0x3d1f57ce	0.038902096
2	0xbdd70756	-0.10499446
3	0x3bf44b27	0.007455248
4	0xbe472c8e	-0.1945059
5	0x3aa3883a	0.0012476512
6	0xbde93a9e	-0.113881335
7	0xbe6e2a97	-0.23258434
8	0xb98f3d01	-0.00027320537
9	0x3db713d9	0.089393325
10	0xbdcb8b67	-0.09938698
11	0xbd843dd3	-0.064571045
12	0xbe409973	-0.18808536
13	0x3dc4c4ca	0.09607847
14	0xbe020b40	-0.12699604
15	0x3de1e169	0.11029322
16	0xbe5c0371	-0.21485688
17	0x3da0c60b	0.07850274
18	0xbdb5ae6e	-0.088711604
19	0x3c3267fa	0.010889048
20	0x3cadb093	0.021202361
21	0xbdfd106e	-0.12356649
22	0xbc5a830b	-0.013336907
23	0xbd0af870	-0.033928335
24	0xbdac8c08	-0.08425146
25	0xbd93b682	-0.07212545
26	0xbe10ac18	-0.14128149
27	0xbc308646	-0.010774201
28	0x3dd88094	0.10571399
29	0x3d94fe47	0.07275062
30	0x3aae81ad	0.0013313793
31	0xbc10c90a	-0.008836994
32	0xbdb856cd	-0.09000931
33	0xbcfb723e	-0.030694123
34	0xbdbed3af	-0.09317719
35	0xbe0b7b97	-0.13621365
36	0xbe48da91	-0.19614626
37	0xbd2c0c7f	-0.042004105
38	0xbd50ba76	-0.050959073
39	0xbdb8bb15	-0.09020058
40	0xbe86a1b1	-0.26295236
41	0x3db99fbd	0.09063671
42	0xbe043339	-0.12910165
43	0x3dd7bbf4	0.10533896
44	0x3dd06115	0.10174767
45	0xbe2b690f	-0.16739295
46	0x3d1de76d	0.038550783
47	0xbd35e888	-0.044411212
48	0x3b569911	0.0032745043
49	0x3de1d3fe	0.110267624
50	0xbe1b1067	-0.15142976
51	0x3dac71a6	0.08420114
52	0xbe261b3a	-0.16221324
53	0x3b8c1d88	0.0042759813
54	0xba951ad0	-0.0011375789
55	0xbce76215	-0.028245011
56	0xbdc1f208	-0.09469992
57	0xbe28aae9	-0.16471447
58	0x3d71d54c	0.059041306
59	0x3de2813e	0.11059807
60	0xbe04610a	-0.12927642
61	0xbdbad852	-0.09123291
62	0x3cd501b8	0.026001796
63	0xbe462eb2	-0.1935375
64	0xbd8aa8a9	-0.067704506
65	0xbe3638ac	-0.17795056
66	0xbbf0337a	-0.0073303552
67	0x3dde5a00	0.1085701
68	0x3ca74701	0.0204196
69	0xbdba4947	-0.09096008
70	0xbe076e2e	-0.13225624
71	0xbcddba18	-0.027066275
72	0x3d91eded	0.07125459
73	0x3d9c0a9c	0.07619211
74	0xbe4a0324	-0.1972776
75	0xbdf84ca5	-0.12123994
76	0xbe03901d	-0.12847944
77	0xbe8b6afb	-0.27230057
78	0x3c821f78	0.015884146
79	0x3dfbc191	0.12292779
80	0xbe2fa140	-0.17151356
81	0x3d2927f6	0.041297875
82	0xbe2d4285	-0.16919906
83	0xbe0c42af	-0.13697313
84	0xbd08ecc7	-0.033428933
85	0xbe57ec84	-0.21086317
86	0xbe466645	-0.1937495
87	0x3e0a2383	0.13490109
88	0xbe5042c6	-0.20337972
89	0x3dea3c9b	0.11437341
90	0xbdd81ac4	-0.1055198
91	0x3bfb1e04	0.0076634903
92	0xbe1706c4	-0.14748675
93	0x3da069c0	0.0783267
94	0x3df62236	0.12018244
95	0x3dbde872	0.09272851
96	0xbe4ac029	-0.19799866
97	0xbe0311d4	-0.1279977
98	0x3e142fd4	0.1447137
99	0xbdef2b39	-0.11678166
100	0x3dbeacee	0.093103275
101	0xbe0fd38a	-0.1404554
102	0xbd33c679	-0.04389045
103	0x3dbca773	0.09211626
104	0xbd70967a	-0.058737256
105	0x3e181840	0.14853
106	0x3c5805c1	0.013184966
107	0xbe2a8b9e	-0.16654822
108	0xbbe1a2e1	-0.0068858718
109	0x3dfe87da	0.124282554
110	0xbdc799d1	-0.09746135
111	0xbe4a6c3a	-0.19767848
112	0xbd80e275	-0.06293193
113	0xbdbf26a2	-0.093335405
114	0x3d418888	0.047249347
115	0xbda1e53f	-0.07905053
116	0xbe2aae15	-0.1666797
117	0x3c43c425	0.01194862
118	0xbdfce4f4	-0.12348357
119	0xbd01f877	-0.031731095
120	0xbe436daa	-0.19084802
121	0xbe4539ec	-0.19260377
122	0xbdd896f4	-0.10575667
123	0x3ba38c3b	0.004991082
124	0xbd752d96	-0.059857927
125	0x3db1e72a	0.08686669
126	0x3d39d7bb	0.045371752
127	0xbe346684	-0.17617232
128	0x3cae6445	0.021288047
129	0x3ea32269	0.3186219
130	0x3e25fe42	0.16210273
131	0xbec37cab	-0.38181052
132	0x3e99601b	0.29956135
133	0xbec8bac6	-0.39204997
134	0xbc98f030	-0.018669218
135	0x3e5c9dcf	0.21544574
136	0xbea5481c	-0.32281578
137	0x3e79a995	0.24381097
138	0xbeacf453	-0.33780155
139	0x3e281c0c	0.16416949
140	0xbdfdfdf4	-0.12401953
141	0xbe908ed6	-0.28233975
142	0x3d8b2cc1	0.067956455
143	0xbdc537d1	-0.09629787
144	0xbd1bf111	-0.038071696
145	0xbe8234ee	-0.25431007
146	0x3ee4311c	0.44568717
147	0x3e421558	0.18953454
148	0x3d5f325f	0.054491397
149	0x3e72658a	0.23671547
150	0xbe639261	-0.22223808
151	0x3d33e12a	0.043915905
152	0x3d8ea901	0.06965829
153	0x3e26e96a	0.16299978
154	0x3e215244	0.15754038
155	0xbe8a7970	-0.27045774
156	0xbe9dbecb	-0.30809626
157	0xbe9f949b	-0.31168064
158	0x3ea93cfe	0.33054346
159	0xbde46186	-0.111514136
160	0xbdee4f5f	-0.116362326
161	0xbe621091	-0.22076632
162	0x3e886b3a	0.26644307
163	0x3ea5dbea	0.32394344
164	0x3e97ade8	0.29624867
165	0xbee7c2b0	-0.45265722
166	0xbe8de6c8	-0.27715135
167	0xbe17d746	-0.14828214
168	0xbde51eae	-0.11187492
169	0x3df528f4	0.11970702
170	0x3ea927c0	0.3303814
171	0xbe0085dc	-0.12551063
172	0x3e35dc0f	0.17759727
173	0x3d3dee37	0.046369758
174	0x3e9c9d7b	0.30588898
175	0x3e9881df	0.29786584
176	0x3d9ef0a7	0.077607445
177	0x3dd85b25	0.105642594
178	0xbe92e180	-0.28687668
179	0x3cff1f88	0.031142965
180	0xbe1d9f76	-0.15392861
181	0x3e22a6fc	0.15884012
182	0xbe4063ac	-0.18788022
183	0xbf0cf87f	-0.55066675
184	0x3e5f4ca0	0.21806574
185	0x3adcddd6	0.001685078
186	0xbe5a05e2	-0.21291307
187	0x3ec725f3	0.3889614
188	0xbeb5ab2c	-0.35482156
189	0x3e7cc9a9	0.24686302
190	0xbe6e09d5	-0.23245938
191	0xbcd01dfa	-0.025404919
192	0xbdbdda15	-0.092701115
193	0x3e9ee03d	0.31030455
194	0x3e934b4f	0.28768393
195	0x3d7c7b1a	0.061640836
196	0x3ea7433d	0.32668486
197	0xbd216492	-0.039402552
198	0x3d533305	0.051562328
199	0x3ec7241d	0.3889474
200	0x3c476a08	0.012171276
201	0x3eb258ed	0.3483347
202	0x3dbe3b80	0.092886925
203	0xbe831fd6	-0.25610226
204	0x3e719bb9	0.2359456
205	0xbd098188	-0.033570796
206	0x3e21b34b	0.15791051
207	0x3de4de1b	0.11175176
208	0x3e93c24b	0.2885917
209	0xbe3a826c	-0.18213814
210	0xbe173198	-0.14765012
211	0x3e235ebc	0.15954107
212	0xbe3c4369	-0.1838509
213	0x3f086c7a	0.5329052
214	0x3ddaddcc	0.10686836
215	0xbe8632fc	-0.26210773
216	0xbdcc7c73	-0.09984674
217	0xbe6bddb5	-0.23033793
218	0xbe9953bf	-0.29946706
219	0x3dd6b7e3	0.10484292
220	0xbe9c8759	-0.30572012
221	0x3df695b2	0.12040271
222	0xbd6e005a	-0.058105804
223	0xbe326d76	-0.17424569
224	0xbf206193	-0.62648886
225	0x3c685aae	0.014181776
226	0xbe62aadd	-0.22135492
227	0x3ea96a15	0.33088747
228	0x3f012e38	0.5046115
229	0x3d84caaf	0.06483971
230	0xbdcec9c4	-0.100970775
231	0xbedc67b8	-0.4304788
232	0xbf5776b2	-0.8416549
233	0xbca599ae	-0.020214882
234	0x3eca6e4f	0.39537284
235	0xbe761aa0	-0.24033594
236	0xbea99846	-0.33123988
237	0xbd470cf8	-0.048596352
238	0x3dfb5dbb	0.12273737
239	0xbee2f9fe	-0.44331354
240	0xbed9078a	-0.42388564
241	0xbe3691d8	-0.17829072
242	0xbeb68078	-0.3564489
243	0x3ebde65d	0.37089816
244	0xbea1df5d	-0.31615725
245	0x3ad4f056	0.0016245942
246	0xbf079fbb	-0.52978104
247	0x3e0ab001	0.13543703
248	0x3ed9aa86	0.42512912
249	0x3e4ea38c	0.20179576
250	0xbdef4be4	-0.11684397
251	0x3d92b84c	0.07164058
252	0x3e86ecb7	0.26352474
253	0xbebabac6	-0.36470622
254	0xbeb41278	-0.3517034
255	0xbe9559fc	-0.29170215

sequential/dense_1/MatMul f4 [1, 64]
0	0x3e495467	0.19661103
1	0x3e8810ea	0.26575404
2	0xbdb5e297	-0.08881109
3	0x3e65dca5	0.2244745
4	0x3dee6d21	0.116419084
5	0xbc0093f1	-0.007847772
6	0xbbba813a	-0.0056916745
7	0xbd846acd	-0.06465683
8	0x3dffd8a9	0.124924965
9	0x3d9cfff3	0.07666006
10	0xbcd50625	-0.026003907
11	0xbda7f3d6	-0.08200805
12	0x3d3e7425	0.046497483
13	0xbd9a9156	-0.07547252
14	0xbed656a0	-0.41862965
15	0x3d780c22	0.060558446
16	0xbe37108f	-0.1787741
17	0x3e556058	0.20837533
18	0xbb68a3ee	-0.00354981
19	0x3dc14a51	0.09438003
20	0x3e5f0a18	0.21781194
21	0xbda5e57d	-0.08100412
22	0x3e4a2669	0.19741215
23	0xbdcae8be	-0.09907673
24	0xbc9da6fb	-0.019244662
25	0xbd151bac	-0.036403343
26	0x3dc33ac5	0.09532694
27	0x3cf6b46a	0.030115325
28	0xbddd4fd7	-0.10806244
29	0x3e166486	0.14686784
30	0xbb56e405	-0.0032789719
31	0x3ced7d62	0.028990451
32	0xbd6bd125	-0.057572503
33	0xbc8ec80f	-0.01742938
34	0x3d5d3c8d	0.054012824
35	0x3e7daf19	0.24773826
36	0x3e0fe572	0.1405237
37	0x3e4ae943	0.19815545
38	0x3db6ecd5	0.08931891
39	0x3cc5a64b	0.024127146
40	0xbe3dbb5c	-0.18528503
41	0x3db1849a	0.0866787
42	0x3e805988	0.25068307
43	0x3b7cb126	0.0038557737
44	0x3eb2bcd5	0.34909692
45	0x3e537623	0.20650534
46	0x3e235453	0.15950136
47	0xbe820206	-0.2539217
48	0xbddc2a67	-0.10750275
49	0xbecb8e56	-0.3975703
50	0x3e4b6247	0.19861709
51	0xbd9e4467	-0.077278905
52	0xbe736e6f	-0.23772596
53	0x3de9a540	0.11408472
54	0x3d9f98e1	0.07792831
55	0xbd367602	-0.044546135
56	0x3e7a2142	0.2442675
57	0xba9c98c9	-0.0011947389
58	0x3b85e074	0.004085595
59	0xbe11297a	-0.14175978
60	0x3d7d94b2	0.061909385
61	0x3d0154b0	0.031574905
62	0x3d5a5c6c	0.053310797
63	0x3e00cd73	0.12578373

sequential/conv2d/Conv2D f4 [32, 3, 3, 3]
0	0xbcae92a6	-0.021310162
1	0xbe19c27e	-0.15015599
2	0x3d2c840b	0.042118113
3	0xbe0ecf98	-0.13946378
4	0xbe27ff86	-0.16406068
5	0xbdc36190	-0.09540093
6	0xbcdc6159	-0.026901888
7	0xbdf7b596	-0.12095182
8	0x3d1d9587	0.03847268
9	0xbe271dca	-0.16319957
10	0xbd6e3b8e	-0.058162265
11	0xbc8d8189	-0.017273681
12	0x3d046cec	0.03233044
13	0xbcf90cf6	-0.030401688
14	0x3cea199c	0.028576665
15	0x3cf9432b	0.030427536
16	0x3b3d4db5	0.0028885428
17	0x3d5ca25d	0.05386578
18	0x3c37003f	0.011169492
19	0xbd697894	-0.056999758
20	0xbdabc734	-0.08387604
21	0xbda26608	-0.07929617
22	0xbc65250d	-0.013985884
23	0x3d711c11	0.058864657
24	0xbe19aeb7	-0.15008055
25	0xbe0695b0	-0.13143039
26	0xbcfc5189	-0.030800598
27	0x3e4fde8a	0.20299736
28	0x3e9690ba	0.29407293
29	0x3d9b50ff	0.07583808
30	0x3d2473a0	0.04014933
31	0x3eddfada	0.43355447
32	0x3e06b6ca	0.13155666
33	0x3e479b4d	0.19492836
34	0x3de36af0	0.11104381
35	0x3e8aeb17	0.27132484
36	0xbdbd59b7	-0.092456274
37	0xbcf0400a	-0.029327411
38	0xbd868a90	-0.065693974
39	0x3d51219c	0.051057443
40	0x3e45f87d	0.19333072
41	0xbe039754	-0.12850696
42	0xbd228643	-0.039678823
43	0x3d9361ba	0.07196374
44	0xbdbc3617	-0.09190004
45	0xbee64f2d	-0.4498228
46	0xbe8d8fc4	-0.27648747
47	0xbe123e53	-0.14281587
48	0xbee86681	-0.45390704
49	0xbdaaa6f6	-0.083326265
50	0xbea7e4e2	-0.3279181
51	0xbecfb946	-0.4057104
52	0xbe71304c	-0.2355358
53	0xbd26005a	-0.04052768
54	0xbc2bbd35	-0.010482122
55	0x3dc4afd9	0.09603853
56	0x3e03540d	0.12825032
57	0xbb03ee70	-0.0020131133
58	0xbcc1f4fb	-0.023676386
59	0xbe3bdcad	-0.183459
60	0xbe1bef2c	-0.15227956
61	0xbe360ad4	-0.17777568
62	0xbc2e09b9	-0.010622435
63	0x3e043f46	0.12914762
64	0x3e82c689	0.25542095
65	0x3e850f98	0.2598846
66	0x3e005a81	0.12534525
67	0x3ded8483	0.1159754
68	0x3dd2b4e2	0.10288407
69	0xbd5e2e12	-0.054243155
70	0xbe086642	-0.13320258
71	0x3e21dc0a	0.15806594
72	0x3e007957	0.12546287
73	0x3deaf173	0.11471834
74	0x3e93ff3a	0.2890566
75	0xbe28242b	-0.16420047
76	0x3df38b91	0.118918546
77	0x3e287c41	0.16453649
78	0xbe515276	-0.20441613
79	0xbccd91bc	-0.025093906
80	0x3e091ac9	0.13389124
81	0xbe05610e	-0.13025305
82	0xbe0d7d2d	-0.13817282
83	0xbbd5e6fa	-0.0065277787
84	0xbed19fe3	-0.40942296
85	0xbe393694	-0.18087226
86	0x3e3f42c5	0.18677814
87	0xbde8c55e	-0.1136577
88	0xbc19334f	-0.009350612
89	0x3dfe50ad	0.124177314
90	0xbe7b9df4	-0.24571973
91	0xbc86654b	-0.016405722
92	0x3d394d36	0.04523965
93	0xbf162f6b	-0.58666104
94	0xbe8c80b6	-0.2744195
95	0x3c4c5af2	0.012472855
96	0xbd5d0fa9	-0.053970013
97	0xbe3cf0cb	-0.1845123
98	0x3e60110c	0.21881503
99	0xbe9f40ad	-0.3110403
100	0xbd70011b	-0.058594804
101	0x3a4e6b5a	0.0007874273
102	0xbeed74dc	-0.4637822
103	0xbe954c76	-0.29159898
104	0x3e089616	0.13338503
105	0xbe0892af	-0.13337205
106	0xbdd7d2e6	-0.105382726
107	0x3e7a6ca9	0.24455513
108	0x3e131729	0.14364304
109	0x3d42adfb	0.047529202
110	0xbebefaa3	-0.37300596
111	0x3e72dc89	0.2371694
112	0x3d8a3e42	0.06750156
113	0xbe478f0c	-0.19488162
114	0x3be32b4b	0.006932651
115	0xbe077717	-0.13229023
116	0xbe67b5bb	-0.22627918
117	0x3e3919a4	0.18076187
118	0xbd92bcfa	-0.07164951
119	0xbe8fca06	-0.2808382
120	0x3e93c44f	0.2886071
121	0x3e85ed0c	0.26157415
122	0xbebd64a0	-0.36990833
123	0xbe0c808d	-0.13720913
124	0xbccd609e	-0.025070485
125	0xbe96d3e2	-0.2945853
126	0x3d0868e4	0.033303156
127	0xbe4308ca	-0.19046322
128	0xbef50827	-0.47857782
129	0x3e3901ca	0.18067089
130	0x3e20962c	0.15682286
131	0xbe68f71b	-0.22750513
132	0xbdb76598	-0.08954924
133	0xbe61e122	-0.22058538
134	0xbeb52212	-0.35377556
135	0xbd04e339	-0.03244326
136	0xbe19a2e0	-0.15003538
137	0xbcd6c243	-0.026215678
138	0x3c1a648a	0.009423384
139	0x3d7df9e1	0.06200588
140	0xbd4352dc	-0.047686443
141	0xbdf1a661	-0.117993124
142	0xbd206b10	-0.039164603
143	0x3ceb77ae	0.028743591
144	0x3de1388e	0.10997115
145	0x3cabca0a	0.020970363
146	0x3a7c2a69	0.0009619357
147	0x3d6bfd73	0.057614755
148	0xbdf677f7	-0.120346
149	0xbde7fe9b	-0.11327859
150	0xbd55520b	-0.052080195
151	0x3906181b	0.00012788216
152	0xbddfdccf	-0.10930788
153	0xbddb21ad	-0.106997825
154	0xbdc7a427	-0.097481064
155	0xbd3d146b	-0.04616205
156	0x3a81b8fd	0.000989705
157	0xbe19583f	-0.1497507
158	0xbe09104f	-0.13385127
159	0xbd6441dd	-0.055726875
160	0x38a91064	8.061601e-05
161	0x3d9c230d	0.07623873
162	0x3eb78931	0.35846856
163	0x3f030393	0.5117733
164	0x3e81faaa	0.25386554
165	0xbe469d1c	-0.1939587
166	0xbe061148	-0.1309253
167	0xbe5649e1	-0.2092662
168	0x3bbeddab	0.0058247647
169	0xbcb9a14f	-0.022659926
170	0xbe538916	-0.20657763
171	0x3e8a8dc8	0.27061296
172	0x3ec36b54	0.38167822
173	0x3ec69ce4	0.38791573
174	0xbe984a91	-0.2974439
175	0xbe191b5d	-0.14951845
176	0xbea516da	-0.32243997
177	0x3a86fae2	0.0010298158
178	0xbe1082fb	-0.14112465
179	0xbe808fdb	-0.25109753
180	0x3eb1bce3	0.34714422
181	0x3ea587b9	0.3233011
182	0x3edde50e	0.43338817
183	0xbdced424	-0.10099056
184	0xbe383765	-0.17989881
185	0xbe7bc903	-0.24588399
186	0xbddbd39d	-0.107337214
187	0x3d3e2a81	0.046427254
188	0xbdd59c0f	-0.104301564
189	0xbeac4dc4	-0.3365308
190	0x3c003063	0.007824036
191	0x3e0ffa4f	0.14060329
192	0xbec3aa3c	-0.38215816
193	0xbbd4bbac	-0.006492099
194	0x3eb76601	0.3582001
195	0xbe08208e	-0.13293669
196	0xbd93f453	-0.072243355
197	0x3e099f01	0.13439561
198	0xbe6eff41	-0.23339559
199	0x3dbe2d91	0.09286035
200	0x3e9a040a	0.30081207
201	0xbec5fa65	-0.38667598
202	0x3dd6a13e	0.10479973
203	0x3eba64d6	0.36405057
204	0xbe85f2b9	-0.26161745
205	0xbd9c7db1	-0.07641161
206	0x3e998677	0.299854
207	0xbd6894cf	-0.05678254
208	0xbc6c351e	-0.014416961
209	0x3e733e91	0.23754336
210	0xbe91bf16	-0.284661
211	0x3d4e7b6f	0.050410684
212	0x3ea19b01	0.3156357
213	0xbe4c31da	-0.19940892
214	0x3daffc26	0.085930154
215	0x3eb6743a	0.3563555
216	0x3df44eee	0.11929117
217	0x3e9479fd	0.2899932
218	0x3e1c37bb	0.15255634
219	0xbe274e1b	-0.16338389
220	0xbc9b8cc4	-0.01898802
221	0xbe04d399	-0.12971343
222	0xbdc00efc	-0.09377858
223	0xbe750961	-0.23929359
224	0xbeb5e956	-0.35529584
225	0x3e539752	0.20663193
226	0x3e4ac348	0.19801056
227	0x3df05bab	0.11736234
228	0xbde8527d	-0.113438584
229	0xbde4813b	-0.11157461
230	0xbdab4891	-0.0836345
231	0xbd306dc0	-0.043073416
232	0xbba534f4	-0.005041713
233	0xbed6f63e	-0.41984743
234	0x3dcd8626	0.100353524
235	0x3e0186c0	0.1264906
236	0x3e8f5a2e	0.2799849
237	0x3c72f8dc	0.0148298405
238	0xbd64195e	-0.055688255
239	0xbe223a9e	-0.15842673
240	0xbe7b7c45	-0.24559124
241	0xbe2faed9	-0.17156543
242	0xbe8abf73	-0.2709919
243	0xbe004fdf	-0.12530468
244	0x3de6d790	0.11271584
245	0xbdfa9ee1	-0.12237335
246	0xbe98f9b0	-0.29877996
247	0x3d8fcc31	0.07021368
248	0xbe4061c8	-0.187873
249	0x3e3e58fc	0.18588632
250	0x3f0e3115	0.55543643
251	0x3ecbe417	0.39822456
252	0xbdc47262	-0.09592129
253	0xbda9a736	-0.08283846
254	0xbe6eeb3b	-0.23331921
255	0xbe099ddb	-0.13439123

sequential/conv2d_1/Conv2D f4 [64, 3, 3, 32]
0	0x3d27a060	0.04092443
1	0x3c73e99d	0.014887241
2	0xbd1f0fc3	-0.03883339
3	0x3e096924	0.13419014
4	0x3e9c2782	0.30498892
5	0x3cfdff07	0.031005396
6	0xbe55a3ab	-0.20863216
7	0xbd1f47f1	-0.038886968
8	0xbc8640e5	-0.016388366
9	0x3eeb1885	0.45917144
10	0x3e247be5	0.16062887
11	0xbe15e7f1	-0.1463926
12	0x3d0bd9de	0.03414332
13	0x3e32b362	0.17451242
14	0x3e1cdee0	0.15319395
15	0xbe5f6ff8	-0.21820056
16	0x3dc3ad1e	0.09554504
17	0xbeeea295	-0.46608415
18	0xbe40f55a	-0.18843594
19	0x3c56971d	0.013097552
20	0x3e86ace1	0.2630377
21	0x3d4092ae	0.047014885
22	0x3e76846a	0.2407395
23	0x3e8c2057	0.27368423
24	0x3d8f053f	0.069834225
25	0xbd3cf4ca	-0.046131887
26	0x3df81660	0.12113643
27	0xbe075e97	-0.13219677
28	0xbd584d9d	-0.052808393
29	0x3a81079d	0.0009844188
30	0x3e59509a	0.21222153
31	0x3e208f5f	0.15679692
32	0xbda094bf	-0.07840871
33	0xbdb566ec	-0.088575214
34	0x3d57cffb	0.05268858
35	0x3da037cc	0.078231424
36	0x3a06839f	0.00051313074
37	0x3d9a4700	0.075330734
38	0x3e056261	0.1302581
39	0xbe7ecb45	-0.24882229
40	0x3d7b01f8	0.061281174
41	0x3e9aad02	0.3021012
42	0xbf1a755a	-0.60335314
43	0xbdd0b829	-0.10191376
44	0xbba30f9d	-0.0049762265
45	0xbd8a1ba8	-0.06743556
46	0x3e8f1e62	0.27952868
47	0xbbddae9d	-0.0067652003
48	0x3cd6daad	0.02622732
49	0xbdad8f16	-0.08474557
50	0xbd98ef14	-0.074674755
51	0x3d875490	0.06607926
52	0x3e744e83	0.23858075
53	0x3d90db46	0.07073073
54	0x3eb74e12	0.3580175
55	0x3e5856dd	0.21126886
56	0xbe25c519	-0.16188468
57	0x3d3dd348	0.04634407
58	0xbdf22f89	-0.11825473
59	0xbd81d7a0	-0.06339955
60	0xbebc59a9	-0.36787155
61	0x3dac6af6	0.08418839
62	0x3c280e99	0.010257387
63	0x3ebe1bda	0.37130624
64	0xbd885db3	-0.06658497
65	0x3e51f977	0.2050532
66	0xbdab0304	-0.083501846
67	0x3e485e1e	0.19567153
68	0xbea6d37d	-0.32583228
69	0x3c9d41d9	0.019196438
70	0xbd9ec19c	-0.07751772
71	0xbed49f33	-0.4152771
72	0x3e8921df	0.26783654
73	0xbe8d9be3	-0.27657995
74	0xbea17d19	-0.31540754
75	0xbe330767	-0.17483293
76	0x3c654f14	0.0139959045
77	0x3d318670	0.0433411
78	0xbe5ceb35	-0.215741
79	0x3c5d5447	0.013508863
80	0xbda34d3f	-0.07973718
81	0xbd834519	-0.06409664
82	0xbe5f990e	-0.2183573
83	0x3a378605	0.00070008665
84	0xbb980b5d	-0.0046400265
85	0x3d1f1025	0.038833756
86	0xbdad85f4	-0.08472815
87	0xbede5a64	-0.43428338
88	0x3e51c4e1	0.2048526
89	0xbe328195	-0.17432244
90	0x3dcd0b3f	0.10011911
91	0xbe136a0b	-0.14395921
92	0xbe48e816	-0.19619784
93	0xbcee85cb	-0.029116532
94	0xbd96f35b	-0.07370635
95	0xbe486b31	-0.1957214
96	0x3d54f002	0.0519867
97	0xbe2841ed	-0.16431399
98	0x3daf47f8	0.08558649
99	0x3e535099	0.20636214
100	0x3e6be71a	0.23037377
101	0x3be15695	0.0068767765
102	0xbe20020e	-0.15625784
103	0x3d343a9c	0.044001207
104	0xbd42d989	-0.04757074
105	0x3f0449a4	0.51674867
106	0x3e293f3b	0.16528027
107	0xbe41565b	-0.18880598
108	0xbaa8f0d0	-0.001288915
109	0x3d8adf47	0.06780868
110	0x3de298db	0.11064311
111	0x3e0bc360	0.13648748
112	0x3e16041d	0.14650007
113	0xbebced4c	-0.36899793
114	0xbe7dc660	-0.24782705
115	0xbd17c467	-0.03705254
116	0x3e802e1b	0.25035176
117	0xbd122251	-0.035677258
118	0x3e294850	0.16531491
119	0x3ea6f152	0.32605988
120	0x3d5f68e2	0.054543383
121	0x3e0b404f	0.1359875
122	0x3e1895c3	0.1490088
123	0xbd869631	-0.065716155
124	0xbd711adb	-0.058863502
125	0x3d820b92	0.06349863
126	0x3e8de8a7	0.27716562
127	0x3d1a5cf5	0.037686307
128	0xbd196de8	-0.03745833
129	0xbe6fefe3	-0.23431353
130	0x3e1a117e	0.15045735
131	0xbc563d9b	-0.013076211
132	0xbc478585	-0.01217783
133	0xbd15f010	-0.036605895
134	0x3e94e783	0.2908288
135	0xbdf20fb3	-0.11819401
136	0x3dcb9ed9	0.09942407
137	0x3e7c9944	0.24667841
138	0xbf33a905	-0.7017978
139	0xbde8f8fb	-0.11375614
140	0x3d977def	0.07397067
141	0x3c7f34a3	0.015576514
142	0x3e6ed1a3	0.23322158
143	0x3db667a4	0.08906487
144	0xbd846036	-0.06463663
145	0x3d8cc5a0	0.068736315
146	0xbd9be335	-0.07611696
147	0xbcc37338	-0.023858652
148	0x3e208a5c	0.1567778
149	0xbccee30c	-0.025254749
150	0x3e8748b0	0.26422644
151	0x3e6b8fe3	0.23004107
152	0xbd15167f	-0.036398407
153	0x3e05ab08	0.13053524
154	0x3c2b750d	0.010464919
155	0xbdd897f8	-0.10575861
156	0xbeb15af4	-0.34639704
157	0x3e146e08	0.14495099
158	0x3de0c292	0.10974611
159	0x3ea268a7	0.31720468
160	0xbd8487a1	-0.06471182
161	0x3d9bd499	0.07608909
162	0xbca57240	-0.02019608
163	0x3dc79b33	0.09746399
164	0xbe9b843d	-0.30374327
165	0xbd33abef	-0.04386514
166	0x3b85704e	0.0040722257
167	0xbe7e24f3	-0.24818783
168	0x3ebb76db	0.36614117
169	0xbe389878	-0.18026912
170	0xbe757bbf	-0.23972987
171	0xbe6c8ffc	-0.231018
172	0x3d297787	0.041373756
173	0x3d93ed71	0.07223023
174	0xbe4fb207	-0.20282756
175	0xbd1d6134	-0.03842278
176	0xbd3469d7	-0.04404625
177	0xbdfaaae7	-0.12239628
178	0xbe675d15	-0.22594102
179	0x3d8e39e0	0.069446325
180	0xbdf24109	-0.11828811
181	0x3d071cbe	0.032986395
182	0xbe7e1b31	-0.2481506
183	0xbea46159	-0.3210552
184	0x3e4b0673	0.19826679
185	0x3d69485d	0.056953777
186	0x3d9ec755	0.07752863
187	0xbe3eebf1	-0.18644692
188	0xbe837db6	-0.25681847
189	0xbe0327d0	-0.12808156
190	0xbd03a01b	-0.03213511
191	0xbedf2855	-0.43585458
192	0x3d005f85	0.031341095
193	0xbed8825a	-0.4228695
194	0x3d5bdda8	0.053678185
195	0x3e4e7100	0.20160294
196	0x3e4d443b	0.20045559
197	0x3dace85c	0.084427565
198	0xbe43c713	-0.1911891
199	0x3d8c2ae4	0.06844118
200	0xbdacf9b1	-0.08446062
201	0x3eb2587b	0.3483313
202	0x3c860f4e	0.01636472
203	0xbe9cd678	-0.30632377
204	0x3d48ce5d	0.04902493
205	0x3e33e04e	0.17566034
206	0x3e5adb67	0.21372758
207	0xbd66c6c4	-0.0563419
208	0x3e171655	0.14754613
209	0xbedcb86a	-0.43109447
210	0xbe602823	-0.21890311
211	0x3cea879c	0.028629117
212	0x3dfcace7	0.12337666
213	0x3d88bb16	0.06676309
214	0x3cf73963	0.030178731
215	0x3e970aab	0.29500327
216	0x38d30e8b	0.00010063973
217	0xbeeade27	-0.45872614
218	0x3e0d9917	0.1382793
219	0xbc774c51	-0.015093879
220	0xbca8ad56	-0.020590466
221	0xbd5fe4d7	-0.054661598
222	0x3e63e385	0.2225476
223	0xbed9be27	-0.42527887
224	0x3d3787f3	0.044807386
225	0xbf0e7cb3	-0.55659026
226	0x3d2c4727	0.042060044
227	0x3d183db8	0.037168235
228	0xbd6c3d4b	-0.05767564
229	0xbd123f05	-0.03570463
230	0x3e934c83	0.2876931
231	0xbe1ea6e2	-0.15493348
232	0xbca279fd	-0.01983356
233	0x3dcf4fb9	0.10122628
234	0xbf3cdc7c	-0.7377393
235	0xbdc30b60	-0.09523654
236	0xbd624ed3	-0.055250954
237	0xbdc5f9ad	-0.096667625
238	0x3de36768	0.111037076
239	0xbc73af86	-0.014873391
240	0x3c83092e	0.015995588
241	0xbc96b881	-0.018398525
242	0xbe3a59fe	-0.18198392
243	0x3db41898	0.087937534
244	0x3e61354a	0.21992984
245	0xbccb6386	-0.02482773
246	0x3e8bce6d	0.27305928
247	0x3dbb824b	0.09155711
248	0xbdd4fab4	-0.1039938
249	0xbea15491	-0.31509832
250	0xbb22e86d	-0.0024857775
251	0x3caacd44	0.020849831
252	0xbeb0cad4	-0.34529746
253	0x3dd3a655	0.1033446
254	0x3d7cbeff	0.061705586
255	0x3d8d504c	0.06900081

sequential/conv2d_2/Conv2D f4 [64, 3, 3, 64]
0	0x3e0639fa	0.13108054
1	0xbdf90190	-0.12158501
2	0xbdf89a4e	-0.12138806
3	0x3cdad6a7	0.026713682
4	0xbe1c5288	-0.15265858
5	0x3c3a2726	0.011361873
6	0xbea80cd0	-0.32822275
7	0xbf62e851	-0.88635737
8	0xbdbbf253	-0.09177079
9	0x3c7feef5	0.015620937
10	0xbf5b5d61	-0.8568936
11	0x3e69bfec	0.22827119
12	0x3ca0c697	0.019625945
13	0x3d3fbfc1	0.04681373
14	0xbef00237	-0.4687669
15	0x3c12e7db	0.008966411
16	0xbe9e37f2	-0.30902058
17	0x3d484afa	0.04889963
18	0xbdf52605	-0.11970142
19	0xbd34b0f2	-0.04411406
20	0xbdaab07c	-0.08334443
21	0xbe19dc77	-0.15025507
22	0x3d2f75bd	0.042836893
23	0x3e585c6e	0.21129009
24	0xbca427dc	-0.020038538
25	0xbdc2e384	-0.095160514
26	0xbd1ece36	-0.038770877
27	0xbdc86ecd	-0.097867586
28	0xbe90ac8a	-0.28256637
29	0xbe87ca9b	-0.26521763
30	0xbe377f3d	-0.17919631
31	0xbdbda115	-0.092592396
32	0xbcc895bf	-0.024485467
33	0xbd5bf5f1	-0.053701345
34	0xbe2bd0b1	-0.16778828
35	0xbdc20d67	-0.094752125
36	0xbed78af7	-0.4209821
37	0x3d0b2ac1	0.03397632
38	0xbe386e18	-0.18010747
39	0xbda6d75c	-0.08146545
40	0xbeefe949	-0.4685767
41	0xbceb6908	-0.028736606
42	0xbd5a46a8	-0.05329004
43	0xbe679cd0	-0.22618413
44	0xbd70d776	-0.05879923
45	0xbbfaf2eb	-0.0076583526
46	0x3cd4906d	0.025947774
47	0xbcb7e1cf	-0.022446541
48	0x3de75f57	0.112974815
49	0xbe0cc464	-0.13746792
50	0x3d81cf28	0.0633834
51	0xbd23a4d5	-0.039952118
52	0xbe3d78f2	-0.18503168
53	0xbeb6a84e	-0.3567528
54	0xbe25307d	-0.16131778
55	0xbe6748ce	-0.22586367
56	0x3d35567b	0.044271927
57	0xbe8b1572	-0.271648
58	0x3e259acf	0.16172336
59	0x3b9a893d	0.004716067
60	0xbd145d46	-0.036221765
61	0xbda2aea6	-0.07943468
62	0xbe21a846	-0.15786847
63	0x3cf22ac0	0.0295614
64	0xbe77298c	-0.24136943
65	0x3cc72c23	0.024313038
66	0x3d9dd484	0.0770655
67	0xbd446198	-0.047944635
68	0x3d021faa	0.03176848
69	0xbd3366db	-0.043799262
70	0x3db06487	0.08612924
71	0xbe812e39	-0.25230578
72	0xbd1d8d1f	-0.03846466
73	0xbe049acb	-0.12949674
74	0xbe358b6e	-0.1772897
75	0xbcbdae55	-0.023154417
76	0x3d165001	0.03669739
77	0xbd832441	-0.06403399
78	0x3e8c81ab	0.2744268
79	0x3dbb8cb8	0.09157699
80	0x3eb59102	0.35462195
81	0xbc8702cc	-0.016480826
82	0x3f16f5b2	0.5896865
83	0x3e98f553	0.29874668
84	0xbd48097b	-0.048837166
85	0xbd2e3da8	-0.04253927
86	0x3e419779	0.18905438
87	0x3e98b3f8	0.29824805
88	0x3bbd593a	0.005778459
89	0xbded4bc0	-0.11586714
90	0xbd8ad042	-0.06778003
91	0x3ef8df89	0.48608044
92	0xbc0a0ba5	-0.008425628
93	0xbde2c2fe	-0.11072348
94	0xbdc8dd17	-0.098077945
95	0xbe264179	-0.16235913
96	0x3cdda79e	0.027057465
97	0x3d063034	0.032760814
98	0xbe4d6cf7	-0.20061098
99	0xbd45e75c	-0.048316345
100	0xbde60586	-0.11231522
101	0xbdbe5aad	-0.09294639
102	0xbd6f01cc	-0.058351323
103	0xbcc09d7c	-0.023512594
104	0xbb99facb	-0.0046990863
105	0x3c8437e5	0.016139934
106	0x3d58017b	0.052735787
107	0xbe6b0f36	-0.22955021
108	0x3c860b8a	0.016362924
109	0x3d62d0aa	0.05537478
110	0x3d6f2247	0.0583823
111	0x3d02a868	0.031898886
112	0x3e85f1af	0.26160952
113	0xbdf28591	-0.11841882
114	0x3dcd2e54	0.10018602
115	0x3e1616f6	0.14657196
116	0xbdab733c	-0.083715886
117	0xbe26a723	-0.16274695
118	0xbdad125a	-0.08450766
119	0x3ccfc34d	0.025361681
120	0x3e4d91e5	0.20075186
121	0xbe16f2ae	-0.14741012
122	0x3e542dc2	0.2072058
123	0x3e1058d5	0.14096387
124	0xbd66d755	-0.0563577
125	0x3da302f4	0.07959548
126	0x3d89a477	0.06720822
127	0xbd9787b2	-0.07398929
128	0xbe05a02b	-0.1304938
129	0x3e05be4a	0.13060871
130	0xbeb0e3db	-0.3454884
131	0xbd5e6762	-0.054297812
132	0x3d8b6453	0.06806245
133	0xbe8483fd	-0.2588195
134	0x3e6b4cf7	0.22978579
135	0xbecfdfa1	-0.40600303
136	0xbcc3e60a	-0.023913402
137	0x3d83b7c3	0.06431534
138	0xbcd2bbe2	-0.025724355
139	0xbeb6b050	-0.3568139
140	0x3da4f1a6	0.08053903
141	0xbd1a3668	-0.037649542
142	0x3e9c5cfc	0.3053969
143	0x3d1b5353	0.03792126
144	0xbd37f3ec	-0.044910356
145	0x3d6b477e	0.057441227
146	0xbe10caa1	-0.14139797
147	0xbdb75369	-0.08951456
148	0xbe8cf4ea	-0.27530605
149	0xbeab176c	-0.33416307
150	0x3dce6e5b	0.100796424
151	0xbdeae5ff	-0.114696495
152	0xbd8df160	-0.06930804
153	0xbd43b761	-0.047782306
154	0xbe10a6a7	-0.14126073
155	0x3e35c640	0.17751408
156	0x3e39bc68	0.18138278
157	0x3e240996	0.16019282
158	0x3e8c1831	0.27362207
159	0x3e14751f	0.14497803
160	0x3dbaf3cd	0.091285326
161	0xbb2f9e94	-0.00267974
162	0xbd638ce8	-0.0555543
163	0x3e1ab01d	0.15106244
164	0xbe0f30e1	-0.1398349
165	0x3dda21fc	0.10651013
166	0xbe4d5c1c	-0.20054668
167	0xbeae3af2	-0.34029347
168	0xbd4de077	-0.050262894
169	0x3c4aa7dc	0.012369122
170	0xbc38beee	-0.01127599
171	0xbdeb0092	-0.11474718
172	0x3daa8d3c	0.083277196
173	0xbd3f6e0d	-0.046735812
174	0xbd8a74ef	-0.067605846
175	0x3d6380da	0.055542804
176	0x3e9c9d1e	0.3058862
177	0xbe9faa69	-0.311847
178	0x3dc3a743	0.09553387
179	0x3e34915c	0.17633575
180	0x3e5d7a0b	0.21628587
181	0xbe46c473	-0.19410877
182	0x3b8a1eda	0.0042151036
183	0xbd56ecf8	-0.052472085
184	0x3e89ec94	0.26938307
185	0x3e7e9be7	0.2486416
186	0xbd85f7df	-0.06541418
187	0x3eab4ac0	0.33455467
188	0x3d009970	0.03139633
189	0x3e8440be	0.25830644
190	0xbc8b0f55	-0.016975084
191	0x3d061f6e	0.032744817
192	0x3dfe6e54	0.12423387
193	0xbe6fcb31	-0.23417355
194	0xbdd775fd	-0.10520551
195	0xbd921f44	-0.0713487
196	0xbd9d5c03	-0.076835655
197	0xbd85b19b	-0.06528016
198	0xbea5226b	-0.3225282
199	0xbf882bb1	-1.0638334
200	0xbd005e1e	-0.031339757
201	0xbd32cf31	-0.043654624
202	0xbf3aec64	-0.73016953
203	0x3e824213	0.25441036
204	0xbc947abd	-0.018124932
205	0x3d7370f5	0.059433896
206	0xbf078d18	-0.52949667
207	0x3df62a3c	0.12019774
208	0xbeb8472b	-0.35991797
209	0x3c52d216	0.012867471
210	0x3c5c120c	0.013432037
211	0x3d82c098	0.063843906
212	0xbdad1f3f	-0.08453225
213	0xbdcee180	-0.101016045
214	0xbdb3bcff	-0.087762825
215	0x3dc780c6	0.097413585
216	0x3ca0c7bd	0.019626493
217	0xbe095947	-0.13412963
218	0xbd14a222	-0.036287434
219	0xbd925d02	-0.07146646
220	0xbe8fd294	-0.28090346
221	0xbec89fe5	-0.3918449
222	0xbedf16ef	-0.43572184
223	0xbda06c43	-0.07833149
224	0xbd604686	-0.054754756
225	0xbd563633	-0.052297782
226	0xbdac62b6	-0.08417265
227	0xbefdc19e	-0.4956178
228	0xbed88e89	-0.42296246
229	0x3de55a2e	0.11198841
230	0x3e155edf	0.14586972
231	0xbe3397a1	-0.1753831
232	0xbed93745	-0.4242498
233	0x3ca6f85f	0.020382104
234	0x3d3be870	0.045875967
235	0xbd0f9b37	-0.035060134
236	0xbe55f918	-0.20895803
237	0xbbc7e890	-0.0061007217
238	0x3d289f71	0.04116768
239	0xbcfe034e	-0.031007435
240	0xbe9d60d0	-0.30737925
241	0xbd75eefe	-0.060042374
242	0x3e14214b	0.14465825
243	0xbf1054a5	-0.5637916
244	0xbe16e134	-0.14734346
245	0xbec19914	-0.37812102
246	0xbe50df55	-0.20397694
247	0xbe4df4ae	-0.20112869
248	0x3d5fbd99	0.054624174
249	0xbee118a7	-0.4396412
250	0x3d063322	0.032763608
251	0xbdd8153b	-0.105509244
252	0x3d9a2b9a	0.075278476
253	0xbe07464f	-0.13210414
254	0xbe848544	-0.25882924
255	0xbda56748	-0.0807634

sequential/conv2d_3/Conv2D f4 [128, 3, 3, 64]
0	0xbe28df03	-0.16491322
1	0xbf55f797	-0.8358092
2	0x3e98dbad	0.298551
3	0x3cb8bf6e	0.022552218
4	0xbf57a9b4	-0.8424332
5	0xbfb55889	-1.4167644
6	0xbeb18eb8	-0.34679198
7	0xbeb28464	-0.3486663
8	0x3e1f94b4	0.1558407
9	0xbebe9f8f	-0.3723111
10	0xbd1d2782	-0.038367756
11	0x3d5aa9f1	0.053384725
12	0xbed7cca7	-0.42148325
13	0xbf03de6d	-0.5151127
14	0x3e48304b	0.19549672
15	0x3cdcf2e4	0.026971288
16	0x3cee3dee	0.029082265
17	0x3e0a750d	0.13521214
18	0xbeaf7591	-0.34269384
19	0x3e63e127	0.22253858
20	0xbd891078	-0.06692594
21	0x3d47b91c	0.04876052
22	0x3e0e2521	0.13881351
23	0xbf5c91d6	-0.8616003
24	0xbed073ea	-0.40713435
25	0x3e53ae7e	0.20672032
26	0xbd0030df	-0.031296607
27	0xbf21d20f	-0.6321115
28	0xbc84cef4	-0.016211964
29	0xbf846d38	-1.0345831
30	0xbe7dda58	-0.24790323
31	0x3c35e0ca	0.011100957
32	0x3d1e16d9	0.038596008
33	0xbef5697f	-0.4793205
34	0x3daf36e6	0.08555393
35	0x3c2e3950	0.010633782
36	0xbec6c1ab	-0.38819632
37	0x3c2a1a44	0.010382239
38	0xbcf8e7e0	-0.030384004
39	0x3d2e09fe	0.042489998
40	0xbc0d9cc6	-0.008643335
41	0xbd941cf9	-0.072320886
42	0xbe3972e7	-0.18110238
43	0xbdbaa1cc	-0.091128916
44	0xbced1dbd	-0.028944844
45	0x3d2bfb0c	0.041987464
46	0xbf60bbef	-0.87786764
47	0x3d34cbdf	0.04413974
48	0xbd99183b	-0.07475325
49	0xbe9b2469	-0.30301216
50	0xbd5b0333	-0.053469848
51	0xbee00a3c	-0.43757808
52	0xbd210b8d	-0.039317656
53	0xbd18a81f	-0.037269708
54	0xbde72429	-0.11286194
55	0xbeee7129	-0.4657071
56	0xbed5a43a	-0.41726857
57	0xbe91e330	-0.28493643
58	0xbebccc04	-0.36874402
59	0xbdcedda2	-0.10100867
60	0xbe20f7a7	-0.15719472
61	0xbe96e906	-0.29474658
62	0x3cce4dda	0.025183607
63	0x3cb1fce3	0.021727031
64	0xbe01a15e	-0.12659213
65	0xbf597f6f	-0.84960073
66	0xbeaefcfb	-0.34177384
67	0x3d27e533	0.040990066
68	0xbf547f60	-0.8300686
69	0xbfa77e5c	-1.3085437
70	0xbf0fcfa1	-0.5617619
71	0xbf6260b4	-0.8842881
72	0xbe95e305	-0.29274765
73	0xbec72dc7	-0.38902113
74	0xbd064cba	-0.032788016
75	0x3b91f032	0.0044536823
76	0xbef92de6	-0.4866783
77	0xbed470ba	-0.41492254
78	0x3dcdf104	0.10055736
79	0x3d0e14be	0.03468775
80	0x3dac02cf	0.08398973
81	0x3d7c515b	0.061601024
82	0xbed7bb84	-0.4213525
83	0x3e15263a	0.14565364
84	0xbd115cb3	-0.035488795
85	0xbd8273f0	-0.063697696
86	0xbd1e4ea9	-0.038649235
87	0xbf50c624	-0.8155234
88	0xbecbc6a6	-0.39799994
89	0x3e22681d	0.15860029
90	0xbd3272ad	-0.043566395
91	0xbf1c66af	-0.6109418
92	0xbcb6d582	-0.022318605
93	0xbf6c2457	-0.9224295
94	0xbeb32948	-0.34992433
95	0x3ddf888e	0.109147176
96	0x3c5cadb8	0.013469152
97	0xbe702b27	-0.23453961
98	0x3ce162a0	0.027512848
99	0x3d44f703	0.04808713
100	0xbe650b71	-0.22367646
101	0xbbc789c2	-0.00608942
102	0xbe563552	-0.20918778
103	0x3d3b30f8	0.045700997
104	0x3e2b1f2a	0.16711107
105	0xbe3b3e99	-0.18285598
106	0xbd8bada8	-0.06820232
107	0xbf197827	-0.5994896
108	0x3d17ab6c	0.037028715
109	0xbce604c4	-0.028078444
110	0xbf4b8ff1	-0.7951651
111	0x3c545c30	0.012961432
112	0xbdea3f2e	-0.11437832
113	0xbe0e6fe9	-0.13909878
114	0xbe441333	-0.19147949
115	0xbf1baa1c	-0.6080644
116	0xbd511d1e	-0.05105316
117	0x3d2e7bfd	0.042598713
118	0xbe726198	-0.23670042
119	0xbf0a7ada	-0.54093707
120	0xbe68e165	-0.22742231
121	0xbe736a05	-0.23770912
122	0xbedc3893	-0.43011913
123	0xbe4c9d98	-0.19981992
124	0xbd855bde	-0.06511663
125	0xbeceda67	-0.40401003
126	0x3cf9ce40	0.030493855
127	0x3d161df0	0.036649644
128	0x3ebca073	0.36841163
129	0xbefc42d6	-0.49269742
130	0xbec379a6	-0.38178748
131	0x3b5e76ac	0.0033945246
132	0xbf0b95ae	-0.5452527
133	0xbf729b72	-0.9476844
134	0xbf1c00d4	-0.60938764
135	0xbeb5a7dc	-0.3547963
136	0xbd12ed7a	-0.035871007
137	0xbd941238	-0.072300375
138	0xbd39d5b0	-0.045369804
139	0xbd030518	-0.03198728
140	0x3e52caa0	0.20585108
141	0x3d6fe793	0.058570456
142	0xbdc15942	-0.09440853
143	0xbd448700	-0.04798031
144	0x3d380f12	0.044936247
145	0x3bc91572	0.0061365897
146	0xbe8cc4bd	-0.2749385
147	0xbe98efc9	-0.29870442
148	0xbde008ef	-0.10939204
149	0x3db0e9d9	0.08638353
150	0x3df5201d	0.11969016
151	0xbeb0ae6d	-0.34508076
152	0xbe845443	-0.25845537
153	0x3e55fb3c	0.2089662
154	0x3d12dff9	0.03585813
155	0xbf03b101	-0.5144196
156	0xbd44c6b0	-0.048041046
157	0xbebed44a	-0.3727134
158	0xbf2bc59f	-0.6709842
159	0x3caa673d	0.020801181
160	0xbcf8fb67	-0.030393315
161	0x3d3f6efe	0.04673671
162	0xbd2c12f6	-0.04201027
163	0xbba32bcf	-0.0049795876
164	0xbf0150c1	-0.50513846
165	0xbd5212f6	-0.051287614
166	0xbe758152	-0.23975113
167	0xbd4478ee	-0.04796689
168	0x3d9f3315	0.07773415
169	0x3e35594e	0.17709848
170	0x3e5940b0	0.21216083
171	0xbf6259a7	-0.8841805
172	0x3c82b40f	0.015955
173	0xbd21ccf8	-0.039502114
174	0xbe57512e	-0.21027061
175	0x3c803326	0.01564939
176	0xbce517de	-0.027965482
177	0xbf117ab6	-0.5682787
178	0xbba3872d	-0.0049904794
179	0xbe824210	-0.25441027
180	0xbc956e2e	-0.018241014
181	0xba363965	-0.00069513015
182	0xbf1bd71b	-0.608751
183	0xbee4ba87	-0.4467356
184	0xbd8608d9	-0.06544656
185	0x3d973704	0.0738354
186	0xbf045352	-0.51689637
187	0xbe4a4ec7	-0.19756614
188	0x3d86e9bd	0.06587551
189	0xbe9350ab	-0.28772482
190	0xbd9d4d3e	-0.076807484
191	0x3d4dd635	0.050253112
192	0x3b010b4c	0.0019690571
193	0xbe8c1987	-0.27363226
194	0x3db11045	0.08645681
195	0xbc6d10a2	-0.014469298
196	0xbf21dcca	-0.6322752
197	0xbf8a54e1	-1.0807153
198	0xbf1d0491	-0.6133509
199	0xbf4b39ee	-0.7938527
200	0xbde99a1e	-0.11406349
201	0xbec1faa4	-0.37886536
202	0xbd0895e5	-0.033346076
203	0x3cf4567a	0.029826391
204	0xbf0a1aa2	-0.5394689
205	0xbde15140	-0.11001825
206	0xbe1267b5	-0.14297374
207	0x3cda64e1	0.026659431
208	0x3e199bca	0.15000835
209	0xbef77c40	-0.48336983
210	0xbdf0bf7a	-0.11755271
211	0x3e570c14	0.21000701
212	0xbe7657a3	-0.24056868
213	0x3c4fd4df	0.01268503
214	0xbf1cb526	-0.6121391
215	0xbf035ba8	-0.5131173
216	0xbb8f9454	-0.0043816958
217	0x3d6e5475	0.058186013
218	0x3cd9d299	0.026589679
219	0xbe94b2ab	-0.29042563
220	0xbdb1ec32	-0.08687629
221	0xbf0f4bd2	-0.5597507
222	0xbf3beaa7	-0.73404926
223	0xbd36c044	-0.044616953
224	0xbc9f1e8c	-0.019423746
225	0xbed3e149	-0.41382816
226	0xbeea2327	-0.45729944
227	0x3c8e0f9c	0.017341428
228	0xbf1ce23d	-0.6128271
229	0xbc4c8c6b	-0.01248465
230	0xbecbc5b2	-0.39799267
231	0xbd56ba09	-0.05242351
232	0xbe3e6e72	-0.18596819
233	0xbd51922c	-0.05116479
234	0xbf220f33	-0.6330444
235	0xbe2cb3ab	-0.16865413
236	0xbd46a4e1	-0.048497085
237	0x3ce22b04	0.027608402
238	0xbf0b6009	-0.54443413
239	0xbd4ec022	-0.0504762
240	0xbe0a8f1d	-0.13531156
241	0x3e8604ae	0.26175445
242	0xbdb26453	-0.087105416
243	0xbe92009f	-0.285161
244	0x3e1d55e9	0.15364803
245	0x3aaba8e7	0.0013096601
246	0x3e816a15	0.25276247
247	0xbe9c6a21	-0.3054972
248	0xbf100572	-0.5625831
249	0xbe2a5cb0	-0.1663692
250	0xbed30232	-0.41212612
251	0xbd25c70e	-0.040473036
252	0xbe1c0c4d	-0.15239067
253	0xbecd8347	-0.4013922
254	0xbe03786c	-0.12838906
255	0xbd888424	-0.06665829
