LaneFollowingModel/pruned/pruned_model.tflite (tflite, 558276 bytes, 11 tensors)

sequential/dense/BiasAdd/ReadVariableOp/resource f4 [64]
0	0xbdbecf6a	-0.09316905
1	0x3e6dd718	0.23226583
2	0x3d2193b3	0.039447498
3	0xbdaa5842	-0.08317615
4	0x3ea20803	0.31646737
5	0xbdb87da4	-0.09008339
6	0xbdd36a37	-0.10322993
7	0xbe808158	-0.2509868
8	0xbe11a5f5	-0.14223464
9	0x3d8f4f59	0.06997556
10	0xbd8c4cef	-0.068506114
11	0x3e34ecaa	0.17668405
12	0xbe195a1b	-0.14975779
13	0x3e19c14f	0.15015148
14	0x3e7477e0	0.23873854
15	0xbd391e55	-0.045194943
16	0x3e696547	0.2279254
17	0x3e7b6e5f	0.24553822
18	0xbd7ea6f4	-0.062170938
19	0x3e3fd71d	0.18734403
20	0xbe714d63	-0.23564677
21	0xbdab4fbc	-0.083648175
22	0x3e954eab	0.2916158
23	0xbdaf9383	-0.085730575
24	0x3c072d9c	0.00825062
25	0xbdc73bf7	-0.09728234
26	0xbd0a1b90	-0.033717692
27	0xbdc77690	-0.09739411
28	0x3e93c905	0.28864303
29	0x3e4d5704	0.20052725
30	0x3cbf7a70	0.023373812
31	0xbd83e1a9	-0.06439526
32	0x3e9cee41	0.30650523
33	0xbde4e173	-0.111758135
34	0xbdcb49ca	-0.099261835
35	0xbdbbe6fd	-0.09174917
36	0xbd0c9086	-0.034317516
37	0x3e9e1ae8	0.30879903
38	0x3d05af9d	0.03263818
39	0xbd813108	-0.0630818
40	0x3ecb7592	0.39738137
41	0x3eac56ae	0.3365988
42	0x3e48e324	0.19617897
43	0xbd94ecb1	-0.07271708
44	0xbe7a26dc	-0.24428886
45	0xbd335167	-0.043778803
46	0xbd88d120	-0.066805124
47	0x3ea19aa4	0.31563294
48	0xbd8c7961	-0.06859089
49	0xbe5035c1	-0.20333005
50	0xbde7cd98	-0.11318511
51	0x3cc308ea	0.023807961
52	0xbd5ac16e	-0.053407125
53	0xbc293834	-0.010328341
54	0x3d037e56	0.032102905
55	0x3dbce642	0.09223606
56	0xbd682629	-0.056677017
57	0xbd8ab8c7	-0.06773525
58	0xbd95cad5	-0.07314078
59	0x3d26a2b2	0.040682502
60	0xbd847342	-0.06467296
61	0x3d4be1a5	0.04977574
62	0xbd78f239	-0.060777877
63	0x3ec693f4	0.38784754

sequential/conv2d_3/BiasAdd/ReadVariableOp/resource f4 [128]
0	0xbca9087d	-0.02063393
1	0xbe5d7ce1	-0.21629669
2	0xbe106cf6	-0.14104065
3	0xbe5978a7	-0.21237431
4	0x3e13fcf7	0.14451967
5	0xbd9aeebf	-0.075650685
6	0xbd9fbd74	-0.07799807
7	0xbcac2021	-0.021011414
8	0xbd93f571	-0.072245486
9	0xbda039a5	-0.07823495
10	0xbea7ecd1	-0.32797864
11	0xbe8c13af	-0.27358767
12	0xbec65ea1	-0.3874407
13	0xbe6275fe	-0.22115323
14	0xbeb2b0f8	-0.3490064
15	0xbf401789	-0.7503591
16	0xbe03a652	-0.12856415
17	0xbf4ce776	-0.8004068
18	0xbe859d62	-0.26096636
19	0xbe3c18dd	-0.1836886
20	0xbe223417	-0.15840183
21	0xbef2d974	-0.4743153
22	0xbdc0a6d2	-0.094068184
23	0xbe332d39	-0.1749772
24	0xbdbf324c	-0.09335765
25	0xbe41da90	-0.18931031
26	0xbc3e241e	-0.011605291
27	0xbe42b0a9	-0.19012703
28	0xbdc09e6f	-0.09405219
29	0xbedfa87e	-0.43683237
30	0xbe80ea8e	-0.2517895
31	0xbec623a9	-0.38699082
32	0xbcf2356d	-0.029566491
33	0xbc2df41e	-0.010617284
34	0xbd5a90f0	-0.05336088
35	0xbd623fcf	-0.055236634
36	0xbbe748ae	-0.0070582246
37	0xbe94f1dd	-0.29090777
38	0xbe97ed02	-0.2967301
39	0xbf19d3cc	-0.600888
40	0x3d2d9291	0.042376105
41	0xbe45e0a9	-0.19323982
42	0xbd98577e	-0.07438563
43	0xbe937a99	-0.28804472
44	0xbcee867b	-0.02911686
45	0x3dcb3c20	0.09923577
46	0xbe65e464	-0.22450405
47	0xbe17bf10	-0.14818978
48	0xbed3370d	-0.41252938
49	0xba3111ca	-0.0006754665
50	0xbc08476d	-0.0083178105
51	0xbdb542a7	-0.088506036
52	0xbcfddf22	-0.030990187
53	0xbec6d75a	-0.38836175
54	0xbdab547b	-0.08365723
55	0xbe5e494c	-0.21707648
56	0xbdf4aa39	-0.1194653
57	0xbd8e89b5	-0.06959859
58	0xbd793a20	-0.060846448
59	0xbd931986	-0.071826026
60	0xbe5ee8f0	-0.21768546
61	0xbe7bd19d	-0.2459168
62	0xbe257862	-0.16159204
63	0xbe4629eb	-0.19351928
64	0xbe467534	-0.19380647
65	0xbeb238fe	-0.34809107
66	0xbdcf9696	-0.10136144
67	0xbee37bc1	-0.44430354
68	0xbe5030de	-0.20331141
69	0xba3daa4a	-0.0007235153
70	0xbe5d280e	-0.21597311
71	0xbe5c6101	-0.21521379
72	0xbdae72f2	-0.08518018
73	0xbea45d4b	-0.32102427
74	0xbddfa268	-0.109196484
75	0xbe53d7b2	-0.2068775
76	0xbe3816d9	-0.17977466
77	0xbe078862	-0.1323562
78	0xbe753c81	-0.23948862
79	0xbe989985	-0.29804626
80	0xbf034462	-0.5127622
81	0xbe1adb8f	-0.15122817
82	0xbe997f5d	-0.29979983
83	0xbe4d20a4	-0.20031983
84	0xbde476ab	-0.111554466
85	0xbe2240fb	-0.158451
86	0xbe8ab3c8	-0.27090287
87	0xbed2f201	-0.4120026
88	0xbeb98e0e	-0.36241192
89	0xbe59a8d9	-0.21255817
90	0xbebcda40	-0.36885262
91	0xbea9d86a	-0.33172923
92	0xbd9dc1e6	-0.07702999
93	0xbe8ed873	-0.27899513
94	0xbd4436e0	-0.047903895
95	0xbf0f77de	-0.5604228
96	0xbeb404cc	-0.3515991
97	0xbdde8aac	-0.10866293
98	0xba52d13e	-0.0008042044
99	0xbd7584fb	-0.059941273
100	0xbd6e7689	-0.058218513
101	0xbe4b6af3	-0.19865017
102	0xbe354b45	-0.17704494
103	0xbbef2ef9	-0.0072993007
104	0xbdf09d72	-0.1174878
105	0xbe12dbf8	-0.14341724
106	0xbde80031	-0.113281615
107	0xbe36a5fb	-0.17836754
108	0xbcdda893	-0.027057922
109	0xbcbd4126	-0.023102354
110	0x3d4183f1	0.04724497
111	0xbefdbd59	-0.49558523
112	0xbdcd5e0f	-0.10027706
113	0xbf350df4	-0.70724416
114	0xbe4d2622	-0.20034078
115	0xbe548ad0	-0.20756078
116	0xbe5335bb	-0.20625965
117	0x3d490522	0.04907716
118	0xbea3630b	-0.319115
119	0x3f28e8aa	0.6598002
120	0xbe2b36a8	-0.16720068
121	0xbf457577	-0.7713236
122	0xbea5b800	-0.32366943
123	0xbe525eca	-0.20543972
124	0xbf3833ce	-0.7195405
125	0xbdc232a5	-0.09482316
126	0xbda45e5a	-0.08025809
127	0xbde174b7	-0.1100859

sequential/conv2d_2/BiasAdd/ReadVariableOp/resource f4 [64]
0	0x3d43ebce	0.047832303
1	0xbaaa30a9	-0.0012984473
2	0xbe2871ae	-0.16449615
3	0xbd84726a	-0.06467135
4	0xbe902b6d	-0.2815813
5	0x3d14d217	0.03633317
6	0x3d0dc60f	0.03461271
7	0xbe2bde5f	-0.16784047
8	0xbe0c0193	-0.13672476
9	0xbeb4d71b	-0.35320362
10	0xbde188bc	-0.11012408
11	0x3bc69b8b	0.0060610226
12	0xbe85736b	-0.2606462
13	0xbd83ce59	-0.06435842
14	0xbe8da4d6	-0.27664822
15	0xbda293ad	-0.07938323
16	0xbd7191cc	-0.058976933
17	0xbe282182	-0.16419032
18	0xbe1b9e56	-0.15197119
19	0x3cc5774d	0.024104739
20	0xbddb29b5	-0.10701314
21	0xbed574b2	-0.41690594
22	0xbd957967	-0.07298546
23	0xbc7dbf7b	-0.015487547
24	0xbe408b10	-0.18803048
25	0xbe4b0beb	-0.19828765
26	0xbda72e46	-0.08163123
27	0xbed96306	-0.4245836
28	0xbd8849c0	-0.06654692
29	0xbdc75abe	-0.097341046
30	0xbf1854ed	-0.59504586
31	0xbedf7861	-0.4364653
32	0xbdc160da	-0.09442301
33	0x3e46d88e	0.19418547
34	0xbe312ade	-0.17301509
35	0xbd83aa99	-0.06429023
36	0xbee587fd	-0.44830313
37	0xbde96825	-0.11396817
38	0xbf03d0c7	-0.51490444
39	0xbdc1a4c0	-0.09455252
40	0xbe3e246f	-0.18568586
41	0xbd95a10a	-0.073061064
42	0xbebcc1a3	-0.36866483
43	0xbeb09c99	-0.34494475
44	0xbdb6285e	-0.08894418
45	0xbd143f1a	-0.03619299
46	0x3c1c64bc	0.009545501
47	0xbd80f99e	-0.06297611
48	0xbd8a00b7	-0.067384176
49	0xbeb89dd7	-0.36057922
50	0xbe62e1c0	-0.2215643
51	0xbed39e60	-0.41331768
52	0x3c0e7257	0.008694253
53	0xbdc77b60	-0.09740329
54	0xbe47b675	-0.19503196
55	0xbe7b1aec	-0.24521989
56	0xbdfd90a3	-0.12381103
57	0xbdd77dfb	-0.10522076
58	0xbe405b56	-0.18784842
59	0x3ce18e66	0.027533721
60	0x3d4ade53	0.04952843
61	0xbdabf61b	-0.0839655
62	0x3cb5d14c	0.022194527
63	0xbda933f6	-0.08261864

sequential/conv2d_1/BiasAdd/ReadVariableOp/resource f4 [64]
0	0xbf14c8b8	-0.5811877
1	0xbe385e79	-0.18004788
2	0xbdb7a88c	-0.08967695
3	0x3df2d3a4	0.118567735
4	0x3bc578a8	0.0060263462
5	0xbd28dee3	-0.041228186
6	0xbd754584	-0.05988075
7	0x3d53ba84	0.051691547
8	0xbd7a1ce4	-0.06106271
9	0xbe87de79	-0.2653692
10	0xbddbec09	-0.107383795
11	0xbed74edb	-0.4205235
12	0xbdc830f5	-0.09774963
13	0xbd3b3d19	-0.045712564
14	0xbd67a6ad	-0.05655544
15	0xbc73e55f	-0.014886229
16	0xbe24604f	-0.16052364
17	0xbdcc13fc	-0.09964749
18	0x3d13b45e	0.036060683
19	0xbe5aca78	-0.21366298
20	0x3d325ea1	0.043547276
21	0xbc8882f3	-0.016664004
22	0xbe1c5255	-0.15265782
23	0x3e842643	0.2581044
24	0xbd44ed8f	-0.048078116
25	0xbe42b334	-0.19013673
26	0x3e22b241	0.15888311
27	0xbc12160c	-0.008916389
28	0xbe649035	-0.22320636
29	0xbe83d843	-0.25750932
30	0xbe5259a8	-0.20542014
31	0xbe1df44b	-0.15425222
32	0xbd2eb5f5	-0.042653996
33	0xbdab567a	-0.083661035
34	0xbf160462	-0.5860044
35	0xbe8c4ff4	-0.2740475
36	0x3d87bced	0.066278316
37	0xbdb55bb0	-0.08855379
38	0xbdc6ffb3	-0.097167395
39	0x3e73de57	0.23815285
40	0x3e6b1521	0.22957279
41	0xbd64dac0	-0.05587268
42	0xbde9c8c0	-0.11415243
43	0xbf017c52	-0.5058032
44	0xbd0c227b	-0.03421257
45	0xbd2a2321	-0.041537408
46	0xbe108f16	-0.14117083
47	0xbd83842e	-0.06421696
48	0x3dd445ea	0.103648975
49	0xbe9b3dba	-0.3032053
50	0xbdee3dad	-0.116328575
51	0xbe2767c0	-0.16348171
52	0xbdb4e154	-0.088320404
53	0xbe3d2ed9	-0.18474902
54	0xbd9b835f	-0.075934164
55	0xbd81a1ad	-0.06329665
56	0xbe03297e	-0.12808797
57	0xbe81823e	-0.2529468
58	0xbe8229fe	-0.25422662
59	0xbe43523d	-0.1907434
60	0xbe6b5ce3	-0.22984652
61	0xbd33fe89	-0.043943916
62	0xbea46c63	-0.32113943
63	0xbd579dc4	-0.05264069

sequential/conv2d/BiasAdd/ReadVariableOp/resource f4 [32]
0	0xbdc4c7ae	-0.096083984
1	0xbd46b718	-0.048514456
2	0xbe50ae98	-0.20379102
3	0x3e12ac28	0.14323485
4	0x3e483918	0.1955303
5	0xbd4d66b6	-0.05014678
6	0xbde04678	-0.10950941
7	0x3c397a55	0.01132067
8	0xbe62153b	-0.22078411
9	0xbda933ef	-0.08261859
10	0x3e447252	0.19184235
11	0x3d914c70	0.070946574
12	0xbd12eb2d	-0.035868812
13	0x3e367598	0.17818296
14	0x3d629964	0.055322066
15	0xbe22103b	-0.15826504
16	0x3e3c38bd	0.18381019
17	0xbc8ff436	-0.017572504
18	0xbe7569f5	-0.239662
19	0xbd2c6a6e	-0.042093687
20	0xbd0ad218	-0.033891767
21	0xbd3bce1e	-0.045850866
22	0xbefdd999	-0.49580076
23	0x3d3d1674	0.04616399
24	0x3d66da89	0.056360755
25	0xbe6bb991	-0.23020007
26	0xbbe1908f	-0.006883688
27	0xbe835f70	-0.2565875
28	0x3db474ea	0.08811362
29	0xbed8328b	-0.4222606
30	0xbe91cd81	-0.284771
31	0xbe6dd9ab	-0.23227565

sequential/dense/MatMul f4 [64, 128]
0	0x00000000	0.0
1	0x00000000	0.0
2	0x80000000	-0.0
3	0x00000000	0.0
4	0xbe472c8e	-0.1945059
5	0x00000000	0.0
6	0x80000000	-0.0
7	0xbe6e2a97	-0.23258434
8	0x80000000	-0.0
9	0x00000000	0.0
10	0x80000000	-0.0
11	0x80000000	-0.0
12	0xbe409973	-0.18808536
13	0x00000000	0.0
14	0x80000000	-0.0
15	0x00000000	0.0
16	0xbe5c0371	-0.21485688
17	0x00000000	0.0
18	0x80000000	-0.0
19	0x00000000	0.0
20	0x00000000	0.0
21	0x80000000	-0.0
22	0x80000000	-0.0
23	0x80000000	-0.0
24	0x80000000	-0.0
25	0x80000000	-0.0
26	0x80000000	-0.0
27	0x80000000	-0.0
28	0x00000000	0.0
29	0x00000000	0.0
30	0x00000000	0.0
31	0x80000000	-0.0
32	0x80000000	-0.0
33	0x80000000	-0.0
34	0x80000000	-0.0
35	0x80000000	-0.0
36	0xbe48da91	-0.19614626
37	0x80000000	-0.0
38	0x80000000	-0.0
39	0x80000000	-0.0
40	0xbe86a1b1	-0.26295236
41	0x00000000	0.0
42	0x80000000	-0.0
43	0x00000000	0.0
44	0x00000000	0.0
45	0xbe2b690f	-0.16739295
46	0x00000000	0.0
47	0x80000000	-0.0
48	0x00000000	0.0
49	0x00000000	0.0
50	0x80000000	-0.0
51	0x00000000	0.0
52	0xbe261b3a	-0.16221324
53	0x00000000	0.0
54	0x80000000	-0.0
55	0x80000000	-0.0
56	0x80000000	-0.0
57	0xbe28aae9	-0.16471447
58	0x00000000	0.0
59	0x00000000	0.0
60	0x80000000	-0.0
61	0x80000000	-0.0
62	0x00000000	0.0
63	0xbe462eb2	-0.1935375
64	0x80000000	-0.0
65	0xbe3638ac	-0.17795056
66	0x80000000	-0.0
67	0x00000000	0.0
68	0x00000000	0.0
69	0x80000000	-0.0
70	0x80000000	-0.0
71	0x80000000	-0.0
72	0x00000000	0.0
73	0x00000000	0.0
74	0xbe4a0324	-0.1972776
75	0x80000000	-0.0
76	0x80000000	-0.0
77	0xbe8b6afb	-0.27230057
78	0x00000000	0.0
79	0x00000000	0.0
80	0xbe2fa140	-0.17151356
81	0x00000000	0.0
82	0xbe2d4285	-0.16919906
83	0x80000000	-0.0
84	0x80000000	-0.0
85	0xbe57ec84	-0.21086317
86	0xbe466645	-0.1937495
87	0x00000000	0.0
88	0xbe5042c6	-0.20337972
89	0x00000000	0.0
90	0x80000000	-0.0
91	0x00000000	0.0
92	0x80000000	-0.0
93	0x00000000	0.0
94	0x00000000	0.0
95	0x00000000	0.0
96	0xbe4ac029	-0.19799866
97	0x80000000	-0.0
98	0x00000000	0.0
99	0x80000000	-0.0
100	0x00000000	0.0
101	0x80000000	-0.0
102	0x80000000	-0.0
103	0x00000000	0.0
104	0x80000000	-0.0
105	0x00000000	0.0
106	0x00000000	0.0
107	0xbe2a8b9e	-0.16654822
108	0x80000000	-0.0
109	0x00000000	0.0
110	0x80000000	-0.0
111	0xbe4a6c3a	-0.19767848
112	0x80000000	-0.0
113	0x80000000	-0.0
114	0x00000000	0.0
115	0x80000000	-0.0
116	0xbe2aae15	-0.1666797
117	0x00000000	0.0
118	0x80000000	-0.0
119	0x80000000	-0.0
120	0xbe436daa	-0.19084802
121	0xbe4539ec	-0.19260377
122	0x80000000	-0.0
123	0x00000000	0.0
124	0x80000000	-0.0
125	0x00000000	0.0
126	0x00000000	0.0
127	0xbe346684	-0.17617232
128	0x00000000	0.0
129	0x3ec50097	0.38477013
130	0x3e35f803	0.1777039
131	0xbeca5e24	-0.3952495
132	0x3ea5fcca	0.32419425
133	0xbec93d44	-0.39304554
134	0x80000000	-0.0
135	0x3e74e49e	0.23915336
136	0xbebe4ad5	-0.37166467
137	0x3e79a6da	0.24380055
138	0xbea321e8	-0.31861806
139	0x3e45a8c4	0.1930266
140	0x80000000	-0.0
141	0xbe8c1b18	-0.2736442
142	0x00000000	0.0
143	0x00000000	0.0
144	0x00000000	0.0
145	0xbe89555b	-0.26822934
146	0x3edc42d6	0.43019742
147	0x3e48a343	0.1959353
148	0x00000000	0.0
149	0x3e68f00b	0.22747819
150	0xbe67329c	-0.225779
151	0x00000000	0.0
152	0x00000000	0.0
153	0x3e28f8af	0.16501115
154	0x3e464f44	0.19366175
155	0xbe89c9ab	-0.26911673
156	0xbe9c5b37	-0.3053834
157	0xbe9aec38	-0.30258346
158	0x3eac1bed	0.33615056
159	0x80000000	-0.0
160	0x00000000	0.0
161	0xbe6a9365	-0.22907789
162	0x3e8c6e53	0.2742792
163	0x3ea65e63	0.32493886
164	0x3ea01fb1	0.3127418
165	0xbeddef56	-0.4334666
166	0xbe945808	-0.28973413
167	0x80000000	-0.0
168	0x80000000	-0.0
169	0x80000000	-0.0
170	0x3ea58446	0.3232748
171	0x80000000	-0.0
172	0x3e38b7e7	0.18038903
173	0x80000000	-0.0
174	0x3ea284a6	0.31741828
175	0x3e9f8339	0.31154802
176	0x00000000	0.0
177	0x00000000	0.0
178	0xbe848a48	-0.2588675
179	0x00000000	0.0
180	0x00000000	0.0
181	0x80000000	-0.0
182	0xbe46a16c	-0.19397515
183	0xbf083c84	-0.5321734
184	0x3e46eff7	0.19427477
185	0x80000000	-0.0
186	0xbe6dab67	-0.23209916
187	0x3ec32804	0.38116467
188	0xbeb0d7b6	-0.34539574
189	0x3e86a728	0.26299405
190	0xbe705dca	-0.23473278
191	0x80000000	-0.0
192	0x00000000	0.0
193	0x3e9cfb7d	0.3066062
194	0x3ea06fd7	0.31335327
195	0x80000000	-0.0
196	0x3ea75bbc	0.32687175
197	0x80000000	-0.0
198	0x00000000	0.0
199	0x3ec3860e	0.38188213
200	0x80000000	-0.0
201	0x3ebd3a6e	0.3695864
202	0x00000000	0.0
203	0xbe7bf53e	-0.24605271
204	0x3e89181b	0.26776204
205	0x80000000	-0.0
206	0x00000000	0.0
207	0x80000000	-0.0
208	0x3ea1077d	0.31451026
209	0xbe4d71c4	-0.2006293
210	0x80000000	-0.0
211	0x80000000	-0.0
212	0xbe2cb672	-0.16866472
213	0x3f05ef7b	0.52318543
214	0x00000000	0.0
215	0xbe9c1683	-0.30485925
216	0x00000000	0.0
217	0xbe5dadfc	-0.21648401
218	0xbe91e882	-0.28497702
219	0x00000000	0.0
220	0xbea003bd	-0.31252852
221	0x00000000	0.0
222	0x80000000	-0.0
223	0xbe4ca18d	-0.19983502
224	0xbf166021	-0.5874043
225	0x80000000	-0.0
226	0xbe63e23d	-0.22254272
227	0x3eacb8b1	0.33734658
228	0x3f02ef36	0.51146257
229	0x80000000	-0.0
230	0x00000000	0.0
231	0xbedb059d	-0.4277772
232	0xbf48c1d4	-0.7842076
233	0x80000000	-0.0
234	0x3ecc75cf	0.3993363
235	0xbe5bd4b7	-0.21467863
236	0xbea83cec	-0.3285898
237	0x00000000	0.0
238	0x80000000	-0.0
239	0xbee8f655	-0.45500436
240	0xbeca34a8	-0.394933
241	0x80000000	-0.0
242	0xbec5d72b	-0.38640723
243	0x3ec16046	0.37768763
244	0xbe9a8918	-0.3018272
245	0x00000000	0.0
246	0xbf062ec9	-0.5241514
247	0x00000000	0.0
248	0x3edf9e36	0.43675393
249	0x3e4fffb1	0.20312382
250	0x00000000	0.0
251	0x00000000	0.0
252	0x3e8bdaf6	0.2731549
253	0xbebb4fc0	-0.36584282
254	0xbe9d5a32	-0.30732876
255	0xbe8d90e1	-0.27649596

sequential/dense_1/MatMul f4 [1, 64]
0	0x3e495467	0.19661103
1	0x3e8956c7	0.26824018
2	0x00000000	0.0
3	0x3e65dca5	0.2244745
4	0x00000000	0.0
5	0x80000000	-0.0
6	0x80000000	-0.0
7	0x00000000	0.0
8	0x00000000	0.0
9	0x00000000	0.0
10	0x80000000	-0.0
11	0x80000000	-0.0
12	0x00000000	0.0
13	0x80000000	-0.0
14	0xbee8b649	-0.45451573
15	0x00000000	0.0
16	0xbe6ac79a	-0.22927704
17	0x3e55a4a5	0.20863588
18	0x80000000	-0.0
19	0x00000000	0.0
20	0x3e482fa1	0.19549419
21	0x80000000	-0.0
22	0x3e6a3d56	0.2287496
23	0x80000000	-0.0
24	0x00000000	0.0
25	0x80000000	-0.0
26	0x00000000	0.0
27	0x00000000	0.0
28	0x80000000	-0.0
29	0x3e430248	0.19043839
30	0x80000000	-0.0
31	0x00000000	0.0
32	0x80000000	-0.0
33	0x80000000	-0.0
34	0x00000000	0.0
35	0x3e7daf19	0.24773826
36	0x00000000	0.0
37	0x3e71b38c	0.23603648
38	0x00000000	0.0
39	0x00000000	0.0
40	0xbe50c771	-0.20388581
41	0x00000000	0.0
42	0x3e8b9b6d	0.27267018
43	0x00000000	0.0
44	0x3ea67d87	0.32517645
45	0x3e537623	0.20650534
46	0x3e235453	0.15950136
47	0xbe74ef2f	-0.23919366
48	0x80000000	-0.0
49	0xbed13d8d	-0.40867272
50	0x3e4b6247	0.19861709
51	0x80000000	-0.0
52	0xbe736e6f	-0.23772596
53	0x80000000	-0.0
54	0x80000000	-0.0
55	0x00000000	0.0
56	0x3e7a2142	0.2442675
57	0x80000000	-0.0
58	0x00000000	0.0
59	0xbe338396	-0.17530665
60	0x00000000	0.0
61	0x00000000	0.0
62	0x00000000	0.0
63	0x3e116596	0.14198908

sequential/conv2d/Conv2D f4 [32, 3, 3, 3]
0	0x80000000	-0.0
1	0x80000000	-0.0
2	0x00000000	0.0
3	0x80000000	-0.0
4	0x80000000	-0.0
5	0x80000000	-0.0
6	0x80000000	-0.0
7	0x80000000	-0.0
8	0x00000000	0.0
9	0x80000000	-0.0
10	0x80000000	-0.0
11	0x80000000	-0.0
12	0x00000000	0.0
13	0x80000000	-0.0
14	0x00000000	0.0
15	0x00000000	0.0
16	0x00000000	0.0
17	0x00000000	0.0
18	0x00000000	0.0
19	0x80000000	-0.0
20	0x80000000	-0.0
21	0x80000000	-0.0
22	0x80000000	-0.0
23	0x00000000	0.0
24	0x80000000	-0.0
25	0x80000000	-0.0
26	0x80000000	-0.0
27	0x3e6950a3	0.22784667
28	0x3ea4400c	0.32080114
29	0x00000000	0.0
30	0x00000000	0.0
31	0x3eeb6451	0.45974973
32	0x00000000	0.0
33	0x3e5f8bf4	0.21830732
34	0x00000000	0.0
35	0x3e97cb08	0.29647088
36	0x00000000	0.0
37	0x00000000	0.0
38	0x00000000	0.0
39	0x00000000	0.0
40	0x3e5f5bc0	0.21812344
41	0x00000000	0.0
42	0x00000000	0.0
43	0x00000000	0.0
44	0x00000000	0.0
45	0xbedd39e2	-0.43208224
46	0xbe805e0c	-0.25071752
47	0x00000000	0.0
48	0xbee101fe	-0.43946832
49	0x00000000	0.0
50	0xbe9a3785	-0.30120483
51	0xbeca1f86	-0.39477175
52	0xbe5d7f75	-0.21630652
53	0x00000000	0.0
54	0x00000000	0.0
55	0x00000000	0.0
56	0x00000000	0.0
57	0x00000000	0.0
58	0x00000000	0.0
59	0x00000000	0.0
60	0x00000000	0.0
61	0x00000000	0.0
62	0x00000000	0.0
63	0x00000000	0.0
64	0x3e913f68	0.28368688
65	0x3e94b139	0.2904146
66	0x00000000	0.0
67	0x00000000	0.0
68	0x00000000	0.0
69	0x00000000	0.0
70	0x00000000	0.0
71	0x00000000	0.0
72	0x00000000	0.0
73	0x00000000	0.0
74	0x3ea08bbc	0.3135661
75	0x00000000	0.0
76	0x00000000	0.0
77	0x3e430997	0.19046627
78	0x00000000	0.0
79	0x00000000	0.0
80	0x00000000	0.0
81	0x80000000	-0.0
82	0x80000000	-0.0
83	0x00000000	0.0
84	0xbede7b14	-0.43453276
85	0xbe4fd5e1	-0.20296432
86	0x80000000	-0.0
87	0x80000000	-0.0
88	0x80000000	-0.0
89	0x80000000	-0.0
90	0xbe820029	-0.25390747
91	0x80000000	-0.0
92	0x80000000	-0.0
93	0xbf1be9aa	-0.6090342
94	0xbe944d1e	-0.28965086
95	0x80000000	-0.0
96	0x80000000	-0.0
97	0xbe5a93e6	-0.21345481
98	0x3e5b3236	0.21405873
99	0xbea2f35c	-0.31826293
100	0x80000000	-0.0
101	0x00000000	0.0
102	0xbef94f8e	-0.48693508
103	0xbe9dc217	-0.3081214
104	0x80000000	-0.0
105	0x80000000	-0.0
106	0x80000000	-0.0
107	0x3e7468ce	0.23868105
108	0x80000000	-0.0
109	0x80000000	-0.0
110	0xbebd3f97	-0.36962578
111	0x3e7338e0	0.23752165
112	0x80000000	-0.0
113	0x80000000	-0.0
114	0x80000000	-0.0
115	0x80000000	-0.0
116	0xbe75ca55	-0.24002965
117	0x80000000	-0.0
118	0x00000000	0.0
119	0xbe91a392	-0.28445107
120	0x3e93131b	0.28725514
121	0x3e83cc6b	0.25741896
122	0xbebe6e4f	-0.37193534
123	0x80000000	-0.0
124	0x80000000	-0.0
125	0xbe9f8e9d	-0.31163493
126	0x00000000	0.0
127	0xbe48e5bb	-0.19618885
128	0xbef8d335	-0.48598638
129	0x80000000	-0.0
130	0x00000000	0.0
131	0xbe703952	-0.23459366
132	0x80000000	-0.0
133	0xbe724ba7	-0.23661672
134	0xbebe4657	-0.3716304
135	0x80000000	-0.0
136	0x80000000	-0.0
137	0x80000000	-0.0
138	0x00000000	0.0
139	0x00000000	0.0
140	0x80000000	-0.0
141	0x80000000	-0.0
142	0x80000000	-0.0
143	0x00000000	0.0
144	0x00000000	0.0
145	0x00000000	0.0
146	0x00000000	0.0
147	0x00000000	0.0
148	0x80000000	-0.0
149	0x80000000	-0.0
150	0x80000000	-0.0
151	0x00000000	0.0
152	0x80000000	-0.0
153	0x80000000	-0.0
154	0x80000000	-0.0
155	0x80000000	-0.0
156	0x00000000	0.0
157	0x80000000	-0.0
158	0x80000000	-0.0
159	0x80000000	-0.0
160	0x00000000	0.0
161	0x00000000	0.0
162	0x3eb136a0	0.34611988
163	0x3efea88c	0.49737966
164	0x3e754f97	0.23956142
165	0xbe5f3956	-0.21799216
166	0x80000000	-0.0
167	0xbe6f3641	-0.2336054
168	0x80000000	-0.0
169	0x80000000	-0.0
170	0xbe7ee4b4	-0.24891931
171	0x3e8468f7	0.25861332
172	0x3ebc444f	0.36770865
173	0x3ebf38c1	0.37347987
174	0xbea3de28	-0.3200543
175	0x80000000	-0.0
176	0xbeb15a52	-0.3463922
177	0x80000000	-0.0
178	0xbe41d7a8	-0.18929923
179	0xbe981a61	-0.29707626
180	0x3ea8fa52	0.3300348
181	0x3e9bb251	0.30409482
182	0x3ed4be87	0.4155161
183	0x00000000	0.0
184	0xbe5483f8	-0.20753467
185	0xbe8a09a0	-0.26960468
186	0x80000000	-0.0
187	0x00000000	0.0
188	0x00000000	0.0
189	0xbea99db5	-0.33128133
190	0x00000000	0.0
191	0x00000000	0.0
192	0xbec0f12e	-0.37684005
193	0x00000000	0.0
194	0x3ec41cf2	0.38303334
195	0x00000000	0.0
196	0x00000000	0.0
197	0x00000000	0.0
198	0xbe7111c7	-0.23541938
199	0x00000000	0.0
200	0x3ea276a3	0.31731138
201	0xbec52546	-0.38505
202	0x00000000	0.0
203	0x3ec394fc	0.38199604
204	0xbe84c414	-0.25930846
205	0x00000000	0.0
206	0x3ea3745a	0.31924707
207	0x00000000	0.0
208	0x00000000	0.0
209	0x3e82708b	0.25476488
210	0xbe8f60ca	-0.28003532
211	0x00000000	0.0
212	0x3eaaee27	0.3338482
213	0xbe46f17a	-0.19428053
214	0x00000000	0.0
215	0x3ebf834e	0.37404865
216	0x00000000	0.0
217	0x3e8bf4bc	0.27335155
218	0x00000000	0.0
219	0x80000000	-0.0
220	0x00000000	0.0
221	0x00000000	0.0
222	0x00000000	0.0
223	0xbe74a3d3	-0.23890619
224	0xbeb35afa	-0.35030347
225	0x3e4965f4	0.19667798
226	0x00000000	0.0
227	0x00000000	0.0
228	0x00000000	0.0
229	0x00000000	0.0
230	0x00000000	0.0
231	0x00000000	0.0
232	0x00000000	0.0
233	0xbed49bb2	-0.41525036
234	0x00000000	0.0
235	0x00000000	0.0
236	0x3e86d17e	0.26331705
237	0x00000000	0.0
238	0x00000000	0.0
239	0x00000000	0.0
240	0xbe7b8aaf	-0.24564622
241	0x00000000	0.0
242	0xbe88b28d	-0.26698723
243	0x00000000	0.0
244	0x00000000	0.0
245	0x00000000	0.0
246	0xbe9d65fa	-0.30741864
247	0x00000000	0.0
248	0xbe4a86c9	-0.19777979
249	0x00000000	0.0
250	0x3f109394	0.56475186
251	0x3ecce880	0.40021133
252	0x00000000	0.0
253	0x00000000	0.0
254	0xbe86f90e	-0.2636189
255	0x00000000	0.0

sequential/conv2d_1/Conv2D f4 [64, 3, 3, 32]
0	0x00000000	0.0
1	0x00000000	0.0
2	0x00000000	0.0
3	0x00000000	0.0
4	0x3e8f6c04	0.28012097
5	0x00000000	0.0
6	0xbe6a837f	-0.22901724
7	0x00000000	0.0
8	0x80000000	-0.0
9	0x3ecf9b5b	0.40548214
10	0x3e0bcc44	0.1365214
11	0xbe0f97ce	-0.14022753
12	0x00000000	0.0
13	0x80000000	-0.0
14	0x00000000	0.0
15	0xbe66e6bf	-0.2254896
16	0x80000000	-0.0
17	0xbef9dfab	-0.48803458
18	0xbe40f55a	-0.18843594
19	0x00000000	0.0
20	0x3e86ad3e	0.26304048
21	0x00000000	0.0
22	0x3e6492d2	0.22321633
23	0x3e72b731	0.23702694
24	0x80000000	-0.0
25	0x00000000	0.0
26	0x00000000	0.0
27	0x80000000	-0.0
28	0x80000000	-0.0
29	0x00000000	0.0
30	0x3e5b2e7c	0.21404451
31	0x3e3d735c	0.18501037
32	0x80000000	-0.0
33	0x00000000	0.0
34	0x80000000	-0.0
35	0x80000000	-0.0
36	0x80000000	-0.0
37	0x00000000	0.0
38	0x80000000	-0.0
39	0xbe7c757d	-0.24654193
40	0x00000000	0.0
41	0x3e8a838d	0.2705349
42	0xbf1847f7	-0.5948481
43	0x80000000	-0.0
44	0x80000000	-0.0
45	0x80000000	-0.0
46	0x3e850d2d	0.25986615
47	0x00000000	0.0
48	0x80000000	-0.0
49	0x80000000	-0.0
50	0x80000000	-0.0
51	0x00000000	0.0
52	0x3e744d9d	0.23857732
53	0x00000000	0.0
54	0x3eaa57c0	0.33270073
55	0x3e37b9e9	0.17942013
56	0xbe20484e	-0.15652582
57	0x00000000	0.0
58	0x80000000	-0.0
59	0x80000000	-0.0
60	0xbeae734d	-0.34072343
61	0x80000000	-0.0
62	0x80000000	-0.0
63	0x3ec6166b	0.3868898
64	0x80000000	-0.0
65	0x3e6e1c5b	0.23253004
66	0x80000000	-0.0
67	0x3e4caa2b	0.19986789
68	0xbeb5660e	-0.35429424
69	0x00000000	0.0
70	0x80000000	-0.0
71	0xbed8387a	-0.42230588
72	0x3e8aefec	0.2713617
73	0xbea0a87a	-0.31378537
74	0xbead3273	-0.33827552
75	0xbe609ff9	-0.21936025
76	0x00000000	0.0
77	0x80000000	-0.0
78	0xbe764ef6	-0.24053559
79	0x00000000	0.0
80	0x80000000	-0.0
81	0x80000000	-0.0
82	0xbe5f990e	-0.2183573
83	0x00000000	0.0
84	0x80000000	-0.0
85	0x00000000	0.0
86	0x80000000	-0.0
87	0xbedc4507	-0.43021414
88	0x3e46d503	0.19417195
89	0xbe328195	-0.17432244
90	0x80000000	-0.0
91	0xbe136a0b	-0.14395921
92	0xbe412476	-0.18861565
93	0x80000000	-0.0
94	0x00000000	0.0
95	0xbe5a6339	-0.21326913
96	0x00000000	0.0
97	0xbe38b6af	-0.18038438
98	0x00000000	0.0
99	0x3e23e98d	0.16007061
100	0x3e51eacc	0.20499724
101	0x00000000	0.0
102	0xbe2d27b9	-0.16909684
103	0x00000000	0.0
104	0x00000000	0.0
105	0x3eefc175	0.46827284
106	0x00000000	0.0
107	0xbe351520	-0.1768384
108	0x80000000	-0.0
109	0x80000000	-0.0
110	0x00000000	0.0
111	0x00000000	0.0
112	0x80000000	-0.0
113	0xbecafafb	-0.39644608
114	0xbe7dc660	-0.24782705
115	0x80000000	-0.0
116	0x3e802d82	0.2503472
117	0x80000000	-0.0
118	0x3e20a00f	0.15686058
119	0x3e9651c0	0.29359245
120	0x80000000	-0.0
121	0x80000000	-0.0
122	0x00000000	0.0
123	0x80000000	-0.0
124	0x80000000	-0.0
125	0x00000000	0.0
126	0x3e909b36	0.28243417
127	0x00000000	0.0
128	0x80000000	-0.0
129	0xbe87e9d4	-0.26545584
130	0x80000000	-0.0
131	0x80000000	-0.0
132	0x80000000	-0.0
133	0x80000000	-0.0
134	0x3e8d0507	0.27542898
135	0x00000000	0.0
136	0x00000000	0.0
137	0x3e5f29d9	0.21793307
138	0xbf2fe4c3	-0.6870844
139	0x80000000	-0.0
140	0x00000000	0.0
141	0x80000000	-0.0
142	0x3e5e0e0b	0.21685044
143	0x80000000	-0.0
144	0x80000000	-0.0
145	0x80000000	-0.0
146	0x80000000	-0.0
147	0x80000000	-0.0
148	0x3e2088dd	0.15677209
149	0x80000000	-0.0
150	0x3e80597c	0.2506827
151	0x3e4acb25	0.19804056
152	0x80000000	-0.0
153	0x00000000	0.0
154	0x80000000	-0.0
155	0x80000000	-0.0
156	0xbea454ba	-0.3209589
157	0x80000000	-0.0
158	0x80000000	-0.0
159	0x3eb66c05	0.35629287
160	0x80000000	-0.0
161	0x80000000	-0.0
162	0x80000000	-0.0
163	0x80000000	-0.0
164	0xbeaae136	-0.33374947
165	0x80000000	-0.0
166	0x80000000	-0.0
167	0xbe80dea3	-0.25169858
168	0x3ebc9d01	0.36838534
169	0xbe5d3e13	-0.2160571
170	0xbe7efaa4	-0.249003
171	0xbe89a6f4	-0.26885188
172	0x00000000	0.0
173	0x80000000	-0.0
174	0xbe661e91	-0.22472598
175	0x80000000	-0.0
176	0x80000000	-0.0
177	0xbe343d5a	-0.17601529
178	0xbe675aa8	-0.22593176
179	0x00000000	0.0
180	0x80000000	-0.0
181	0x00000000	0.0
182	0xbe8e74f6	-0.2782361
183	0xbea3c30e	-0.31984752
184	0x3e41c737	0.1892365
185	0x00000000	0.0
186	0x00000000	0.0
187	0xbe3eebf1	-0.18644692
188	0xbe80fc69	-0.25192574
189	0xbe31ba70	-0.17356277
190	0x00000000	0.0
191	0xbed5f73c	-0.41790187
192	0x00000000	0.0
193	0xbec82c40	-0.3909626
194	0x00000000	0.0
195	0x3e1f7d93	0.15575247
196	0x3e3361af	0.17517732
197	0x00000000	0.0
198	0xbe499346	-0.19685087
199	0x00000000	0.0
200	0x80000000	-0.0
201	0x3e9c6ce5	0.3055183
202	0x00000000	0.0
203	0xbe95bf79	-0.29247645
204	0x00000000	0.0
205	0x80000000	-0.0
206	0x3e465379	0.1936778
207	0x80000000	-0.0
208	0x80000000	-0.0
209	0xbee44fdb	-0.44592175
210	0xbe602823	-0.21890311
211	0x00000000	0.0
212	0x00000000	0.0
213	0x00000000	0.0
214	0x00000000	0.0
215	0x3e87ee97	0.26549217
216	0x80000000	-0.0
217	0xbeec3524	-0.46134293
218	0x00000000	0.0
219	0x80000000	-0.0
220	0x80000000	-0.0
221	0x00000000	0.0
222	0x3e793f6c	0.243406
223	0xbec6723d	-0.38759032
224	0x00000000	0.0
225	0xbf05ce16	-0.5226759
226	0x80000000	-0.0
227	0x80000000	-0.0
228	0x80000000	-0.0
229	0x80000000	-0.0
230	0x3e8f9d33	0.2804962
231	0x00000000	0.0
232	0x00000000	0.0
233	0x80000000	-0.0
234	0xbf3c319e	-0.7351321
235	0x80000000	-0.0
236	0x80000000	-0.0
237	0x80000000	-0.0
238	0x80000000	-0.0
239	0x80000000	-0.0
240	0x80000000	-0.0
241	0x80000000	-0.0
242	0xbe3a59fe	-0.18198392
243	0x00000000	0.0
244	0x3e6132bb	0.21992008
245	0x80000000	-0.0
246	0x3e89f9af	0.26948306
247	0x80000000	-0.0
248	0x80000000	-0.0
249	0xbe9ea3f1	-0.30984452
250	0x80000000	-0.0
251	0x00000000	0.0
252	0xbea4a7cb	-0.32159266
253	0x80000000	-0.0
254	0x80000000	-0.0
255	0x00000000	0.0

sequential/conv2d_2/Conv2D f4 [64, 3, 3, 64]
0	0x3e0bd8bf	0.13656901
1	0x00000000	0.0
2	0x80000000	-0.0
3	0x00000000	0.0
4	0xbe152ae4	-0.14567143
5	0x00000000	0.0
6	0xbeca0aa5	-0.39461246
7	0xbf66b0fc	-0.90113807
8	0x80000000	-0.0
9	0x00000000	0.0
10	0xbf592a25	-0.8482993
11	0x3e4f4b33	0.2024353
12	0x00000000	0.0
13	0x00000000	0.0
14	0xbeed107d	-0.46301642
15	0x00000000	0.0
16	0xbeb01ac7	-0.3439543
17	0x00000000	0.0
18	0x80000000	-0.0
19	0x80000000	-0.0
20	0x00000000	0.0
21	0xbe5b303d	-0.2140512
22	0x00000000	0.0
23	0x3e5fe073	0.21862964
24	0x80000000	-0.0
25	0x80000000	-0.0
26	0x00000000	0.0
27	0x00000000	0.0
28	0xbe8932f2	-0.2679668
29	0xbe8e2783	-0.2776452
30	0xbe4c0916	-0.19925341
31	0x80000000	-0.0
32	0x00000000	0.0
33	0x80000000	-0.0
34	0xbe2bdf92	-0.16784504
35	0x00000000	0.0
36	0xbeecd1eb	-0.46253905
37	0x80000000	-0.0
38	0xbe80dfe7	-0.25170824
39	0x80000000	-0.0
40	0xbefa3b72	-0.48873478
41	0x80000000	-0.0
42	0x80000000	-0.0
43	0xbe509a13	-0.20371275
44	0x00000000	0.0
45	0x80000000	-0.0
46	0x00000000	0.0
47	0x80000000	-0.0
48	0x00000000	0.0
49	0xbe235665	-0.15950926
50	0x00000000	0.0
51	0x00000000	0.0
52	0xbe4b6541	-0.19862844
53	0xbeb6a84e	-0.3567528
54	0xbe430183	-0.19043545
55	0xbe8866b0	-0.26640844
56	0x80000000	-0.0
57	0xbe91b48d	-0.28458062
58	0x3e2508fe	0.16116711
59	0x80000000	-0.0
60	0x80000000	-0.0
61	0x80000000	-0.0
62	0xbe2528b2	-0.16128805
63	0x00000000	0.0
64	0xbe56eff0	-0.20989966
65	0x00000000	0.0
66	0x80000000	-0.0
67	0x00000000	0.0
68	0x80000000	-0.0
69	0x80000000	-0.0
70	0x00000000	0.0
71	0xbe8d9386	-0.27651614
72	0x80000000	-0.0
73	0xbe164c29	-0.1467749
74	0xbe4a7b6f	-0.19773649
75	0x00000000	0.0
76	0x00000000	0.0
77	0x80000000	-0.0
78	0x3e921fa8	0.28539777
79	0x00000000	0.0
80	0x3eb5b49f	0.35489365
81	0x80000000	-0.0
82	0x3f1552fc	0.5832975
83	0x3e98f553	0.29874668
84	0x00000000	0.0
85	0x80000000	-0.0
86	0x3e49b4df	0.19697903
87	0x3e9dbfd9	0.3081043
88	0x00000000	0.0
89	0xbe082b02	-0.13297656
90	0x00000000	0.0
91	0x3ef51a71	0.47871736
92	0x00000000	0.0
93	0x00000000	0.0
94	0x80000000	-0.0
95	0xbe20e014	-0.15710479
96	0x80000000	-0.0
97	0x00000000	0.0
98	0xbe669ede	-0.2252154
99	0x00000000	0.0
100	0x00000000	0.0
101	0x00000000	0.0
102	0x00000000	0.0
103	0x80000000	-0.0
104	0x80000000	-0.0
105	0x00000000	0.0
106	0x00000000	0.0
107	0xbe766f44	-0.24065882
108	0x80000000	-0.0
109	0x00000000	0.0
110	0x00000000	0.0
111	0x00000000	0.0
112	0x3e51d1b8	0.20490158
113	0x80000000	-0.0
114	0x00000000	0.0
115	0x3e1c2118	0.15247
116	0x80000000	-0.0
117	0xbe26a723	-0.16274695
118	0x00000000	0.0
119	0x80000000	-0.0
120	0x3e61d5f7	0.22054277
121	0xbe2ba26c	-0.16761178
122	0x3e4df494	0.2011283
123	0x3e1a8fb5	0.15093882
124	0x80000000	-0.0
125	0x80000000	-0.0
126	0x00000000	0.0
127	0x80000000	-0.0
128	0x80000000	-0.0
129	0x80000000	-0.0
130	0xbe9b8f97	-0.30382988
131	0x00000000	0.0
132	0x80000000	-0.0
133	0xbe90cf92	-0.28283364
134	0x3e2c1f56	0.16808829
135	0xbedf015e	-0.4355573
136	0x80000000	-0.0
137	0x00000000	0.0
138	0x80000000	-0.0
139	0xbeba4974	-0.36384165
140	0x00000000	0.0
141	0x80000000	-0.0
142	0x3e9bf55e	0.30460638
143	0x00000000	0.0
144	0x80000000	-0.0
145	0x00000000	0.0
146	0xbe1ce92e	-0.15323326
147	0x80000000	-0.0
148	0xbe8cfcdc	-0.27536666
149	0xbec04c7a	-0.37558347
150	0x80000000	-0.0
151	0x00000000	0.0
152	0x80000000	-0.0
153	0x80000000	-0.0
154	0x00000000	0.0
155	0x3e15fb1a	0.14646569
156	0x3e40ae32	0.1881645
157	0x3e1640f7	0.1467322
158	0x3e837c2d	0.25680676
159	0x3e088c4c	0.13334769
160	0x80000000	-0.0
161	0x80000000	-0.0
162	0x80000000	-0.0
163	0x3e249346	0.16071805
164	0xbe1b331b	-0.15156214
165	0x00000000	0.0
166	0xbe4f6955	-0.20255025
167	0xbebe1184	-0.37122738
168	0x00000000	0.0
169	0x00000000	0.0
170	0x80000000	-0.0
171	0x80000000	-0.0
172	0x00000000	0.0
173	0x80000000	-0.0
174	0x80000000	-0.0
175	0x00000000	0.0
176	0x3e883527	0.26603052
177	0xbe9b047f	-0.30276868
178	0x00000000	0.0
179	0x3e397a57	0.18113075
180	0x3e67474b	0.2258579
181	0xbe46c473	-0.19410877
182	0x80000000	-0.0
183	0x80000000	-0.0
184	0x3e916254	0.2839533
185	0x3e886ecb	0.26647028
186	0x00000000	0.0
187	0x3eaf24a7	0.3420765
188	0x00000000	0.0
189	0x3e7ef562	0.24898294
190	0x80000000	-0.0
191	0x00000000	0.0
192	0x3dfa2585	0.122141875
193	0xbe6a0bb2	-0.22856024
194	0x80000000	-0.0
195	0x00000000	0.0
196	0x00000000	0.0
197	0x00000000	0.0
198	0xbeaa40b5	-0.33252493
199	0xbf8a1595	-1.0787836
200	0x80000000	-0.0
201	0x80000000	-0.0
202	0xbf37646b	-0.716376
203	0x3e577399	0.21040191
204	0x80000000	-0.0
205	0x00000000	0.0
206	0xbf0552f4	-0.520797
207	0x3df62a3c	0.12019774
208	0xbeb159d3	-0.34638843
209	0x00000000	0.0
210	0x00000000	0.0
211	0x00000000	0.0
212	0x00000000	0.0
213	0x80000000	-0.0
214	0x00000000	0.0
215	0x00000000	0.0
216	0x00000000	0.0
217	0xbe095947	-0.13412963
218	0x00000000	0.0
219	0x00000000	0.0
220	0xbe946567	-0.28983614
221	0xbed67838	-0.41888595
222	0xbecf7688	-0.4052012
223	0x80000000	-0.0
224	0x00000000	0.0
225	0x80000000	-0.0
226	0x80000000	-0.0
227	0xbef2538e	-0.47329372
228	0xbeeaf9d3	-0.45893726
229	0x00000000	0.0
230	0x3e0d9f12	0.13830212
231	0xbe3decae	-0.18547317
232	0xbeecfd3c	-0.46286952
233	0x00000000	0.0
234	0x00000000	0.0
235	0x00000000	0.0
236	0xbe805b82	-0.25069815
237	0x80000000	-0.0
238	0x00000000	0.0
239	0x80000000	-0.0
240	0xbe7815de	-0.24227092
241	0x80000000	-0.0
242	0x3e14214b	0.14465825
243	0xbf0d0362	-0.55083287
244	0xbe19e7a3	-0.15029769
245	0xbec19914	-0.37812102
246	0xbe7024a1	-0.23451473
247	0xbe81916e	-0.25306267
248	0x80000000	-0.0
249	0xbee95fd7	-0.45580932
250	0x00000000	0.0
251	0x80000000	-0.0
252	0x00000000	0.0
253	0x00000000	0.0
254	0xbe8498b8	-0.25897765
255	0x80000000	-0.0

sequential/conv2d_3/Conv2D f4 [128, 3, 3, 64]
0	0x80000000	-0.0
1	0xbf5022a4	-0.8130286
2	0x3e81c908	0.25348687
3	0x00000000	0.0
4	0xbf5382da	-0.8262154
5	0xbfbc41f1	-1.4707624
6	0xbecc0e49	-0.3985465
7	0xbebc7186	-0.36805362
8	0x00000000	0.0
9	0xbeb5bcde	-0.35495657
10	0x80000000	-0.0
11	0x80000000	-0.0
12	0xbee24327	-0.44191858
13	0xbef60c82	-0.48056418
14	0x3e786ad6	0.24259505
15	0x00000000	0.0
16	0x00000000	0.0
17	0x00000000	0.0
18	0xbe9e950e	-0.30973095
19	0x3e6ad651	0.22933318
20	0x00000000	0.0
21	0x00000000	0.0
22	0x00000000	0.0
23	0xbf5e60d0	-0.86866474
24	0xbeb8cfce	-0.36096042
25	0x3e4d3210	0.20038629
26	0x80000000	-0.0
27	0xbf13fd55	-0.5780843
28	0x80000000	-0.0
29	0xbf89aeb6	-1.0756443
30	0xbe48709a	-0.19574204
31	0x00000000	0.0
32	0x00000000	0.0
33	0xbf02f98c	-0.5116203
34	0x80000000	-0.0
35	0x00000000	0.0
36	0xbef1bfc6	-0.47216624
37	0x00000000	0.0
38	0x00000000	0.0
39	0x00000000	0.0
40	0x80000000	-0.0
41	0x00000000	0.0
42	0xbe4b6a40	-0.1986475
43	0x80000000	-0.0
44	0x80000000	-0.0
45	0x00000000	0.0
46	0xbf61e4ae	-0.8823956
47	0x80000000	-0.0
48	0x00000000	0.0
49	0xbe9d2b96	-0.30697316
50	0x00000000	0.0
51	0xbee9077b	-0.4551352
52	0x80000000	-0.0
53	0x80000000	-0.0
54	0x80000000	-0.0
55	0xbeef087a	-0.46686155
56	0xbecdbbf8	-0.4018247
57	0xbea50f39	-0.32238176
58	0xbeae57c4	-0.34051335
59	0x00000000	0.0
60	0x00000000	0.0
61	0xbeab44d3	-0.33450946
62	0x80000000	-0.0
63	0x00000000	0.0
64	0x80000000	-0.0
65	0xbf5cdef1	-0.8627768
66	0xbeae0815	-0.3399054
67	0x00000000	0.0
68	0xbf513919	-0.8172775
69	0xbfb28681	-1.3947297
70	0xbf223e21	-0.6337605
71	0xbf6ca835	-0.92444164
72	0xbe9610d1	-0.29309705
73	0xbec6142b	-0.38687262
74	0x80000000	-0.0
75	0x80000000	-0.0
76	0xbefa3c5d	-0.4887418
77	0xbecc1118	-0.39856791
78	0x00000000	0.0
79	0x00000000	0.0
80	0x00000000	0.0
81	0x00000000	0.0
82	0xbeb170fe	-0.3465652
83	0x80000000	-0.0
84	0x00000000	0.0
85	0x00000000	0.0
86	0x00000000	0.0
87	0xbf494a8f	-0.7862939
88	0xbeb4696c	-0.3523668
89	0x80000000	-0.0
90	0x80000000	-0.0
91	0xbf1542fc	-0.58305335
92	0x80000000	-0.0
93	0xbf722218	-0.9458327
94	0xbea7bbd3	-0.32760486
95	0x00000000	0.0
96	0x00000000	0.0
97	0xbe89d0df	-0.26917168
98	0x80000000	-0.0
99	0x00000000	0.0
100	0xbe71dcb4	-0.23619348
101	0x80000000	-0.0
102	0xbe57d8d4	-0.21078807
103	0x00000000	0.0
104	0x80000000	-0.0
105	0x00000000	0.0
106	0x80000000	-0.0
107	0xbf158dd7	-0.58419555
108	0x00000000	0.0
109	0x80000000	-0.0
110	0xbf4d3ca3	-0.8017065
111	0x00000000	0.0
112	0x00000000	0.0
113	0x00000000	0.0
114	0xbe435f95	-0.1907943
115	0xbf1b26b9	-0.6060596
116	0x00000000	0.0
117	0x00000000	0.0
118	0xbe8cdcb3	-0.2751213
119	0xbf0fae76	-0.5612558
120	0xbe747331	-0.23872067
121	0xbe5d04de	-0.21583888
122	0xbedf098d	-0.43561974
123	0xbe5bfb06	-0.21482477
124	0x80000000	-0.0
125	0xbeef2fb9	-0.46716097
126	0x80000000	-0.0
127	0x00000000	0.0
128	0x3eb8b153	0.36072788
129	0xbf0be818	-0.5465102
130	0xbecceb65	-0.40023342
131	0x00000000	0.0
132	0xbefe6224	-0.4968425
133	0xbf7b6771	-0.98204714
134	0xbf2d1e24	-0.67624116
135	0xbead911e	-0.33899778
136	0x00000000	0.0
137	0x80000000	-0.0
138	0x80000000	-0.0
139	0x00000000	0.0
140	0x3e402584	0.18764311
141	0x80000000	-0.0
142	0x00000000	0.0
143	0x80000000	-0.0
144	0x00000000	0.0
145	0x00000000	0.0
146	0xbe6467e5	-0.22305258
147	0xbeb879ff	-0.36030576
148	0x00000000	0.0
149	0x00000000	0.0
150	0x00000000	0.0
151	0xbeb1d958	-0.34736133
152	0xbe8a7bd4	-0.27047598
153	0x3e58992c	0.2115218
154	0x00000000	0.0
155	0xbef5e1ca	-0.48023826
156	0x80000000	-0.0
157	0xbec50627	-0.38481256
158	0xbf1f5bbe	-0.6224936
159	0x80000000	-0.0
160	0x80000000	-0.0
161	0x00000000	0.0
162	0x80000000	-0.0
163	0x80000000	-0.0
164	0xbeeb3842	-0.4594136
165	0x80000000	-0.0
166	0xbe75dfb3	-0.24011116
167	0x80000000	-0.0
168	0x80000000	-0.0
169	0x00000000	0.0
170	0x3e69503a	0.2278451
171	0xbf5f9aef	-0.87345785
172	0x00000000	0.0
173	0x80000000	-0.0
174	0xbe7c7b31	-0.24656369
175	0x80000000	-0.0
176	0x00000000	0.0
177	0xbf1d3dbe	-0.61422336
178	0x00000000	0.0
179	0x00000000	0.0
180	0x80000000	-0.0
181	0x80000000	-0.0
182	0xbf24382d	-0.6414822
183	0xbee02b8c	-0.43783224
184	0x00000000	0.0
185	0x00000000	0.0
186	0xbf088c80	-0.53339386
187	0xbe6deaa2	-0.23234037
188	0x80000000	-0.0
189	0xbeae77e9	-0.3407586
190	0x80000000	-0.0
191	0x00000000	0.0
192	0x00000000	0.0
193	0xbea54217	-0.32276985
194	0x00000000	0.0
195	0x80000000	-0.0
196	0xbf226c39	-0.63446385
197	0xbf939daf	-1.1532496
198	0xbf2d09ad	-0.6759289
199	0xbf5ae588	-0.85506487
200	0x80000000	-0.0
201	0xbecc95a6	-0.39957923
202	0x80000000	-0.0
203	0x00000000	0.0
204	0xbf116f0e	-0.5681008
205	0x00000000	0.0
206	0x00000000	0.0
207	0x00000000	0.0
208	0x80000000	-0.0
209	0xbef82c14	-0.4847113
210	0x00000000	0.0
211	0x3e3f1693	0.18660955
212	0xbe5503f4	-0.20802289
213	0x00000000	0.0
214	0xbf1ad7c2	-0.6048547
215	0xbf0801e1	-0.53127867
216	0x80000000	-0.0
217	0x00000000	0.0
218	0x00000000	0.0
219	0xbe83413e	-0.25635713
220	0x80000000	-0.0
221	0xbf1802b2	-0.5937911
222	0xbf3be9bf	-0.73403543
223	0x80000000	-0.0
224	0x80000000	-0.0
225	0xbee1c686	-0.44096774
226	0xbed5363b	-0.41642937
227	0x00000000	0.0
228	0xbf210b4f	-0.6290788
229	0x80000000	-0.0
230	0xbecd7fa5	-0.40136448
231	0x80000000	-0.0
232	0xbe629b65	-0.22129591
233	0x80000000	-0.0
234	0xbf2f73cf	-0.68536085
235	0xbe5d1779	-0.21590985
236	0x80000000	-0.0
237	0x00000000	0.0
238	0xbf0a3d75	-0.54000026
239	0x00000000	0.0
240	0x00000000	0.0
241	0x3e5f9437	0.21833883
242	0x00000000	0.0
243	0xbe7d6120	-0.24744081
244	0x80000000	-0.0
245	0x00000000	0.0
246	0x3e76b9c9	0.24094309
247	0xbe8c75d4	-0.27433646
248	0xbf16c989	-0.5890127
249	0x00000000	0.0
250	0xbee08154	-0.4384867
251	0x00000000	0.0
252	0xbe3e9c36	-0.18614277
253	0xbec5f115	-0.38660493
254	0x80000000	-0.0
255	0x80000000	-0.0
