LaneFollowingModel/f16q/model.tflite (tflite, 281292 bytes, 11 tensors)

dense/bias f2 [64]
-0.06854 0.206 -0.0973 0.49 -0.07104 -0.07465 -0.1136 0.0861
0.123 0.28 -0.05667 -0.5273 -0.06744 0.10034 -0.0704 0.2052
0.1385 0.1111 0.01249 0.2515 -0.05832 0.1903 -0.05252 0.2434
-0.05664 0.2405 -0.0249 -0.05942 0.21 -0.1359 0.366 -0.04913
-0.0703 -0.0544 0.2291 -0.07294 0.1942 0.2314 -0.0223 -0.0613
-0.1547 -0.0634 -0.05505 0.253 0.259 0.2255 0.398 -0.07745
-0.0637 0.004036 -0.1969 0.04605 0.1381 -0.09283 0.04236 0.11926
0.279 0.204 -0.286 0.176 -0.09296 0.0929 -0.1417 -0.08966
00000000: 63ac 9832 3aae d737 8cac c7ac 45af 832d
00000010: df2f 7b34 41ab 38b8 51ac 6c2e 81ac 9132
00000020: 6f30 1c2f 6522 0634 77ab 1732 b9aa ca33
00000030: 40ab b233 60a6 9bab b832 59b0 db35 4aaa
00000040: 80ac f7aa 5533 abac 3732 6833 b5a5 d9ab
00000050: f3b0 0fac 0cab 0c34 2534 3733 5e36 f5ac
00000060: 14ac 221c 4db2 e529 6b30 f1ad 6c29 a22f
00000070: 7734 8732 93b4 a231 f3ad f22d 89b0 bdad

conv2d_3/bias f2 [128]
-0.3472 -0.512 -0.4492 -0.3606 -0.4932 -0.3071 -0.2008 0.222
-0.5356 -0.2952 -0.3882 -0.1498 -0.4255 -0.01158 -0.2352 -0.3557
-0.08673 -0.421 -0.2167 -0.2603 -0.375 0.013855 -0.07117 -0.1725
-0.04373 -0.2783 -0.3303 -0.4255 0.2351 -0.1528 -0.4956 -0.3735
-0.133 -0.4978 -0.4175 -0.00305 -0.2284 -0.3086 -0.7 -0.1226
-0.2233 -0.2822 -0.2722 -0.3215 -0.3481 -0.3088 -0.2302 0.4226
-0.253 -0.5674 0.10864 -0.3057 -0.1223 -0.355 -0.3364 -0.674
-0.1686 -0.04236 -0.132 -0.3296 -0.1853 -0.3293 -0.291 -0.4084
-0.1182 -0.1536 -0.1443 -0.0372 -0.806 0.00198 -0.3557 -0.5986
0.0524 -0.08295 -0.3638 -0.1199 -0.774 -0.327 -0.2607 -0.4312
-0.2844 -0.3303 -0.396 -0.0595 -0.711 -0.1925 -0.4402 -0.253
-0.1934 -0.3713 -0.3237 -0.2328 -0.4087 -0.12286 -0.3833 -0.1178
-0.457 -0.04242 -0.08 0.02226 -0.1353 -0.2866 -0.3843 -0.349
-0.05502 -0.2443 -0.2773 -0.5234 -0.3757 -0.253 -0.4585 -0.1092
0.3154 0.2964 -0.335 -0.2336 -0.3247 0.05936 -0.2856 -0.1323
-0.5483 -0.2751 -0.3745 0.03345 -0.04715 -0.6167 -0.1522 -0.1184
00000000: 8eb5 19b8 30b7 c5b5 e4b7 eab4 6db2 1b33
00000010: 49b8 b9b4 36b6 cbb0 cfb6 eea1 87b3 b1b5
00000020: 8dad bcb6 efb2 2ab4 00b6 1823 8eac 85b1
00000030: 99a9 74b4 49b5 cfb6 8633 e4b0 eeb7 fab5
00000040: 42b0 f7b7 aeb6 3f9a 4fb3 f0b4 9ab9 d9af
00000050: 25b3 84b4 5bb4 25b5 92b5 f1b4 5eb3 c336
00000060: 0cb4 8ab8 f42e e4b4 d4af aeb5 62b5 64b9
00000070: 65b1 6ca9 39b0 46b5 eeb1 45b5 a8b4 89b6
00000080: 91af eab0 9eb0 c3a8 73ba 0e18 b1b5 cab8
00000090: b52a 4fad d2b5 acaf 31ba 3bb5 2cb4 e6b6
000000a0: 8db4 49b5 56b6 9eab b0b9 29b2 0bb7 0cb4
000000b0: 30b2 f1b5 2eb5 73b3 8ab6 ddaf 22b6 8aaf
000000c0: 50b7 6ea9 1fad b325 54b0 96b4 26b6 96b5
000000d0: 0bab d1b3 70b4 30b8 03b6 0cb4 56b7 fdae
000000e0: 0c35 be34 5cb5 7ab3 32b5 992b 92b4 3cb0
000000f0: 63b8 67b4 feb5 4828 09aa efb8 dfb0 94af

conv2d_2/bias f2 [64]
-0.1624 -0.02225 -0.5483 -0.0723 -0.1415 -0.0898 -0.3271 -0.02756
-0.0808 -0.00946 -0.377 -0.2355 -0.2803 -0.0546 -0.1805 -0.04092
-0.3518 -0.2676 -0.01396 -0.05682 -0.1387 0.03964 -0.3162 -0.1995
-0.1571 -0.148 -0.02345 -0.01955 -0.05734 -0.0955 0.3806 -0.1273
-0.3496 -0.0997 -0.2029 -0.1929 -0.12115 0.2693 -0.376 -0.1627
-0.05124 -0.4558 -0.237 -0.3408 -0.1912 -0.03065 -0.2812 -0.2527
-0.05655 -0.03217 -0.3218 -0.313 -0.3992 -0.3643 -0.12476 -0.2803
-0.1129 -0.0254 -0.2292 -0.5527 -0.04916 -0.00901 -0.0845 -0.4395
00000000: 32b1 b2a5 63b8 a1ac 87b0 bfad 3cb5 0ea7
00000010: 2cad d8a0 08b6 89b3 7cb4 fdaa c7b1 3da9
00000020: a1b5 48b4 26a3 46ab 70b0 1329 0fb5 62b2
00000030: 07b1 bcb0 01a6 01a5 57ab 1dae 1736 13b0
00000040: 98b5 61ae 7eb2 2cb2 c1af 4f34 04b6 35b1
00000050: 8faa 4bb7 96b3 74b5 1eb2 d9a7 80b4 0bb4
00000060: 3dab 1ea8 26b5 02b5 63b6 d4b5 fcaf 7cb4
00000070: 3aaf 81a6 56b3 6cb8 4baa 9da0 68ad 08b7

conv2d_1/bias f2 [64]
-0.3206 -0.03152 -0.2837 -0.07806 -0.02206 -0.01131 -0.02415 -0.4226
-0.3853 -0.2405 -0.10895 -0.09644 -0.01726 -0.03735 -0.02197 -0.07697
-0.338 -0.0326 -0.0796 -0.382 -0.4282 -0.2441 -0.08765 -0.4456
-0.2876 -0.05292 -0.0788 -0.01295 -0.04947 -0.1368 -0.296 -0.2343
-0.09314 -0.3953 -0.12036 -0.102 -0.04132 -0.291 -0.0557 -0.003174
-0.0739 -0.08136 -0.1527 -0.06464 -0.0838 -0.237 -0.1941 -0.11816
-0.269 -0.3577 -0.1978 -0.1775 -0.033 -0.3298 -0.05023 -0.0236
-0.02266 -0.02022 -0.02971 -0.08655 -0.0355 -0.0393 -0.1592 -0.2394
00000000: 21b5 09a8 8ab4 ffac a6a5 caa1 2fa6 c3b6
00000010: 2ab6 b2b3 f9ae 2cae 6ba4 c8a8 a0a5 edac
00000020: 68b5 2ca8 18ad 1db6 dab6 d0b3 9cad 21b7
00000030: 9ab4 c6aa 0bad a1a2 55aa 61b0 bcb4 7fb3
00000040: f6ad 53b6 b4af 87ae 4aa9 a8b4 21ab 809a
00000050: bbac 35ad e3b0 23ac 5dad 96b3 36b2 90af
00000060: 4eb4 b9b5 54b2 aeb1 39a8 47b5 6eaa 0ba6
00000070: cda5 2da5 9ba7 8aad 8ba8 08a9 18b1 a9b3

conv2d/bias f2 [32]
-0.2795 -0.11847 -0.06854 -0.1192 -0.1232 -0.04346 -0.10974 -0.1893
-0.1952 -0.1675 -0.2012 -0.1202 -0.1488 -0.1116 -0.2227 -0.11865
-0.05054 -0.1285 -0.1211 -0.12067 -0.3386 -0.2393 -0.10675 -0.2395
-0.1716 -0.04538 -0.0724 -0.1335 -0.2024 -0.0702 -0.1702 -0.2048
00000000: 79b4 95af 63ac a1af e3af 90a9 06af 0fb2
00000010: 3fb2 5cb1 70b2 b1af c3b0 24af 20b3 98af
00000020: 78aa 1db0 c0af b9af 6bb5 a8b3 d5ae aab3
00000030: 7eb1 cfa9 a2ac 46b0 7ab2 7eac 72b1 8eb2

sequential/dense/MatMul f2 [64, 128]
-0.013695 -0.1824 -0.0777 0.02635 -0.07446 -0.1205 -0.1307 -0.115
-0.0704 0.0617 0.1058 -0.2289 -0.10406 0.11383 -0.0624 -0.1009
-0.187 0.0457 -0.04837 -0.2129 -0.0455 -0.11383 -0.0472 -0.09784
0.0864 0.02585 0.07294 -0.1693 -0.2107 -0.03528 0.0004313 -0.1239
-0.2151 -0.2576 -0.09515 0.0708 -0.08765 0.0687 -0.1865 -0.1829
0.096 0.02461 0.0786 -0.1274 -0.1835 -0.1187 -0.1324 -0.108
-0.00813 -0.2196 -0.1887 0.06866 -0.0879 -0.1646 0.10565 0.125
-0.1328 0.07697 0.09015 -0.05655 0.06757 -0.02928 -0.05603 -0.1805
-0.0092 0.0864 -0.1205 -0.01715 0.006176 -0.2252 -0.01868 -0.0694
-0.2126 -0.2413 -0.0382 -0.1782 -0.11273 0.11176 -0.1954 0.07886
-0.225 -0.1202 -0.008736 -0.1152 -0.2249 -0.1808 -0.1329 0.098
-0.192 -0.1956 -0.0313 -0.00835 -0.2023 0.03137 0.0001347 -0.0236
-0.1243 -0.03967 -0.0912 -0.2283 -0.2239 -0.1638 -0.0822 -0.1626
0.04947 -0.1544 -0.1521 0.07263 -0.1906 -0.11707 -0.04697 0.04587
-0.138 0.0782 0.06964 -0.09735 0.08276 0.05743 -0.0802 -0.0749
0.1417 -0.11896 0.07275 0.04767 -0.06055 -0.02083 -0.0685 -0.0392
-0.402 -0.0073 -0.2656 -0.02756 -0.269 -0.0505 -0.453 0.4614
-0.819 -0.6196 -0.112 -0.4167 -0.801 0.04996 -0.07526 0.37
-0.293 -0.3118 0.2316 0.2776 -0.2764 -0.2035 -0.1542 0.01555
0.09454 -0.0856 -0.0882 0.08887 0.1086 0.2188 -0.3218 -0.2045
-0.513 0.2169 -0.4937 -0.2637 -0.0901 -0.0907 -0.1453 -0.2632
0.0865 -0.5586 -0.3225 0.05133 -0.2427 0.00513 -0.07263 0.05197
-0.05377 0.01952 0.01648 -0.4102 -0.0009212 -0.2264 0.4897 0.014275
-0.8213 0.662 0.0801 -0.4128 0.3406 -0.001229 0.01364 -0.7095
-0.2395 -0.3542 0.03943 0.2051 -0.3782 -0.1688 -1.169 0.3813
-0.02507 0.02122 0.6523 0.397 -0.1365 -0.397 -0.2866 -0.12006
-0.1312 0.29 -0.2173 -0.2351 -0.1797 0.3254 0.6426 -0.5107
0.2394 0.2544 -1.082 -0.1326 -0.5615 0.6455 0.3513 -0.4167
0.10974 0.2668 0.10846 -0.4807 0.2158 -0.1016 -0.02676 -0.01152
-0.2837 -1.233 0.01503 -0.272 0.8086 0.0373 -0.166 0.535
0.01869 0.2142 0.5024 -0.2405 -0.5986 0.1388 -0.4548 0.1382
-0.03915 0.7354 0.299 0.2566 0.2253 -0.5747 0.326 0.0504
00000000: 03a3 d6b1 f9ac bf26 c4ac b6af 2fb0 5caf
00000010: 81ac e62b c52e 53b3 a9ae 492f fdab 75ae
00000020: fcb1 d929 31aa d0b2 d3a9 49af 0baa 43ae
00000030: 882d 9e26 ab2c 6bb1 beb2 84a8 110f eeaf
00000040: e2b2 1fb4 17ae 882c 9cad 662c f8b1 dab1
00000050: 252e 4d26 082d 14b0 dfb1 99af 3db0 e9ae
00000060: 2aa0 07b3 0ab2 652c a0ad 44b1 c32e 0030
00000070: 40b0 ed2c c52d 3dab 532c 7fa7 2cab c7b1
00000080: b6a0 882d b6af 64a4 531e 35b3 c8a4 71ac
00000090: ceb2 b9b3 e4a8 b4b1 37af 272f 41b2 0c2d
000000a0: 33b3 b1af 79a0 5faf 32b3 c9b1 41b0 462e
000000b0: 25b2 42b2 02a8 46a0 79b2 0428 6a08 0ba6
000000c0: f5af 14a9 d6ad 4eb3 2ab3 3eb1 43ad 34b1
000000d0: 552a f1b0 deb0 a62c 19b2 7eaf 03aa df29
000000e0: 6ab0 012d 752c 3bae 4c2d 5a2b 22ad cbac
000000f0: 8930 9daf a82c 1a2a c0ab 55a5 62ac 05a9
00000100: 6fb6 7a9f 40b4 0ea7 4eb4 77aa 3fb7 6237
00000110: 8dba f5b8 2baf abb6 68ba 652a d1ac ec35
00000120: b0b4 fdb4 6933 7134 6cb4 83b2 efb0 f623
00000130: 0d2e 7aad a5ad b02d f32e 0033 26b5 8bb2
00000140: 1bb8 f132 e6b7 38b4 c4ad cead a6b0 36b4
00000150: 892d 78b8 29b5 922a c4b3 411d a6ac a72a
00000160: e2aa ff24 3824 90b6 8c93 3fb3 d637 4f23
00000170: 92ba 4c39 202d 9bb6 7335 0995 fc22 adb9
00000180: aab3 abb5 0c29 9032 0db6 67b1 adbc 1a36
00000190: 6ba6 6f25 3839 5a36 5eb0 5ab6 96b4 afaf
000001a0: 33b0 a434 f4b2 86b3 c0b1 3535 2439 16b8
000001b0: a933 1234 54bc 3eb0 7eb8 2a39 9f35 abb6
000001c0: 062f 4534 f12e b1b7 e832 81ae daa6 e6a1
000001d0: 8ab4 efbc b223 5ab4 783a c628 50b1 4838
000001e0: c924 db32 0538 b2b3 cab8 7130 47b7 6c30
000001f0: 03a9 e239 c934 1b34 3633 99b8 3735 742a

sequential/dense_1/MatMul f2 [1, 64]
0.004208 0.2323 -0.03607 -0.1439 0.1797 0.1076 -0.485 0.181
0.11383 -0.263 -0.009094 0.3787 0.007195 0.0671 -0.1865 0.3213
0.0735 0.1467 -0.1029 0.1015 0.010124 -0.2323 0.143 0.3264
0.1499 0.2231 0.0989 -0.001684 -0.1263 0.1735 -0.08673 -0.2385
-0.1255 0.0688 0.245 -0.1654 -0.0829 0.448 -0.2673 0.1103
-0.1193 0.003218 -0.1571 0.088 -0.5425 -0.3784 -0.1044 -0.01132
0.1345 -0.02312 -0.1395 0.1934 -0.1393 0.1879 0.1556 -0.3406
0.11914 0.3389 -0.538 -0.2174 -0.1324 -0.1621 0.001677 -0.08844
00000000: 4f1c 6f33 9ea8 9bb0 c031 e32e c3b7 cb31
00000010: 492f 35b4 a8a0 0f36 5e1f 4b2c f8b1 2435
00000020: b42c b230 96ae 7f2e 2f21 6fb3 9330 3935
00000030: cc30 2433 542e e696 0bb0 8d31 8dad a2b3
00000040: 04b0 672c d733 4bb1 4ead 2b37 47b4 0f2f
00000050: a3af 971a 07b1 a22d 57b8 0eb6 aeae cca1
00000060: 4e30 eba5 77b0 3032 75b0 0332 fb30 73b5
00000070: a02f 6c35 4eb8 f5b2 3db0 30b1 de16 a9ad

sequential/conv2d/Conv2D f2 [32, 3, 3, 1]
0.1043 -0.1335 0.1815 0.01602 -0.00959 0.02168 -0.671 0.565
-0.819 -0.4805 -0.2478 -0.469 0.2281 0.1696 -0.04797 -0.07526
-0.0425 0.0738 -0.1703 -0.4353 -0.5073 -0.5786 -0.386 0.2852
0.04684 0.1581 -0.1753 -0.2349 -0.06885 -0.1721 -0.02019 -0.215
0.04764 0.02872 0.03986 -0.10394 -0.02103 0.08093 0.2698 -0.347
-0.0881 0.1796 -0.3127 -0.06134 -0.1234 -0.4307 -0.188 -0.4187
-0.3909 -0.192 -0.3206 -0.3728 0.3582 -0.3916 0.283 -0.4766
-0.2218 -0.3665 0.01982 -0.0421 0.09503 -0.06915 -0.353 0.01166
-0.0718 0.01797 0.0683 -0.09424 0.0598 -0.04694 0.02231 -0.1006
0.02075 0.0187 0.0415 0.3223 -0.02887 -0.492 -0.039 0.003967
0.1222 -0.191 -0.3691 0.3157 0.2542 0.2039 -0.3652 0.01
-0.09357 0.16 0.0411 0.0833 0.0693 -0.04004 -0.08295 -0.1062
-0.00162 -0.05484 -0.05234 -0.02267 0.1937 -0.1217 0.3948 -1.016
0.3623 -0.08185 -0.3906 -0.01394 -0.0549 -0.06177 0.1219 0.0304
0.292 -0.4927 0.0995 0.3076 -0.348 -0.1296 0.1986 -0.295
-0.0589 0.1757 -0.79 -0.2023 -0.1164 0.3901 -0.274 -0.118
0.2827 -0.6304 0.2179 -0.07153 -0.02347 0.2576 -0.2236 -0.02866
-0.007423 -0.002771 0.1993 0.241 -0.011116 -0.05283 -0.514 -0.2162
0.04587 -0.05618 -0.05603 -0.4492 -0.178 -0.3638 0.4443 -0.548
-0.2842 -0.1134 -0.0361 -0.0169 -0.0324 0.09674 -0.0395 -0.00319
0.02852 -0.0504 0.07715 -0.13 -0.001559 -0.5894 -0.168 -0.436
0.1598 0.2151 0.05283 0.1001 -0.03836 -0.435 0.35 -0.04984
-0.4446 -0.4385 -0.4436 -0.4246 0.12006 0.1277 -0.03928 0.0375
0.10187 0.11914 0.05353 0.005558 0.08844 -0.2913 0.07666 -0.1058
-0.2676 0.0754 0.0742 0.01026 -0.0012865 -0.0747 0.1812 -0.4473
0.01199 -0.05444 -0.636 -0.0456 0.1034 -0.1155 -0.24 -0.0272
0.05234 -0.1296 0.0767 -0.064 0.0585 0.03815 0.007347 -0.0608
-0.2822 -0.364 -0.1165 0.02731 -0.3135 -0.002619 0.03049 -0.4182
0.2257 0.3035 0.1809 -0.587 -0.565 -0.0961 0.0851 -0.1769
-0.2351 0.3542 -0.6636 -0.1687 0.42 0.1493 -0.126 -0.2522
0.1993 -0.03485 -0.2742 0.04605 -0.0717 -0.5903 -0.3022 0.366
-0.0852 -0.2444 0.1593 0.07025 -0.10614 0.01397 0.014015 0.06665
00000000: ad2e 46b0 cf31 1a24 e9a0 8d25 5eb9 8538
00000010: 8dba b0b7 eeb3 81b7 4d33 6d31 24aa d1ac
00000020: 71a9 b92c 73b1 f7b6 0fb8 a1b8 2db6 9034
00000030: ff29 0f31 9cb1 84b3 68ac 82b1 2ba5 e1b2
00000040: 192a 5a27 1a29 a7ae 62a5 2e2d 5134 8db5
00000050: a3ad bf31 01b5 daab e6af e4b6 04b2 b3b6
00000060: 41b6 25b2 21b5 f7b5 bb35 44b6 8734 a0b7
00000070: 19b3 ddb5 1325 64a9 152e 6dac a6b5 f821
00000080: 98ac 9a24 5f2c 08ae a82b 02aa b625 70ae
00000090: 5025 ca24 5029 2835 64a7 dfb7 fea8 101c
000000a0: d22f 1db2 e8b5 0d35 1134 8632 d8b5 1f21
000000b0: fdad 1f31 4329 552d 6f2c 20a9 4fad ccae
000000c0: a396 05ab b3aa cea5 3332 caaf 5136 10bc
000000d0: cc35 3dad 40b6 23a3 07ab e8ab cd2f c827
000000e0: ac34 e2b7 5e2e ec34 91b5 26b0 5b32 b8b4
000000f0: 8aab 9f31 52ba 79b2 73af 3e36 62b4 8daf
00000100: 8634 0bb9 f932 94ac 02a6 1f34 28b3 56a7
00000110: 9a9f ad99 6132 b633 b1a1 c3aa 1db8 ebb2
00000120: df29 31ab 2cab 30b7 b2b1 d2b5 1c37 62b8
00000130: 8cb4 42af 9fa8 54a4 26a8 312e 0ea9 889a
00000140: 4d27 74aa f02c 29b0 6396 b7b8 60b1 fab6
00000150: 1d31 e232 c32a 682e e9a8 f6b6 9a35 61aa
00000160: 1db7 04b7 19b7 cbb6 af2f 1630 07a9 cd28
00000170: 852e a02f da2a b11d a92d a9b4 e82c c5ae
00000180: 48b4 d32c c02c 4121 4595 c8ac cc31 28b7
00000190: 2422 f8aa 17b9 d6a9 9e2e 64af aeb3 f7a6
000001a0: b32a 26b0 e92c 19ac 7d2b e228 861f c8ab
000001b0: 84b4 d3b5 75af fe26 04b5 5d99 ce27 b1b6
000001c0: 3933 db34 ca31 b2b8 85b8 27ae 722d a9b1
000001d0: 86b3 ab35 4fb9 66b1 b836 c730 08b0 09b4
000001e0: 6132 76a8 63b4 e529 97ac b9b8 d6b4 db35
000001f0: 74ad d2b3 1931 7f2c cbae 2723 2d23 442c

sequential/conv2d_1/Conv2D f2 [64, 3, 3, 32]
0.1693 -0.06287 -0.4587 0.02832 0.1511 -0.1622 0.3745 -0.03073
0.2219 0.239 -0.02641 0.3857 -0.1644 -0.1798 0.5957 0.1542
-0.0734 0.0481 -0.05783 0.3347 -0.2812 0.2031 0.2668 -0.0771
-0.35 -0.03117 0.576 0.1719 0.043 -0.07684 -0.259 0.5186
-0.2725 0.2498 -0.273 -0.01935 -0.4976 -0.01258 0.3542 -0.02548
-0.003172 -0.03592 -0.1329 0.094 0.09344 -0.0593 0.2076 -0.164
-0.006546 0.11926 -0.02959 -0.05273 -0.208 0.05035 0.3315 0.0522
-0.664 0.1484 -0.2764 -0.3828 -0.04245 -0.617 0.07513 0.03986
-0.95 -0.0656 -0.1448 -0.0461 -1.06 -0.3113 0.08875 -0.231
0.02121 0.2944 -0.5684 -0.1854 0.04398 0.1338 -1.05 -0.753
-0.4714 -0.05075 -0.5186 -0.1433 -0.6846 -0.6895 0.4434 -0.1268
-0.1418 -0.01258 -0.1395 -0.1542 -0.1819 -0.6436 -0.1556 -0.222
-0.4302 -0.624 -0.683 -0.2406 0.2317 -0.592 0.082 -0.05304
-0.3345 -0.6553 -0.00181 -0.09796 0.1672 -0.1077 0.0647 -0.4412
0.177 -0.00928 -0.3984 -0.3264 -0.668 0.06058 0.1453 -0.2225
-0.0887 0.1493 -0.3372 -0.479 -0.1628 -0.07996 -0.1783 0.406
-0.2844 -1.019 -0.968 -0.2032 0.1874 -0.1659 -0.05963 -0.07697
-0.08044 -0.734 -0.152 -0.2181 0.2065 0.08716 0.2136 -0.303
-0.458 -0.10706 -0.2659 -0.231 -0.254 0.1106 0.02661 -0.1232
-0.5283 0.164 -0.1173 -0.2764 -0.1255 -0.4514 -0.672 -0.1046
-0.1875 -0.4126 -0.2947 -0.1709 0.01727 0.2191 -0.11145 -0.0802
0.3394 -0.04346 -0.1625 0.3364 0.341 -0.4438 0.03217 -0.2408
0.1065 -0.06033 -0.1674 -0.6235 -0.432 -0.04358 0.329 0.04874
0.1893 -0.4834 0.00904 -0.2585 -0.03638 0.2253 0.1001 -0.07404
-0.325 0.08636 -0.4028 -0.10254 0.1813 -0.1254 0.1019 -0.01956
0.05518 -0.12305 -0.08246 -0.1519 -0.074 -0.5166 0.0958 -0.2908
0.043 0.04227 0.0335 -0.00417 -0.452 0.2002 -0.1874 -0.1356
0.3938 -0.8223 -0.09106 -0.577 -0.2173 0.0612 0.02591 0.3418
-0.3796 -0.1956 -0.2617 -0.305 0.033 -0.536 -0.0937 0.03387
0.1724 -0.05118 -0.0936 -0.1005 0.08234 0.04578 0.3286 -0.3909
0.1229 0.03326 -0.0906 0.3818 -0.11816 -0.02759 -0.11084 -0.00855
-0.2603 -0.2128 0.201 -0.05432 -0.0526 -0.2224 -0.541 0.2091
00000000: 6b31 06ac 57b7 4027 d630 31b1 fe35 dea7
00000010: 1a33 a633 c3a6 2c36 43b1 c1b1 c438 ef30
00000020: b3ac 282a 67ab 5b35 80b4 8032 4534 efac
00000030: 9ab5 fba7 9c38 8031 8129 ebac 25b4 2638
00000040: 5cb4 fe33 5eb4 f4a4 f6b7 71a2 ab35 86a6
00000050: 7f9a 99a8 41b0 042e fb2d 97ab a532 3fb1
00000060: b49e a22f 93a7 c0aa a8b2 722a 4e35 ae2a
00000070: 50b9 c030 6cb4 20b6 6fa9 f0b8 cf2c 1a29
00000080: 9abb 33ac a2b0 e7a9 3dbc fbb4 ae2d 64b3
00000090: 6e25 b634 8cb8 efb1 a129 4830 33bc 06ba
000000a0: 8bb7 7faa 26b8 96b0 7ab9 84b9 1837 0fb0
000000b0: 8ab0 71a2 77b0 efb0 d2b1 26b9 fbb0 1bb3
000000c0: e2b6 feb8 77b9 b3b3 6a33 bcb8 3f2d caaa
000000d0: 5ab5 3eb9 6a97 45ae 5a31 e5ae 242c 0fb7
000000e0: aa31 c0a0 60b6 39b5 58b9 c12b a630 1fb3
000000f0: adad c730 65b5 aab7 36b1 1ead b5b1 7f36
00000100: 8db4 13bc bebb 81b2 ff31 4fb1 a2ab edac
00000110: 26ad dfb9 ddb0 fbb2 9c32 942d d632 d9b4
00000120: 54b7 daae 41b4 64b3 10b4 142f d026 e3af
00000130: 3ab8 3f31 82af 6cb4 04b0 39b7 60b9 b2ae
00000140: 00b2 9ab6 b7b4 78b1 6c24 0333 22af 22ad
00000150: 6e35 90a9 33b1 6235 7535 1ab7 1e28 b5b3
00000160: d12e b9ab 5bb1 fdb8 e9b6 94a9 4435 3d2a
00000170: 0f32 bcb7 a120 23b4 a8a8 3633 682e bdac
00000180: 33b5 872d 72b6 90ae cd31 03b0 862e 02a5
00000190: 102b e0af 47ad dcb0 bcac 22b8 222e a7b4
000001a0: 8129 6929 4a28 459c 3bb7 6832 ffb1 57b0
000001b0: 4d36 94ba d4ad 9eb8 f4b2 d52b a226 7835
000001c0: 13b6 42b2 30b4 e1b4 3928 4ab8 ffad 5628
000001d0: 8431 8daa fead 6fae 452d dc29 4235 41b6
000001e0: de2f 4228 ccad 1c36 90af 10a7 18af 61a0
000001f0: 2ab4 cfb2 6f32 f4aa bcaa 1eb3 54b8 b132

sequential/conv2d_2/Conv2D f2 [64, 3, 3, 64]
-0.3198 0.2617 0.11505 0.3472 0.1329 0.02077 -0.059 -0.619
0.1403 -0.001326 -0.398 0.2612 -0.553 -0.9585 0.1178 0.02295
0.09894 0.00392 -0.2805 -0.04977 0.3489 0.2212 -0.1232 0.4302
-0.1642 0.2612 -0.1854 0.3984 -0.1315 -0.304 0.1299 -0.931
-0.2837 -0.1222 0.1302 0.09015 0.427 0.08545 -0.316 0.08905
0.4 -0.1881 0.03256 0.08594 -0.2272 0.1182 -0.951 0.0711
-0.4697 -0.3833 -0.6875 0.09344 0.09686 0.1993 -0.7837 -0.01264
-0.12415 0.2515 -0.2493 -0.1718 0.01084 -0.02074 -0.5605 -1.064
-0.307 0.1891 0.5522 0.0485 -0.2273 0.174 -0.3557 -0.4446
0.3733 -0.2732 0.04745 0.3464 -0.726 -0.5195 0.1473 0.11865
0.0645 -0.10236 -0.9683 0.06616 0.05203 0.06586 -0.2976 -0.05667
-0.552 -0.0018635 -0.68 0.1481 -0.2063 -0.12494 -0.1609 -0.3574
-0.3567 -0.2537 -0.04102 0.1492 0.1289 0.08606 -0.4521 -0.08
-0.1285 -0.4685 0.1417 0.0792 -0.1685 0.1553 -0.744 -0.002007
-0.8237 -0.2976 -0.3237 -0.495 0.1681 0.3674 -0.3965 0.0678
-0.1349 0.04498 -0.2627 -0.1669 0.3787 0.0407 -0.622 -0.6074
-0.1627 0.1594 0.4167 -0.03293 -0.03198 0.1338 -0.7383 -0.3062
0.2678 0.002533 0.5024 -0.5166 -0.5776 -0.2268 0.10626 0.3894
0.3943 -0.494 -0.3162 0.302 0.2932 -0.2057 -0.498 0.0321
0.003 -0.273 -0.3604 -0.03708 0.1489 0.3857 -0.1947 -0.05508
-0.2251 -0.0817 -0.1567 0.1185 -0.2944 0.232 -0.4595 -0.2864
-0.2115 0.02574 0.05905 0.0286 0.06055 0.0882 -0.006077 0.165
-0.1938 -0.4937 -0.2554 -0.2499 0.09485 0.1571 0.1769 0.1943
0.2122 0.2019 0.4453 0.2598 0.1871 0.1377 -0.4673 0.2012
0.3247 0.07874 -0.1555 -0.001853 0.189 0.4138 0.2028 0.1016
-0.2181 0.247 0.1316 0.1119 -0.3962 0.03897 0.2135 -1.182
0.02902 0.12335 0.1635 0.2678 -0.2242 0.4644 -0.0865 0.1511
0.2502 0.06854 0.31 -0.2551 0.2942 -0.2861 0.3074 0.3923
0.0533 0.0751 0.1333 -0.1821 -0.1106 -0.0282 0.1399 -0.2722
-0.2278 -0.336 0.1578 -0.03314 -0.4446 -0.4436 -0.2607 -0.5728
0.1536 -0.05038 -0.1455 0.03903 -0.1071 -0.1199 -0.398 0.06155
-0.586 -0.05777 0.06247 -0.0081 -0.0896 -0.918 0.1498 -0.4028
00000000: 1eb5 3034 5d2f 8e35 4130 5125 8dab f4b8
00000010: 7d30 6e95 5eb6 2e34 6db8 abbb 8a2f e025
00000020: 552e 041c 7db4 5faa 9535 1433 e3af e236
00000030: 41b1 2e34 efb1 6036 35b0 ddb4 2830 73bb
00000040: 8ab4 d2af 2b30 c52d d536 782d 0eb5 b32d
00000050: 6636 05b2 2b28 802d 45b3 912f 9cbb 8d2c
00000060: 84b7 22b6 80b9 fb2d 332e 6132 45ba 79a2
00000070: f2af 0634 fab3 7fb1 8d21 4fa5 7cb8 42bc
00000080: e9b4 0d32 6b38 352a 46b3 9131 b1b5 1db7
00000090: f935 5fb4 132a 8b35 cfb9 28b8 b730 982f
000000a0: 212c 8dae bfbb 3c2c a92a 372c c3b4 41ab
000000b0: 6ab8 a297 71b9 bd30 9ab2 ffaf 26b1 b8b5
000000c0: b5b5 0fb4 40a9 c630 2030 822d 3cb7 1fad
000000d0: 1db0 7fb7 8930 122d 64b1 f830 f4b9 1c98
000000e0: 97ba c3b4 2eb5 ecb7 6131 e135 58b6 572c
000000f0: 51b0 c229 34b4 57b1 0f36 3629 fab8 dcb8
00000100: 35b1 1a31 ab36 37a8 18a8 4830 e8b9 e6b4
00000110: 4934 3019 0538 22b8 9fb8 42b3 cd2e 3b36
00000120: 4f36 e7b7 0fb5 d534 b134 95b2 f8b7 1c28
00000130: 251a 5eb4 c4b5 bfa8 c430 2c36 3bb2 0dab
00000140: 34b3 3bad 04b1 962f b6b4 6d33 5ab7 95b4
00000150: c5b2 9726 8f2b 5227 c02b a52d 399e 4831
00000160: 34b2 e6b7 16b4 ffb3 122e 0731 a931 3832
00000170: ca32 7632 2037 2834 fd31 6830 7ab7 7032
00000180: 3235 0a2d fab0 9797 0c32 9f36 7d32 812e
00000190: fbb2 e733 3630 292f 57b6 fd28 d532 babc
000001a0: 6e27 e52f 3b31 4934 2db3 6e37 89ad d630
000001b0: 0134 632c f634 15b4 b534 94b4 eb34 4736
000001c0: d32a ce2c 4430 d4b1 14af 38a7 7a30 5bb4
000001d0: 4ab3 60b5 0d31 3ea8 1db7 19b7 2cb4 95b8
000001e0: ea30 73aa a8b0 ff28 dbae acaf 5eb6 e12b
000001f0: b0b8 65ab ff2b 26a0 bcad 58bb cb30 72b6

sequential/conv2d_3/Conv2D f2 [128, 3, 3, 64]
0.007523 0.407 0.00255 -0.11414 -0.02486 0.1268 -1.157 -1.012
-0.1436 -0.06616 -0.4905 -0.958 -0.2334 -0.0949 -1.509 -0.699
0.2231 -0.573 0.01653 -0.00743 -0.1328 -0.3926 0.0803 0.2947
-0.2393 -0.1588 -1.576 -0.147 0.0806 0.4353 -0.531 -0.8813
-0.4868 0.01105 -0.6436 -1.037 0.3325 -1.699 -0.8784 -0.663
-0.3506 -0.3022 -1.652 0.4246 -0.5137 -1.229 0.587 -0.638
0.463 -0.000595 -0.05573 -0.4207 0.4626 -0.6914 0.3623 -0.1693
0.0665 -0.09344 -0.4087 -1.287 0.1455 -1.588 0.4202 0.605
-0.03955 -0.4438 -0.12067 -0.1688 -0.2415 0.1726 -0.888 -0.5825
-0.6504 -0.875 -0.736 -0.865 -0.2144 0.2502 -0.897 -0.4656
-0.1807 -1.123 -0.4597 -0.6333 0.2656 -0.42 0.1736 0.1935
0.357 -0.0418 -0.795 0.3137 0.1176 -0.0783 -1.739 -0.66
0.4382 -0.02393 0.2155 -0.782 0.33 -2.111 -0.6553 -0.2482
-0.516 -0.044 -0.709 -0.0929 -0.4194 -0.7134 -0.11993 -0.563
0.4507 0.1658 -0.11444 -0.34 -0.1138 -0.0119 0.2627 -0.4402
-0.10065 0.2296 0.2067 -1.446 -0.47 -0.655 -0.5005 -0.02054
0.1672 -0.0595 -0.3604 0.0324 -0.0799 -0.01602 -0.4482 0.5083
-0.611 -1.094 0.02141 -0.4792 -0.449 0.587 -0.552 -0.76
-0.1439 -0.2406 -1.038 -0.4358 -0.3054 -0.1655 0.4832 -0.305
0.6963 0.3044 -0.1072 0.5845 0.2478 -0.267 -1.011 -0.2068
-0.301 -0.04788 0.1929 0.2408 0.1667 -1.831 -0.006355 -0.583
-0.2024 -0.2725 0.213 -0.03717 -0.566 -0.6626 -0.76 -0.3784
-0.1587 0.5376 0.1598 -0.3694 -0.5312 -0.3005 0.2102 -0.754
-0.3862 0.2922 0.5654 -0.944 -0.9883 -0.4883 -2.15 -0.2355
0.1409 0.0991 0.2612 -0.1139 -0.7197 -0.07587 -0.3386 -0.3706
-0.8203 0.6226 -0.3076 -0.4346 0.006996 -0.289 -0.661 0.2546
-0.2312 0.7134 -0.1265 0.27 -0.4646 0.07355 -0.9336 0.1952
-0.821 -0.1278 -0.7764 0.325 -0.0675 -0.1436 -0.3525 0.05786
-0.1664 0.03284 -0.568 0.002016 0.1506 -0.712 -0.62 -0.5146
-0.611 -0.2079 -0.00927 0.0175 0.2993 0.1783 0.4636 -0.4756
-0.1758 -0.591 -0.883 -1.077 0.2207 -0.11414 -0.2454 -0.1267
0.02292 -0.3044 -0.7495 -0.543 0.1659 -0.2085 0.4512 0.2502
00000000: b41f 8336 3919 4eaf 5da6 0f30 a1bc 0cbc
00000010: 98b0 3cac d9b7 aabb 78b3 13ae 09be 98b9
00000020: 2433 96b8 3b24 9c9f 40b0 48b6 242d b734
00000030: a8b3 15b1 4ebe b4b0 292d f736 3fb8 0dbb
00000040: cab7 a821 26b9 26bc 5235 ccbe 07bb 4eb9
00000050: 9cb5 d6b4 9cbe cb36 1cb8 eabc b238 1bb9
00000060: 6837 e090 22ab bbb6 6737 88b9 cc35 6bb1
00000070: 422c fbad 8ab6 26bd a830 5abe b936 d738
00000080: 10a9 1ab7 b9af 67b1 bab3 8631 1bbb a9b8
00000090: 34b9 00bb e3b9 ecba dcb2 0134 2dbb 73b7
000000a0: c8b1 7ebc 5bb7 11b9 4034 b8b6 8e31 3132
000000b0: b635 5aa9 5cba 0535 872f 03ad f5be 48b9
000000c0: 0337 20a6 e532 42ba 4835 39c0 3eb9 f1b3
000000d0: 21b8 a2a9 acb9 f2ad b6b6 b5b9 adaf 81b8
000000e0: 3637 4e31 53af 71b5 48af 18a2 3434 0bb7
000000f0: 71ae 5933 9d32 c9bd 85b7 3db9 01b8 42a5
00000100: 5a31 9eab c4b5 2628 1dad 1aa4 2cb7 1138
00000110: e3b8 60bc 7b25 abb7 2fb7 b238 6ab8 14ba
00000120: 9bb0 b3b3 27bc f9b6 e3b4 4cb1 bb37 e1b4
00000130: 9239 df34 dcae ad38 ee33 46b4 0bbc 9eb2
00000140: d1b4 21aa 2c32 b533 5631 53bf 829e aab8
00000150: 7ab2 5cb4 d132 c2a8 87b8 4db9 14ba 0eb6
00000160: 14b1 4d38 1d31 e9b5 40b8 cfb4 ba32 08ba
00000170: 2eb6 ad34 8638 8dbb e8bb d0b7 4dc0 89b3
00000180: 8230 582e 2e34 4aaf c2b9 dbac 6bb5 eeb5
00000190: 90ba fb38 ecb4 f4b6 2a1f a0b4 4ab9 1334
000001a0: 66b3 b539 0cb0 5234 6fb7 b52c 78bb 3f32
000001b0: 91ba 17b0 36ba 3335 52ac 98b0 a4b5 682b
000001c0: 53b1 3428 8bb8 2118 d230 b2b9 f6b8 1eb8
000001d0: e3b8 a7b2 bfa0 7b24 ca34 b531 6b37 9cb7
000001e0: a0b1 bab8 10bb 4fbc 1033 4eaf dab3 0eb0
000001f0: de25 dfb4 ffb9 58b8 4f31 acb2 3837 0134
