LaneFollowingModel/f16q/model.tflite (tflite, 281292 bytes, 11 tensors)

dense/bias f2 [64]
00000000: 0b2d 5eac 932d b225 6026 ac28 44a9 baa7
00000010: 9eaf ebaf 82a9 20a6 a4ad 8c2d 74ab ccac
00000020: 80ac 7a93 0f21 372c d9a4 fe2c bf1d a829
00000030: 1f1f 4794 b128 d7a8 05aa 53b0 3b2f 01a8
00000040: c82a e22b c727 0faa d294 11ae 822c f22c
00000050: 412d 9825 83ad a9a9 25ad 78ac bf9f 6fad
00000060: 182d 0fab fba8 5ea8 bb2e 4ba2 c72e cf2c
00000070: 4aa6 bc2b 0c2c 2e2c 862b 6aa7 f22e 76b1
0.0788 -0.06824 0.0871 0.02225 0.0249 0.0365 -0.04114 -0.03018
-0.119 -0.1237 -0.04303 -0.02393 -0.08813 0.0867 -0.05823 -0.07495
-0.0703 -0.0009127 0.00988 0.06586 -0.01894 0.078 0.00561 0.0442
0.006954 -0.001044 0.03665 -0.0378 -0.04703 -0.1351 0.113 -0.03128
0.05298 0.06158 0.03038 -0.04733 -0.001177 -0.0948 0.07043 0.0773
0.0821 0.02185 -0.0861 -0.04422 -0.0804 -0.0698 -0.007565 -0.0849
0.0796 -0.05515 -0.0389 -0.03412 0.10516 -0.01229 0.1059 0.07513
-0.02457 0.06042 0.06323 0.0653 0.05878 -0.02896 0.1085 -0.1707

conv2d_3/bias f2 [128]
00000000: 31a7 49b1 0fac a3aa e2ab dfab c0ab b3b1
00000010: 73af 08ab a1a9 569f c0ad 3daf cda1 6ba7
00000020: d91f d7b1 89ad 09b0 b4b0 0bac 3fb2 0fad
00000030: 12b0 45ad ac91 56b1 b7ae 3030 55ad 8820
00000040: aaa4 31ac 5d1c 51a4 e3ad 0fa4 f9a5 a4ac
00000050: a7a5 afa9 e0a6 92a6 68ab 63a6 54ae 37ac
00000060: 38ad e832 79b0 28af 16a2 74a5 18b0 4eac
00000070: 2fa4 00a6 8fa1 aaa9 33a8 63a9 73ad 5b19
00000080: caa3 ddad 7ca9 2aa8 f0b0 59a6 90af edad
00000090: 63ac a418 0c9e 64ae 09aa 45ae c7a9 d8ac
000000a0: 05af 7ead acab 9daa 1995 5732 cf32 2fad
000000b0: 6fa5 402e 84b3 f7b0 7aad e38c 22b3 d11c
000000c0: de32 56ae 97ab 972e ebad 07ac 48ac 01aa
000000d0: 2fa0 a2a1 0eb2 10a8 0e2f 7e9d 4db0 08b0
000000e0: 54a7 25a8 4a2f 46b1 96af 5fad 02b0 021d
000000f0: 34a8 3d9d d3ae c9ae c7a7 07a6 7dac b1ac
-0.02809 -0.1652 -0.0634 -0.05185 -0.06158 -0.0615 -0.06055 -0.1781
-0.1164 -0.05493 -0.04398 -0.007164 -0.08984 -0.1131 -0.01133 -0.02898
0.007664 -0.1825 -0.0865 -0.1261 -0.147 -0.0632 -0.1952 -0.07904
-0.1272 -0.08234 -0.0006924 -0.1667 -0.1049 0.1309 -0.0833 0.00885
-0.01822 -0.0655 0.00426 -0.01686 -0.092 -0.01585 -0.02333 -0.0725
-0.02208 -0.0444 -0.02686 -0.02567 -0.05786 -0.02495 -0.0989 -0.06586
-0.08154 0.2158 -0.1398 -0.1118 -0.01189 -0.0213 -0.1279 -0.06726
-0.01634 -0.02344 -0.01086 -0.04425 -0.0328 -0.04208 -0.08514 0.002615
-0.01521 -0.0916 -0.04285 -0.03253 -0.1543 -0.0248 -0.11816 -0.0926
-0.06854 0.002266 -0.005905 -0.09985 -0.04715 -0.09796 -0.04514 -0.0757
-0.1097 -0.0858 -0.05994 -0.05167 -0.001245 0.1981 0.2128 -0.081
-0.02122 0.09766 -0.2349 -0.1552 -0.0856 -0.0002983 -0.2229 0.004704
0.2146 -0.099 -0.0593 0.10297 -0.09247 -0.0629 -0.0669 -0.0469
-0.00817 -0.011 -0.1892 -0.03174 0.1102 -0.005363 -0.1344 -0.126
-0.02863 -0.03238 0.1139 -0.1648 -0.1185 -0.0839 -0.1252 0.00489
-0.03284 -0.005116 -0.1066 -0.106 -0.03038 -0.02354 -0.0701 -0.0733

conv2d_2/bias f2 [64]
00000000: f3a8 42a4 97af 90a6 eb9b 231e 7ead efa3
00000010: 7eaa 7626 7925 9aab 7bad e8a4 aca7 9ea8
00000020: 2fa8 dca1 bba9 6aad 66a9 e2aa 74a8 7fa7
00000030: 9cb1 c5b0 44ac e3a8 d5a9 4ba7 c0ae 54a7
00000040: 55aa 65a8 ada5 eaad 91ac 8aac eb99 3bae
00000050: 93a2 4821 449a 55b0 2eaa 2eb0 55a7 70ad
00000060: 50b0 25a6 b2ac 33b0 23b0 f2a1 caa8 d5ac
00000070: f8a4 24ad 879b 28ac 0080 eaaa 9caa bbad
-0.03867 -0.01663 -0.1186 -0.02563 -0.003866 0.005993 -0.0858 -0.015495
-0.05072 0.02524 0.02138 -0.0594 -0.08563 -0.01917 -0.02997 -0.03607
-0.03268 -0.011444 -0.04477 -0.0846 -0.04218 -0.05377 -0.0348 -0.02928
-0.1753 -0.149 -0.06665 -0.03818 -0.04556 -0.02849 -0.10547 -0.02863
-0.04947 -0.03433 -0.02217 -0.0924 -0.07135 -0.0709 -0.00289 -0.09735
-0.01284 0.010315 -0.00306 -0.1354 -0.04828 -0.1306 -0.02864 -0.08496
-0.1348 -0.024 -0.07336 -0.1312 -0.1293 -0.01161 -0.0374 -0.0755
-0.01941 -0.0803 -0.003675 -0.06494 -0.0 -0.05402 -0.05164 -0.08954

conv2d_1/bias f2 [64]
00000000: 11b1 9ca8 151f d714 8228 d4a3 05b0 12a8
00000010: 7ba9 8a22 07a6 00a8 9ea3 af20 95ac 15ad
00000020: 7aaa d5ae 5fa4 d6a3 779e 75aa f4a4 f8a6
00000030: cea6 8525 77a6 a6a8 eda8 ffa4 0aa5 d2a5
00000040: d0a5 3eac cdad 1fa7 62a7 88a1 2ca6 e1a5
00000050: c8a5 93b0 10ab 1ca8 7ca4 8aa5 f6b0 19a1
00000060: 0eaf 92aa c6a5 6db0 18b0 a0a9 74a1 c9ab
00000070: cda9 9aac 47a3 c4aa faa1 a098 c4a4 f49d
-0.1583 -0.036 0.006916 0.001182 0.03522 -0.01529 -0.1256 -0.0318
-0.04282 0.01277 -0.02354 -0.03125 -0.01488 0.00915 -0.0716 -0.0794
-0.0506 -0.10675 -0.01707 -0.015305 -0.006313 -0.05045 -0.01935 -0.02722
-0.02658 0.02156 -0.02525 -0.03632 -0.03848 -0.01952 -0.01968 -0.02274
-0.0227 -0.0663 -0.09064 -0.02782 -0.02884 -0.0108 -0.02411 -0.02296
-0.02258 -0.143 -0.05518 -0.0321 -0.01752 -0.02164 -0.155 -0.00996
-0.1102 -0.05133 -0.02255 -0.1383 -0.1279 -0.04395 -0.01065 -0.06082
-0.04532 -0.0719 -0.01421 -0.05286 -0.01167 -0.002258 -0.01862 -0.005814

conv2d/bias f2 [32]
00000000: d9af 45a7 6c96 c7a0 ddb0 efa2 e3b0 3ca2
00000010: 6fa4 dc23 2ca4 62a1 83a6 149e 1ea2 19a5
00000020: 15a0 16a3 76a3 dfaa d3a3 5ba3 2aa2 8faf
00000030: fdaa 4ca4 e29f d1b0 26a0 1f24 1a9e cc9d
-0.1226 -0.0284 -0.001568 -0.00933 -0.152 -0.01354 -0.1527 -0.01218
-0.01732 0.01535 -0.0163 -0.01051 -0.02544 -0.005936 -0.01195 -0.01991
-0.00797 -0.01384 -0.01457 -0.05368 -0.01528 -0.014366 -0.01204 -0.1181
-0.0546 -0.01678 -0.007698 -0.1505 -0.0081 0.0161 -0.00596 -0.00566

sequential/dense/MatMul f2 [64, 128]
00000000: 3e32 bcac 59aa 4a2f 992b 4f27 49b0 e4b1
00000010: 5432 0930 33a0 d431 db9d d8ad 91ae 91ac
00000020: 4eaa c1b0 8f32 6e2e bc31 752e 9928 1627
00000030: 2c2f 79ae 0731 5531 1fb0 b632 60af 69ae
00000040: b5b4 97a9 9cb2 2330 efad cfaf 1333 afae
00000050: 0e30 f0b2 9033 b72c 552f f833 cd2b fb29
00000060: 9330 2228 0caf 81a7 e530 38a8 dab0 8b30
00000070: 09ad 1ead b0b2 87b0 9eac 25a8 3e31 3fb2
00000080: a7ad 55b3 7db1 6231 ea2f 8332 fb31 3129
00000090: c327 26a9 0232 06aa dda8 7d2e 4cab 83b3
000000a0: 8d32 292d 19b1 69b1 5c33 862e 3931 dcb4
000000b0: 8034 1c2c 14b0 af2e 90a6 aa30 79a9 742d
000000c0: 03aa be31 ba2d 7d30 b62d e730 eaa1 96b1
000000d0: dfb0 5b33 bdb1 d333 082d 97ac 45ac 4eab
000000e0: 67b4 7eab 7faf 00a8 372f 00ab b931 6232
000000f0: ea92 b92c 3e32 212e 2935 802d dcb3 40b2
00000100: 842c 842e efaf fea5 43aa 53b3 a32e 24ac
00000110: 092c 662c 582e a5ae 5e2c 4b2e 9eae 76ac
00000120: b7ad 00b0 0bac ff29 072e e5b1 9e29 f6a9
00000130: a1ac 062e b7ac 07b0 3dac a4a9 dbb2 08b3
00000140: 67b3 7198 92b0 dfb0 412e 94b0 1f01 4ea2
00000150: 1cb1 03b2 17aa 5326 deac c6b0 2db2 dbad
00000160: e41e 71ac 7d2d 88a7 e828 77b1 262e 57ab
00000170: a7af acb0 32b1 382d bf14 27ae 4dac b3ae
00000180: 0aad 1eb3 f0b2 5823 17a9 4bb0 072a 5d0f
00000190: 1490 6e30 3aaf dfb2 bcaf bead 5bb2 872c
000001a0: ceb0 fcb1 732c 212c 13b1 2d9d a1b3 99a2
000001b0: 542e ffac 6a2a 5dad 2620 462c 702e 0cb2
000001c0: d22b eeb0 46a5 612d 7d9e f12d f829 c12c
000001d0: e01c 32b1 1eb3 6eac 65a6 6eab 12b0 c7a5
000001e0: eda5 27ab 94a8 96aa 8a2e 03b0 09b0 66ab
000001f0: 482d 452e 2fab 06ae 1fa9 88ae cdb1 c0b2
0.1951 -0.074 -0.0496 0.1139 0.05936 0.02855 -0.1339 -0.1841
0.1978 0.1261 -0.0082 0.1821 -0.00572 -0.0913 -0.1026 -0.07135
-0.04926 -0.1486 0.205 0.10046 0.1792 0.1009 0.03592 0.02768
0.11206 -0.10114 0.1571 0.1666 -0.1288 0.2097 -0.11523 -0.10016
-0.2942 -0.04367 -0.2065 0.1293 -0.0927 -0.122 0.2211 -0.10443
0.1267 -0.2168 0.2363 0.07367 0.11456 0.249 0.06094 0.04672
0.143 0.0323 -0.1101 -0.02931 0.153 -0.03296 -0.1516 0.142
-0.0787 -0.07996 -0.209 -0.1415 -0.07214 -0.03238 0.1638 -0.1952
-0.0883 -0.2291 -0.1715 0.1682 0.12366 0.2035 0.1869 0.04056
0.03032 -0.04022 0.1877 -0.04706 -0.038 0.1014 -0.057 -0.2347
0.2047 0.0806 -0.1593 -0.1691 0.23 0.1019 0.1632 -0.3037
0.2812 0.0642 -0.1274 0.10443 -0.02563 0.1458 -0.04276 0.0852
-0.04697 0.1794 0.0895 0.1403 0.08923 0.1532 -0.01155 -0.1746
-0.1522 0.2299 -0.1793 0.2445 0.0786 -0.0717 -0.0667 -0.05707
-0.2751 -0.05853 -0.1171 -0.03125 0.11273 -0.0547 0.1788 0.1995
-0.000844 0.0738 0.1951 0.09576 0.3225 0.08594 -0.2456 -0.1953
0.07056 0.1018 -0.12396 -0.0234 -0.04892 -0.2289 0.1037 -0.0647
0.06305 0.0687 0.0991 -0.1038 0.06824 0.0983 -0.1034 -0.0697
-0.0893 -0.125 -0.0632 0.04684 0.0942 -0.1842 0.04388 -0.04657
-0.0723 0.0941 -0.07367 -0.1259 -0.0662 -0.04407 -0.2142 -0.2197
-0.2313 -0.002169 -0.1428 -0.1522 0.0977 -0.1431 1.71e-05 -0.012314
-0.1597 -0.1879 -0.04758 0.0247 -0.07605 -0.1492 -0.193 -0.0915
0.00673 -0.0694 0.08575 -0.02942 0.03833 -0.1708 0.09607 -0.05734
-0.11957 -0.146 -0.1624 0.08154 0.001159 -0.0961 -0.0672 -0.1047
-0.07874 -0.2224 -0.2168 0.01434 -0.03976 -0.1342 0.0471 0.0004494
-0.000498 0.1384 -0.1129 -0.2147 -0.12085 -0.0897 -0.1986 0.07074
-0.1501 -0.187 0.0695 0.0645 -0.1586 -0.005054 -0.2384 -0.012886
0.0989 -0.07806 0.0501 -0.0838 0.0081 0.0668 0.1006 -0.189
0.0611 -0.154 -0.0206 0.08405 -0.006336 0.09283 0.04663 0.0743
0.00476 -0.1624 -0.2224 -0.0692 -0.02498 -0.05804 -0.1272 -0.02257
-0.02315 -0.05588 -0.03577 -0.05145 0.1022 -0.1254 -0.1261 -0.0578
0.0825 0.09796 -0.05612 -0.0941 -0.04 -0.10205 -0.1813 -0.2109

sequential/dense_1/MatMul f2 [1, 64]
00000000: 81b1 88a5 c6ac 782c 50b3 92b1 5730 e2b6
00000010: 8838 47b4 beb2 d929 07ad 5335 9231 4a30
00000020: 53ac f9b2 2b1b c034 aab1 c032 be32 a6b4
00000030: 81b1 c636 472f 9ead 9bb2 122e e730 78ac
00000040: 8a2c f12f 262b 29b4 e630 e72b fc34 d5b0
00000050: 68ab 8d28 c226 ef9d 0aae 44af 52b4 ff22
00000060: 4c35 7530 a7b0 fb2c 4330 7dab 8932 97b5
00000070: 35ab 89b1 21ae ce2d 85af 0432 31b4 03ba
-0.172 -0.0216 -0.0746 0.0698 -0.2285 -0.1741 0.1356 -0.4302
0.5664 -0.2673 -0.2107 0.0457 -0.07855 0.3328 0.1741 0.134
-0.06757 -0.2179 0.0035 0.2969 -0.177 0.2109 0.2107 -0.2905
-0.172 0.4233 0.1137 -0.08777 -0.2064 0.09485 0.1532 -0.0698
0.0709 0.1241 0.05585 -0.26 0.1531 0.06174 0.3115 -0.151
-0.05786 0.03555 0.0264 -0.005795 -0.09436 -0.1135 -0.27 0.013664
0.331 0.1393 -0.1454 0.0778 0.1332 -0.0585 0.2042 -0.3494
-0.0563 -0.173 -0.09576 0.0907 -0.1175 0.188 -0.262 -0.7515

sequential/conv2d/Conv2D f2 [32, 3, 3, 1]
00000000: 352d 6e2a ca30 22ab 302b 8027 1397 59a7
00000010: 9a2d 8425 6a28 1caf 8aac 8ca1 892b 9eb4
00000020: 4632 2a2c 14b2 33b5 1fb3 4baf 28b8 0733
00000030: ca34 31b8 a0a4 1bb1 cb2f d028 ccb4 3e31
00000040: d12d 1233 93b1 7eb3 3ba5 b92b 15a9 d9a6
00000050: d329 d0a4 ff2c 10b0 1821 be24 1431 d5b2
00000060: e6b0 42a9 a331 0db4 e732 8d29 302f 0730
00000070: 862b 2f2a 4ea0 85a1 a82c 6aa1 f1a2 00b3
00000080: ae8f d0a3 7d31 87b4 f6b4 342b 2634 35b5
00000090: 83b5 0f32 b530 07a4 09b2 5730 df2d f0ae
000000a0: e9ad dfa2 8b31 13a2 50b1 bc31 d1b1 7695
000000b0: 5a32 1ab3 412d 7fb1 502c 43b0 2b31 ef33
000000c0: 78b5 86b3 f6ad 4db6 dd33 292d 17b6 e39d
000000d0: fe28 89b2 91ad 0c33 05b2 0432 89a5 5d20
000000e0: ae33 32b4 5fa5 082d 54af 8930 992c 56b3
000000f0: 71b4 ca2a a2b4 93b4 e42d d931 8432 7225
00000100: efa8 e622 05b4 48af 91b5 8b32 0130 9130
00000110: 6b25 5532 a4ad 7831 48a3 87a6 fcb2 98b3
00000120: 93b1 cc2f 421c 5427 2aaf 3832 d7af 73a3
00000130: 44b2 5faa 4daf c3b4 0031 a931 e894 e59d
00000140: fda9 f029 a9ab 47b2 2ba2 392d 2532 71a8
00000150: aeaa 33b1 2931 3cb0 f3b6 84b4 b8b6 5736
00000160: bab5 2aab 392c 6aa9 72af caaa d0a9 cd20
00000170: d6ae a714 60a0 4cac a1a7 8baf 4932 f4ad
00000180: a42d 7230 0fad 1bb3 ae2d 76af 27b4 e7b2
00000190: bcb3 3329 d3b1 02ab e42f 3331 d12e 2e30
000001a0: 36ac 2a14 a72d 5a2d eba9 2a2c 3f1e 52a5
000001b0: 4ca9 14ab c12d a0ac 27b1 bd31 1fb0 0b27
000001c0: 5ba7 6332 fc31 29b6 0231 93b4 b9b0 78b0
000001d0: a830 25a0 4d25 51ae 65b0 27b3 cab0 9024
000001e0: b7b5 f132 cf2e a02f ac2a 24a8 1134 6232
000001f0: 082c bd2e a416 13ac 7d2b 6727 97b7 6e30
0.08136 0.05023 0.1497 -0.05573 0.05615 0.0293 -0.001727 -0.0287
0.0875 0.02155 0.0345 -0.1111 -0.0709 -0.01083 0.05887 -0.2886
0.196 0.06506 -0.19 -0.325 -0.2225 -0.11395 -0.5195 0.2196
0.2993 -0.524 -0.01807 -0.1595 0.12177 0.0376 -0.2998 0.1638
0.0909 0.221 -0.1742 -0.2341 -0.02043 0.06033 -0.0397 -0.02675
0.0455 -0.0188 0.07806 -0.127 0.00995 0.01852 0.1587 -0.2135
-0.1531 -0.04108 0.1761 -0.2532 0.2157 0.04337 0.1123 0.1259
0.05878 0.0483 -0.00841 -0.01078 0.07275 -0.010574 -0.01356 -0.2188
-0.0004687 -0.01526 0.1715 -0.283 -0.31 0.05627 0.2593 -0.3254
-0.3445 0.1893 0.1471 -0.01573 -0.1886 0.1356 0.09174 -0.1084
-0.09235 -0.01342 0.1732 -0.01186 -0.166 0.1792 -0.1818 -0.001333
0.1985 -0.2219 0.0821 -0.1718 0.0674 -0.1332 0.1615 0.2479
-0.3418 -0.2351 -0.09314 -0.3938 0.2457 0.0806 -0.3806 -0.00575
0.039 -0.2042 -0.087 0.2202 -0.1881 0.188 -0.02162 0.00852
0.24 -0.2622 -0.02098 0.0786 -0.1145 0.1417 0.07184 -0.2292
-0.2776 0.05304 -0.2896 -0.286 0.09204 0.1827 0.2036 0.02127
-0.03854 0.01347 -0.2512 -0.1138 -0.348 0.2045 0.1251 0.1427
0.02116 0.1979 -0.08813 0.1709 -0.01422 -0.0255 -0.2183 -0.2373
-0.1742 0.1218 0.004158 0.02863 -0.11194 0.1943 -0.1225 -0.01455
-0.1958 -0.04977 -0.1141 -0.2976 0.1562 0.1769 -0.001198 -0.005756
-0.04678 0.0464 -0.05984 -0.1962 -0.01205 0.0816 0.192 -0.0347
-0.0522 -0.1625 0.1613 -0.1323 -0.4343 -0.2822 -0.42 0.3962
-0.358 -0.05597 0.066 -0.0423 -0.11633 -0.05304 -0.0454 0.00938
-0.1068 0.001136 -0.008545 -0.06714 -0.0298 -0.11786 0.1964 -0.093
0.08813 0.1389 -0.07904 -0.222 0.08875 -0.1166 -0.2595 -0.2157
-0.2417 0.04062 -0.182 -0.05475 0.1233 0.1625 0.1065 0.1306
-0.0658 0.001017 0.0883 0.0836 -0.04623 0.06506 0.0061 -0.02078
-0.04138 -0.0553 0.0899 -0.07227 -0.161 0.1793 -0.1288 0.02751
-0.02873 0.1996 0.187 -0.385 0.1565 -0.286 -0.1476 -0.1396
0.1455 -0.008095 0.0207 -0.0987 -0.1373 -0.2235 -0.1497 0.01782
-0.3572 0.2169 0.1064 0.11914 0.05212 -0.03235 0.2542 0.1995
0.063 0.1053 0.001621 -0.06366 0.0585 0.02892 -0.4744 0.1384

sequential/conv2d_1/Conv2D f2 [64, 3, 3, 32]
00000000: 552e 5da9 ffb2 cc2c b82c 0d32 cda6 632e
00000010: 8da0 a72b 342d fa28 2f2b 572e 7130 832f
00000020: 1327 cc28 cf30 4baa 7b29 3ea9 bb23 942c
00000030: 432a af2d e735 bf2e bea4 bb2d 71a5 402d
00000040: 22b0 1626 162e 1b30 de2e d532 9e29 a932
00000050: bba8 8e30 d828 962c 9330 d334 ff30 83a4
00000060: 2ab1 e02d 602e dd38 899e a731 fb2d b411
00000070: cca0 9534 0f38 d424 6031 f3aa c130 0733
00000080: c0b2 8c99 5529 73a9 59b0 272e 1db0 81ab
00000090: 5aaa 60ae b3b3 d233 1cac b730 52a5 5ab0
000000a0: 5fb4 b425 102c 3caf 5ea2 70b2 cdad a6b3
000000b0: 8aaf 45ad 0237 b8b4 c5a4 71b3 a7ab 21b2
000000c0: 4aad cfa9 0aab 7aa0 46a8 2528 daae deb4
000000d0: 0b89 4bb2 33ac d225 ffac 1525 56a6 01b0
000000e0: 29a6 88af 2fb0 a032 75ac eab0 79b1 2baf
000000f0: bba6 6f2a 0234 8eaf 0f2d d2b0 c12c 5726
00000100: ae98 562c b330 3830 cf04 e421 b32c 9614
00000110: 2e2c bc30 692a 6c9d 032c b232 2eaa 55ac
00000120: f22f 6dac 83aa 6e38 a317 9131 38ac aa98
00000130: c428 1630 3f34 2796 eeaa c12a 0334 6f2f
00000140: 83b1 6f90 0031 7833 9a22 172a 21b1 1832
00000150: c920 f9a8 6d30 b52f b59e 4530 c62a 001d
00000160: 5131 24a9 9c24 7aa4 35aa 4b28 f49c e5a3
00000170: 1ea5 15a9 2832 d7a9 2530 e628 1231 eead
00000180: f5af bdb0 b328 192f ab0b c524 89af d632
00000190: 92a8 a3b1 e5ae d82f 3cb2 f526 3b25 3506
000001a0: 18b1 66b3 3db1 502d 822a c9b0 91af 11b0
000001b0: 9ab0 baae 732e a5b1 edb3 87ac 272d bd2a
000001c0: 5129 b02c a731 6b25 e127 1d33 39ad 672d
000001d0: a02a 6533 66ad 7033 5c32 9634 3f30 69aa
000001e0: a41e b129 b6a8 293b 40ac b72e a7ae 7fa7
000001f0: 732d 1f31 6230 312d 6daf 0dae 6930 f030
0.09894 -0.0419 -0.2186 0.07495 0.0737 0.1891 -0.02657 0.0998
-0.00889 0.05978 0.0813 0.03888 0.05612 0.09906 0.1388 0.1174
0.02763 0.03748 0.1503 -0.04916 0.04282 -0.04095 0.0151 0.07153
0.04892 0.0888 0.369 0.1054 -0.01852 0.08954 -0.02126 0.08203
-0.1292 0.02377 0.0951 0.1283 0.1073 0.2135 0.04388 0.2081
-0.03696 0.1423 0.03784 0.07166 0.143 0.3015 0.1561 -0.01762
-0.1614 0.0918 0.0996 0.608 -0.006382 0.1766 0.09344 0.000696
-0.00937 0.2864 0.5073 0.01886 0.168 -0.0543 0.1486 0.2196
-0.2109 -0.002708 0.04166 -0.04257 -0.1359 0.0961 -0.1285 -0.05862
-0.04962 -0.0996 -0.2406 0.2444 -0.0642 0.1473 -0.02078 -0.136
-0.2732 0.02228 0.0635 -0.11304 -0.012436 -0.2012 -0.09064 -0.239
-0.1178 -0.08234 0.438 -0.295 -0.01863 -0.2325 -0.05978 -0.1915
-0.08264 -0.04538 -0.055 -0.00874 -0.0334 0.03238 -0.10706 -0.3042
-0.0001539 -0.1967 -0.0656 0.02274 -0.07806 0.01985 -0.02475 -0.1251
-0.02406 -0.1177 -0.1307 0.207 -0.06964 -0.1536 -0.171 -0.112
-0.02629 0.05026 0.2505 -0.11804 0.07904 -0.1506 0.0743 0.02477
-0.002285 0.06775 0.1469 0.1318 7.34e-05 0.011505 0.0734 0.00112
0.0653 0.148 0.05008 -0.005295 0.0627 0.2092 -0.04828 -0.0677
0.12415 -0.06915 -0.05087 0.5537 0.001864 0.174 -0.0659 -0.002277
0.03723 0.1277 0.2654 -0.001502 -0.05414 0.05276 0.2507 0.11615
-0.1722 -0.000541 0.1562 0.2334 0.01289 0.04758 -0.1603 0.1904
0.009346 -0.03885 0.1383 0.1204 -0.00655 0.1334 0.05292 0.004883
0.1661 -0.04016 0.018 -0.01749 -0.0485 0.03354 -0.004837 -0.01542
-0.01999 -0.0397 0.1924 -0.04562 0.1295 0.03827 0.1584 -0.09265
-0.1243 -0.1481 0.0367 0.1109 0.000234 0.01863 -0.11774 0.2136
-0.0357 -0.1761 -0.1077 0.12256 -0.1948 0.02718 0.02043 9.47e-05
-0.1592 -0.2312 -0.1637 0.083 0.05084 -0.1495 -0.1182 -0.1271
-0.1438 -0.1051 0.10077 -0.1764 -0.2477 -0.07074 0.0805 0.05264
0.04153 0.07324 0.1766 0.02116 0.03078 0.2223 -0.0816 0.0844
0.05176 0.2311 -0.08435 0.2324 0.1987 0.2866 0.1327 -0.05008
0.006485 0.04446 -0.0368 0.895 -0.0664 0.1049 -0.10394 -0.02928
0.08514 0.16 0.137 0.0811 -0.116 -0.09454 0.1378 0.1543

sequential/conv2d_2/Conv2D f2 [64, 3, 3, 64]
00000000: b1ad 48b0 56b0 112c 8d24 aa2d aeac 7230
00000010: e6b4 e923 a1b2 9ab1 a9b4 be2a f52f 9eb3
00000020: 8ca8 4ea6 5bac 3ea6 e0ac e9aa 2c2a c3ad
00000030: dd21 d72b 0125 a6b4 d7ac 922e d1b0 a69e
00000040: 8a2a 0829 e1a9 adb0 8cb4 2bac bdaf 0b2d
00000050: 5d2a 07af 4825 dfb4 432f a2b2 adb1 35ad
00000060: 5cb0 d7ad 591d b9b0 5930 5399 502d 6529
00000070: 5233 fab0 dfae a52e 60b1 5ba8 0eaa a824
00000080: f9af feb0 81a6 6230 daa7 b12e 39b1 ab2e
00000090: 1ab4 7ea3 3eb1 42b0 74b5 6aaa 722e b4b6
000000a0: d5ad fc24 4d1b 3530 0120 762c 0baa adb1
000000b0: 6320 0630 fc28 9eb1 f9b1 3eb0 d8b2 61b0
000000c0: 8330 cd25 9bb0 bfb5 35b1 d5b1 f3aa 5e24
000000d0: d627 45b2 c7b0 85b4 892b 4cb1 74b0 f822
000000e0: 2fad e9af 9329 10b0 e22d b327 872c 0a2b
000000f0: 122f bfaf 4db1 0327 23b3 0dac 40ab 4da4
00000100: b8ae ac2d 9226 1c29 e7af 0c29 c4ad 3831
00000110: 41a6 24af 8891 2fa6 51ad 95b5 3d2f e5b0
00000120: 01af de2e 1eac 4d2b 7529 d322 a6b3 35b2
00000130: be2d df28 f628 59ac beaf ee2b 84a5 4630
00000140: ac30 0424 f3ae f929 02a8 2aae 2b17 d01d
00000150: 152e 6ca7 56ae 91b0 7b2c 4920 902c e331
00000160: 4ab0 f1a6 4022 a9a9 942c 1430 66b4 962f
00000170: c7ab 6f9e c1ad 7cac 2cac 3029 23a4 f5a9
00000180: e4b0 812c 08b1 5da8 9ea0 f3b2 282a 35ad
00000190: cdb3 892a 73ae 47b5 53b6 af30 b6ac df27
000001a0: bd15 53a8 34ad a0b0 3d21 4ca9 082c ad2d
000001b0: 25a8 19af ccb0 f0ac 83b4 03ad 36b4 f4b3
000001c0: 22a0 35a9 b1a5 8eb1 e1ad eb23 b7b1 1e30
000001d0: fa21 d0b0 35ae 4e2b 7dac 5eb2 b5b1 0d31
000001e0: 55b0 902a b9b2 a59d 61b3 25b0 4429 c0ab
000001f0: 1621 69b1 dfb4 422d 511e 5a20 1530 4bac
-0.0889 -0.1338 -0.1355 0.06354 0.01778 0.0885 -0.0731 0.1389
-0.3062 0.01545 -0.2072 -0.175 -0.2913 0.05267 0.1243 -0.238
-0.03552 -0.02463 -0.06805 -0.02438 -0.0762 -0.054 0.04822 -0.09
0.01145 0.06125 0.01955 -0.2905 -0.0756 0.10266 -0.1505 -0.006493
0.0511 0.0393 -0.04593 -0.1461 -0.2842 -0.0651 -0.1209 0.0788
0.0497 -0.1098 0.02063 -0.3044 0.11346 -0.2073 -0.1774 -0.08136
-0.1362 -0.09125 0.005222 -0.1476 0.1359 -0.0026 0.083 0.04214
0.2288 -0.1555 -0.10736 0.1038 -0.168 -0.03403 -0.0473 0.01819
-0.1246 -0.156 -0.0254 0.137 -0.03067 0.10455 -0.1632 0.1042
-0.2563 -0.01463 -0.1638 -0.133 -0.3408 -0.0501 0.1007 -0.419
-0.0911 0.01947 0.003565 0.1315 0.00782 0.0697 -0.0472 -0.1774
0.00857 0.1257 0.03894 -0.1755 -0.1866 -0.1326 -0.2139 -0.1368
0.141 0.02266 -0.1439 -0.3591 -0.1627 -0.1823 -0.0543 0.01706
0.03061 -0.1959 -0.1493 -0.2825 0.05887 -0.1655 -0.1392 0.01361
-0.081 -0.1236 0.04355 -0.127 0.0919 0.03008 0.07074 0.055
0.1105 -0.12103 -0.1656 0.02739 -0.223 -0.0633 -0.05664 -0.0168
-0.105 0.0886 0.02567 0.03992 -0.1235 0.03943 -0.0901 0.1631
-0.02443 -0.1116 -0.000675 -0.02415 -0.08307 -0.3489 0.1131 -0.153
-0.10944 0.1073 -0.06433 0.05704 0.04263 0.01333 -0.239 -0.194
0.0897 0.03806 0.03876 -0.06793 -0.121 0.06195 -0.02155 0.1335
0.146 0.01569 -0.1086 0.04666 -0.0313 -0.0963 0.00175 0.005676
0.09503 -0.02899 -0.099 -0.1427 0.07 0.00837 0.0713 0.184
-0.134 -0.02711 0.01221 -0.04422 0.07153 0.1274 -0.275 0.1185
-0.06076 -0.006283 -0.0899 -0.07007 -0.0652 0.04053 -0.01616 -0.04654
-0.1528 0.0704 -0.1572 -0.0341 -0.00902 -0.2172 0.0481 -0.08136
-0.2438 0.05106 -0.10077 -0.3298 -0.3953 0.1464 -0.0736 0.03075
0.001401 -0.03378 -0.0813 -0.1445 0.01023 -0.04138 0.063 0.0887
-0.03238 -0.1109 -0.1499 -0.07715 -0.282 -0.0783 -0.2632 -0.2485
-0.00807 -0.04068 -0.02223 -0.1736 -0.09186 0.015465 -0.1786 0.1287
0.01167 -0.1504 -0.097 0.05707 -0.0701 -0.199 -0.1783 0.1578
-0.1354 0.05127 -0.2101 -0.005512 -0.2306 -0.1295 0.04114 -0.06055
0.00993 -0.1691 -0.3044 0.08215 0.00617 0.0085 0.1276 -0.0671

sequential/conv2d_3/Conv2D f2 [128, 3, 3, 64]
00000000: e2a0 c7a5 caad 89a4 eea6 01b0 e127 6e28
00000010: 8fad a52a 57ae e126 bc27 fcb1 1329 cd31
00000020: 6bae f428 3723 b7aa 3127 b7b2 9ca8 3bae
00000030: d2b1 05ad 4ea0 0aa6 a12c 2c34 e324 23a0
00000040: 02a9 be27 af2c 132d 0432 c3a8 cc22 422c
00000050: 3db3 ed24 8a9a 002e a72b 5ab1 1caf 07ae
00000060: d5a9 45a7 6431 37ab 34ac 5fad 5fb4 e09e
00000070: 3628 68b0 6ab0 1fb1 87ac c426 a2a4 dead
00000080: 78a6 1224 a4af 57a2 17ab f9af 7c2e 63ac
00000090: acac d7a9 72ad 3cb2 0e2c 75b3 3c2b d022
000000a0: 41b1 13ae ccaa 07b1 27a1 fcb0 4d2f 7aaf
000000b0: 68b4 a424 e8a7 24aa 5ea7 9933 0624 2025
000000c0: 8d2c 4f2d 7d2e 8f2f 1c30 36ac ccad 2e23
000000d0: 60b2 be26 6dac 082c ff2b 6a30 2bb1 47b2
000000e0: e6af 47a7 4ea0 97b0 5120 9db1 d8b3 ff28
000000f0: 98aa 2aac a4b1 fdb1 adac 1fa0 932e a5ab
00000100: 3c9f 9e24 80b4 1eb0 87ad 11ac a12c 4ea8
00000110: abac bea9 01ab 9eb1 d821 d4b3 8221 742f
00000120: 33af 1f2a 9431 91b0 d92a b1ad 50a6 5bb3
00000130: 68b2 2329 cfa5 91a8 2c86 5330 b8ad b7a5
00000140: 591f 4534 672c e528 3830 c5b2 29a4 d027
00000150: e4a6 6f23 26ae d233 6a2c 8b31 21ae 83a9
00000160: a0ad b0ae 29a6 60b4 b7b2 70b1 52b1 20aa
00000170: 4b2c a0ad c1aa 5bb2 2ea9 d7a4 8328 b928
00000180: 89ac f7b0 89ac 98a2 08b3 a1af 72ad 9dad
00000190: afac 45b1 b6a6 602d d729 68ad 0ab1 4222
000001a0: 88a9 2a2d f322 74b0 652a e8b1 9825 10b4
000001b0: 7eb1 deb2 5c16 06ac 78b3 f0b1 f024 efb0
000001c0: 0cb0 e2a9 5a92 45b2 352b 1eae 2ca9 10ab
000001d0: 9cb0 17ac daaf 77ab 5328 22b1 51ae a82b
000001e0: 26a0 06ad 8228 50ad 8ab2 c1b0 5cb2 d6aa
000001f0: 9aad 1fa7 2aa2 dbb0 712e 242f 8d2d 34aa
-0.00954 -0.02257 -0.09045 -0.01772 -0.02707 -0.1251 0.03078 0.0346
-0.08685 0.0519 -0.09906 0.02687 0.03021 -0.187 0.03964 0.1813
-0.1003 0.0387 0.01409 -0.05246 0.02809 -0.2098 -0.036 -0.09735
-0.1819 -0.0784 -0.00841 -0.02359 0.0723 0.2607 0.01909 -0.00808
-0.03912 0.03024 0.0732 0.0793 0.188 -0.0372 0.013275 0.0665
-0.2262 0.01924 -0.003193 0.09375 0.05978 -0.1672 -0.1111 -0.0942
-0.04556 -0.0284 0.1685 -0.05637 -0.0657 -0.0839 -0.2732 -0.006714
0.0329 -0.1377 -0.138 -0.16 -0.07074 0.02643 -0.0181 -0.0917
-0.02527 0.0159 -0.1194 -0.01238 -0.0554 -0.1246 0.1013 -0.06854
-0.073 -0.04562 -0.0851 -0.1948 0.06335 -0.233 0.05652 0.013306
-0.1642 -0.0949 -0.0531 -0.1571 -0.01006 -0.1558 0.1141 -0.1168
-0.2754 0.01813 -0.03088 -0.04797 -0.02878 0.2374 0.01572 0.02002
0.0711 0.08295 0.1014 0.1181 0.1284 -0.0658 -0.0906 0.01402
-0.1992 0.02634 -0.06915 0.063 0.06247 0.138 -0.1615 -0.1962
-0.1234 -0.02843 -0.00841 -0.1434 0.00843 -0.1754 -0.2451 0.03903
-0.0515 -0.06506 -0.1763 -0.1871 -0.07306 -0.00805 0.1027 -0.05972
-0.007065 0.01804 -0.2812 -0.1287 -0.08636 -0.06354 0.0723 -0.03363
-0.07294 -0.04486 -0.05472 -0.1755 0.01141 -0.2446 0.01076 0.11646
-0.1125 0.04782 0.1743 -0.1427 0.0535 -0.0889 -0.02466 -0.2299
-0.2002 0.04013 -0.02269 -0.03568 -9.42e-05 0.1351 -0.08936 -0.02232
0.007175 0.2668 0.0688 0.03824 0.1318 -0.2115 -0.01625 0.03052
-0.02692 0.01452 -0.09607 0.2444 0.069 0.1732 -0.09576 -0.04306
-0.0879 -0.1045 -0.02406 -0.2734 -0.2098 -0.1699 -0.1663 -0.04785
0.0671 -0.0879 -0.05276 -0.1986 -0.04047 -0.0189 0.03525 0.0369
-0.07086 -0.1552 -0.07086 -0.01288 -0.2197 -0.1192 -0.0851 -0.0877
-0.0732 -0.1647 -0.02621 0.084 0.04562 -0.0845 -0.1575 0.01222
-0.0432 0.0807 0.01357 -0.1392 0.04996 -0.1846 0.02185 -0.254
-0.1716 -0.2146 0.001553 -0.06287 -0.2334 -0.1855 0.01929 -0.1542
-0.1265 -0.04596 -0.0007753 -0.1959 0.0563 -0.0956 -0.0404 -0.05518
-0.144 -0.0639 -0.1227 -0.05832 0.03378 -0.1604 -0.0987 0.0598
-0.0081 -0.0785 0.03522 -0.083 -0.2043 -0.1486 -0.1987 -0.0534
-0.0875 -0.02782 -0.01204 -0.1517 0.10065 0.1116 0.08673 -0.04846
