LaneFollowingModel/f16q/model.tflite (tflite, 282444 bytes, 11 tensors)

dense/bias f2 [64]
-0.09314 0.2225 0.03418 -0.0832 0.3113 -0.0901 -0.1032 -0.2448
-0.1399 0.0663 -0.0685 0.1787 -0.1498 0.1475 0.2124 -0.0452
0.2144 0.2412 -0.06216 0.187 -0.2189 -0.0836 0.282 -0.08575
0.00825 -0.0973 -0.03372 -0.0974 0.2776 0.2144 0.02338 -0.0644
0.3083 -0.11176 -0.09924 -0.09174 -0.03433 0.2905 0.02686 -0.0631
0.3845 0.326 0.163 -0.0727 -0.2257 -0.0438 -0.06683 0.2969
-0.0686 -0.204 -0.11316 0.02235 -0.0534 0.001939 0.04 0.0881
-0.05667 -0.06775 -0.0731 0.00951 -0.0647 0.04977 -0.0608 0.3762
00000000: f6ad 1f33 6028 53ad fb34 c4ad 9bae d5b3
00000010: 7ab0 3e2c 62ac b831 cbb0 b830 cc32 c9a9
00000020: dc32 b833 f5ab fc31 01b3 5aad 8334 7dad
00000030: 3920 3aae 51a8 3cae 7134 dc32 fc25 1fac
00000040: ef34 27af 5aae dfad 65a8 a634 e026 0aac
00000050: 2736 3735 3731 a7ac 39b3 9ba9 47ac c034
00000060: 64ac 87b2 3eaf b925 d6aa f117 1f29 a32d
00000070: 41ab 56ac aeac de20 24ac 5f2a c8ab 0536

conv2d_3/bias f2 [128]
-0.01036 -0.2067 -0.1562 -0.2444 0.0952 -0.04883 -0.1377 -0.06274
-0.08167 -0.0999 -0.347 -0.275 -0.3567 -0.2244 -0.372 -0.7476
-0.1632 -0.776 -0.2617 -0.1604 -0.1594 -0.4824 -0.1105 -0.1754
-0.0984 -0.2267 -0.03217 -0.1821 -0.07434 -0.4084 -0.2471 -0.363
-0.04822 -0.04782 -0.06204 -0.0675 -0.03955 -0.285 -0.3127 -0.612
-0.001908 -0.1991 -0.0867 -0.2593 -0.03574 0.0437 -0.2439 -0.1362
-0.424 -0.03238 -0.05624 -0.0947 -0.02866 -0.3574 -0.10785 -0.2415
-0.1016 -0.074 -0.06885 -0.07874 -0.2473 -0.2218 -0.1649 -0.1897
-0.1865 -0.3567 -0.1293 -0.4255 -0.2006 0.00455 -0.2186 -0.2096
-0.08685 -0.3364 -0.1247 -0.1964 -0.1692 -0.1465 -0.1713 -0.289
-0.516 -0.1802 -0.2998 -0.2112 -0.1203 -0.1724 -0.2471 -0.4043
-0.349 -0.1854 -0.3752 -0.3015 -0.06027 -0.3215 -0.067 -0.532
-0.374 -0.1298 -0.03888 -0.07825 -0.06146 -0.2651 -0.1752 -0.03165
-0.123 -0.1749 -0.1027 -0.2078 -0.03986 -0.05502 0.001757 -0.498
-0.0841 -0.689 -0.2197 -0.2136 -0.2168 0.01458 -0.347 0.625
-0.1774 -0.782 -0.2793 -0.1877 -0.7036 -0.0685 -0.08246 -0.1154
00000000: 4ea1 9db2 00b1 d2b3 182e 40aa 68b0 04ac
00000010: 3aad 65ae 8db5 66b4 b5b5 2eb3 f4b5 fbb9
00000020: 39b1 35ba 30b4 22b1 1ab1 b8b7 12af 9db1
00000030: 4cae 41b3 1ea8 d4b1 c2ac 89b6 e8b3 cfb5
00000040: 2caa 1faa f1ab 52ac 10a9 8fb4 01b5 e5b8
00000050: d197 5fb2 8cad 26b4 93a8 9829 ceb3 5cb0
00000060: c9b6 25a8 33ab 10ae 56a7 b8b5 e7ae bab3
00000070: 81ae bcac 68ac 0aad eab3 19b3 47b1 12b2
00000080: f8b1 b5b5 23b0 cfb6 6bb2 a91c ffb2 b5b2
00000090: 8fad 62b5 fbaf 49b2 6ab1 b0b0 7bb1 a0b4
000000a0: 21b8 c4b1 ccb4 c2b2 b3af 84b1 e8b3 78b6
000000b0: 96b5 efb1 01b6 d3b4 b7ab 25b5 4aac 42b8
000000c0: fcb5 27b0 faa8 02ad deab 3eb4 9bb1 0da8
000000d0: dfaf 99b1 93ae a6b2 1aa9 0bab 3217 f8b7
000000e0: 62ad 83b9 08b3 d6b2 f0b2 7723 8db5 0039
000000f0: adb1 42ba 78b4 02b2 a1b9 62ac 47ad 63af

conv2d_2/bias f2 [64]
0.0506 -0.0376 -0.1781 -0.0647 -0.3132 0.03247 0.03076 -0.1567
-0.1401 -0.3489 -0.1101 -0.01218 -0.2358 -0.0385 -0.3064 -0.0794
-0.03622 -0.1641 -0.1737 -0.00282 -0.1481 -0.4692 -0.06836 -0.01712
-0.184 -0.2218 -0.0816 -0.4146 -0.0665 -0.0791 -0.5605 -0.4248
-0.0944 0.1869 -0.183 -0.0643 -0.4543 -0.11395 -0.516 -0.09454
-0.1854 -0.0875 -0.3796 -0.3462 -0.0889 -0.02956 0.004513 -0.063
-0.05557 -0.3645 -0.2352 -0.4124 -0.03314 -0.0974 -0.216 -0.2369
-0.1102 -0.0951 -0.1924 -0.01819 0.05957 -0.0902 0.01477 -0.08264
00000000: 7a2a d0a8 b3b1 24ac 03b5 2828 e027 04b1
00000010: 7cb0 95b5 0caf 3ca2 8cb3 eea8 e7b4 15ad
00000020: a3a8 40b1 8fb1 c699 bdb0 82b7 60ac 62a4
00000030: e3b1 19b3 39ad a2b6 42ac 10ad 7cb8 ccb6
00000040: 0bae fb31 dbb1 1dac 45b7 4baf 21b8 0dae
00000050: efb1 9aad 13b6 8ab5 b1ad 91a7 9f1c 08ac
00000060: 1dab d5b5 87b3 99b6 3ea8 3cae e9b2 95b3
00000070: 0eaf 16ae 28b2 a8a4 a02b c6ad 9023 4aad

conv2d_1/bias f2 [64]
-0.5454 -0.164 -0.09424 0.143 -0.00655 -0.0594 -0.0681 0.04376
-0.06107 -0.2416 -0.11224 -0.4058 -0.0978 -0.04572 -0.0666 -0.014885
-0.1481 -0.0997 0.0348 -0.2136 0.0511 -0.05856 -0.1713 0.2435
-0.04807 -0.2417 0.1439 0.00323 -0.2202 -0.2446 -0.201 -0.1722
-0.0341 -0.0837 -0.5913 -0.254 0.049 -0.1051 -0.0851 0.2306
0.1956 -0.05588 -0.1126 -0.5396 -0.02756 -0.04153 -0.171 -0.0642
0.07196 -0.3062 -0.11633 -0.1694 -0.0859 -0.1847 -0.0629 -0.11383
-0.1106 -0.2458 -0.2391 -0.1931 -0.2299 -0.0674 -0.3345 -0.05264
00000000: 5db8 3fb1 08ae 9330 b59e 9aab 5cac 9a29
00000010: d1ab bbb3 2faf 7eb6 42ae daa9 43ac 9fa3
00000020: bdb0 61ae 7428 d6b2 8a2a 7fab 7bb1 cb33
00000030: 27aa bcb3 9b30 9d1a 0cb3 d4b3 6fb2 83b1
00000040: 5da8 5bad bbb8 10b4 462a baae 72ad 6133
00000050: 4232 27ab 35af 51b8 0ea7 51a9 79b1 1cac
00000060: 9b2c e6b4 72af 6cb1 7fad e9b1 07ac 49af
00000070: 14af deb3 a7b3 2eb2 5bb3 50ac 5ab5 bdaa

conv2d/bias f2 [32]
-0.09607 -0.0786 -0.2085 0.1708 0.1991 -0.05014 -0.07715 0.01325
-0.2054 -0.0792 0.2063 0.0683 -0.03586 0.1875 0.0592 -0.2229
0.2024 -0.01692 -0.2313 -0.04208 -0.03204 -0.04584 -0.5083 0.07367
0.07275 -0.2059 0.02135 -0.2566 0.0814 -0.4377 -0.261 -0.2435
00000000: 26ae 08ad acb2 7731 5f32 6baa f0ac c922
00000010: 93b2 12ad 9a32 5f2c 97a8 0032 942b 22b3
00000020: 7a32 55a4 67b3 63a9 1aa8 dea9 11b8 b72c
00000030: a82c 97b2 7725 1bb4 362d 01b7 2db4 cbb3

sequential/dense/MatMul f2 [64, 128]
0.09076 0.0389 -0.105 0.007454 -0.1945 0.001247 -0.1139 -0.2325
-0.0002732 0.0894 -0.09937 -0.0646 -0.1881 0.09607 -0.127 0.1103
-0.2148 0.0785 -0.0887 0.01089 0.02121 -0.1236 -0.013336 -0.03394
-0.0842 -0.07214 -0.1412 -0.01077 0.1057 0.07275 0.001331 -0.008835
-0.09 -0.0307 -0.0932 -0.1362 -0.1962 -0.042 -0.05096 -0.0902
-0.263 0.09064 -0.1292 0.10535 0.10175 -0.1674 0.03854 -0.0444
0.003275 0.1103 -0.1515 0.0842 -0.1622 0.004276 -0.001138 -0.02824
-0.0947 -0.1647 0.05905 0.1106 -0.1293 -0.09125 0.026 -0.1935
-0.0677 -0.178 -0.00733 0.1086 0.02042 -0.09094 -0.1322 -0.02707
0.0712 0.0762 -0.1973 -0.1212 -0.1285 -0.2722 0.01588 0.1229
-0.1715 0.0413 -0.1692 -0.137 -0.03342 -0.2108 -0.1937 0.1349
-0.2034 0.1144 -0.1055 0.007664 -0.1475 0.0783 0.1202 0.0927
-0.198 -0.128 0.1447 -0.11676 0.0931 -0.1405 -0.04388 0.0921
-0.05875 0.1486 0.01318 -0.1665 -0.006886 0.12427 -0.0975 -0.1976
-0.0629 -0.0933 0.04724 -0.07904 -0.1666 0.01195 -0.1235 -0.03174
-0.1908 -0.1926 -0.1058 0.00499 -0.05984 0.08685 0.04538 -0.1761
0.02129 0.3186 0.1621 -0.3818 0.2996 -0.392 -0.01868 0.2155
-0.3228 0.2438 -0.338 0.1642 -0.124 -0.2822 0.06793 -0.0963
-0.0381 -0.2544 0.4458 0.1896 0.0545 0.2367 -0.2223 0.0439
0.06964 0.163 0.1576 -0.2705 -0.308 -0.3118 0.3306 -0.1115
-0.11633 -0.2208 0.2664 0.324 0.2961 -0.4526 -0.277 -0.1483
-0.1119 0.1197 0.3303 -0.1255 0.1776 0.04636 0.306 0.2979
0.07764 0.10565 -0.2869 0.03114 -0.1539 0.1588 -0.1879 -0.551
0.218 0.001685 -0.2129 0.389 -0.3547 0.2468 -0.2324 -0.0254
-0.0927 0.3103 0.2876 0.06165 0.3267 -0.0394 0.05157 0.389
0.01217 0.3484 0.0929 -0.256 0.236 -0.03357 0.158 0.11176
0.2886 -0.1821 -0.1477 0.1595 -0.1838 0.5327 0.1069 -0.2622
-0.09985 -0.2303 -0.2996 0.10486 -0.3057 0.1204 -0.0581 -0.1742
-0.6265 0.01418 -0.2213 0.3308 0.5044 0.0648 -0.10095 -0.4304
-0.842 -0.02022 0.3953 -0.2404 -0.3313 -0.04858 0.12274 -0.4434
-0.4238 -0.1783 -0.3564 0.3708 -0.3162 0.001625 -0.53 0.1355
0.425 0.2018 -0.1168 0.07166 0.2634 -0.3647 -0.3518 -0.2917
00000000: cf2d fb28 b8ae a21f 39b2 1c15 4aaf 71b3
00000010: 7a8c b92d 5cae 22ac 05b2 262e 10b0 0f2f
00000020: e0b2 062d adad 9321 6e25 e9af d4a2 58a8
00000030: 64ad 9eac 85b0 84a1 c42e a82c 7415 86a0
00000040: c3ad dca7 f7ad 5cb0 47b2 60a9 86aa c6ad
00000050: 35b4 cd2d 22b0 be2e 832e 5bb1 ef28 afa9
00000060: b51a 0f2f d9b0 642d 31b1 611c a994 3ba7
00000070: 10ae 45b1 8f2b 142f 23b0 d7ad a826 31b2
00000080: 55ac b2b1 829f f32e 3a25 d2ad 3bb0 eea6
00000090: 8f2c e02c 50b2 c2af 1db0 5bb4 1124 de2f
000000a0: 7db1 4929 6ab1 62b0 47a8 bfb2 33b2 5130
000000b0: 82b2 522f c1ae d91f b8b0 032d b12f ef2d
000000c0: 56b2 19b0 a130 79af f52d 7fb0 9ea9 e52d
000000d0: 85ab c130 c022 54b1 0d9f f42f 3dae 53b2
000000e0: 07ac f9ad 0c2a 0fad 55b1 1e22 e7af 10a8
000000f0: 1bb2 2ab2 c5ae 1c1d a9ab 8f2d cf29 a3b1
00000100: 7325 1935 3031 1cb6 cb34 46b6 c8a4 e532
00000110: 2ab5 cd33 68b5 4131 f0af 84b4 592c 2aae
00000120: e0a8 12b4 2237 1132 fa2a 9333 1db3 9f29
00000130: 752c 3731 0b31 54b4 eeb4 fdb4 4a35 23af
00000140: 72af 11b3 4334 2f35 bd34 3eb7 6fb4 bfb0
00000150: 29af a92f 4935 04b0 af31 ef29 e534 c434
00000160: f82c c32e 97b4 f927 edb0 1531 03b2 68b8
00000170: fa32 e716 d0b2 3936 adb5 e633 70b3 81a6
00000180: efad f734 9a34 e42b 3a35 0ba9 9a2a 3936
00000190: 3b22 9335 f22d 19b4 8d33 4ca8 0e31 272f
000001a0: 9e34 d4b1 bab0 1b31 e2b1 4338 d72e 32b4
000001b0: 64ae 5fb3 cbb4 b62e e4b4 b52f 70ab 93b1
000001c0: 03b9 4323 15b3 4b35 0938 262c 76ae e3b6
000001d0: bcba 2da5 5336 b1b3 4db5 38aa db2f 18b7
000001e0: c8b6 b5b1 b4b5 ef35 0fb5 a816 3db8 5630
000001f0: cd36 7532 7aaf 962c 3734 d6b5 a1b5 abb4

sequential/dense_1/MatMul f2 [1, 64]
0.1967 0.2659 -0.0888 0.2245 0.1164 -0.00785 -0.00569 -0.06464
0.12494 0.07666 -0.026 -0.08203 0.0465 -0.0755 -0.4187 0.06055
-0.1788 0.2084 -0.00355 0.09436 0.2178 -0.081 0.1974 -0.09906
-0.01924 -0.0364 0.09534 0.03012 -0.10803 0.1469 -0.003279 0.02899
-0.0576 -0.01743 0.05402 0.2477 0.1405 0.1981 0.0893 0.02412
-0.1853 0.0867 0.2507 0.003857 0.349 0.2065 0.1595 -0.254
-0.1075 -0.3975 0.1986 -0.0773 -0.2377 0.1141 0.07794 -0.04456
0.2443 -0.001195 0.004086 -0.1417 0.06192 0.0316 0.0533 0.1257
00000000: 4b32 4134 afad 2f33 732f 05a0 d49d 23ac
00000010: ff2f e82c a8a6 40ad f429 d5ac b3b6 c02b
00000020: b9b1 ab32 459b 0a2e f832 2fad 5132 57ae
00000030: eda4 a9a8 1a2e b627 eaae b330 b79a 6c27
00000040: 5fab 76a4 ea2a ed33 7f30 5732 b72d 2d26
00000050: eeb1 8c2d 0334 e61b 9635 9c32 1b31 10b4
00000060: e1ae 5cb6 5b32 f2ac 9bb3 4d2f fd2c b4a9
00000070: d133 e594 2f1c 89b0 ed2b 0b28 d32a 0630

sequential/conv2d/Conv2D f2 [32, 3, 3, 3]
-0.02132 -0.1501 0.0421 -0.1394 -0.1641 -0.0954 -0.0269 -0.121
0.03848 -0.1632 -0.05817 -0.01727 0.03232 -0.0304 0.02858 0.03043
0.002888 0.05386 0.01117 -0.057 -0.08386 -0.0793 -0.013985 0.05887
-0.15 -0.1315 -0.0308 0.203 0.2942 0.07587 0.04016 0.4336
0.1316 0.195 0.111 0.2712 -0.09247 -0.02933 -0.0657 0.05106
0.1934 -0.1285 -0.03967 0.07196 -0.0919 -0.4497 -0.2764 -0.1428
-0.4539 -0.0833 -0.328 -0.4058 -0.2356 -0.04053 -0.01048 0.096
0.1283 -0.002012 -0.02368 -0.1835 -0.1522 -0.1777 -0.01062 0.1292
0.2554 0.2598 0.1254 0.11597 0.1029 -0.05423 -0.1332 0.1581
0.1255 0.11475 0.289 -0.1642 0.1189 0.1646 -0.2045 -0.0251
0.1339 -0.1302 -0.1382 -0.006527 -0.4094 -0.1809 0.1868 -0.11365
-0.00935 0.1242 -0.2457 -0.0164 0.04523 -0.5864 -0.2744 0.012474
-0.05396 -0.1846 0.2189 -0.311 -0.0586 0.0007873 -0.4639 -0.2915
0.1334 -0.1334 -0.1054 0.2445 0.1437 0.04752 -0.373 0.2372
0.0675 -0.1948 0.00693 -0.1323 -0.2263 0.1808 -0.07166 -0.2808
0.2886 0.2615 -0.3699 -0.1372 -0.02507 -0.2947 0.0333 -0.1904
-0.4785 0.1807 0.1569 -0.2275 -0.08954 -0.2206 -0.3538 -0.03244
-0.15 -0.02621 0.00942 0.062 -0.0477 -0.118 -0.03915 0.02875
0.11 0.02097 0.000962 0.05762 -0.12036 -0.1133 -0.0521 0.0001279
-0.1093 -0.107 -0.0975 -0.04617 0.00099 -0.1498 -0.1339 -0.05573
8.065e-05 0.07623 0.3584 0.5117 0.254 -0.194 -0.131 -0.2092
0.005825 -0.02266 -0.2065 0.2705 0.3816 0.388 -0.2974 -0.1495
-0.3225 0.00103 -0.1411 -0.251 0.3472 0.3232 0.4333 -0.101
-0.1799 -0.2458 -0.10736 0.04642 -0.1043 -0.3364 0.00783 0.1406
-0.382 -0.006493 0.3582 -0.1329 -0.07227 0.1344 -0.2334 0.09283
0.3008 -0.3867 0.1048 0.364 -0.2617 -0.0764 0.2998 -0.0568
-0.01442 0.2375 -0.2847 0.0504 0.3157 -0.1995 0.08594 0.3564
0.11926 0.29 0.1526 -0.1633 -0.01898 -0.1298 -0.09375 -0.2393
-0.3552 0.2067 0.198 0.1174 -0.11346 -0.1116 -0.0836 -0.04306
-0.005043 -0.42 0.10034 0.1265 0.28 0.01483 -0.0557 -0.1584
-0.2456 -0.1715 -0.271 -0.1252 0.11273 -0.1224 -0.2988 0.0702
-0.1879 0.1859 0.5557 0.3982 -0.09595 -0.0828 -0.2333 -0.1344
00000000: 75a5 ceb0 6429 76b0 40b1 1bae e3a6 beaf
00000010: ed28 39b1 72ab 6ca4 2328 c8a7 5127 ca27
00000020: ea19 e52a b821 4cab 5ead 13ad 29a3 892b
00000030: cdb0 35b0 e3a7 7f32 b534 db2c 2429 f036
00000040: 3630 3d32 1b2f 5734 ebad 82a7 34ac 892a
00000050: 3032 1db0 14a9 9b2c e2ad 32b7 6cb4 92b0
00000060: 43b7 55ad 3fb5 7eb6 8ab3 30a9 5ea1 252e
00000070: 1b30 1f98 10a6 dfb1 dfb0 b0b1 70a1 2230
00000080: 1634 2834 0330 6c2f 962e f1aa 43b0 0f31
00000090: 0430 582f a034 41b1 9c2f 4431 8bb2 6da6
000000a0: 4930 2bb0 6cb0 af9e 8db6 cab1 fa31 46af
000000b0: caa0 f32f ddb3 33a4 ca29 b1b8 64b4 6322
000000c0: e8aa e8b1 0133 fab4 80ab 7312 6cb7 aab4
000000d0: 4530 45b0 bfae d333 9930 152a f8b5 9733
000000e0: 522c 3cb2 191f 3cb0 3eb3 c931 96ac 7eb4
000000f0: 9e34 2f34 ebb5 64b0 6ba6 b7b4 4328 18b2
00000100: a8b7 c831 0531 48b3 bbad 0fb3 a9b5 27a8
00000110: cdb0 b6a6 d320 f02b 1baa 8daf 03a9 5c27
00000120: 0a2f 5e25 e113 602b b4af 40af abaa 3108
00000130: ffae d9ae 3dae e9a9 0e14 cbb0 49b0 22ab
00000140: 4905 e12c bc35 1838 1034 35b2 31b0 b2b2
00000150: f71d cda5 9cb2 5434 1b36 3536 c2b4 c9b0
00000160: 29b5 3814 84b0 04b4 8e35 2c35 ef36 77ae
00000170: c2b1 deb3 dfae f129 adae 62b5 0220 8030
00000180: 1db6 a69e bb35 41b0 a0ac 4d30 78b3 f12d
00000190: d034 30b6 b52e d335 30b4 e4ac cc34 45ab
000001a0: 62a3 9a33 8eb4 742a 0d35 62b2 802d b435
000001b0: a22f a434 e230 3ab1 dca4 27b0 00ae a8b3
000001c0: afb5 9d32 5632 832f 43af 24af 5aad 83a9
000001d0: 2a9d b8b6 6c2e 0c30 7b34 9823 21ab 12b1
000001e0: dcb3 7db1 56b4 02b0 372f d5af c8b4 7e2c
000001f0: 03b2 f331 7238 5f36 24ae 4dad 77b3 4db0

sequential/conv2d_1/Conv2D f2 [64, 3, 3, 32]
0.04092 0.014885 -0.03882 0.1342 0.305 0.031 -0.2086 -0.03888
-0.01639 0.4592 0.1606 -0.1464 0.03415 0.1746 0.1532 -0.2181
0.0955 -0.466 -0.1885 0.0131 0.263 0.04703 0.2407 0.2737
0.0698 -0.04614 0.12115 -0.1322 -0.0528 0.000984 0.2123 0.1567
-0.0784 -0.08856 0.05267 0.07825 0.000513 0.0753 0.1302 -0.2488
0.06128 0.302 -0.6035 -0.1019 -0.004974 -0.06744 0.2795 -0.006763
0.02623 -0.0847 -0.07465 0.0661 0.2385 0.07074 0.358 0.2113
-0.1619 0.04636 -0.1182 -0.0634 -0.368 0.08417 0.010254 0.3713
-0.0666 0.2051 -0.0835 0.1957 -0.326 0.0192 -0.0775 -0.4153
0.2678 -0.2766 -0.3154 -0.1748 0.01399 0.04333 -0.2157 0.01351
-0.0797 -0.0641 -0.2184 0.0007 -0.00464 0.03885 -0.0847 -0.4343
0.2048 -0.1743 0.1001 -0.1439 -0.1962 -0.02911 -0.0737 -0.1957
0.052 -0.1643 0.0856 0.2064 0.2303 0.006878 -0.1562 0.044
-0.04758 0.5166 0.1653 -0.1888 -0.001289 0.0678 0.11066 0.1365
0.1465 -0.369 -0.2478 -0.03705 0.2502 -0.03568 0.1653 0.3262
0.05453 0.136 0.149 -0.06573 -0.05887 0.0635 0.277 0.0377
-0.03745 -0.2343 0.1505 -0.01308 -0.01218 -0.03662 0.2908 -0.11816
0.0994 0.2467 -0.7017 -0.1138 0.074 0.01558 0.2333 0.08905
-0.06464 0.0687 -0.0761 -0.02386 0.1567 -0.02525 0.2642 0.23
-0.0364 0.1305 0.01047 -0.1058 -0.3464 0.1449 0.10974 0.3171
-0.0647 0.0761 -0.0202 0.0975 -0.3037 -0.04385 0.004074 -0.2482
0.3662 -0.1803 -0.2397 -0.231 0.04138 0.0722 -0.2029 -0.03842
-0.04404 -0.1224 -0.226 0.06946 -0.1183 0.033 -0.2482 -0.321
0.1982 0.05695 0.0775 -0.1864 -0.2568 -0.128 -0.03214 -0.4358
0.03134 -0.4229 0.05368 0.2017 0.2004 0.0844 -0.1912 0.0684
-0.0845 0.3484 0.01636 -0.3064 0.049 0.1757 0.2137 -0.05634
0.1476 -0.4312 -0.2189 0.02863 0.12335 0.0668 0.03018 0.295
0.0001006 -0.4587 0.1383 -0.01509 -0.02058 -0.05466 0.2225 -0.4253
0.0448 -0.5566 0.04205 0.03717 -0.05768 -0.0357 0.2876 -0.1549
-0.01984 0.1012 -0.738 -0.0952 -0.05524 -0.0967 0.111 -0.01487
0.01599 -0.0184 -0.182 0.08795 0.22 -0.02483 0.273 0.09155
-0.104 -0.3152 -0.002485 0.02084 -0.3452 0.10333 0.0617 0.06903
00000000: 3d29 9f23 f8a8 4b30 e134 f027 adb2 faa8
00000010: 32a4 5937 2431 afb0 5f28 9631 e730 fbb2
00000020: 1d2e 75b7 08b2 b522 3534 052a b433 6134
00000030: 782c e8a9 c12f 3bb0 c2aa 0814 cb32 0431
00000040: 05ad abad be2a 022d 3410 d22c 2b30 f6b3
00000050: d82b d534 d4b8 86ae 189d 51ac 7934 ed9e
00000060: b726 6cad c7ac 3b2c a233 872c ba35 c332
00000070: 2eb1 ef29 91af 0fac e3b5 632d 4021 f135
00000080: 43ac 9032 58ad 4332 37b5 ea24 f6ac a5b6
00000090: 4934 6db4 0cb5 98b1 2a23 8c29 e7b2 eb22
000000a0: 1aad 1aac fdb2 bc11 c09c f928 6cad f3b6
000000b0: 8e32 94b1 682e 9bb0 47b2 74a7 b8ac 43b2
000000c0: a82a 42b1 7a2d 9b32 5f33 0b1f 00b1 a229
000000d0: 17aa 2238 4a31 0bb2 4895 572c 152f 5e30
000000e0: b030 e7b5 eeb3 bea8 0134 91a8 4a31 3835
000000f0: fb2a 5a30 c530 35ac 89ab 102c 6f34 d328
00000100: cba8 7fb3 d130 b2a2 3ca2 b0a8 a734 90af
00000110: 5d2e e533 9db9 48af bc2c fa23 7733 b32d
00000120: 23ac 662c dfac 1ca6 0431 77a6 3a34 5c33
00000130: a9a8 2d30 5c21 c5ae 8bb5 a330 062f 1335
00000140: 24ac df2c 2ca5 3d2e dcb4 9da9 2c1c f1b3
00000150: dc35 c5b1 acb3 64b3 4c29 9f2c 7eb2 eba8
00000160: a3a9 d5af 3bb3 722c 92af 3928 f1b3 23b5
00000170: 5832 4a2b f62c f7b1 1cb4 19b0 1da8 f9b6
00000180: 0328 c4b6 df2a 7432 6a32 672d 1eb2 612c
00000190: 68ad 9335 3024 e7b4 462a 9f31 d732 36ab
000001a0: b930 e6b6 01b3 5427 e52f 462c ba27 b834
000001b0: 9806 57b7 6d30 baa3 45a5 ffaa 1f33 ceb6
000001c0: bc29 74b8 6229 c228 62ab 92a8 9a34 f5b0
000001d0: 14a5 7a2e e7b9 18ae 12ab 30ae 1b2f 9da3
000001e0: 1824 b6a4 d3b1 a12d 0a33 5ba6 5e34 dc2d
000001f0: a8ae 0bb5 1799 5625 86b5 9d2e e62b 6b2c

sequential/conv2d_2/Conv2D f2 [64, 3, 3, 64]
0.1311 -0.1216 -0.1214 0.02672 -0.1527 0.01136 -0.3281 -0.886
-0.0918 0.01562 -0.857 0.2283 0.01962 0.0468 -0.4688 0.008965
-0.309 0.0489 -0.1197 -0.04413 -0.0834 -0.1503 0.04285 0.2113
-0.02003 -0.09515 -0.03876 -0.09784 -0.2825 -0.2651 -0.1792 -0.0926
-0.02449 -0.0537 -0.1678 -0.0947 -0.421 0.03397 -0.18 -0.0815
-0.4685 -0.02873 -0.05328 -0.2262 -0.0588 -0.00766 0.02596 -0.02245
0.113 -0.1375 0.06335 -0.03995 -0.185 -0.3567 -0.1614 -0.2258
0.04428 -0.2717 0.1617 0.004715 -0.03622 -0.0794 -0.1578 0.02956
-0.2413 0.0243 0.0771 -0.04794 0.03177 -0.0438 0.0861 -0.2522
-0.03845 -0.1295 -0.1772 -0.02315 0.0367 -0.064 0.2744 0.09155
0.3547 -0.01648 0.59 0.2988 -0.04883 -0.04254 0.1891 0.2983
0.00578 -0.11584 -0.0678 0.486 -0.00842 -0.1107 -0.0981 -0.1624
0.02705 0.03278 -0.2006 -0.0483 -0.1123 -0.09296 -0.05835 -0.02351
-0.0047 0.01614 0.05273 -0.2295 0.01636 0.0554 0.05838 0.0319
0.2617 -0.1184 0.10016 0.1466 -0.08374 -0.1627 -0.08453 0.02536
0.2008 -0.1475 0.2072 0.141 -0.05637 0.0796 0.0672 -0.074
-0.1305 0.1306 -0.3455 -0.0543 0.06805 -0.2588 0.2297 -0.406
-0.02391 0.06433 -0.02573 -0.357 0.08057 -0.03766 0.3054 0.03793
-0.04492 0.05743 -0.1414 -0.08954 -0.2754 -0.3342 0.10077 -0.1147
-0.06934 -0.0478 -0.1412 0.1775 0.1814 0.1602 0.2737 0.145
0.0913 -0.00268 -0.05554 0.1511 -0.1399 0.1065 -0.2006 -0.3403
-0.05026 0.01237 -0.01128 -0.11475 0.08325 -0.04672 -0.0676 0.05554
0.306 -0.3118 0.0955 0.1764 0.2163 -0.1941 0.004215 -0.05246
0.2693 0.2487 -0.0654 0.3345 0.0314 0.2583 -0.01697 0.03275
0.1242 -0.2341 -0.1052 -0.07135 -0.07684 -0.0653 -0.3225 -1.063
-0.03134 -0.04364 -0.73 0.2544 -0.01813 0.05945 -0.5293 0.1202
-0.3599 0.01287 0.013435 0.06384 -0.08453 -0.101 -0.08777 0.0974
0.01962 -0.1342 -0.0363 -0.0715 -0.281 -0.3918 -0.4358 -0.0783
-0.05475 -0.0523 -0.08417 -0.4956 -0.4229 0.112 0.1459 -0.1754
-0.4243 0.02039 0.04587 -0.03506 -0.209 -0.0061 0.04117 -0.031
-0.3074 -0.06003 0.1447 -0.564 -0.1473 -0.3782 -0.204 -0.2012
0.05463 -0.4397 0.03278 -0.1055 0.07526 -0.1321 -0.2588 -0.08075
00000000: 3230 c8af c5af d726 e3b0 d121 40b5 17bb
00000010: e0ad ff23 dbba 4e33 0625 fe29 80b7 9720
00000020: f2b4 422a a9af a6a9 56ad cfb0 7c29 c332
00000030: 21a5 17ae f6a8 43ae 85b4 3eb4 bcb1 edad
00000040: 45a6 e0aa 5fb1 10ae bcb6 5928 c3b1 37ad
00000050: 7fb7 5ba7 d2aa 3db3 87ab d89f a526 bfa5
00000060: 3b2f 66b0 0e2c 1da9 ecb1 b5b5 2ab1 3ab3
00000070: ab29 59b4 2d31 d41c a3a8 15ad 0db1 9127
00000080: b9b3 3926 ef2c 23aa 1128 9ba9 832d 09b4
00000090: eca8 25b0 acb1 eda5 b328 19ac 6434 dc2d
000000a0: ad35 38a4 b838 c834 40aa 72a9 0d32 c634
000000b0: eb1d 6aaf 57ac c737 50a0 16af 47ae 32b1
000000c0: ed26 3228 6bb2 2faa 30af f3ad 78ab 05a6
000000d0: d09c 2224 c02a 58b3 3024 172b 792b 1528
000000e0: 3034 94af 692e b130 5cad 35b1 69ad 7e26
000000f0: 6d32 b8b0 a132 8330 37ab 182d 4d2c bcac
00000100: 2db0 2e30 87b5 f3aa 5b2c 24b4 5a33 7fb6
00000110: 1fa6 1e2c 96a6 b6b5 282d d2a8 e334 db28
00000120: c0a9 5a2b 86b0 bbad 68b4 59b5 732e 57af
00000130: 70ac 1eaa 85b0 ae31 ce31 2031 6134 a430
00000140: d82d 7d99 1cab d630 7ab0 d12e 6bb2 72b5
00000150: 6faa 5522 c6a1 58af 542d fba9 54ac 1c2b
00000160: e534 fdb4 1d2e a531 ec32 36b2 511c b7aa
00000170: 4f34 f533 30ac 5a35 0528 2234 58a4 3128
00000180: f32f 7eb3 bcae 91ac ebac 2eac 29b5 41bc
00000190: 03a8 96a9 d7b9 1234 a4a4 9c2b 3cb8 b12f
000001a0: c2b5 9722 e122 162c 69ad 77ae 9ead 3c2e
000001b0: 0625 4bb0 a5a8 93ac 7fb4 45b6 f9b6 03ad
000001c0: 02ab b2aa 63ad eeb7 c4b6 2b2f ab30 9db1
000001d0: cab6 3825 df29 7da8 b0b2 3f9e 4529 f0a7
000001e0: ebb4 afab a130 83b8 b7b0 0db6 87b2 70b2
000001f0: fe2a 09b7 3228 c1ae d12c 3ab0 24b4 2bad

sequential/conv2d_3/Conv2D f2 [128, 3, 3, 64]
-0.1649 -0.836 0.2986 0.02255 -0.8423 -1.417 -0.3467 -0.3486
0.1559 -0.3723 -0.03836 0.05338 -0.4214 -0.515 0.1956 0.02698
0.02908 0.1353 -0.3428 0.2225 -0.06696 0.04877 0.1388 -0.862
-0.4072 0.2067 -0.0313 -0.6323 -0.0162 -1.034 -0.2479 0.0111
0.0386 -0.4792 0.0856 0.010635 -0.3882 0.01038 -0.03038 0.04248
-0.008644 -0.0723 -0.1812 -0.0911 -0.02895 0.042 -0.878 0.04413
-0.07477 -0.303 -0.05347 -0.4375 -0.0393 -0.03726 -0.11285 -0.4658
-0.4172 -0.285 -0.3687 -0.101 -0.1572 -0.2947 0.02518 0.02173
-0.1266 -0.8496 -0.3418 0.041 -0.83 -1.309 -0.5615 -0.8843
-0.2927 -0.389 -0.03278 0.004456 -0.4866 -0.415 0.1006 0.0347
0.084 0.0616 -0.4214 0.1456 -0.0355 -0.0637 -0.03864 -0.8154
-0.398 0.1586 -0.04358 -0.611 -0.02232 -0.9224 -0.3499 0.10913
0.013466 -0.2345 0.02751 0.0481 -0.2236 -0.00609 -0.2092 0.04572
0.1671 -0.1829 -0.0682 -0.5996 0.03702 -0.02808 -0.795 0.01296
-0.1144 -0.139 -0.1915 -0.608 -0.05106 0.0426 -0.2367 -0.541
-0.2274 -0.2377 -0.4302 -0.1998 -0.0651 -0.404 0.03049 0.03665
0.3684 -0.4927 -0.3818 0.003395 -0.5454 -0.9478 -0.6094 -0.3547
-0.03586 -0.0723 -0.04538 -0.03198 0.2058 0.05856 -0.0944 -0.04797
0.04492 0.006138 -0.275 -0.2986 -0.1094 0.08636 0.1197 -0.345
-0.2585 0.209 0.03586 -0.5146 -0.04803 -0.3728 -0.671 0.0208
-0.0304 0.04672 -0.04202 -0.00498 -0.5054 -0.0513 -0.2397 -0.04797
0.07776 0.1771 0.2122 -0.8843 0.01596 -0.0395 -0.2103 0.01566
-0.02797 -0.5684 -0.00499 -0.2544 -0.01823 -0.000695 -0.609 -0.4468
-0.0654 0.07385 -0.517 -0.1975 0.06586 -0.2878 -0.0768 0.05026
0.001968 -0.2737 0.0865 -0.01447 -0.6323 -1.081 -0.6133 -0.794
-0.1141 -0.379 -0.03336 0.02983 -0.5396 -0.11005 -0.143 0.02666
0.15 -0.4834 -0.11755 0.21 -0.2406 0.01269 -0.6123 -0.513
-0.004383 0.0582 0.0266 -0.2905 -0.08685 -0.5596 -0.734 -0.04462
-0.01942 -0.4138 -0.4573 0.01733 -0.613 -0.01248 -0.398 -0.05243
-0.1859 -0.05118 -0.633 -0.1687 -0.0485 0.0276 -0.5444 -0.05048
-0.1353 0.2617 -0.0871 -0.2852 0.1537 0.001309 0.2527 -0.3054
-0.5625 -0.1664 -0.412 -0.04047 -0.1523 -0.4014 -0.1284 -0.06665
00000000: 47b1 b0ba c734 c625 bdba abbd 8cb5 94b5
00000010: fd30 f5b5 e9a8 d52a beb6 1fb8 4232 e826
00000020: 7227 5430 7cb5 1f33 49ac 3e2a 7130 e5ba
00000030: 84b6 9d32 02a8 0fb9 26a4 23bc efb3 af21
00000040: f128 abb7 7a2d 7221 36b6 5121 c7a7 7029
00000050: 6da0 a1ac ccb1 d5ad 69a7 6029 06bb a629
00000060: c9ac d9b4 d8aa 00b7 08a9 c5a8 39af 74b7
00000070: adb6 8fb4 e6b5 77ae 08b1 b7b4 7226 9025
00000080: 0db0 ccba 78b5 3f29 a4ba 3cbd 7eb8 13bb
00000090: afb4 39b6 32a8 901c c9b7 a4b6 702e 7128
000000a0: 602d e32b beb6 a930 8ba8 14ac f2a8 86ba
000000b0: 5eb6 1331 94a9 e3b8 b7a5 61bb 99b5 fc2e
000000c0: e522 81b3 0b27 282a 28b3 3c9e b2b2 da29
000000d0: 5931 dab1 5dac ccb8 bd28 30a7 5cba a322
000000e0: 52af 73b0 21b2 ddb8 89aa 7429 93b3 54b8
000000f0: 47b3 9bb3 e2b6 65b2 2bac 77b6 ce27 b128
00000100: e535 e2b7 1cb6 f41a 5db8 95bb e0b8 adb5
00000110: 97a8 a1ac cfa9 18a8 9632 7f2b 0bae 24aa
00000120: c029 491e 66b4 c7b4 00af 872d a92f 85b5
00000130: 23b4 b032 9728 1eb8 26aa f7b5 5eb9 5325
00000140: c8a7 fb29 61a9 199d 0bb8 91aa acb3 24aa
00000150: fa2c ab31 ca32 13bb 1624 0ea9 bbb2 0224
00000160: 29a7 8cb8 1c9d 12b4 aba4 b291 dfb8 26b7
00000170: 30ac ba2c 23b8 52b2 372c 9bb4 eaac 6f2a
00000180: 0818 61b4 892d 69a3 0fb9 53bc e8b8 5aba
00000190: 4daf 10b6 45a8 a327 51b8 0baf 93b0 d326
000001a0: cd30 bcb7 86af b832 b3b3 7f22 e6b8 1bb8
000001b0: 7d9c 732b cf26 a6b4 8fad 7ab8 dfb9 b6a9
000001c0: f9a4 9fb6 51b7 7024 e7b8 64a2 5eb6 b6aa
000001d0: f3b1 8daa 10b9 66b1 35aa 1127 5bb8 76aa
000001e0: 54b0 3034 93ad 90b4 eb30 5d15 0b34 e3b4
000001f0: 80b8 53b1 98b6 2ea9 e0b0 6cb6 1cb0 44ac
