LaneFollowingModel/dq/dq_pruned_model.tflite (tflite, 152176 bytes, 11 tensors)

sequential/dense/BiasAdd/ReadVariableOp/resource f4 [64]
000000 6a cf be bd 18 d7 6d 3e b3 93 21 3d 42 58 aa bd
       -0.09316905 0.23226583 0.039447498 -0.08317615
000010 03 08 a2 3e a4 7d b8 bd 37 6a d3 bd 58 81 80 be
       0.31646737 -0.09008339 -0.10322993 -0.2509868
000020 f5 a5 11 be 59 4f 8f 3d ef 4c 8c bd aa ec 34 3e
       -0.14223464 0.06997556 -0.068506114 0.17668405
000030 1b 5a 19 be 4f c1 19 3e e0 77 74 3e 55 1e 39 bd
       -0.14975779 0.15015148 0.23873854 -0.045194943
000040 47 65 69 3e 5f 6e 7b 3e f4 a6 7e bd 1d d7 3f 3e
       0.2279254 0.24553822 -0.062170938 0.18734403
000050 63 4d 71 be bc 4f ab bd ab 4e 95 3e 83 93 af bd
       -0.23564677 -0.083648175 0.2916158 -0.085730575
000060 9c 2d 07 3c f7 3b c7 bd 90 1b 0a bd 90 76 c7 bd
       0.00825062 -0.09728234 -0.033717692 -0.09739411
000070 05 c9 93 3e 04 57 4d 3e 70 7a bf 3c a9 e1 83 bd
       0.28864303 0.20052725 0.023373812 -0.06439526
000080 41 ee 9c 3e 73 e1 e4 bd ca 49 cb bd fd e6 bb bd
       0.30650523 -0.111758135 -0.099261835 -0.09174917
000090 86 90 0c bd e8 1a 9e 3e 9d af 05 3d 08 31 81 bd
       -0.034317516 0.30879903 0.03263818 -0.0630818
0000a0 92 75 cb 3e ae 56 ac 3e 24 e3 48 3e b1 ec 94 bd
       0.39738137 0.3365988 0.19617897 -0.07271708
0000b0 dc 26 7a be 67 51 33 bd 20 d1 88 bd a4 9a a1 3e
       -0.24428886 -0.043778803 -0.066805124 0.31563294
0000c0 61 79 8c bd c1 35 50 be 98 cd e7 bd ea 08 c3 3c
       -0.06859089 -0.20333005 -0.11318511 0.023807961
0000d0 6e c1 5a bd 34 38 29 bc 56 7e 03 3d 42 e6 bc 3d
       -0.053407125 -0.010328341 0.032102905 0.09223606
0000e0 29 26 68 bd c7 b8 8a bd d5 ca 95 bd b2 a2 26 3d
       -0.056677017 -0.06773525 -0.07314078 0.040682502
0000f0 42 73 84 bd a5 e1 4b 3d 39 f2 78 bd f4 93 c6 3e
       -0.06467296 0.04977574 -0.060777877 0.38784754

sequential/conv2d_3/BiasAdd/ReadVariableOp/resource f4 [128]
000000 7d 08 a9 bc e1 7c 5d be f6 6c 10 be a7 78 59 be
       -0.02063393 -0.21629669 -0.14104065 -0.21237431
000010 f7 fc 13 3e bf ee 9a bd 74 bd 9f bd 21 20 ac bc
       0.14451967 -0.075650685 -0.07799807 -0.021011414
000020 71 f5 93 bd a5 39 a0 bd d1 ec a7 be af 13 8c be
       -0.072245486 -0.07823495 -0.32797864 -0.27358767
000030 a1 5e c6 be fe 75 62 be f8 b0 b2 be 89 17 40 bf
       -0.3874407 -0.22115323 -0.3490064 -0.7503591
000040 52 a6 03 be 76 e7 4c bf 62 9d 85 be dd 18 3c be
       -0.12856415 -0.8004068 -0.26096636 -0.1836886
000050 17 34 22 be 74 d9 f2 be d2 a6 c0 bd 39 2d 33 be
       -0.15840183 -0.4743153 -0.094068184 -0.1749772
000060 4c 32 bf bd 90 da 41 be 1e 24 3e bc a9 b0 42 be
       -0.09335765 -0.18931031 -0.011605291 -0.19012703
000070 6f 9e c0 bd 7e a8 df be 8e ea 80 be a9 23 c6 be
       -0.09405219 -0.43683237 -0.2517895 -0.38699082
000080 6d 35 f2 bc 1e f4 2d bc f0 90 5a bd cf 3f 62 bd
       -0.029566491 -0.010617284 -0.05336088 -0.055236634
000090 ae 48 e7 bb dd f1 94 be 02 ed 97 be cc d3 19 bf
       -0.0070582246 -0.29090777 -0.2967301 -0.600888
0000a0 91 92 2d 3d a9 e0 45 be 7e 57 98 bd 99 7a 93 be
       0.042376105 -0.19323982 -0.07438563 -0.28804472
0000b0 7b 86 ee bc 20 3c cb 3d 64 e4 65 be 10 bf 17 be
       -0.02911686 0.09923577 -0.22450405 -0.14818978
0000c0 0d 37 d3 be ca 11 31 ba 6d 47 08 bc a7 42 b5 bd
       -0.41252938 -0.0006754665 -0.0083178105 -0.088506036
0000d0 22 df fd bc 5a d7 c6 be 7b 54 ab bd 4c 49 5e be
       -0.030990187 -0.38836175 -0.08365723 -0.21707648
0000e0 39 aa f4 bd b5 89 8e bd 20 3a 79 bd 86 19 93 bd
       -0.1194653 -0.06959859 -0.060846448 -0.071826026
0000f0 f0 e8 5e be 9d d1 7b be 62 78 25 be eb 29 46 be
       -0.21768546 -0.2459168 -0.16159204 -0.19351928
000100 34 75 46 be fe 38 b2 be 96 96 cf bd c1 7b e3 be
       -0.19380647 -0.34809107 -0.10136144 -0.44430354
000110 de 30 50 be 4a aa 3d ba 0e 28 5d be 01 61 5c be
       -0.20331141 -0.0007235153 -0.21597311 -0.21521379
000120 f2 72 ae bd 4b 5d a4 be 68 a2 df bd b2 d7 53 be
       -0.08518018 -0.32102427 -0.109196484 -0.2068775
000130 d9 16 38 be 62 88 07 be 81 3c 75 be 85 99 98 be
       -0.17977466 -0.1323562 -0.23948862 -0.29804626
000140 62 44 03 bf 8f db 1a be 5d 7f 99 be a4 20 4d be
       -0.5127622 -0.15122817 -0.29979983 -0.20031983
000150 ab 76 e4 bd fb 40 22 be c8 b3 8a be 01 f2 d2 be
       -0.111554466 -0.158451 -0.27090287 -0.4120026
000160 0e 8e b9 be d9 a8 59 be 40 da bc be 6a d8 a9 be
       -0.36241192 -0.21255817 -0.36885262 -0.33172923
000170 e6 c1 9d bd 73 d8 8e be e0 36 44 bd de 77 0f bf
       -0.07702999 -0.27899513 -0.047903895 -0.5604228
000180 cc 04 b4 be ac 8a de bd 3e d1 52 ba fb 84 75 bd
       -0.3515991 -0.10866293 -0.0008042044 -0.059941273
000190 89 76 6e bd f3 6a 4b be 45 4b 35 be f9 2e ef bb
       -0.058218513 -0.19865017 -0.17704494 -0.0072993007
0001a0 72 9d f0 bd f8 db 12 be 31 00 e8 bd fb a5 36 be
       -0.1174878 -0.14341724 -0.113281615 -0.17836754
0001b0 93 a8 dd bc 26 41 bd bc f1 83 41 3d 59 bd fd be
       -0.027057922 -0.023102354 0.04724497 -0.49558523
0001c0 0f 5e cd bd f4 0d 35 bf 22 26 4d be d0 8a 54 be
       -0.10027706 -0.70724416 -0.20034078 -0.20756078
0001d0 bb 35 53 be 22 05 49 3d 0b 63 a3 be aa e8 28 3f
       -0.20625965 0.04907716 -0.319115 0.6598002
0001e0 a8 36 2b be 77 75 45 bf 00 b8 a5 be ca 5e 52 be
       -0.16720068 -0.7713236 -0.32366943 -0.20543972
0001f0 ce 33 38 bf a5 32 c2 bd 5a 5e a4 bd b7 74 e1 bd
       -0.7195405 -0.09482316 -0.08025809 -0.1100859

sequential/conv2d_2/BiasAdd/ReadVariableOp/resource f4 [64]
000000 ce eb 43 3d a9 30 aa ba ae 71 28 be 6a 72 84 bd
       0.047832303 -0.0012984473 -0.16449615 -0.06467135
000010 6d 2b 90 be 17 d2 14 3d 0f c6 0d 3d 5f de 2b be
       -0.2815813 0.03633317 0.03461271 -0.16784047
000020 93 01 0c be 1b d7 b4 be bc 88 e1 bd 8b 9b c6 3b
       -0.13672476 -0.35320362 -0.11012408 0.0060610226
000030 6b 73 85 be 59 ce 83 bd d6 a4 8d be ad 93 a2 bd
       -0.2606462 -0.06435842 -0.27664822 -0.07938323
000040 cc 91 71 bd 82 21 28 be 56 9e 1b be 4d 77 c5 3c
       -0.058976933 -0.16419032 -0.15197119 0.024104739
000050 b5 29 db bd b2 74 d5 be 67 79 95 bd 7b bf 7d bc
       -0.10701314 -0.41690594 -0.07298546 -0.015487547
000060 10 8b 40 be eb 0b 4b be 46 2e a7 bd 06 63 d9 be
       -0.18803048 -0.19828765 -0.08163123 -0.4245836
000070 c0 49 88 bd be 5a c7 bd ed 54 18 bf 61 78 df be
       -0.06654692 -0.097341046 -0.59504586 -0.4364653
000080 da 60 c1 bd 8e d8 46 3e de 2a 31 be 99 aa 83 bd
       -0.09442301 0.19418547 -0.17301509 -0.06429023
000090 fd 87 e5 be 25 68 e9 bd c7 d0 03 bf c0 a4 c1 bd
       -0.44830313 -0.11396817 -0.51490444 -0.09455252
0000a0 6f 24 3e be 0a a1 95 bd a3 c1 bc be 99 9c b0 be
       -0.18568586 -0.073061064 -0.36866483 -0.34494475
0000b0 5e 28 b6 bd 1a 3f 14 bd bc 64 1c 3c 9e f9 80 bd
       -0.08894418 -0.03619299 0.009545501 -0.06297611
0000c0 b7 00 8a bd d7 9d b8 be c0 e1 62 be 60 9e d3 be
       -0.067384176 -0.36057922 -0.2215643 -0.41331768
0000d0 57 72 0e 3c 60 7b c7 bd 75 b6 47 be ec 1a 7b be
       0.008694253 -0.09740329 -0.19503196 -0.24521989
0000e0 a3 90 fd bd fb 7d d7 bd 56 5b 40 be 66 8e e1 3c
       -0.12381103 -0.10522076 -0.18784842 0.027533721
0000f0 53 de 4a 3d 1b f6 ab bd 4c d1 b5 3c f6 33 a9 bd
       0.04952843 -0.0839655 0.022194527 -0.08261864

sequential/conv2d_1/BiasAdd/ReadVariableOp/resource f4 [64]
000000 b8 c8 14 bf 79 5e 38 be 8c a8 b7 bd a4 d3 f2 3d
       -0.5811877 -0.18004788 -0.08967695 0.118567735
000010 a8 78 c5 3b e3 de 28 bd 84 45 75 bd 84 ba 53 3d
       0.0060263462 -0.041228186 -0.05988075 0.051691547
000020 e4 1c 7a bd 79 de 87 be 09 ec db bd db 4e d7 be
       -0.06106271 -0.2653692 -0.107383795 -0.4205235
000030 f5 30 c8 bd 19 3d 3b bd ad a6 67 bd 5f e5 73 bc
       -0.09774963 -0.045712564 -0.05655544 -0.014886229
000040 4f 60 24 be fc 13 cc bd 5e b4 13 3d 78 ca 5a be
       -0.16052364 -0.09964749 0.036060683 -0.21366298
000050 a1 5e 32 3d f3 82 88 bc 55 52 1c be 43 26 84 3e
       0.043547276 -0.016664004 -0.15265782 0.2581044
000060 8f ed 44 bd 34 b3 42 be 41 b2 22 3e 0c 16 12 bc
       -0.048078116 -0.19013673 0.15888311 -0.008916389
000070 35 90 64 be 43 d8 83 be a8 59 52 be 4b f4 1d be
       -0.22320636 -0.25750932 -0.20542014 -0.15425222
000080 f5 b5 2e bd 7a 56 ab bd 62 04 16 bf f4 4f 8c be
       -0.042653996 -0.083661035 -0.5860044 -0.2740475
000090 ed bc 87 3d b0 5b b5 bd b3 ff c6 bd 57 de 73 3e
       0.066278316 -0.08855379 -0.097167395 0.23815285
0000a0 21 15 6b 3e c0 da 64 bd c0 c8 e9 bd 52 7c 01 bf
       0.22957279 -0.05587268 -0.11415243 -0.5058032
0000b0 7b 22 0c bd 21 23 2a bd 16 8f 10 be 2e 84 83 bd
       -0.03421257 -0.041537408 -0.14117083 -0.06421696
0000c0 ea 45 d4 3d ba 3d 9b be ad 3d ee bd c0 67 27 be
       0.103648975 -0.3032053 -0.116328575 -0.16348171
0000d0 54 e1 b4 bd d9 2e 3d be 5f 83 9b bd ad a1 81 bd
       -0.088320404 -0.18474902 -0.075934164 -0.06329665
0000e0 7e 29 03 be 3e 82 81 be fe 29 82 be 3d 52 43 be
       -0.12808797 -0.2529468 -0.25422662 -0.1907434
0000f0 e3 5c 6b be 89 fe 33 bd 63 6c a4 be c4 9d 57 bd
       -0.22984652 -0.043943916 -0.32113943 -0.05264069

sequential/conv2d/BiasAdd/ReadVariableOp/resource f4 [32]
000000 ae c7 c4 bd 18 b7 46 bd 98 ae 50 be 28 ac 12 3e
       -0.096083984 -0.048514456 -0.20379102 0.14323485
000010 18 39 48 3e b6 66 4d bd 78 46 e0 bd 55 7a 39 3c
       0.1955303 -0.05014678 -0.10950941 0.01132067
000020 3b 15 62 be ef 33 a9 bd 52 72 44 3e 70 4c 91 3d
       -0.22078411 -0.08261859 0.19184235 0.070946574
000030 2d eb 12 bd 98 75 36 3e 64 99 62 3d 3b 10 22 be
       -0.035868812 0.17818296 0.055322066 -0.15826504
000040 bd 38 3c 3e 36 f4 8f bc f5 69 75 be 6e 6a 2c bd
       0.18381019 -0.017572504 -0.239662 -0.042093687
000050 18 d2 0a bd 1e ce 3b bd 99 d9 fd be 74 16 3d 3d
       -0.033891767 -0.045850866 -0.49580076 0.04616399
000060 89 da 66 3d 91 b9 6b be 8f 90 e1 bb 70 5f 83 be
       0.056360755 -0.23020007 -0.006883688 -0.2565875
000070 ea 74 b4 3d 8b 32 d8 be 81 cd 91 be ab d9 6d be
       0.08811362 -0.4222606 -0.284771 -0.23227565

sequential/dense/MatMul i1 [64, 128] scale=0.010750095 zero_point=0
000000 00 00 00 00 ee 00 00 ea 00 00 00 00 ef 00 00 00
       0.0 0.0 0.0 0.0 -0.19350171 0.0 0.0 -0.2365021 0.0 0.0 0.0 0.0 -0.18275163 0.0 0.0 0.0
000010 ec 00 00 00 00 00 00 00 00 00 00 00 00 00 00 00
       -0.21500191 0.0 0.0 0.0 0.0 0.0 0.0 0.0 0.0 0.0 0.0 0.0 0.0 0.0 0.0 0.0
000020 00 00 00 00 ee 00 00 00 e8 00 00 00 00 f0 00 00
       0.0 0.0 0.0 0.0 -0.19350171 0.0 0.0 0.0 -0.25800228 0.0 0.0 0.0 0.0 -0.17200153 0.0 0.0
000030 00 00 00 00 f1 00 00 00 00 f1 00 00 00 00 00 ee
       0.0 0.0 0.0 0.0 -0.16125143 0.0 0.0 0.0 0.0 -0.16125143 0.0 0.0 0.0 0.0 0.0 -0.19350171
000040 00 ef 00 00 00 00 00 00 00 00 ee 00 00 e7 00 00
       0.0 -0.18275163 0.0 0.0 0.0 0.0 0.0 0.0 0.0 0.0 -0.19350171 0.0 0.0 -0.2687524 0.0 0.0
000050 f0 00 f0 00 00 ec ee 00 ed 00 00 00 00 00 00 00
       -0.17200153 0.0 -0.17200153 0.0 0.0 -0.21500191 -0.19350171 0.0 -0.20425181 0.0 0.0 0.0 0.0 0.0 0.0 0.0
000060 ee 00 00 00 00 00 00 00 00 00 00 f1 00 00 00 ee
       -0.19350171 0.0 0.0 0.0 0.0 0.0 0.0 0.0 0.0 0.0 0.0 -0.16125143 0.0 0.0 0.0 -0.19350171
000070 00 00 00 00 f0 00 00 00 ee ee 00 00 00 00 00 f0
       0.0 0.0 0.0 0.0 -0.17200153 0.0 0.0 0.0 -0.19350171 -0.19350171 0.0 0.0 0.0 0.0 0.0 -0.17200153
000080 00 24 11 db 1e db 00 16 dd 17 e2 12 00 e7 00 00
       0.0 0.38700342 0.18275163 -0.39775354 0.32250285 -0.39775354 0.0 0.2365021 -0.37625334 0.2472522 -0.32250285 0.19350171 0.0 -0.2687524 0.0 0.0
000090 00 e7 28 12 00 15 eb 00 00 0f 12 e7 e4 e4 1f 00
       0.0 -0.2687524 0.43000382 0.19350171 0.0 0.225752 -0.225752 0.0 0.0 0.16125143 0.19350171 -0.2687524 -0.30100268 -0.30100268 0.33325297 0.0
0000a0 00 eb 1a 1e 1d d8 e5 00 00 00 1e 00 11 00 1e 1d
       0.0 -0.225752 0.27950248 0.32250285 0.31175277 -0.43000382 -0.29025257 0.0 0.0 0.0 0.32250285 0.0 0.18275163 0.0 0.32250285 0.31175277
0000b0 00 00 e8 00 00 00 ee ce 12 00 ea 23 e0 18 ea 00
       0.0 0.0 -0.25800228 0.0 0.0 0.0 -0.19350171 -0.5375048 0.19350171 0.0 -0.2365021 0.37625334 -0.34400305 0.25800228 -0.2365021 0.0
0000c0 00 1d 1d 00 1e 00 00 24 00 22 00 e9 19 00 00 00
       0.0 0.31175277 0.31175277 0.0 0.32250285 0.0 0.0 0.38700342 0.0 0.36550325 0.0 -0.2472522 0.2687524 0.0 0.0 0.0
0000d0 1d ed 00 00 f0 31 00 e4 00 ec e5 00 e3 00 00 ed
       0.31175277 -0.20425181 0.0 0.0 -0.17200153 0.5267547 0.0 -0.30100268 0.0 -0.21500191 -0.29025257 0.0 -0.31175277 0.0 0.0 -0.20425181
0000e0 c9 00 eb 1f 30 00 00 d8 b7 00 25 ec e1 00 00 d6
       -0.59125525 0.0 -0.225752 0.33325297 0.51600456 0.0 0.0 -0.43000382 -0.78475696 0.0 0.39775354 -0.21500191 -0.33325297 0.0 0.0 -0.451504
0000f0 db 00 dc 23 e4 00 cf 00 29 13 00 00 19 de e3 e6
       -0.39775354 0.0 -0.38700342 0.37625334 -0.30100268 0.0 -0.5267547 0.0 0.4407539 0.20425181 0.0 0.0 0.2687524 -0.36550325 -0.31175277 -0.27950248

sequential/dense_1/MatMul f4 [1, 64]
000000 67 54 49 3e c7 56 89 3e 00 00 00 00 a5 dc 65 3e
       0.19661103 0.26824018 0.0 0.2244745
000010 00 00 00 00 00 00 00 80 00 00 00 80 00 00 00 00
       0.0 -0.0 -0.0 0.0
000020 00 00 00 00 00 00 00 00 00 00 00 80 00 00 00 80
       0.0 0.0 -0.0 -0.0
000030 00 00 00 00 00 00 00 80 49 b6 e8 be 00 00 00 00
       0.0 -0.0 -0.45451573 0.0
000040 9a c7 6a be a5 a4 55 3e 00 00 00 80 00 00 00 00
       -0.22927704 0.20863588 -0.0 0.0
000050 a1 2f 48 3e 00 00 00 80 56 3d 6a 3e 00 00 00 80
       0.19549419 -0.0 0.2287496 -0.0
000060 00 00 00 00 00 00 00 80 00 00 00 00 00 00 00 00
       0.0 -0.0 0.0 0.0
000070 00 00 00 80 48 02 43 3e 00 00 00 80 00 00 00 00
       -0.0 0.19043839 -0.0 0.0
000080 00 00 00 80 00 00 00 80 00 00 00 00 19 af 7d 3e
       -0.0 -0.0 0.0 0.24773826
000090 00 00 00 00 8c b3 71 3e 00 00 00 00 00 00 00 00
       0.0 0.23603648 0.0 0.0
0000a0 71 c7 50 be 00 00 00 00 6d 9b 8b 3e 00 00 00 00
       -0.20388581 0.0 0.27267018 0.0
0000b0 87 7d a6 3e 23 76 53 3e 53 54 23 3e 2f ef 74 be
       0.32517645 0.20650534 0.15950136 -0.23919366
0000c0 00 00 00 80 8d 3d d1 be 47 62 4b 3e 00 00 00 80
       -0.0 -0.40867272 0.19861709 -0.0
0000d0 6f 6e 73 be 00 00 00 80 00 00 00 80 00 00 00 00
       -0.23772596 -0.0 -0.0 0.0
0000e0 42 21 7a 3e 00 00 00 80 00 00 00 00 96 83 33 be
       0.2442675 -0.0 0.0 -0.17530665
0000f0 00 00 00 00 00 00 00 00 00 00 00 00 96 65 11 3e
       0.0 0.0 0.0 0.14198908

sequential/conv2d/Conv2D f4 [32, 3, 3, 3]
000000 00 00 00 80 00 00 00 80 00 00 00 00 00 00 00 80
       -0.0 -0.0 0.0 -0.0
000010 00 00 00 80 00 00 00 80 00 00 00 80 00 00 00 80
       -0.0 -0.0 -0.0 -0.0
000020 00 00 00 00 00 00 00 80 00 00 00 80 00 00 00 80
       0.0 -0.0 -0.0 -0.0
000030 00 00 00 00 00 00 00 80 00 00 00 00 00 00 00 00
       0.0 -0.0 0.0 0.0
000040 00 00 00 00 00 00 00 00 00 00 00 00 00 00 00 80
       0.0 0.0 0.0 -0.0
000050 00 00 00 80 00 00 00 80 00 00 00 80 00 00 00 00
       -0.0 -0.0 -0.0 0.0
000060 00 00 00 80 00 00 00 80 00 00 00 80 a3 50 69 3e
       -0.0 -0.0 -0.0 0.22784667
000070 0c 40 a4 3e 00 00 00 00 00 00 00 00 51 64 eb 3e
       0.32080114 0.0 0.0 0.45974973
000080 00 00 00 00 f4 8b 5f 3e 00 00 00 00 08 cb 97 3e
       0.0 0.21830732 0.0 0.29647088
000090 00 00 00 00 00 00 00 00 00 00 00 00 00 00 00 00
       0.0 0.0 0.0 0.0
0000a0 c0 5b 5f 3e 00 00 00 00 00 00 00 00 00 00 00 00
       0.21812344 0.0 0.0 0.0
0000b0 00 00 00 00 e2 39 dd be 0c 5e 80 be 00 00 00 00
       0.0 -0.43208224 -0.25071752 0.0
0000c0 fe 01 e1 be 00 00 00 00 85 37 9a be 86 1f ca be
       -0.43946832 0.0 -0.30120483 -0.39477175
0000d0 75 7f 5d be 00 00 00 00 00 00 00 00 00 00 00 00
       -0.21630652 0.0 0.0 0.0
0000e0 00 00 00 00 00 00 00 00 00 00 00 00 00 00 00 00
       0.0 0.0 0.0 0.0
0000f0 00 00 00 00 00 00 00 00 00 00 00 00 00 00 00 00
       0.0 0.0 0.0 0.0
000100 68 3f 91 3e 39 b1 94 3e 00 00 00 00 00 00 00 00
       0.28368688 0.2904146 0.0 0.0
000110 00 00 00 00 00 00 00 00 00 00 00 00 00 00 00 00
       0.0 0.0 0.0 0.0
000120 00 00 00 00 00 00 00 00 bc 8b a0 3e 00 00 00 00
       0.0 0.0 0.3135661 0.0
000130 00 00 00 00 97 09 43 3e 00 00 00 00 00 00 00 00
       0.0 0.19046627 0.0 0.0
000140 00 00 00 00 00 00 00 80 00 00 00 80 00 00 00 00
       0.0 -0.0 -0.0 0.0
000150 14 7b de be e1 d5 4f be 00 00 00 80 00 00 00 80
       -0.43453276 -0.20296432 -0.0 -0.0
000160 00 00 00 80 00 00 00 80 29 00 82 be 00 00 00 80
       -0.0 -0.0 -0.25390747 -0.0
000170 00 00 00 80 aa e9 1b bf 1e 4d 94 be 00 00 00 80
       -0.0 -0.6090342 -0.28965086 -0.0
000180 00 00 00 80 e6 93 5a be 36 32 5b 3e 5c f3 a2 be
       -0.0 -0.21345481 0.21405873 -0.31826293
000190 00 00 00 80 00 00 00 00 8e 4f f9 be 17 c2 9d be
       -0.0 0.0 -0.48693508 -0.3081214
0001a0 00 00 00 80 00 00 00 80 00 00 00 80 ce 68 74 3e
       -0.0 -0.0 -0.0 0.23868105
0001b0 00 00 00 80 00 00 00 80 97 3f bd be e0 38 73 3e
       -0.0 -0.0 -0.36962578 0.23752165
0001c0 00 00 00 80 00 00 00 80 00 00 00 80 00 00 00 80
       -0.0 -0.0 -0.0 -0.0
0001d0 55 ca 75 be 00 00 00 80 00 00 00 00 92 a3 91 be
       -0.24002965 -0.0 0.0 -0.28445107
0001e0 1b 13 93 3e 6b cc 83 3e 4f 6e be be 00 00 00 80
       0.28725514 0.25741896 -0.37193534 -0.0
0001f0 00 00 00 80 9d 8e 9f be 00 00 00 00 bb e5 48 be
       -0.0 -0.31163493 0.0 -0.19618885
000200 35 d3 f8 be 00 00 00 80 00 00 00 00 52 39 70 be
       -0.48598638 -0.0 0.0 -0.23459366
000210 00 00 00 80 a7 4b 72 be 57 46 be be 00 00 00 80
       -0.0 -0.23661672 -0.3716304 -0.0
000220 00 00 00 80 00 00 00 80 00 00 00 00 00 00 00 00
       -0.0 -0.0 0.0 0.0
000230 00 00 00 80 00 00 00 80 00 00 00 80 00 00 00 00
       -0.0 -0.0 -0.0 0.0
000240 00 00 00 00 00 00 00 00 00 00 00 00 00 00 00 00
       0.0 0.0 0.0 0.0
000250 00 00 00 80 00 00 00 80 00 00 00 80 00 00 00 00
       -0.0 -0.0 -0.0 0.0
000260 00 00 00 80 00 00 00 80 00 00 00 80 00 00 00 80
       -0.0 -0.0 -0.0 -0.0
000270 00 00 00 00 00 00 00 80 00 00 00 80 00 00 00 80
       0.0 -0.0 -0.0 -0.0
000280 00 00 00 00 00 00 00 00 a0 36 b1 3e 8c a8 fe 3e
       0.0 0.0 0.34611988 0.49737966
000290 97 4f 75 3e 56 39 5f be 00 00 00 80 41 36 6f be
       0.23956142 -0.21799216 -0.0 -0.2336054
0002a0 00 00 00 80 00 00 00 80 b4 e4 7e be f7 68 84 3e
       -0.0 -0.0 -0.24891931 0.25861332
0002b0 4f 44 bc 3e c1 38 bf 3e 28 de a3 be 00 00 00 80
       0.36770865 0.37347987 -0.3200543 -0.0
0002c0 52 5a b1 be 00 00 00 80 a8 d7 41 be 61 1a 98 be
       -0.3463922 -0.0 -0.18929923 -0.29707626
0002d0 52 fa a8 3e 51 b2 9b 3e 87 be d4 3e 00 00 00 00
       0.3300348 0.30409482 0.4155161 0.0
0002e0 f8 83 54 be a0 09 8a be 00 00 00 80 00 00 00 00
       -0.20753467 -0.26960468 -0.0 0.0
0002f0 00 00 00 00 b5 9d a9 be 00 00 00 00 00 00 00 00
       0.0 -0.33128133 0.0 0.0
000300 2e f1 c0 be 00 00 00 00 f2 1c c4 3e 00 00 00 00
       -0.37684005 0.0 0.38303334 0.0
000310 00 00 00 00 00 00 00 00 c7 11 71 be 00 00 00 00
       0.0 0.0 -0.23541938 0.0
000320 a3 76 a2 3e 46 25 c5 be 00 00 00 00 fc 94 c3 3e
       0.31731138 -0.38505 0.0 0.38199604
000330 14 c4 84 be 00 00 00 00 5a 74 a3 3e 00 00 00 00
       -0.25930846 0.0 0.31924707 0.0
000340 00 00 00 00 8b 70 82 3e ca 60 8f be 00 00 00 00
       0.0 0.25476488 -0.28003532 0.0
000350 27 ee aa 3e 7a f1 46 be 00 00 00 00 4e 83 bf 3e
       0.3338482 -0.19428053 0.0 0.37404865
000360 00 00 00 00 bc f4 8b 3e 00 00 00 00 00 00 00 80
       0.0 0.27335155 0.0 -0.0
000370 00 00 00 00 00 00 00 00 00 00 00 00 d3 a3 74 be
       0.0 0.0 0.0 -0.23890619
000380 fa 5a b3 be f4 65 49 3e 00 00 00 00 00 00 00 00
       -0.35030347 0.19667798 0.0 0.0
000390 00 00 00 00 00 00 00 00 00 00 00 00 00 00 00 00
       0.0 0.0 0.0 0.0
0003a0 00 00 00 00 b2 9b d4 be 00 00 00 00 00 00 00 00
       0.0 -0.41525036 0.0 0.0
0003b0 7e d1 86 3e 00 00 00 00 00 00 00 00 00 00 00 00
       0.26331705 0.0 0.0 0.0
0003c0 af 8a 7b be 00 00 00 00 8d b2 88 be 00 00 00 00
       -0.24564622 0.0 -0.26698723 0.0
0003d0 00 00 00 00 00 00 00 00 fa 65 9d be 00 00 00 00
       0.0 0.0 -0.30741864 0.0
0003e0 c9 86 4a be 00 00 00 00 94 93 10 3f 80 e8 cc 3e
       -0.19777979 0.0 0.56475186 0.40021133
0003f0 00 00 00 00 00 00 00 00 0e f9 86 be 00 00 00 00
       0.0 0.0 -0.2636189 0.0

sequential/conv2d_1/Conv2D i1 [64, 3, 3, 32]
000000 00 00 00 00 30 00 d8 00 00 46 18 e8 00 00 00 d9
       0 0 0 0 48 0 -40 0 0 70 24 -24 0 0 0 -39
000010 00 ac df 00 2d 00 27 29 00 00 00 00 00 00 25 20
       0 -84 -33 0 45 0 39 41 0 0 0 0 0 0 37 32
000020 00 00 00 00 00 00 00 d5 00 2f 99 00 00 00 2d 00
       0 0 0 0 0 0 0 -43 0 47 -103 0 0 0 45 0
000030 00 00 00 00 29 00 39 1f e5 00 00 00 c5 00 00 43
       0 0 0 0 41 0 57 31 -27 0 0 0 -59 0 0 67
000040 00 28 00 23 c3 00 00 b7 2f ca c6 da 00 00 d6 00
       0 40 0 35 -61 0 0 -73 47 -54 -58 -38 0 0 -42 0
000050 00 00 da 00 00 00 00 b6 22 e2 00 e7 df 00 00 db
       0 0 -38 0 0 0 0 -74 34 -30 0 -25 -33 0 0 -37
000060 00 e1 00 1c 23 00 e3 00 00 51 00 e1 00 00 00 00
       0 -31 0 28 35 0 -29 0 0 81 0 -31 0 0 0 0
000070 00 bc d5 00 2b 00 1b 33 00 00 00 00 00 00 31 00
       0 -68 -43 0 43 0 27 51 0 0 0 0 0 0 49 0
000080 00 d2 00 00 00 00 30 00 00 26 89 00 00 00 25 00
       0 -46 0 0 0 0 48 0 0 38 -119 0 0 0 37 0
000090 00 00 00 00 1b 00 2b 22 00 00 00 00 c9 00 00 3e
       0 0 0 0 27 0 43 34 0 0 0 0 -55 0 0 62
0000a0 00 00 00 00 c6 00 00 d5 40 db d5 d2 00 00 d9 00
       0 0 0 0 -58 0 0 -43 64 -37 -43 -46 0 0 -39 0
0000b0 00 e2 d9 00 00 00 d0 c9 21 00 00 e0 d4 e2 00 b8
       0 -30 -39 0 0 0 -48 -55 33 0 0 -32 -44 -30 0 -72
0000c0 00 bc 00 1b 1e 00 de 00 00 35 00 cd 00 00 21 00
       0 -68 0 27 30 0 -34 0 0 53 0 -51 0 0 33 0
0000d0 00 b3 da 00 00 00 00 2e 00 b0 00 00 00 00 2a bd
       0 -77 -38 0 0 0 0 46 0 -80 0 0 0 0 42 -67
0000e0 00 a6 00 00 00 00 30 00 00 00 81 00 00 00 00 00
       0 -90 0 0 0 0 48 0 0 0 -127 0 0 0 0 0
0000f0 00 00 e1 00 26 00 2f 00 00 ca 00 00 c8 00 00 00
       0 0 -31 0 38 0 47 0 0 -54 0 0 -56 0 0 0

sequential/conv2d_2/Conv2D i1 [64, 3, 3, 64]
000000 10 00 00 00 ef 00 d2 96 00 00 9c 18 00 00 c9 00
       16 0 0 0 -17 0 -46 -106 0 0 -100 24 0 0 -55 0
000010 d8 00 00 00 00 e7 00 1a 00 00 00 00 e0 df e9 00
       -40 0 0 0 0 -25 0 26 0 0 0 0 -32 -33 -23 0
000020 00 00 ec 00 ca 00 e2 00 c6 00 00 e8 00 00 00 00
       0 0 -20 0 -54 0 -30 0 -58 0 0 -24 0 0 0 0
000030 00 ed 00 00 e9 d6 ea e1 00 de 13 00 00 00 ed 00
       0 -19 0 0 -23 -42 -22 -31 0 -34 19 0 0 0 -19 0
000040 e7 00 00 00 00 00 00 df 00 ef e9 00 00 00 22 00
       -25 0 0 0 0 0 0 -33 0 -17 -23 0 0 0 34 0
000050 2a 00 45 23 00 00 17 24 00 f0 00 38 00 00 00 ee
       42 0 69 35 0 0 23 36 0 -16 0 56 0 0 0 -18
000060 00 00 e5 00 00 00 00 00 00 00 00 e4 00 00 00 00
       0 0 -27 0 0 0 0 0 0 0 0 -28 0 0 0 0
000070 18 00 00 12 00 ed 00 00 1a ec 18 12 00 00 00 00
       24 0 0 18 0 -19 0 0 26 -20 24 18 0 0 0 0
000080 00 00 dc 00 00 df 14 cd 00 00 00 d5 00 00 24 00
       0 0 -36 0 0 -33 20 -51 0 0 0 -43 0 0 36 0
000090 00 00 ee 00 e0 d4 00 00 00 00 00 11 16 11 1e 10
       0 0 -18 0 -32 -44 0 0 0 0 0 17 22 17 30 16
0000a0 00 00 00 13 ee 00 e8 d4 00 00 00 00 00 00 00 00
       0 0 0 19 -18 0 -24 -44 0 0 0 0 0 0 0 0
0000b0 1f dc 00 15 1b e9 00 00 21 1f 00 28 00 1d 00 00
       31 -36 0 21 27 -23 0 0 33 31 0 40 0 29 0 0
0000c0 0e e5 00 00 00 00 d9 81 00 00 ac 19 00 00 c3 0e
       14 -27 0 0 0 0 -39 -127 0 0 -84 25 0 0 -61 14
0000d0 d7 00 00 00 00 00 00 00 00 f0 00 00 de cf d0 00
       -41 0 0 0 0 0 0 0 0 -16 0 0 -34 -49 -48 0
0000e0 00 00 00 c8 ca 00 10 ea ca 00 00 00 e2 00 00 00
       0 0 0 -56 -54 0 16 -22 -54 0 0 0 -30 0 0 0
0000f0 e3 00 11 bf ee d3 e4 e2 00 ca 00 00 00 00 e2 00
       -29 0 17 -65 -18 -45 -28 -30 0 -54 0 0 0 0 -30 0

sequential/conv2d_3/Conv2D i1 [128, 3, 3, 64]
000000 00 ba 16 00 b9 81 de e0 00 e1 00 00 da d7 15 00
       0 -70 22 0 -71 -127 -34 -32 0 -31 0 0 -38 -41 21 0
000010 00 00 e5 14 00 00 00 b5 e1 11 00 ce 00 a3 ef 00
       0 0 -27 20 0 0 0 -75 -31 17 0 -50 0 -93 -17 0
000020 00 d4 00 00 d7 00 00 00 00 00 ef 00 00 00 b4 00
       0 -44 0 0 -41 0 0 0 0 0 -17 0 0 0 -76 0
000030 00 e5 00 d9 00 00 00 d8 dd e4 e3 00 00 e3 00 00
       0 -27 0 -39 0 0 0 -40 -35 -28 -29 0 0 -29 0 0
000040 00 b5 e3 00 b9 88 c9 b0 e7 df 00 00 d6 de 00 00
       0 -75 -29 0 -71 -120 -55 -80 -25 -33 0 0 -42 -34 0 0
000050 00 00 e2 00 00 00 00 bc e2 00 00 ce 00 ae e4 00
       0 0 -30 0 0 0 0 -68 -30 0 0 -50 0 -82 -28 0
000060 00 e9 00 00 ec 00 ee 00 00 00 00 ce 00 00 bb 00
       0 -23 0 0 -20 0 -18 0 0 0 0 -50 0 0 -69 0
000070 00 00 f0 cc 00 00 e8 d0 eb ed da ed 00 d8 00 00
       0 0 -16 -52 0 0 -24 -48 -21 -19 -38 -19 0 -40 0 0
000080 1f d1 dd 00 d5 ab c6 e3 00 00 00 00 10 00 00 00
       31 -47 -35 0 -43 -85 -58 -29 0 0 0 0 16 0 0 0
000090 00 00 ed e1 00 00 00 e2 e9 12 00 d7 00 df ca 00
       0 0 -19 -31 0 0 0 -30 -23 18 0 -41 0 -33 -54 0
0000a0 00 00 00 00 d8 00 eb 00 00 00 14 b5 00 00 eb 00
       0 0 0 0 -40 0 -21 0 0 0 20 -75 0 0 -21 0
0000b0 00 cb 00 00 00 00 c9 da 00 00 d2 ec 00 e3 00 00
       0 -53 0 0 0 0 -55 -38 0 0 -46 -20 0 -29 0 0
0000c0 00 e4 00 00 c9 9c c6 b6 00 dd 00 00 cf 00 00 00
       0 -28 0 0 -55 -100 -58 -74 0 -35 0 0 -49 0 0 0
0000d0 00 d6 00 10 ee 00 cc d2 00 00 00 ea 00 cd c1 00
       0 -42 0 16 -18 0 -52 -46 0 0 0 -22 0 -51 -63 0
0000e0 00 da dc 00 ca 00 dd 00 ed 00 c5 ed 00 00 d1 00
       0 -38 -36 0 -54 0 -35 0 -19 0 -59 -19 0 0 -47 0
0000f0 00 13 00 eb 00 00 15 e8 cd 00 da 00 f0 df 00 00
       0 19 0 -21 0 0 21 -24 -51 0 -38 0 -16 -33 0 0
