LaneFollowingModel/dq/model.tflite (tflite, 149440 bytes, 11 tensors)

dense/bias f4 [64]
00000000: f36d a13d dab5 8bbd 965a b23d 124e b63c
00000010: 7b07 cc3c 2c80 153d 4a71 28bd 1436 f7bc
00000020: 2fc1 f3bd 446e fdbd 4036 30bd fc09 c4bc
00000030: 7186 b4bd 8e85 b13d c58f 6ebd 3175 99bd
00000040: 72ff 8fbd 833c 6fba fdea 213c 10d0 863d
00000050: 881c 9bbc c7be 9f3d 12e7 b73b b2f6 343d
00000060: 18ed e33b 04d8 88ba f117 163d 0eed 1abd
00000070: 9ea7 40bd 2560 0abe a36e e73d d52d 00bd
00000080: f809 593d 044f 7c3d a2e0 f83c 30ed 41bd
00000090: 523d 9aba a61c c2bd 7133 903d bb4e 9e3d
000000a0: 3b1c a83d ecf8 b23c 835c b0bd 232f 35bd
000000b0: 46af a4bd bdfa 8ebd fedc f7bb 4be3 adbd
000000c0: 0204 a33d d6df 61bd 7e64 1fbd adcd 0bbd
000000d0: ba50 d73d a150 49bc 99df d83d 99e9 993d
000000e0: 8c45 c9bc 9680 773d d18e 813d 7fbd 853d
000000f0: e0b8 703d 6532 edbc 3f34 de3d babb 2ebe
0.07882299 -0.06821795 0.08708684 0.022254024 0.02490591 0.036499187 -0.041123666 -0.030177154
-0.11902081 -0.12374547 -0.043020487 -0.023930542 -0.08814705 0.08668052 -0.058242578 -0.074930556
-0.07031144 -0.00091261434 0.009882686 0.065826535 -0.018934503 0.0780006 0.0056122625 0.04418058
0.006955754 -0.0010440354 0.036643926 -0.03782373 -0.047034852 -0.13513239 0.11300399 -0.03129371
0.052988023 0.061598793 0.03038055 -0.04734534 -0.0011767542 -0.094781205 0.07041062 0.077298604
0.082085095 0.02184721 -0.08611395 -0.044234406 -0.08041243 -0.06981418 -0.007564186 -0.08490618
0.07959749 -0.055145107 -0.038914196 -0.034131695 0.10513444 -0.01228729 0.10589523 0.07515258
-0.024569295 0.060425363 0.06326068 0.06530284 0.05877006 -0.028954694 0.10849809 -0.170638

conv2d_3/bias f4 [128]
00000000: 6221 e6bc 9014 29be 17ea 81bd 005c 54bd
00000010: 6d41 7cbd ecd3 7bbd c008 78bd 2c53 36be
00000020: 2e51 eebd f003 61bd d31d 34bd 79c6 eabb
00000030: a10a b8bd cf93 e7bd d8a1 39bc 7d69 edbc
00000040: 2d17 fb3b a2ec 3abe 9118 b1bd c128 01be
00000050: a87a 16be c16e 81bd e1e9 47be 86e2 a1bd
00000060: d939 02be ea9f a8bd 6b71 35ba c6b6 2abe
00000070: eee4 d6bd b809 063e f3a7 aabd 090b 113c
00000080: fd44 95bc 3b1e 86bd ad96 8b3b 8820 8abc
00000090: 8a64 bcbd e8e8 81bc e62b bfbc 717b 94bd
000000a0: f9d2 b4bc 4ed3 35bd f9f8 dbbc b546 d2bc
000000b0: 9005 6dbd bd60 ccbc 0d7b cabd 08e2 86bd
000000c0: 9402 a7bd 2ef9 5c3e 2b10 0fbe 74f6 e4bd
000000d0: 3bb0 42bc 0283 aebc 930c 03be 6dbc 89bd
000000e0: 35e4 85bc bd0e c0bc 68d4 31bc bd3d 35bd
000000f0: 265d 06bd 0669 2cbd 9165 aebd f265 2b3b
00000100: 113d 79bc e8a1 bbbd 9376 2fbd a43d 05bd
00000110: faf0 1dbe 4616 cbbc 510d f2bd 7daa bdbd
00000120: bc69 8cbd ae8f 143b 4e8f c1bb 8587 ccbd
00000130: 8e1e 41bd c4a6 c8bd 7ed2 38bd 04fb 9abd
00000140: 5a91 e0bd 62bd afbd 0374 75bd 81ab 53bd
00000150: 512a a3ba a8e7 4a3e 3ee3 593e 5bdb a5bd
00000160: 2fd1 adbc 9ff4 c73d 9578 70be ace2 1ebe
00000170: 5738 afbd 2e63 9cb9 9244 64be 8010 9a3b
00000180: afcf 5b3e 61b4 cabd 9de2 72bd fee9 d23d
00000190: 7e6d bdbd 1dda 80bd c1f3 88bd bc22 40bd
000001a0: 70e9 05bc 914d 34bc f1b4 41be fd02 02bd
000001b0: 68b2 e13d 24b5 afbb 13a3 09be aff3 00be
000001c0: 2b82 eabc 5da5 04bd 9b33 e93d 9dc1 28be
000001d0: 71b9 f2bd 87dc abbd e947 00be f838 a03b
000001e0: 6f79 06bd 7fab a7bb 1a5f dabd fb1b d9bd
000001f0: 36d1 f8bc 68ee c0bc 6d95 8fbd 2e25 96bd
-0.02809209 -0.1651175 -0.06343477 -0.05184555 -0.061585832 -0.0614814 -0.06055522 -0.17805165
-0.116365775 -0.054935396 -0.043973755 -0.007164773 -0.08986402 -0.11307489 -0.01133009 -0.028980965
0.007662675 -0.18254331 -0.08647264 -0.12613203 -0.14695227 -0.06319953 -0.19522811 -0.07904534
-0.1271738 -0.08233626 -0.00069215026 -0.16671285 -0.104928836 0.13089645 -0.08332815 0.008852729
-0.018221373 -0.06548735 0.0042599053 -0.016861215 -0.09198864 -0.015858129 -0.023336362 -0.07250107
-0.022073256 -0.04439097 -0.026852118 -0.025668481 -0.057866633 -0.024948472 -0.09886751 -0.06586081
-0.081547886 0.2157943 -0.13971011 -0.1117982 -0.011882837 -0.021302704 -0.12797765 -0.067253925
-0.01634417 -0.023444528 -0.010853864 -0.04424833 -0.032803677 -0.042092346 -0.08515466 0.0026153293
-0.015212313 -0.091617405 -0.04283769 -0.03252949 -0.15423957 -0.024790894 -0.11818946 -0.09261034
-0.06856105 0.0022668648 -0.005906976 -0.09986786 -0.04714828 -0.09797433 -0.045122616 -0.07567409
-0.109652236 -0.08581044 -0.05992509 -0.05167723 -0.0012448524 0.19814932 0.21278092 -0.08098479
-0.02121791 0.09763455 -0.23483498 -0.15516156 -0.08555668 -0.00029828533 -0.22291782 0.004701674
0.21465944 -0.09897686 -0.059298147 0.10298537 -0.092493996 -0.06291602 -0.06687117 -0.046908125
-0.008173332 -0.011004821 -0.1891668 -0.03174113 0.110203564 -0.00536217 -0.13441114 -0.12592958
-0.028626522 -0.032384265 0.11386796 -0.16480108 -0.118517764 -0.08391672 -0.12527432 0.0048896037
-0.03283065 -0.0051168795 -0.106626704 -0.1060104 -0.030373197 -0.023551181 -0.070109226 -0.0733131

conv2d_2/bias f4 [64]
00000000: 0450 1ebd 9a38 88bc 1cd0 f2bd 1900 d2bc
00000010: 4e61 7dbb f85a c43b 90c8 afbd a0df 7dbc
00000020: f3b9 4fbd c0c3 ce3c a51b af3c 703e 73bd
00000030: 0d68 afbd f70f 9dbc 5785 f5bc 28c7 13bd
00000040: 37d7 05bd f87e 3bbc 375b 37bd 6b34 adbd
00000050: 3db5 2cbd 5f3b 5cbd 6781 0ebd 6cd9 efbc
00000060: 7778 33be 4cab 18be f470 88bd 5b58 1cbd
00000070: eaad 3abd b06e e9bc f604 d8bd 9d78 eabc
00000080: eea1 4abd 8e96 0cbd 4e94 b5bc 7334 bdbd
00000090: ab16 92bd 8c39 91bd c659 3dbb dd69 c7bd
000000a0: 5959 52bc 920f 293c 0a83 48bb 7994 0abe
000000b0: 05b9 45bd 4ac7 05be 1d91 eabc 370f aebd
000000c0: 7908 0abe 5b97 c4bc 6f46 96bd 925e 06be
000000d0: f754 04be 953d 3ebc 8430 19bd c196 9abd
000000e0: b10a 9fbc b47d a4bd 73d0 70bb cd0b 85bd
000000f0: 00a8 e6b2 3e30 5dbd 8f81 53bd 5259 b7bd
-0.038650528 -0.016628552 -0.118561 -0.025634812 -0.0038662734 0.0059922896 -0.08583176 -0.015495211
-0.050714444 0.025239825 0.021375487 -0.059385717 -0.08564768 -0.019172652 -0.029970808 -0.036078602
-0.032675948 -0.011443846 -0.044764724 -0.084572636 -0.04216503 -0.05376756 -0.034791376 -0.02927848
-0.17526422 -0.14909095 -0.06662169 -0.0381702 -0.045576014 -0.028495163 -0.10547821 -0.028621966
-0.049470834 -0.034323268 -0.022165444 -0.092385195 -0.0713323 -0.07091054 -0.002889262 -0.09736989
-0.012838685 0.010318654 -0.0030595683 -0.135332 -0.04827215 -0.13064304 -0.028633649 -0.08498996
-0.13479795 -0.023997953 -0.07337653 -0.13122013 -0.12923037 -0.011611362 -0.037399784 -0.07548285
-0.019414278 -0.080317885 -0.003674534 -0.064963914 -2.6851922e-08 -0.054001085 -0.05163723 -0.089525834

conv2d_1/bias f4 [64]
00000000: 442e 22be b97a 13bd cb93 e23b 3aea 9a3a
00000010: 334b 103d 1d77 7abc bc92 00be 7643 02bd
00000020: 9f6c 2fbd 974d 513c c2eb c0bc 880e 00bd
00000030: b7cd 73bc e5de 153c f19b 92bd 51a6 a2bd
00000040: e247 4fbd c4a4 dabd 85ec 8bbc 60b9 7abc
00000050: e4e5 cebb dbab 4ebd 9471 9ebc ed07 dfbc
00000060: 5fc6 d9bc 9fa2 b03c 60da cebc 74b2 14bd
00000070: 299c 1dbd 3ee4 9fbc b839 a1bc 6533 babc
00000080: 1a0e babc 63c7 87bd e9a7 b9bd 25e8 e3bc
00000090: 9641 ecbc cf09 31bc 448f c5bc 382b bcbc
000000a0: b80b b9bc 2063 12be 590b 62bd fc7c 03bd
000000b0: b078 8fbc a03d b1bc 71c8 1ebe d210 23bc
000000c0: d0bf e1bd 5d4e 52bd 06b2 b8bc 6daa 0dbe
000000d0: 22fc 02be 5606 34bd 167a 2ebc e626 79bd
000000e0: d29a 39bd 2f32 93bd bfe0 68bc 3881 58bd
000000f0: 2642 3fbc 1305 14bb 0872 98bc 3e7b bebb
-0.15837961 -0.03600571 0.006914591 0.0011819073 0.035227966 -0.015287188 -0.12555975 -0.031802617
-0.0428282 0.0127748465 -0.023549918 -0.031263858 -0.014880589 0.0091473805 -0.0715865 -0.079418786
-0.050605662 -0.10675958 -0.017080555 -0.015302986 -0.006314026 -0.050456863 -0.019341268 -0.027225459
-0.026583849 0.021561919 -0.025250614 -0.036303 -0.038479004 -0.019518014 -0.019680843 -0.022729585
-0.022711802 -0.06629827 -0.090652294 -0.027820656 -0.028839868 -0.010805561 -0.024116166 -0.022969827
-0.022588596 -0.14295626 -0.055186603 -0.032101616 -0.017513603 -0.02163583 -0.1550615 -0.009952741
-0.110229135 -0.051344264 -0.022545826 -0.13834544 -0.12791494 -0.043951355 -0.010649225 -0.060828112
-0.045313664 -0.07187306 -0.01421374 -0.052857608 -0.011673486 -0.0022586032 -0.018609062 -0.0058130315

conv2d/bias f4 [32]
00000000: e929 fbbd f997 e8bc 8c87 cdba cae0 18bc
00000010: 3e9f 1bbe efd1 5dbc fa58 1cbe 6c7c 47bc
00000020: 24e7 8dbc 2a81 7b3c aa74 85bc 3a30 2cbc
00000030: d156 d0bc f087 c2bb 11b1 43bc 3713 a3bc
00000040: c998 02bc 35cd 62bc 16bf 6ebc cceb 5bbd
00000050: 446c 7abc 975c 6bbc 493e 45bc a6d1 f1bd
00000060: e2a3 5fbd 2982 89bc ac37 fcbb d41d 1abe
00000070: 48c2 04bc 59e8 833c c244 c3bb 357b b9bb
-0.12263853 -0.028392779 -0.0015680655 -0.009330938 -0.15197465 -0.013538822 -0.15268317 -0.012175661
-0.01732213 0.015350619 -0.016290981 -0.010509545 -0.025432022 -0.005936615 -0.011944071 -0.019906623
-0.007970997 -0.0138428705 -0.014571926 -0.05369167 -0.015284602 -0.014365337 -0.012038776 -0.118075654
-0.05459965 -0.016785698 -0.0076970663 -0.15050441 -0.008102961 0.016102003 -0.0059591243 -0.0056604394

sequential/dense/MatMul i1 [64, 128] scale=0.0057167215 zero_point=0
00000000: 22f3 f714 0a05 e9e0 2316 ff20 fff0 eef4
00000010: f7e6 2412 1f12 0605 14ee 1b1d e925 ecee
00000020: cdf8 dc17 f0eb 27ee 16da 290d 142c 0b08
00000030: 1906 edfb 1bfa e519 f2f2 dbe7 f3fa 1dde
00000040: f1d8 e21d 1624 2107 05f9 21f8 f912 f6d7
00000050: 240e e4e2 2812 1dcb 310b ea12 fc19 f90f
00000060: f81f 1019 101b fee1 e528 e12b 0ef3 f4f6
00000070: d0f6 ecfb 14f6 1f23 000d 2211 380f d5de
00000080: 0c12 eafc f7d8 12f5 0b0c 11ee 0c11 eef4
00000090: f0ea f508 10e0 08f8 f310 f3ea f4f8 dbda
000000a0: d800 e7e5 11e7 00fe e4df f804 f3e6 def0
000000b0: 01f4 0ffb 07e2 11f6 ebe6 e40e 00ef f4ee
000000c0: f2d9 da03 f9e9 0800 0018 ecda ebf0 dd0c
000000d0: e6df 0c0b e4ff d6fe 11f2 09f1 010c 12df
000000e0: 0be5 fc0f ff10 080d 01e4 d9f4 fcf6 eafc
000000f0: fcf6 faf7 12ea eaf6 0e11 f6f0 f9ee e0db
0.19436853 -0.07431738 -0.051450495 0.114334434 0.057167217 0.028583609 -0.1314846 -0.18293509
0.20008525 0.12576787 -0.0057167215 0.18293509 -0.0057167215 -0.091467544 -0.10290099 -0.068600655
-0.051450495 -0.14863476 0.20580198 0.10290099 0.17721836 0.10290099 0.034300327 0.028583609
0.114334434 -0.10290099 0.15435149 0.16578493 -0.1314846 0.21151869 -0.114334434 -0.10290099
-0.2915528 -0.045733772 -0.20580198 0.1314846 -0.091467544 -0.12005115 0.22295214 -0.10290099
0.12576787 -0.21723542 0.23438558 0.07431738 0.114334434 0.25153574 0.062883936 0.045733772
0.14291804 0.034300327 -0.10861771 -0.028583609 0.15435149 -0.034300327 -0.15435149 0.14291804
-0.0800341 -0.0800341 -0.21151869 -0.14291804 -0.07431738 -0.034300327 0.16578493 -0.19436853
-0.085750826 -0.22866887 -0.17150165 0.16578493 0.12576787 0.20580198 0.18865182 0.04001705
0.028583609 -0.04001705 0.18865182 -0.045733772 -0.04001705 0.10290099 -0.057167217 -0.23438558
0.20580198 0.0800341 -0.1600682 -0.17150165 0.22866887 0.10290099 0.16578493 -0.30298623
0.28011936 0.062883936 -0.12576787 0.10290099 -0.022866886 0.14291804 -0.04001705 0.085750826
-0.045733772 0.17721836 0.091467544 0.14291804 0.091467544 0.15435149 -0.011433443 -0.17721836
-0.15435149 0.22866887 -0.17721836 0.24581903 0.0800341 -0.07431738 -0.068600655 -0.057167217
-0.27440262 -0.057167217 -0.114334434 -0.028583609 0.114334434 -0.057167217 0.17721836 0.20008525
0.0 0.07431738 0.19436853 0.09718426 0.3201364 0.085750826 -0.24581903 -0.19436853
0.068600655 0.10290099 -0.12576787 -0.022866886 -0.051450495 -0.22866887 0.10290099 -0.062883936
0.062883936 0.068600655 0.09718426 -0.10290099 0.068600655 0.09718426 -0.10290099 -0.068600655
-0.091467544 -0.12576787 -0.062883936 0.045733772 0.091467544 -0.18293509 0.045733772 -0.045733772
-0.07431738 0.091467544 -0.07431738 -0.12576787 -0.068600655 -0.045733772 -0.21151869 -0.21723542
-0.22866887 0.0 -0.14291804 -0.15435149 0.09718426 -0.14291804 0.0 -0.011433443
-0.1600682 -0.18865182 -0.045733772 0.022866886 -0.07431738 -0.14863476 -0.19436853 -0.091467544
0.0057167215 -0.068600655 0.085750826 -0.028583609 0.04001705 -0.17150165 0.09718426 -0.057167217
-0.12005115 -0.14863476 -0.1600682 0.0800341 0.0 -0.09718426 -0.068600655 -0.10290099
-0.0800341 -0.22295214 -0.21723542 0.017150164 -0.04001705 -0.1314846 0.045733772 0.0
0.0 0.13720131 -0.114334434 -0.21723542 -0.12005115 -0.091467544 -0.20008525 0.068600655
-0.14863476 -0.18865182 0.068600655 0.062883936 -0.1600682 -0.0057167215 -0.2401023 -0.011433443
0.09718426 -0.0800341 0.051450495 -0.085750826 0.0057167215 0.068600655 0.10290099 -0.18865182
0.062883936 -0.15435149 -0.022866886 0.085750826 -0.0057167215 0.091467544 0.045733772 0.07431738
0.0057167215 -0.1600682 -0.22295214 -0.068600655 -0.022866886 -0.057167217 -0.12576787 -0.022866886
-0.022866886 -0.057167217 -0.034300327 -0.051450495 0.10290099 -0.12576787 -0.12576787 -0.057167217
0.0800341 0.09718426 -0.057167217 -0.091467544 -0.04001705 -0.10290099 -0.18293509 -0.21151869

sequential/dense_1/MatMul f4 [1, 64]
00000000: 5923 30be a6fe b0bc 01bf 98bd f20e 8f3d
00000010: 21fc 69be 3638 32be 1eef 0a3e d14e dcbe
00000020: 4d07 113f 5bef 88be f8bf 57be 2815 3b3d
00000030: 42db a0bd 5951 aa3e c84d 323e f73d 093e
00000040: 7967 8abd 1e21 5fbe 1e64 653b bf00 983e
00000050: 2a4e 35be 54ff 573e 8dc0 573e 9fca 94be
00000060: 3629 30be a6be d83e 39ef e83d b1bb b3bd
00000070: 245d 53be 3536 c23d e9d8 1c3e 2b06 8fbd
00000080: 4d3c 913d bc1d fe3d b7b2 643d 0e19 85be
00000090: f8c4 1c3e dcd8 7c3d 1676 9f3e e7a0 1abe
000000a0: 9afb 6cbd 6e9f 113d 0e4b d83c 91d3 bdbb
000000b0: f03b c1bd 468f e8bd 4747 8abe 4ad1 5f3c
000000c0: 3e82 a93e a3a9 0e3e 9ce1 14be 9b6b 9f3d
000000d0: 8862 083e 80ac 6fbd 8019 513e aee5 b2be
000000e0: 81ae 66bd 3116 31be 401c c4bd 07b3 b93d
000000f0: 5796 f0bd de77 403e cd12 86be 3c54 40bf
-0.17200984 -0.0216058 -0.07458306 0.069852725 -0.22850086 -0.17404255 0.13567778 -0.43028882
0.56651765 -0.26745114 -0.21069324 0.045674473 -0.0785432 0.33265188 0.17412484 0.13402544
-0.06758017 -0.21789977 0.0035002301 0.2968807 -0.17705598 0.21093494 0.21069546 -0.29060838
-0.1720322 0.42332953 0.11373753 -0.08776034 -0.20640999 0.094829954 0.1531712 -0.06983598
0.070915796 0.12408015 0.0558345 -0.25995678 0.15309513 0.06173025 0.3114478 -0.15100442
-0.057857133 0.035552435 0.026402976 -0.005793043 -0.0943526 -0.11355452 -0.27007505 0.013660738
0.3310718 0.13931899 -0.14539188 0.07784196 0.13318837 -0.05851412 0.20419884 -0.34940857
-0.056318764 -0.17293622 -0.09575701 0.0906735 -0.11747425 0.18795726 -0.2618622 -0.7512853

sequential/conv2d/Conv2D f4 [32, 3, 3, 1]
00000000: 0e94 a63d 54bd 4d3d d83a 193e 1f34 64bd
00000010: fd08 663d 25fa ef3c fc5f e2ba ef13 ebbc
00000020: 7937 b33d 7782 b03c 2c39 0d3d b68a e3bd
00000030: de3f 91bd 3d83 31bc 7120 713d 34b8 93be
00000040: 77c7 483e 554c 853d 1d7e 42be 2453 a6be
00000050: b4d2 63be a85d e9bd 16f1 04bf cad3 603e
00000060: b241 993e 3928 06bf 73f6 93bc 8d69 23be
00000070: 8d5a f93d 4d05 1a3d a884 99be 46c7 273e
00000080: 0222 ba3d 6639 623e a654 32be beb4 6fbe
00000090: 916e a7bc d72c 773d ca96 22bd 1627 dbbc
000000a0: 675f 3a3d 4df6 99bc 9bda 9f3d 9afe 01be
000000b0: 1cf9 223c 2bb0 973c 3677 223e 5f99 5abe
000000c0: 1bc8 1cbe 134a 28bd d36b 343e 1e93 81be
000000d0: 2cdf 5c3e f2ae 313d d103 e63d c5d8 003e
000000e0: 7bb8 703d 63ea 453d 3db2 09bc 68ac 30bc
000000f0: 30f9 943d 3535 2dbc 7b22 5ebc c80c 60be
00000100: c2bb f5b9 8d03 7abc e7a5 2f3e 5ce8 90be
00000110: 78c6 9ebe b57b 663d ceb2 843e ec9b a6be
00000120: be57 b0be eded 413e 31ac 163e 91db 80bc
00000130: 1a21 41be 9ded 0a3e b1ed bb3d 69f4 ddbd
00000140: e215 bdbd d0ec 5bbc b361 313e 6565 42bc
00000150: 0409 2abe 9086 373e b628 3abe 06b4 aeba
00000160: 2830 4b3e 5533 63be 6e2a a83d 4bdd 2fbe
00000170: c90d 8a3d 2b6a 08be 9f52 253e cbd5 7d3e
00000180: 0af4 aebe 8dce 70be dbb6 bebd 4890 c9be
00000190: afab 7b3e 9e28 a53d e8d2 c2be 0b67 bcbb
000001a0: 0ec5 1f3d 5425 51be 471c b2bd f970 613e
000001b0: 1a9a 40be 2f80 403e ca2b b1bc c6ab 0b3c
000001c0: 26b6 753e 2a35 86be 48dc abbc ce0c a13d
000001d0: 8d87 eabd 2f19 113e 162b 933d 96be 6abe
000001e0: 302b 8ebe 354a 593d 7f32 94be fc6b 92be
000001f0: 5c81 bc3d 3c23 3b3e 2974 503e d24a ae3c
00000200: e9e4 1dbd a3b7 5c3c aea1 80be ce03 e9bd
00000210: a918 b2be 2d58 513e 2623 003e ba22 123e
00000220: 195c ad3c c69e 4a3e 2b79 b4bd b003 2f3e
00000230: a6f9 68bc efef d0bc 5b83 5fbe 4ff9 72be
00000240: 7d55 32be 4f86 f93d 8a48 883b 138d ea3c
00000250: d33f e5bd 50fd 463e 72ed fabd 4c5c 6ebc
00000260: 957e 48be 32d1 4bbd 5da8 e9bd a45d 98be
00000270: 5ef3 1f3e ae27 353e a807 9dba a1ac bcbb
00000280: 149c 3fbd 560d 3e3d 1f15 75bd dbe9 48be
00000290: ab6e 45bc 2322 a73d b99c 443e 102f 0ebd
000002a0: 31cf 55bd fe5b 26be a61b 253e e87f 07be
000002b0: c66a debe 2f77 90be e900 d7be 8bd2 ca3e
000002c0: a040 b7be 6837 65bd da13 873d 1430 2dbd
000002d0: 464d eebd 3a37 59bd da0f 3abd e896 193c
000002e0: 04ca dabd abe7 943a 2300 0cbc 8d89 89bd
000002f0: b428 f4bc 8c56 f1bd 0d21 493e 7772 bebd
00000300: 1a73 b43d b433 0e3e a1d8 a1bd 1150 63be
00000310: 4dc1 b53d 7cb4 eebd d0e1 84be ece5 5cbe
00000320: 907f 77be 7a5a 263d 1d53 3abe 8641 60bd
00000330: b18c fc3d 0f55 263e 4227 da3d 2bb0 053e
00000340: 2fcb 86bd 223b 853a e8e2 b43d 284a ab3d
00000350: be62 3dbd 343c 853d f3da c73b d737 aabc
00000360: a77a 29bd 4e76 62bd b913 b83d a90a 94bd
00000370: 94d3 24be 65a6 373e a6de 03be a662 e13c
00000380: 5354 ebbc fd54 4c3e 1f78 3f3e 161c c5be
00000390: a03b 203e da61 92be d829 17be 1d0b 0fbe
000003a0: ae02 153e 629c 04bc 14a9 a93c 8711 cabd
000003b0: b697 0cbe 46ef 64be 6d4c 19be 6100 923c
000003c0: 4ad9 b6be a129 5e3e 40ec d93d a709 f43d
000003d0: a078 553d f67b 04bd 1814 823e 0e32 4c3e
000003e0: 48fb 803d 0c9b d73d 5871 d43a 8862 82bd
000003f0: 52af 6f3d eaed ec3c 86d8 f2be f0c8 0d3e
0.08133708 0.050229385 0.14963853 -0.05571377 0.056160916 0.029294083 -0.0017271037 -0.028696029
0.08750815 0.021546585 0.03447835 -0.111104414 -0.0709226 -0.010834512 0.05886883 -0.28851473
0.1960734 0.065087 -0.18993421 -0.32485306 -0.22248346 -0.11394817 -0.5193037 0.21955791
0.29932934 -0.52405125 -0.018061852 -0.15958233 0.12175474 0.03760271 -0.2998402 0.1638461
0.09088518 0.22092208 -0.17415103 -0.23408791 -0.020438464 0.060345497 -0.039694585 -0.026752036
0.04550114 -0.018794203 0.078053676 -0.12694779 0.009947088 0.01851662 0.15865788 -0.21347569
-0.15310709 -0.041086268 0.17619257 -0.25307554 0.21569508 0.04337973 0.11231197 0.12582691
0.058769684 0.04831923 -0.008404312 -0.010783292 0.07274091 -0.010571768 -0.0135580255 -0.21879876
-0.00046869932 -0.015259636 0.1715313 -0.28302276 -0.31010795 0.05627032 0.25917667 -0.32540834
-0.34441942 0.18938418 0.14714123 -0.015729697 -0.18860283 0.13567205 0.091761954 -0.10837633
-0.092326894 -0.01342316 0.17322426 -0.011864995 -0.16605002 0.17922425 -0.18179592 -0.0013328798
0.19842589 -0.2218755 0.08211218 -0.1717426 0.067409106 -0.1332175 0.16144799 0.24788587
-0.34170562 -0.23516293 -0.09312221 -0.3936789 0.24577211 0.08064388 -0.38051534 -0.0057495884
0.039006285 -0.20424396 -0.086968 0.22015752 -0.18808785 0.18798898 -0.021627326 0.008524841
0.23995265 -0.26212436 -0.020979062 0.078637704 -0.114516355 0.14169763 0.07185952 -0.22924265
-0.27767324 0.053049285 -0.28944775 -0.2859801 0.09204361 0.1827516 0.20356812 0.021275911
-0.038548384 0.013471517 -0.25123352 -0.11377679 -0.3478444 0.20443793 0.12513408 0.1427106
0.02116208 0.1978713 -0.088121735 0.1709125 -0.014219677 -0.025505034 -0.21827452 -0.23727916
-0.17415424 0.121838205 0.004159038 0.028631723 -0.11193814 0.19432569 -0.1225232 -0.0145483725
-0.19579537 -0.04976005 -0.11409066 -0.29758942 0.15620181 0.17690918 -0.0011980431 -0.0057578837
-0.046779707 0.046399437 -0.059834596 -0.19620459 -0.012050311 0.08160808 0.1920041 -0.03471285
-0.052199546 -0.1624603 0.16123828 -0.13232386 -0.43440837 -0.2821593 -0.41992882 0.39613757
-0.35791492 -0.055961043 0.06595583 -0.04228218 -0.116358325 -0.053031184 -0.045425273 0.009374358
-0.10683063 0.0011360546 -0.0085449545 -0.06715689 -0.029804565 -0.11784086 0.19641514 -0.09299176
0.088110164 0.1388691 -0.07902647 -0.22198512 0.0887476 -0.116555184 -0.2595353 -0.21572083
-0.24169755 0.04061363 -0.18195768 -0.054749988 0.12331522 0.16243385 0.10652019 0.13055484
-0.06581723 0.0010164718 0.088323414 0.083637536 -0.046236746 0.065056235 0.006099099 -0.02077858
-0.041376736 -0.055288605 0.08988137 -0.07228596 -0.16096336 0.17934568 -0.12877902 0.02751286
-0.028726732 0.19954295 0.18698166 -0.3849799 0.15647745 -0.2859028 -0.14762056 -0.13969083
0.14551803 -0.008093925 0.020710506 -0.09866624 -0.13729748 -0.223569 -0.1497056 0.017822446
-0.35712653 0.21695568 0.10640764 0.119159035 0.05211699 -0.03234478 0.25405955 0.1994097
0.06297928 0.1052762 0.0016208095 -0.063664496 0.058516808 0.02892204 -0.4743082 0.13846183

sequential/conv2d_1/Conv2D i1 [64, 3, 3, 32]
00000000: 0efa e10b 0a1b fc0e ff08 0c06 080e 1411
00000010: 0405 15f9 06fa 020a 070d 340f fd0d fd0c
00000020: ee03 0d12 0f1e 061e fb14 050a 142b 16fd
00000030: e90d 0e56 ff19 0d00 ff29 4803 18f8 151f
00000040: e200 06fa ed0e eef8 f9f2 de23 f715 fded
00000050: d903 09f0 fee3 f3de eff4 3ed6 fddf f8e5
00000060: f4fa f8ff fb05 f1d5 00e4 f703 f503 fcee
00000070: fdef ed1d f6ea e8f0 fc07 24ef 0beb 0b04
00000080: 000a 1513 0002 0a00 0915 07ff 091e f9f6
00000090: 12f6 f94f 0019 f700 0512 2600 f807 2410
000000a0: e800 1621 0207 e91b 01fa 1411 ff13 0801
000000b0: 18fa 03fe f905 fffe fdfa 1bfa 1205 16f3
000000c0: eeeb 0510 0003 ef1e fbe7 f111 e404 0300
000000d0: e9df e90c 07eb efee ecf1 0ee7 ddf6 0b07
000000e0: 060a 1903 0420 f40c 0721 f421 1c29 13f9
000000f0: 0106 fb7f f70f f1fc 0c17 130c f0f3 1416
14 -6 -31 11 10 27 -4 14
-1 8 12 6 8 14 20 17
4 5 21 -7 6 -6 2 10
7 13 52 15 -3 13 -3 12
-18 3 13 18 15 30 6 30
-5 20 5 10 20 43 22 -3
-23 13 14 86 -1 25 13 0
-1 41 72 3 24 -8 21 31
-30 0 6 -6 -19 14 -18 -8
-7 -14 -34 35 -9 21 -3 -19
-39 3 9 -16 -2 -29 -13 -34
-17 -12 62 -42 -3 -33 -8 -27
-12 -6 -8 -1 -5 5 -15 -43
0 -28 -9 3 -11 3 -4 -18
-3 -17 -19 29 -10 -22 -24 -16
-4 7 36 -17 11 -21 11 4
0 10 21 19 0 2 10 0
9 21 7 -1 9 30 -7 -10
18 -10 -7 79 0 25 -9 0
5 18 38 0 -8 7 36 16
-24 0 22 33 2 7 -23 27
1 -6 20 17 -1 19 8 1
24 -6 3 -2 -7 5 -1 -2
-3 -6 27 -6 18 5 22 -13
-18 -21 5 16 0 3 -17 30
-5 -25 -15 17 -28 4 3 0
-23 -33 -23 12 7 -21 -17 -18
-20 -15 14 -25 -35 -10 11 7
6 10 25 3 4 32 -12 12
7 33 -12 33 28 41 19 -7
1 6 -5 127 -9 15 -15 -4
12 23 19 12 -16 -13 20 22

sequential/conv2d_2/Conv2D i1 [64, 3, 3, 64]
00000000: eadf df0f 0416 ee22 b504 ced5 b90d 1ec6
00000010: f7fa effa edf3 0cea 030f 05b9 ee19 dbfe
00000020: 0c0a f5dc bbf0 e313 0ce5 05b6 1cce d5ec
00000030: dfea 01dc 21ff 140a 38da e619 d7f8 f404
00000040: e2da fa21 f919 d819 c2fc d8e0 adf4 199a
00000050: ea05 0120 0211 f5d5 021f 09d5 d3e0 ccdf
00000060: 2206 dda9 d8d4 f304 07d0 dcbb 0ed8 de03
00000070: ece2 0be1 1607 110d 1be3 d807 caf1 f2fc
00000080: e616 060a e20a ea28 fae5 00fa ecab 1cdb
00000090: e51a f00e 0a03 c6d1 1609 09ef e30f fb21
000000a0: 2404 e60b f8e9 0001 17f9 e8dd 1102 112d
000000b0: dff9 03f5 111f bd1d f1fe eaef f00a fcf5
000000c0: db11 daf8 fecb 0cec c50c e7b0 a024 ee07
000000d0: 00f8 ecdd 02f6 0f16 f8e5 dced bbed c0c4
000000e0: fef6 fbd6 ea04 d51f 03db e80e efd0 d526
000000f0: df0c cdff c8e0 0af1 02d7 b614 0202 1ff0
-22 -33 -33 15 4 22 -18 34
-75 4 -50 -43 -71 13 30 -58
-9 -6 -17 -6 -19 -13 12 -22
3 15 5 -71 -18 25 -37 -2
12 10 -11 -36 -69 -16 -29 19
12 -27 5 -74 28 -50 -43 -20
-33 -22 1 -36 33 -1 20 10
56 -38 -26 25 -41 -8 -12 4
-30 -38 -6 33 -7 25 -40 25
-62 -4 -40 -32 -83 -12 25 -102
-22 5 1 32 2 17 -11 -43
2 31 9 -43 -45 -32 -52 -33
34 6 -35 -87 -40 -44 -13 4
7 -48 -36 -69 14 -40 -34 3
-20 -30 11 -31 22 7 17 13
27 -29 -40 7 -54 -15 -14 -4
-26 22 6 10 -30 10 -22 40
-6 -27 0 -6 -20 -85 28 -37
-27 26 -16 14 10 3 -58 -47
22 9 9 -17 -29 15 -5 33
36 4 -26 11 -8 -23 0 1
23 -7 -24 -35 17 2 17 45
-33 -7 3 -11 17 31 -67 29
-15 -2 -22 -17 -16 10 -4 -11
-37 17 -38 -8 -2 -53 12 -20
-59 12 -25 -80 -96 36 -18 7
0 -8 -20 -35 2 -10 15 22
-8 -27 -36 -19 -69 -19 -64 -60
-2 -10 -5 -42 -22 4 -43 31
3 -37 -24 14 -17 -48 -43 38
-33 12 -51 -1 -56 -32 10 -15
2 -41 -74 20 2 2 31 -16

sequential/conv2d_3/Conv2D i1 [128, 3, 3, 64]
00000000: fdfa e7fb f9de 080a e80e e507 08cd 0b32
00000010: e40b 04f2 08c6 f6e5 ceea fefa 1448 05fe
00000020: f508 1416 34f6 0412 c205 ff1a 10d2 e1e6
00000030: f3f8 2ef0 eee9 b5fe 09da dad4 ed07 fbe7
00000040: f904 dffd f1de 1ced ecf3 e9ca 11c0 1004
00000050: d3e6 f1d5 fdd5 1fe0 b405 f8f3 f841 0406
00000060: 1417 1c20 23ee e704 c907 ed11 1126 d4ca
00000070: def8 fed9 02d0 bd0b f2ee d0cd ecfe 1cf0
00000080: fe05 b3dd e8ef 14f7 ecf4 f1d0 03bd 0320
00000090: e10d 30d9 0fe8 f9c1 c90b faf6 0025 e7fa
000000a0: 0249 130b 24c6 fc08 f904 e643 1330 e6f4
000000b0: e8e3 f9b5 c6d1 d2f3 12e8 f1c9 f5fb 0a0a
000000c0: edd5 edfc c4df e9e8 ecd3 f917 0de9 d503
000000d0: f416 04da 0ecd 06ba d1c5 00ef c0cd 05d6
000000e0: ddf3 00ca 0fe6 f5f1 d8ee def0 09d4 e510
000000f0: feea 0ae9 c8d7 c9f1 e8f8 fdd6 1c1f 18f3
-3 -6 -25 -5 -7 -34 8 10
-24 14 -27 7 8 -51 11 50
-28 11 4 -14 8 -58 -10 -27
-50 -22 -2 -6 20 72 5 -2
-11 8 20 22 52 -10 4 18
-62 5 -1 26 16 -46 -31 -26
-13 -8 46 -16 -18 -23 -75 -2
9 -38 -38 -44 -19 7 -5 -25
-7 4 -33 -3 -15 -34 28 -19
-20 -13 -23 -54 17 -64 16 4
-45 -26 -15 -43 -3 -43 31 -32
-76 5 -8 -13 -8 65 4 6
20 23 28 32 35 -18 -25 4
-55 7 -19 17 17 38 -44 -54
-34 -8 -2 -39 2 -48 -67 11
-14 -18 -48 -51 -20 -2 28 -16
-2 5 -77 -35 -24 -17 20 -9
-20 -12 -15 -48 3 -67 3 32
-31 13 48 -39 15 -24 -7 -63
-55 11 -6 -10 0 37 -25 -6
2 73 19 11 36 -58 -4 8
-7 4 -26 67 19 48 -26 -12
-24 -29 -7 -75 -58 -47 -46 -13
18 -24 -15 -55 -11 -5 10 10
-19 -43 -19 -4 -60 -33 -23 -24
-20 -45 -7 23 13 -23 -43 3
-12 22 4 -38 14 -51 6 -70
-47 -59 0 -17 -64 -51 5 -42
-35 -13 0 -54 15 -26 -11 -15
-40 -18 -34 -16 9 -44 -27 16
-2 -22 10 -23 -56 -41 -55 -15
-24 -8 -3 -42 28 31 24 -13
