LaneFollowingModel/dq/model.tflite (tflite, 149440 bytes, 11 tensors)

dense/bias f4 [64]
00000000: 6f65 8cbd 1ff3 523e 3632 c7bd 8dee fa3e
00000010: 458d 91bd 0be0 98bd 389e e8bd 5167 b03d
00000020: 12ec fb3d fc53 8f3e c321 68bd defc 06bf
00000030: 2c2d 8abd ba71 cd3d 9410 90bd 351c 523e
00000040: 90e5 0d3e 1b89 e33d 6fa2 4c3c 43b5 803e
00000050: 93d1 6ebd d6de 423e 701a 57bd eb4a 793e
00000060: 44f6 67bd 5031 763e 09f5 cbbc f057 73bd
00000070: 470d 573e 5d29 0bbe 7c65 bb3e 244b 49bd
00000080: 24f2 8fbd 69e4 5ebd b0a7 6a3e 7456 95bd
00000090: b0e2 463e 13f8 6c3e 43a5 b6bc 692d 7bbd
000000a0: 0d57 1ebe e0d4 81bd ff70 61bd 947a 813e
000000b0: a590 843e 19ef 663e 45ba cb3e cf98 9ebd
000000c0: e773 82bd 9830 843b 49a0 49be fb97 3c3d
000000d0: a06c 0d3e e429 bebd 768f 2d3d f630 f43d
000000e0: 57d3 8e3e 02e3 503e bb66 92be db32 343e
000000f0: b360 bebd 5a3b be3d 4627 11be 1c96 b7bd
-0.068552844 0.20600556 -0.09726374 0.49010125 -0.07107023 -0.07464608 -0.11358303 0.08613456
0.12300886 0.27993762 -0.056672823 -0.52729595 -0.06746897 0.10031457 -0.07034412 0.20518573
0.13857102 0.11110135 0.012489899 0.25138292 -0.058305334 0.19030318 -0.052515447 0.24344985
-0.05663134 0.24042249 -0.024897115 -0.059410036 0.21001159 -0.13589998 0.36600864 -0.049143925
-0.070286065 -0.054417048 0.2291553 -0.0729188 0.19422412 0.23141508 -0.0222956 -0.061322603
-0.15462895 -0.06339431 -0.055039402 0.25288832 0.25891605 0.22552146 0.3979055 -0.0774399
-0.06369763 0.004034113 -0.1969005 0.046043377 0.13810968 -0.09285334 0.042373143 0.11923401
0.27895615 0.20399097 -0.28594002 0.17597525 -0.09295788 0.09288664 -0.14175138 -0.08964178

conv2d_3/bias f4 [128]
00000000: 6bc0 b1be c31c 03bf 4ffa e5be 169a b8be
00000010: 977b fcbe 3d33 9dbe 32ab 4dbe 5b54 633e
00000020: 0119 09bf 2823 97be deb4 c6be 6158 19be
00000030: fcdd d9be 8ab8 3dbc 6adf 70be b82e b6be
00000040: a696 b1bd bf7d d7be c6d5 5dbe 844e 85be
00000050: 4707 c0be 3d0f 633c 03c9 91bd 70ab 30be
00000060: b016 33bd 6c80 8ebe 471d a9be 49e5 d9be
00000070: b4c9 703e c582 1cbe dfc7 fdbe ad31 bfbe
00000080: b54b 08be 95d7 febe a5c2 d5be 94e0 47bb
00000090: 36ee 69be b6f6 9dbe e345 33bf db2a fbbd
000000a0: aaa5 64be fc8a 90be 5759 8bbe 5ba6 a4be
000000b0: 4740 b2be 4626 9ebe 21b4 6bbe 9a5c d83e
000000c0: 3582 81be da3b 11bf 5381 de3d c679 9cbe
000000d0: 8476 fabd 7abe b5be 6849 acbe 6b7f 2cbf
000000e0: 6caa 2cbe 0976 2dbd 4915 07be a4c7 a8be
000000f0: 5cbf 3dbe 7aab a8be c000 95be 0817 d1be
00000100: 5527 f2bd 4739 1dbe 0acf 13be f863 18bd
00000110: 9467 4ebf 7ecf 013b 791d b6be 183a 19bf
00000120: 74af 563d c0ea a9bd f337 babe a889 f5bd
00000130: d511 46bf fd5f a7be 387c 85be 6db5 dcbe
00000140: f093 91be 3f2c a9be feb2 cabe 4bc5 73bd
00000150: df08 36bf 3b12 45be 215f e1be be89 81be
00000160: e0f9 45be 3a15 bebe 2dc5 a5be 9058 6ebe
00000170: 5138 d1be 6398 fbbd eb3f c4be 5d4d f1bd
00000180: f70b eabe efbf 2dbd 53d0 a3bd 9c6e b63c
00000190: b274 0abe 04bf 92be f5c9 c4be fbce b2be
000001a0: d55d 61bd 7627 7abe 5a08 8ebe 79f1 05bf
000001b0: fa6c c0be 3677 81be afbc eabe 899b dfbd
000001c0: ce8b a13e 68c3 973e 0674 abbe b730 6fbe
000001d0: 134f a6be 351e 733d 2232 92be 8289 07be
000001e0: 1266 0cbf 13dd 8cbe 30ca bfbe b602 093d
000001f0: 391b 41bd a8e9 1dbf abd3 1bbe 8a73 f2bd
-0.34717116 -0.5121576 -0.44917533 -0.36055058 -0.49313042 -0.30703154 -0.20084837 0.22200148
-0.5355378 -0.2951901 -0.38809866 -0.1497512 -0.42552173 -0.011579642 -0.23522726 -0.3558252
-0.08671312 -0.42088124 -0.2166358 -0.26036465 -0.37505552 0.013858614 -0.07118418 -0.17252898
-0.04372281 -0.27832353 -0.3303015 -0.42557743 0.23514444 -0.1528426 -0.49566552 -0.37342587
-0.1331013 -0.4977385 -0.41750064 -0.003049885 -0.22844777 -0.30852288 -0.70028514 -0.122640334
-0.22328821 -0.28231037 -0.27216598 -0.3215817 -0.34814665 -0.30888575 -0.23017932 0.4225815
-0.25294653 -0.5673195 0.108645104 -0.30561656 -0.12229636 -0.35496885 -0.33649755 -0.67381924
-0.16861886 -0.042348895 -0.13191713 -0.32964814 -0.18530029 -0.32943326 -0.29102135 -0.40837884
-0.11823908 -0.15353881 -0.14434448 -0.037204713 -0.806268 0.0019807513 -0.3556936 -0.5985427
0.05241342 -0.08296728 -0.3637081 -0.119891465 -0.7737096 -0.3269042 -0.26071334 -0.43107167
-0.2843318 -0.3304157 -0.39589685 -0.059514325 -0.71107286 -0.19245236 -0.4401789 -0.253004
-0.19333601 -0.3712557 -0.32376996 -0.23275971 -0.40863279 -0.12284925 -0.38330016 -0.11782334
-0.45712253 -0.04241937 -0.07998719 0.02226954 -0.13521078 -0.28661358 -0.3843533 -0.3492354
-0.055021126 -0.24429116 -0.27740747 -0.52321583 -0.37583143 -0.25286263 -0.4584708 -0.10918338
0.31551975 0.2964127 -0.33486956 -0.23358427 -0.32482204 0.05935498 -0.28553873 -0.13236049
-0.54843247 -0.27512416 -0.37458944 0.03344985 -0.047145102 -0.61684656 -0.15217464 -0.118384436

conv2d_2/bias f4 [64]
00000000: 7e31 26be 204a b6bc 056f 0cbf 0f11 94bd
00000010: d2e9 10be 26d9 b7bd 0e7e a7be 96c6 e1bc
00000020: b57b a5bd d0fb 1abc aafe c0be 9118 71be
00000030: 478f 8fbe d4af 5fbd f2e1 38be 159d 27bd
00000040: f313 b4be 57f5 88be b3bb 64bc fdb3 68bd
00000050: 7d08 0ebe 6e5f 223d 22ed a1be 3f33 4cbe
00000060: 69e6 20be 438b 17be 9024 c0bc c829 a0bc
00000070: cee6 6abd b29c c3bd 81e1 c23e fa61 02be
00000080: 2f06 b3be 6d15 ccbd a7b2 4fbe 8780 45be
00000090: 4c22 f8bd 2ced 893e 1a71 c0be f193 26be
000000a0: ffdc 51bd 445a e9be 5acf 72be ad75 aebe
000000b0: a1ce 43be 9613 fbbc 63f4 8fbe b967 81be
000000c0: 2aac 67bd 60ba 03bd 0fcc a4be 4b3d a0be
000000d0: 8d64 ccbe a48e babe ab74 ffbd a78b 8fbe
000000e0: 7f43 e7bd c414 d0bc 7bbc 6abe d176 0dbf
000000f0: 9554 49bd cfa2 13bc fe0d adbd 6bfa e0be
-0.16229817 -0.022252142 -0.548569 -0.07229816 -0.14151695 -0.08976965 -0.3271336 -0.027560513
-0.08080236 -0.009459451 -0.37694293 -0.23544528 -0.28039 -0.054611042 -0.18054941 -0.04092129
-0.3517147 -0.2674968 -0.013960767 -0.056812275 -0.13870426 0.03964179 -0.3162623 -0.19941424
-0.15712894 -0.14799218 -0.023454934 -0.019551173 -0.05734902 -0.09551372 0.3806267 -0.12732688
-0.34965655 -0.09965024 -0.20282994 -0.1928731 -0.121159166 0.2693876 -0.3758629 -0.16267373
-0.05123615 -0.4557668 -0.23711911 -0.34074154 -0.19121791 -0.030648988 -0.2811614 -0.25274447
-0.056560673 -0.032160163 -0.32186934 -0.31296763 -0.39920464 -0.3643695 -0.124734245 -0.28036234
-0.11292171 -0.025400527 -0.22923462 -0.55259424 -0.04915293 -0.009010985 -0.084499344 -0.43941054

conv2d_1/bias f4 [64]
00000000: a123 a4be db29 01bd 014b 91be e1d5 9fbd
00000010: 98bd b4bc 3c34 39bc 84ea c5bc 7c66 d8be
00000020: 9f46 c5be 6e40 76be db1f dfbd 4081 c5bd
00000030: e86e 8dbc 6af9 18bd c5f0 b3bc b99e 9dbd
00000040: b4fa acbe ba73 05bd e308 a3bd 8f9d c3be
00000050: 084b dbbe 28f7 79be cb7b b3bd 4b20 e4be
00000060: 6148 93be cfbc 58bd d660 a1bd b92b 54bc
00000070: f4ab 4abd de16 0cbe 358a 97be cad4 6fbe
00000080: e6b3 bebd 0463 cabe 4a8a f6bd f8d4 d0bd
00000090: 4049 29bd 9904 95be 0a1c 64bd 8df6 4fbb
000000a0: af64 97bd 89ad a6bd 8f5e 1cbe c662 84bd
000000b0: a299 abbd a3bd 72be edb5 46be 7a07 f2bd
000000c0: 74be 89be 7829 b7be 548d 4abe b1bc 35be
000000d0: 1620 07bd 36d3 a8be 73b8 4dbd 6160 c1bc
000000e0: b5a8 b9bc 4f9f a5bc ee57 f3bc f04b b1bd
000000f0: a361 11bd 260b 21bd 09f5 22be f61b 75be
-0.32058433 -0.031534057 -0.28377536 -0.07804466 -0.022063062 -0.011303958 -0.024159677 -0.4226569
-0.38530442 -0.24048015 -0.10894748 -0.09643793 -0.017264798 -0.037347235 -0.021965394 -0.076962896
-0.3378502 -0.03258107 -0.079606794 -0.38206145 -0.42830682 -0.24410689 -0.08763846 -0.44555888
-0.28766158 -0.052914437 -0.07879798 -0.012949877 -0.049480394 -0.13680598 -0.2959763 -0.23421016
-0.09311657 -0.39528668 -0.12038095 -0.101968706 -0.041329622 -0.2910507 -0.055690803 -0.003173265
-0.07392251 -0.08138568 -0.15270446 -0.06464152 -0.083789125 -0.23705153 -0.19405337 -0.11817832
-0.26903117 -0.35773826 -0.19780475 -0.17747761 -0.032989584 -0.3297364 -0.050224733 -0.023605527
-0.022663454 -0.020217566 -0.029705014 -0.08657062 -0.035493504 -0.039317273 -0.15913786 -0.23936448

conv2d/bias f4 [32]
00000000: df15 8fbe b9a2 f2bd 0362 8cbd cd24 f4bd
00000010: 4b50 fcbd cbf7 31bd f3bb e0bd 1ee8 41be
00000020: 6bec 47be de7a 2bbe 0df9 4dbe 7712 f6bd
00000030: 165a 18be c883 e4bd 380e 64be d9fd f2bd
00000040: b9f0 4ebd 20a6 03be d101 f8bd c016 f7bd
00000050: 026c adbe 62fc 74be b8a2 dabd 2835 75be
00000060: c7ce 2fbe 0bd4 39bd e243 94bd 1cc2 08be
00000070: 6834 4fbe 24b0 8fbd c535 2ebe 2ec4 51be
-0.27946374 -0.11847443 -0.06854632 -0.11921082 -0.12320002 -0.043449204 -0.109733485 -0.18936202
-0.1952378 -0.16746089 -0.20114537 -0.12015241 -0.14878115 -0.11157948 -0.22271049 -0.11864824
-0.05052254 -0.1285634 -0.121097215 -0.12064886 -0.33871466 -0.23924401 -0.106755674 -0.23946059
-0.17168723 -0.045368236 -0.0723951 -0.13355297 -0.20234835 -0.07016018 -0.17012699 -0.20484993

sequential/dense/MatMul i1 [64, 128] scale=0.015265085 zero_point=0
00000000: fff4 fb02 fbf8 f7f8 fb04 07f1 f907 fcf9
00000010: f403 fdf2 fdf9 fdfa 0602 05f5 f2fe 00f8
00000020: f2ef fa05 fa05 f4f4 0602 05f8 f4f8 f7f9
00000030: fff2 f404 faf5 0708 f705 06fc 04fe fcf4
00000040: ff06 f8ff 00f1 fffb f2f0 fdf4 f907 f305
00000050: f1f8 fff8 f1f4 f706 f3f3 feff f302 00fe
00000060: f8fd faf1 f1f5 fbf5 03f6 f605 f4f8 fd03
00000070: f705 05fa 0504 fbfb 09f8 0503 fcff fcfd
00000080: e600 effe eefd e21e cad7 f9e5 cc03 fb18
00000090: edec 0f12 eef3 f601 06fa fa06 070e ebf3
000000a0: de0e e0ef fafa f6ef 06db eb03 f000 fb03
000000b0: fc01 01e5 00f1 2001 ca2b 05e5 1600 01d2
000000c0: f0e9 030d e7f5 b319 fe01 2b1a f7e6 edf8
000000d0: f713 f2f1 f415 2adf 1011 b9f7 db2a 17e5
000000e0: 0711 07e1 0ef9 feff edaf 01ee 3502 f523
000000f0: 010e 21f0 d909 e209 fd30 1411 0fda 1503
-0.015265085 -0.18318102 -0.076325424 0.03053017 -0.076325424 -0.12212068 -0.13738576 -0.12212068
-0.076325424 0.06106034 0.10685559 -0.22897628 -0.10685559 0.10685559 -0.06106034 -0.10685559
-0.18318102 0.045795254 -0.045795254 -0.21371119 -0.045795254 -0.10685559 -0.045795254 -0.09159051
0.09159051 0.03053017 0.076325424 -0.16791594 -0.21371119 -0.03053017 0.0 -0.12212068
-0.21371119 -0.25950643 -0.09159051 0.076325424 -0.09159051 0.076325424 -0.18318102 -0.18318102
0.09159051 0.03053017 0.076325424 -0.12212068 -0.18318102 -0.12212068 -0.13738576 -0.10685559
-0.015265085 -0.21371119 -0.18318102 0.06106034 -0.09159051 -0.16791594 0.10685559 0.12212068
-0.13738576 0.076325424 0.09159051 -0.06106034 0.06106034 -0.03053017 -0.06106034 -0.18318102
-0.015265085 0.09159051 -0.12212068 -0.015265085 0.0 -0.22897628 -0.015265085 -0.076325424
-0.21371119 -0.24424136 -0.045795254 -0.18318102 -0.10685559 0.10685559 -0.1984461 0.076325424
-0.22897628 -0.12212068 -0.015265085 -0.12212068 -0.22897628 -0.18318102 -0.13738576 0.09159051
-0.1984461 -0.1984461 -0.03053017 -0.015265085 -0.1984461 0.03053017 0.0 -0.03053017
-0.12212068 -0.045795254 -0.09159051 -0.22897628 -0.22897628 -0.16791594 -0.076325424 -0.16791594
0.045795254 -0.15265085 -0.15265085 0.076325424 -0.18318102 -0.12212068 -0.045795254 0.045795254
-0.13738576 0.076325424 0.076325424 -0.09159051 0.076325424 0.06106034 -0.076325424 -0.076325424
0.13738576 -0.12212068 0.076325424 0.045795254 -0.06106034 -0.015265085 -0.06106034 -0.045795254
-0.3968922 0.0 -0.25950643 -0.03053017 -0.2747715 -0.045795254 -0.45795256 0.45795256
-0.8243146 -0.6258685 -0.10685559 -0.4121573 -0.7937844 0.045795254 -0.076325424 0.36636204
-0.29003662 -0.3053017 0.22897628 0.2747715 -0.2747715 -0.1984461 -0.15265085 0.015265085
0.09159051 -0.09159051 -0.09159051 0.09159051 0.10685559 0.21371119 -0.32056677 -0.1984461
-0.51901287 0.21371119 -0.4884827 -0.25950643 -0.09159051 -0.09159051 -0.15265085 -0.25950643
0.09159051 -0.56480813 -0.32056677 0.045795254 -0.24424136 0.0 -0.076325424 0.045795254
-0.06106034 0.015265085 0.015265085 -0.4121573 0.0 -0.22897628 0.4884827 0.015265085
-0.8243146 0.65639865 0.076325424 -0.4121573 0.33583188 0.0 0.015265085 -0.7021939
-0.24424136 -0.35109696 0.045795254 0.1984461 -0.3816271 -0.16791594 -1.1754116 0.3816271
-0.03053017 0.015265085 0.65639865 0.3968922 -0.13738576 -0.3968922 -0.29003662 -0.12212068
-0.13738576 0.29003662 -0.21371119 -0.22897628 -0.18318102 0.32056677 0.64113355 -0.5037478
0.24424136 0.25950643 -1.083821 -0.13738576 -0.56480813 0.64113355 0.35109696 -0.4121573
0.10685559 0.25950643 0.10685559 -0.47321764 0.21371119 -0.10685559 -0.03053017 -0.015265085
-0.29003662 -1.2364719 0.015265085 -0.2747715 0.8090495 0.03053017 -0.16791594 0.534278
0.015265085 0.21371119 0.5037478 -0.24424136 -0.5953383 0.13738576 -0.45795256 0.13738576
-0.045795254 0.7327241 0.3053017 0.25950643 0.22897628 -0.58007324 0.32056677 0.045795254

sequential/dense_1/MatMul f4 [1, 64]
00000000: 55dc 893b 87d6 6d3e facc 13bd 8958 13be
00000010: d604 383e ca55 dc3d fc51 f8be 156c 393e
00000020: 1d1d e93d a595 86be 93fe 14bc a5d0 c13e
00000030: 72ca eb3b 886b 893d 8b08 3fbe 6775 a43e
00000040: 8a7b 963d 9634 163e eec1 d2bd 6bec cf3d
00000050: 15e0 253c 1fde 6dbe 9354 123e 8d1d a73e
00000060: 088f 193e e38a 643e 7273 ca3d 2cb3 dcba
00000070: c95b 01be 0cae 313e 71ab b1bd e042 74be
00000080: 0771 00be ebd7 8c3d b8e9 7a3e 4f66 29be
00000090: 34b7 a9bd 6f59 e53e d1ee 88be ffe2 e13d
000000a0: 9064 f4bd 47d8 523b 1eee 20be d830 b43d
000000b0: 40de 0abf d4c6 c1be 4eb6 d5bd 528f 39bc
000000c0: 95ca 093e e466 bdbc 8ce0 0ebe 9efa 453e
000000d0: aea0 0ebe 475b 403e 9c6b 1f3e 2f5f aebe
000000e0: 4502 f43d 967a ad3e c7c7 09bf 49ae 5ebe
000000f0: 7ea6 07be ddf2 25be 2eb0 db3a d223 b5bd
0.004207174 0.23226367 -0.036084153 -0.14389242 0.17970595 0.107585505 -0.4850005 0.18107636
0.11382506 -0.26286045 -0.009093898 0.37854496 0.007195764 0.06709963 -0.18655603 0.3212082
0.07347782 0.14668497 -0.102908954 0.10152515 0.010124226 -0.23229264 0.14290075 0.32639733
0.14995968 0.22318606 0.09885301 -0.0016838065 -0.1263267 0.1735155 -0.08675278 -0.23853636
-0.12543117 0.068771206 0.24503219 -0.16542934 -0.08286896 0.44794795 -0.26744702 0.11029624
-0.11933243 0.0032172368 -0.15715834 0.08798379 -0.54245377 -0.37847006 -0.104351625 -0.011325674
0.13456185 -0.023120351 -0.13952845 0.19333884 -0.13928482 0.1878482 0.15568393 -0.34056994
0.119144954 0.33882588 -0.5382046 -0.21746172 -0.13247105 -0.16205926 0.001676088 -0.08844723

sequential/conv2d/Conv2D f4 [32, 3, 3, 1]
00000000: 4ca1 d53d fcc8 08be 0ae3 393e 113b 833c
00000010: d619 1dbc db92 b13c 71bf 2bbf c3ad 103f
00000020: 1ca3 51bf df0c f6be a8b1 7dbe 061c f0be
00000030: 4798 693e ccae 2d3e cb78 44bd 8415 9abd
00000040: c620 2ebd 9e10 973d df65 2ebe 6ce8 debe
00000050: 4cde 01bf 1524 14bf 199e c5be 08fa 913e
00000060: 77df 3f3d d5d0 213e 287f 33be b087 70be
00000070: 7b06 8dbd d338 30be ea61 a5bc 3417 5cbe
00000080: fa19 433d 4b37 eb3c 2a41 233d 99d0 d4bd
00000090: ad4a acbc b6b7 a53d 5f23 8a3e ad90 b1be
000000a0: f264 b4bd 02d1 373e 322b a0be de3f 7bbd
000000b0: 6bc5 fcbd 3c74 dcbe 7671 40be 855c d6be
000000c0: cf11 c8be c79a 44be 6314 a4be 96e8 bebe
000000d0: 0a5e b73e c075 c8be bae8 903e 8706 f4be
000000e0: 8f1b 63be 989b bbbe 6b6a a23c 1d89 2cbd
000000f0: 8b98 c23d d8a0 8dbd d7b0 b4be 22fa 3e3c
00000100: 8c0c 93bd 5838 933c 92ec 8b3d d703 c1bd
00000110: 09f9 743d 6b31 40bd 78b4 b63c 2ef2 cdbd
00000120: dd0a aa3c f841 993c a4fe 293d d9f9 a43e
00000130: 8d8f ecbc 0bda fbbe 05b4 1fbd 7003 823b
00000140: 8a40 fa3d 3dae 43be 7706 bdbe 5e9f a13e
00000150: 881f 823e 42b2 503e 7af1 babe 86e8 233c
00000160: a3aa bfbd 36d4 233e d658 283d c9a9 aa3d
00000170: 82d7 8d3d 3f0c 24bd 0ad4 a9bd 0887 d9bd
00000180: 535d d4ba 939d 60bd 786a 56bd e5c2 b9bc
00000190: 6755 463e 4b4b f9bd 032b ca3e 8b09 82bf
000001a0: ea84 b93e 1e99 a7bd 89f0 c7be 5c55 64bc
000001b0: cad6 60bd ad0f 7dbd 6c9b f93d cdff f83c
000001c0: d28e 953e d83d fcbe 75b6 cb3d 798d 9d3e
000001d0: e813 b2be feb0 04be 755e 4b3e 9f0f 97be
000001e0: b33b 71bd 02d1 333e 1a3d 4abf 1219 4fbe
000001f0: 6052 eebd 80cb c73e 7340 8cbe 079c f1bd
00000200: b8c3 903e 495c 21bf a822 5f3e 8d84 92bd
00000210: 9146 c0bc 59d1 833e 7002 65be 5cc0 eabc
00000220: 7e47 f3bb 849f 35bb af10 4c3e 37b3 763e
00000230: ea28 36bc 5451 58bd 42a8 03bf 8769 5dbe
00000240: 5cd7 3b3d af27 66bd 7f7d 65bd ec0d e6be
00000250: 6a3d 36be c349 babe 3c75 e33e 664a 0cbf
00000260: ed71 91be 023b e8bd 86e0 13bd 7886 8abc
00000270: feb9 04bd 3e15 c63d 00b3 21bd 4ef1 50bb
00000280: ad99 e93c e684 4ebd 54fd 9d3d 1127 05be
00000290: 4364 ccba a0db 16bf 1807 2cbe a54e dfbe
000002a0: 3ea7 233e 8e43 5c3e 2050 583d ab02 cd3d
000002b0: 6929 1dbd 15b6 debe 5531 b33e 9529 4cbd
000002c0: e499 e3be f78e e0be 2017 e3be 5e50 d9be
000002d0: 5eee f53d 9abd 023e 44d7 20bd 0da1 193d
000002e0: c493 d03d 7afa f33d 304b 5b3d 892c b63b
000002f0: 4d15 b53d 6620 95be c40f 9d3d 5c94 d8bd
00000300: 32f1 88be ad5e 9a3d 440c 983d 8a18 283c
00000310: ad99 a8ba a5fc 98bd fa89 393e 39f2 e4be
00000320: 368a 443c 5002 5fbd 38eb 22bf 1cb6 3abd
00000330: 61c3 d33d b88e ecbd b0b6 75be 35d4 debc
00000340: b46e 563d a0b7 04be 952a 9d3d 001a 83bd
00000350: 8aa6 6f3d 7e34 1c3d fac1 f03b 430b 79bd
00000360: d87c 90be 5d52 babe 3c9b eebd e9b5 df3c
00000370: 517e a0be c49c 2bbb 91ce f93c cc22 d6be
00000380: 4923 673e 2462 9b3e b341 393e 164c 16bf
00000390: 13ab 10bf e8e9 c4bd c33d ae3d e225 35be
000003a0: b1bd 70be 4451 b53e 09ec 29bf c9ba 2cbe
000003b0: a100 d73e 6dde 183e fffe 00be d321 81be
000003c0: a223 4c3e 91bc 0ebd 536d 8cbe 449b 3c3d
000003d0: 7add 92bd 7726 17bf 4eb5 9abe 6d51 bb3e
000003e0: 9981 aebd cf49 7abe b827 233e e0e2 8f3d
000003f0: 2553 d9bd 64d6 643c 0b94 653c d98d 883d
0.104311556 -0.1335792 0.18153015 0.016019376 -0.009588679 0.021676471 -0.6708899 0.5651514
-0.8188951 -0.48056695 -0.24774802 -0.4689638 0.22811995 0.16961211 -0.04796676 -0.07523635
-0.042511724 0.07376216 -0.17031048 -0.435367 -0.50729823 -0.57867557 -0.3859718 0.2851107
0.046843972 0.1580232 -0.17528975 -0.2348926 -0.06886002 -0.17209177 -0.02018829 -0.21493226
0.047632195 0.02871289 0.039857067 -0.10391349 -0.021031702 0.08091681 0.2698011 -0.3468069
-0.08808316 0.17950824 -0.31282955 -0.061340205 -0.12342342 -0.4305743 -0.18793282 -0.41867462
-0.39076087 -0.19199668 -0.32046804 -0.37286824 0.35813934 -0.39152336 0.28302556 -0.4766123
-0.22178482 -0.36642146 0.019826135 -0.04212295 0.095017515 -0.06915444 -0.35291168 0.011656316
-0.071801275 0.017971203 0.068322316 -0.094245605 0.05980781 -0.04692213 0.022302851 -0.10055958
0.020757133 0.018708214 0.04150261 0.3222187 -0.028877044 -0.4918979 -0.03899004 0.003967695
0.12219341 -0.19109435 -0.36918995 0.315669 0.2541468 0.203805 -0.36512357 0.010004168
-0.09358718 0.15998921 0.041100346 0.08333165 0.069258705 -0.04005074 -0.08292396 -0.10621458
-0.0016202129 -0.054837774 -0.05234763 -0.02267594 0.19368516 -0.12172564 0.3948594 -1.0159162
0.36234218 -0.08183502 -0.390507 -0.013936367 -0.05489234 -0.061782528 0.121878475 0.030395413
0.29210526 -0.49265933 0.0994691 0.30771998 -0.34780812 -0.12958142 0.19860251 -0.29504105
-0.058894824 0.17560199 -0.78999484 -0.20224407 -0.116368055 0.39022446 -0.2739292 -0.11797338
0.28274322 -0.6303144 0.21790564 -0.07154188 -0.023471149 0.25745657 -0.22364211 -0.028656177
-0.007424294 -0.0027713487 0.1992824 0.24091803 -0.011118153 -0.052811936 -0.51428616 -0.21622287
0.04585968 -0.05619019 -0.056027886 -0.44932497 -0.17796865 -0.363844 0.4442538 -0.54801023
-0.2840723 -0.1133938 -0.036102794 -0.016909823 -0.03240394 0.096720204 -0.03947735 -0.003188211
0.028515661 -0.05041971 0.07714334 -0.13003184 -0.0015593845 -0.5892887 -0.16799581 -0.4361469
0.15981767 0.21510145 0.05281079 0.100102745 -0.03836957 -0.43498293 0.34998575 -0.049844343
-0.44453347 -0.43859074 -0.4435358 -0.42444128 0.120083556 0.1276764 -0.039267793 0.037507106
0.10184434 0.11913009 0.0535385 0.005559508 0.088419534 -0.2912628 0.07669023 -0.10575172
-0.26746517 0.07537589 0.074242145 0.010259757 -0.0012863182 -0.07470063 0.1811904 -0.4471605
0.011995843 -0.054445565 -0.63640165 -0.04558383 0.1034 -0.11550659 -0.23995471 -0.027200798
0.05235167 -0.12960672 0.076741375 -0.064014435 0.058508433 0.038135998 0.0073473426 -0.060801756
-0.28220248 -0.36390963 -0.11650702 0.027308421 -0.31346372 -0.002618597 0.030494006 -0.41823423
0.22572054 0.30348313 0.18091469 -0.5870985 -0.5651104 -0.096149266 0.08507874 -0.17690232
-0.23509862 0.35413563 -0.66375786 -0.16868128 0.41992667 0.14928599 -0.12597273 -0.25221118
0.19935468 -0.0348478 -0.27427158 0.04604651 -0.071711496 -0.5904307 -0.3021645 0.3658556
-0.085208125 -0.24442218 0.1593312 0.07025695 -0.10611562 0.01396713 0.014012347 0.0666768

sequential/conv2d_1/Conv2D i1 [64, 3, 3, 32]
00000000: 14f8 c903 12ed 2dfc 1b1d fd2e ecea 4712
00000010: f706 f928 de18 20f7 d6fc 4515 05f7 e13e
00000020: df1e dffe c4fe 2afd 00fc f00b 0bf9 19ec
00000030: ff0e fcfa e706 2806 b012 dfd2 fbb6 0905
00000040: 8ef8 effa 81db 0be4 0323 bcea 0510 82a6
00000050: c7fa c2ef aead 35f1 effe efee eab3 ede5
00000060: ccb5 aee3 1cb9 0afa d8b1 00f4 14f3 08cb
00000070: 15ff d0d9 b007 11e5 f512 d8c7 ecf6 eb31
00000080: de86 8ce8 16ec f9f7 f6a8 eee6 190a 1adc
00000090: c9f3 e0e4 e20d 03f1 c114 f2df f1ca aff3
000000a0: eacf ddec 021a f3f6 29fb ed28 29cb 04e3
000000b0: 0df9 ecb5 ccfb 2706 17c6 01e1 fc1b 0cf7
000000c0: d90a d0f4 16f1 0cfe 07f1 f6ee f7c2 0bdd
000000d0: 0505 0400 ca18 eaf0 2f9d f5bb e607 0329
000000e0: d2e9 e1db 04c0 f504 15fa f5f4 0a05 27d1
000000f0: 0f04 f52e f2fd f3ff e1e6 18f9 fae5 bf19
20 -8 -55 3 18 -19 45 -4
27 29 -3 46 -20 -22 71 18
-9 6 -7 40 -34 24 32 -9
-42 -4 69 21 5 -9 -31 62
-33 30 -33 -2 -60 -2 42 -3
0 -4 -16 11 11 -7 25 -20
-1 14 -4 -6 -25 6 40 6
-80 18 -33 -46 -5 -74 9 5
-114 -8 -17 -6 -127 -37 11 -28
3 35 -68 -22 5 16 -126 -90
-57 -6 -62 -17 -82 -83 53 -15
-17 -2 -17 -18 -22 -77 -19 -27
-52 -75 -82 -29 28 -71 10 -6
-40 -79 0 -12 20 -13 8 -53
21 -1 -48 -39 -80 7 17 -27
-11 18 -40 -57 -20 -10 -21 49
-34 -122 -116 -24 22 -20 -7 -9
-10 -88 -18 -26 25 10 26 -36
-55 -13 -32 -28 -30 13 3 -15
-63 20 -14 -33 -15 -54 -81 -13
-22 -49 -35 -20 2 26 -13 -10
41 -5 -19 40 41 -53 4 -29
13 -7 -20 -75 -52 -5 39 6
23 -58 1 -31 -4 27 12 -9
-39 10 -48 -12 22 -15 12 -2
7 -15 -10 -18 -9 -62 11 -35
5 5 4 0 -54 24 -22 -16
47 -99 -11 -69 -26 7 3 41
-46 -23 -31 -37 4 -64 -11 4
21 -6 -11 -12 10 5 39 -47
15 4 -11 46 -14 -3 -13 -1
-31 -26 24 -7 -6 -27 -65 25

sequential/conv2d_2/Conv2D i1 [64, 3, 3, 64]
00000000: e616 0a1d 0b02 fbcd 0c00 df16 d2b1 0a02
00000010: 0800 e9fc 1d12 f624 f216 f121 f5e7 0bb3
00000020: e9f6 0b07 2307 e607 21f0 0307 ed0a b106
00000030: d9e0 c708 0810 bfff f615 ebf2 01fe d2a8
00000040: e710 2e04 ed0e e3db 1fe9 041d c4d5 0c0a
00000050: 05f8 b005 0405 e7fb d200 c80c eff6 f3e2
00000060: e2eb fd0c 0b07 dbf9 f5d9 0c07 f20d c200
00000070: bce7 e5d7 0e1e df06 f504 eaf2 1f03 cdce
00000080: f30d 22fd fd0b c3e7 1600 2ad5 d0ed 0920
00000090: 21d7 e619 18ef d703 00e9 e2fd 0c20 f0fb
000000a0: edf9 f30a e813 dae8 ee02 0502 0507 ff0e
000000b0: f0d7 ebeb 080d 0f10 1211 2516 0f0b d911
000000c0: 1b07 f300 1022 1108 ee14 0b09 df03 129e
000000d0: 020a 0e16 ed26 f90d 1506 1aeb 18e8 1920
000000e0: 0406 0bf1 f7fe 0ce9 ede4 0dfd dbdb ead1
000000f0: 0dfc f403 f7f6 df05 d0fb 05ff f9b4 0cdf
-26 22 10 29 11 2 -5 -51
12 0 -33 22 -46 -79 10 2
8 0 -23 -4 29 18 -10 36
-14 22 -15 33 -11 -25 11 -77
-23 -10 11 7 35 7 -26 7
33 -16 3 7 -19 10 -79 6
-39 -32 -57 8 8 16 -65 -1
-10 21 -21 -14 1 -2 -46 -88
-25 16 46 4 -19 14 -29 -37
31 -23 4 29 -60 -43 12 10
5 -8 -80 5 4 5 -25 -5
-46 0 -56 12 -17 -10 -13 -30
-30 -21 -3 12 11 7 -37 -7
-11 -39 12 7 -14 13 -62 0
-68 -25 -27 -41 14 30 -33 6
-11 4 -22 -14 31 3 -51 -50
-13 13 34 -3 -3 11 -61 -25
22 0 42 -43 -48 -19 9 32
33 -41 -26 25 24 -17 -41 3
0 -23 -30 -3 12 32 -16 -5
-19 -7 -13 10 -24 19 -38 -24
-18 2 5 2 5 7 -1 14
-16 -41 -21 -21 8 13 15 16
18 17 37 22 15 11 -39 17
27 7 -13 0 16 34 17 8
-18 20 11 9 -33 3 18 -98
2 10 14 22 -19 38 -7 13
21 6 26 -21 24 -24 25 32
4 6 11 -15 -9 -2 12 -23
-19 -28 13 -3 -37 -37 -22 -47
13 -4 -12 3 -9 -10 -33 5
-48 -5 5 -1 -7 -76 12 -33

sequential/conv2d_3/Conv2D i1 [128, 3, 3, 64]
00000000: 0018 00f9 ff07 bcc4 f8fc e3c7 f2fa a7d7
00000010: 0dde 0100 f8e9 0511 f2f7 a3f7 051a e1cc
00000020: e301 dac3 149c ccd9 ebee 9e19 e2b7 23da
00000030: 1b00 fde7 1bd7 15f6 04fa e8b4 09a2 1924
00000040: fee6 f9f6 f20a ccde dacc d5cd f30f cbe5
00000050: f5be e5db 10e7 0a0b 15fe d113 07fb 99d9
00000060: 1aff 0dd2 1383 d9f1 e2fd d6fb e7d6 f9df
00000070: 1b0a f9ec f9ff 10e6 fa0e 0cab e4d9 e2ff
00000080: 0afc eb02 fbff e61e dcbf 01e4 e523 dfd3
00000090: f8f2 c3e6 eef6 1dee 2912 fa23 0ff0 c4f4
000000a0: eefd 0b0e 0a94 00de f4f0 0dfe dfd9 d3ea
000000b0: f720 09ea e1ee 0cd3 e911 21c8 c6e3 81f2
000000c0: 0806 0ff9 d6fc ecea d025 eee6 00ef d90f
000000d0: f22a f910 e504 c90c d0f8 d213 fcf8 eb03
000000e0: f602 de00 09d6 dbe2 dcf4 ff01 120b 1be4
000000f0: f6dd ccc0 0df9 f2f9 01ee d4e0 0af4 1b0f
0 24 0 -7 -1 7 -68 -60
-8 -4 -29 -57 -14 -6 -89 -41
13 -34 1 0 -8 -23 5 17
-14 -9 -93 -9 5 26 -31 -52
-29 1 -38 -61 20 -100 -52 -39
-21 -18 -98 25 -30 -73 35 -38
27 0 -3 -25 27 -41 21 -10
4 -6 -24 -76 9 -94 25 36
-2 -26 -7 -10 -14 10 -52 -34
-38 -52 -43 -51 -13 15 -53 -27
-11 -66 -27 -37 16 -25 10 11
21 -2 -47 19 7 -5 -103 -39
26 -1 13 -46 19 -125 -39 -15
-30 -3 -42 -5 -25 -42 -7 -33
27 10 -7 -20 -7 -1 16 -26
-6 14 12 -85 -28 -39 -30 -1
10 -4 -21 2 -5 -1 -26 30
-36 -65 1 -28 -27 35 -33 -45
-8 -14 -61 -26 -18 -10 29 -18
41 18 -6 35 15 -16 -60 -12
-18 -3 11 14 10 -108 0 -34
-12 -16 13 -2 -33 -39 -45 -22
-9 32 9 -22 -31 -18 12 -45
-23 17 33 -56 -58 -29 -127 -14
8 6 15 -7 -42 -4 -20 -22
-48 37 -18 -26 0 -17 -39 15
-14 42 -7 16 -27 4 -55 12
-48 -8 -46 19 -4 -8 -21 3
-10 2 -34 0 9 -42 -37 -30
-36 -12 -1 1 18 11 27 -28
-10 -35 -52 -64 13 -7 -14 -7
1 -18 -44 -32 10 -12 27 15
