LaneFollowingModel/dq/model.tflite (tflite, 151744 bytes, 11 tensors)

dense/bias f4 [64]
-0.09316905 0.22254764 0.034189377 -0.08317615 0.31119218 -0.09008339 -0.10322993 -0.24472131
-0.13994773 0.06627515 -0.068506114 0.17872623 -0.14975779 0.14747779 0.21242246 -0.045194943
0.21438342 0.24125168 -0.062170938 0.18700421 -0.21887293 -0.083648175 0.2819869 -0.085730575
0.00825062 -0.09728234 -0.033717692 -0.09739411 0.2776644 0.21431439 0.023373812 -0.06439526
0.30841953 -0.111758135 -0.099261835 -0.09174917 -0.034317516 0.2904843 0.026851153 -0.0630818
0.38463798 0.32590738 0.16295497 -0.07271708 -0.22576453 -0.043778803 -0.066805124 0.29688704
-0.06859089 -0.20403153 -0.11318511 0.02235503 -0.053407125 0.0019392316 0.040023733 0.088056475
-0.056677017 -0.06773525 -0.07314078 0.009508023 -0.06467296 0.04977574 -0.060777877 0.37618294
00000000: 6acf bebd 87e3 633e 290a 0c3d 4258 aabd
00000010: 9554 9f3e a47d b8bd 376a d3bd 3998 7abe
00000020: 754e 0fbe 44bb 873d ef4c 8cbd 0204 373e
00000030: 1b5a 19be 6b04 173e 4685 593e 551e 39bd
00000040: 5487 5b3e ae0a 773e f4a6 7ebd 087e 3f3e
00000050: 3a20 60be bc4f abbd 9660 903e 8393 afbd
00000060: 9c2d 073c f73b c7bd 901b 0abd 9076 c7bd
00000070: 072a 8e3e 3b75 5b3e 707a bf3c a9e1 83bd
00000080: 2ae9 9d3e 73e1 e4bd ca49 cbbd fde6 bbbd
00000090: 8690 0cbd 5cba 943e f3f6 db3c 0831 81bd
000000a0: 45ef c43e 55dd a63e abdd 263e b1ec 94bd
000000b0: d12e 67be 6751 33bd 20d1 88bd 9401 983e
000000c0: 6179 8cbd a4ed 50be 98cd e7bd e521 b73c
000000d0: 6ec1 5abd d12d fe3a edef 233d f456 b43d
000000e0: 2926 68bd c7b8 8abd d5ca 95bd 8ac7 1b3c
000000f0: 4273 84bd a5e1 4b3d 39f2 78bd 0d9b c03e

conv2d_3/bias f4 [128]
-0.010362064 -0.20665866 -0.156217 -0.24437577 0.09518962 -0.048837602 -0.13767181 -0.06277052
-0.08169129 -0.09991086 -0.34681198 -0.27484697 -0.3567152 -0.22436163 -0.37216797 -0.7474024
-0.16322711 -0.77580214 -0.26171342 -0.16046071 -0.15943792 -0.48238972 -0.1104543 -0.17536286
-0.098416075 -0.22663784 -0.032177724 -0.18207562 -0.07431975 -0.40847147 -0.24708644 -0.3629523
-0.048209723 -0.04780722 -0.062029466 -0.06747618 -0.039553624 -0.28494006 -0.3126243 -0.61185914
-0.0019084231 -0.19910792 -0.08669161 -0.25933307 -0.035740245 0.043690693 -0.24388361 -0.13619658
-0.4241725 -0.032378588 -0.056230795 -0.09469635 -0.028660078 -0.35733038 -0.1078334 -0.24142398
-0.101648 -0.07395487 -0.06884421 -0.078722045 -0.24729203 -0.22175488 -0.16494434 -0.18966618
-0.1865318 -0.3567073 -0.12931974 -0.42545515 -0.20051838 0.004549095 -0.21858294 -0.20956457
-0.08685108 -0.33643878 -0.124681965 -0.19640447 -0.16916788 -0.14654225 -0.17131929 -0.289176
-0.5160726 -0.18018393 -0.29979983 -0.2111371 -0.12031167 -0.17235541 -0.24708435 -0.40434232
-0.34917077 -0.18540847 -0.37535316 -0.30157706 -0.060268495 -0.32149896 -0.06704689 -0.53215027
-0.37391272 -0.12974524 -0.03886735 -0.07825626 -0.061455242 -0.26509416 -0.1751739 -0.031658426
-0.123009466 -0.17494722 -0.10273964 -0.2078212 -0.039853867 -0.055026513 0.0017562428 -0.49796015
-0.08413442 -0.68876 -0.21976857 -0.21365851 -0.21676248 0.014583336 -0.34685332 0.62515754
-0.1773467 -0.78221613 -0.27926603 -0.18776324 -0.70361286 -0.06849079 -0.082479216 -0.11543597
00000000: a5c5 29bc 549e 53be 59f7 1fbe a43d 7abe
00000010: c7f2 c23d f009 48bd d7f9 0cbe d58d 80bd
00000020: c34d a7bd 119e ccbd 5791 b1be beb8 8cbe
00000030: 60a3 b6be 0ebf 65be cd8c bebe c455 3fbf
00000040: 0225 27be f89a 46bf 4dff 85be d04f 24be
00000050: b243 23be c9fb f6be dd35 e2bd 5292 33be
00000060: 5e8e c9bd c013 68be cacc 03bd 0872 3abe
00000070: f434 98bd 2c23 d1be 3a04 7dbe e2d4 b9be
00000080: 8f77 45bd 81d1 43bd 9c12 7ebd f430 8abd
00000090: fb02 22bd aae3 91be 4b10 a0be cda2 1cbf
000000a0: 0e24 faba f2e2 4bbe 5f8b b1bd 4ec7 84be
000000b0: 5d64 12bd 03f5 323d a0bc 79be 1e77 0bbe
000000c0: 232d d9be 699f 04bd 4352 66bd 29f0 c1bd
000000d0: 8ac8 eabc 02f4 b6be c2d7 dcbd d937 77be
000000e0: d42c d0bd a775 97bd 31fe 8cbd 0639 a1bd
000000f0: 1f3a 7dbe b613 63be 2be7 28be da37 42be
00000100: 3102 3fbe 57a2 b6be 656c 04be 42d5 d9be
00000110: b154 4dbe 9310 953b 35d4 5fbe 1898 56be
00000120: fbde b1bd b441 acbe 4259 ffbd 411e 49be
00000130: 583a 2dbe 2c0f 16be 536e 2fbe e00e 94be
00000140: 551d 04bf 2382 38be 5d7f 99be 5334 58be
00000150: f765 f6bd f07d 30be ae03 7dbe f505 cfbe
00000160: 83c6 b2be b8db 3dbe 4a2e c0be 4f68 9abe
00000170: 19dc 76bd 839b a4be e14f 89bd 003b 08bf
00000180: 7d71 bfbe f0db 04be 5f33 1fbd d144 a0bd
00000190: 7eb8 7bbd 6cba 87be c960 33be 44ac 01bd
000001a0: 63ec fbbd 5d25 33be 2969 d2bd 15cf 54be
000001b0: cf3d 23bd 7b63 61bd bb31 e63a a2f4 febe
000001c0: ab4e acbd 9352 30bf 030b 61be 4cc9 5abe
000001d0: fcf6 5dbe f2ee 6e3c c296 b1be 530a 203f
000001e0: 609a 35be 513f 48bf f5fb 8ebe 0245 40be
000001f0: f91f 34bf e644 8cbd ddea a8bd b269 ecbd

conv2d_2/bias f4 [64]
0.050590385 -0.03760373 -0.17812937 -0.06467135 -0.3131918 0.032461308 0.030766178 -0.15669376
-0.14014456 -0.3489974 -0.11012408 -0.012173088 -0.23583876 -0.038513288 -0.30644614 -0.07938323
-0.036221284 -0.16410984 -0.17364585 -0.0028195065 -0.14807545 -0.46930534 -0.06834661 -0.01712034
-0.18399581 -0.22178036 -0.08163123 -0.41454598 -0.06654692 -0.07907665 -0.56035286 -0.42484584
-0.09442301 0.18685935 -0.18296441 -0.06429023 -0.45425844 -0.11396817 -0.5163258 -0.09455252
-0.18541215 -0.08749554 -0.37962362 -0.34629726 -0.08894418 -0.029562842 0.004513273 -0.06297611
-0.05557216 -0.3645946 -0.2352636 -0.41223887 -0.033150636 -0.09740329 -0.21594481 -0.23696262
-0.11025196 -0.095093474 -0.19233367 -0.018190067 0.059575494 -0.09022485 0.014771503 -0.08261864
00000000: dd37 4f3d 5e06 1abd 8c67 36be 6a72 84bd
00000010: ad5a a0be 26f6 043d 5a09 fc3c 5474 20be
00000020: 0e82 0fbe caaf b2be bc88 e1bd a271 47bc
00000030: b77f 71be 1cc0 1dbd 82e6 9cbe ad93 a2bd
00000040: c55c 14bd 690c 28be 38d0 31be 78c7 38bb
00000050: 17a1 17be ca48 f0be 4ff9 8bbd f53f 8cbc
00000060: 6669 3cbe 641a 63be 462e a7bd 5f3f d4be
00000070: c049 88bd f0f2 a1bd 4973 0fbf 6585 d9be
00000080: da60 c1bd 0f58 3f3e 065b 3bbe 99aa 83bd
00000090: 9094 e8be 2568 e9bd ed2d 04bf c0a4 c1bd
000000a0: afdc 3dbe dd30 b3bd 075e c2be e04d b1be
000000b0: 5e28 b6bd c62d f2bc 14e4 933b 9ef9 80bd
000000c0: a29f 63bd 25ac babe f1e8 70be f910 d3be
000000d0: f6c8 07bd 607b c7bd a320 5dbe 54a6 72be
000000e0: c8cb e1bd 5ec0 c2bd 1ef3 44be 5603 95bc
000000f0: 6f05 743d cec7 b8bd 2d04 723c f633 a9bd

conv2d_1/bias f4 [64]
-0.5455138 -0.16388679 -0.09425008 0.14292438 -0.00655044 -0.05938005 -0.06809625 0.04377171
-0.06106271 -0.24157324 -0.11223851 -0.40585703 -0.09774963 -0.045712564 -0.0666141 -0.014886229
-0.14805636 -0.09964749 0.034789003 -0.21366298 0.051098537 -0.058576595 -0.17128363 0.24354534
-0.048078116 -0.24166594 0.14393641 0.0032300863 -0.22025418 -0.24467967 -0.20106016 -0.17219503
-0.03409414 -0.083661035 -0.59128445 -0.25379598 0.049010172 -0.105092235 -0.08506842 0.23055255
0.19560735 -0.05587268 -0.1126193 -0.5396806 -0.027560877 -0.041537408 -0.17107725 -0.06421696
0.07193571 -0.3062424 -0.116328575 -0.16940092 -0.08587456 -0.18474902 -0.06290538 -0.11384295
-0.11058677 -0.24591054 -0.23917162 -0.19315566 -0.22984652 -0.067396924 -0.33454773 -0.05264069
00000000: cba6 0bbf f0d1 27be 3006 c1bd c55a 123e
00000010: 13a5 d6bb 7f38 73bd 0c76 8bbd f749 333d
00000020: e41c 7abd fa5e 77be 4edd e5bd 7ecc cfbe
00000030: f530 c8bd 193d 3bbd f96c 88bd 5fe5 73bc
00000040: 169c 17be fc13 ccbd ea7e 0e3d 78ca 5abe
00000050: b34c 513d 03ee 6fbd fa64 2fbe f363 793e
00000060: 8fed 44bd 4777 77be 1164 133e dbaf 533b
00000070: 508a 61be 4f8d 7abe b7e2 4dbe e553 30be
00000080: 4ca6 0bbd 7a56 abbd 6b5e 17bf 8cf1 81be
00000090: e4be 483d 993a d7bd 5a38 aebd f815 6c3e
000000a0: 4b4d 483e c0da 64bd f3a4 e6bd 8228 0abf
000000b0: 59c7 e1bc 2123 2abd e02e 2fbe 2e84 83bd
000000c0: 0853 933d cecb 9cbe ad3d eebd 6f77 2dbe
000000d0: 00df afbd d92e 3dbe 89d4 80bd 7e26 e9bd
000000e0: 517b e2bd f9cf 7bbe 68e9 74be 99ca 45be
000000f0: e35c 6bbe 6607 8abd d749 abbe c49d 57bd

conv2d/bias f4 [32]
-0.096083984 -0.07860358 -0.20850208 0.17071666 0.1991373 -0.05014678 -0.07713795 0.013250024
-0.20541804 -0.07924616 0.20626071 0.06830146 -0.035868812 0.1874768 0.05920091 -0.22286445
0.20233375 -0.016925931 -0.23135898 -0.042093687 -0.032032255 -0.045850866 -0.5081092 0.07366444
0.07274953 -0.20592977 0.02134385 -0.2565875 0.08143144 -0.43769503 -0.26103857 -0.2434918
00000000: aec7 c4bd eafa a0bd 9281 55be 59d0 2e3e
00000010: a6ea 4b3e b666 4dbd 80fa 9dbd a116 593c
00000020: 1b59 52be d04b a2bd 0236 533e a3e1 8b3d
00000030: 2deb 12bd ebf9 3f3e a77c 723d 9436 64be
00000040: 9430 4f3e 40a8 8abc 5ee9 6cbe 6e6a 2cbd
00000050: 4134 03bd 1ece 3bbd 7213 02bf 62dd 963d
00000060: b5fd 943d 41df 52be 4cd9 ae3c 705f 83be
00000070: 87c5 a63d 9019 e0be d9a6 85be ea55 79be

sequential/dense/MatMul i1 [64, 128] scale=0.010746096 zero_point=0
0.08596877 0.042984385 -0.10746096 0.010746096 -0.19342974 0.0 -0.11820706 -0.23641412
0.0 0.08596877 -0.09671487 -0.06447658 -0.19342974 0.09671487 -0.12895316 0.10746096
-0.21492192 0.07522267 -0.08596877 0.010746096 0.021492193 -0.11820706 -0.010746096 -0.03223829
-0.08596877 -0.07522267 -0.13969925 -0.010746096 0.10746096 0.07522267 0.0 -0.010746096
-0.08596877 -0.03223829 -0.09671487 -0.13969925 -0.19342974 -0.042984385 -0.05373048 -0.08596877
-0.25790632 0.08596877 -0.12895316 0.10746096 0.09671487 -0.17193754 0.042984385 -0.042984385
0.0 0.10746096 -0.15044534 0.08596877 -0.16119145 0.0 0.0 -0.03223829
-0.09671487 -0.16119145 0.05373048 0.10746096 -0.12895316 -0.08596877 0.021492193 -0.19342974
-0.06447658 -0.18268363 -0.010746096 0.10746096 0.021492193 -0.08596877 -0.12895316 -0.03223829
0.07522267 0.07522267 -0.19342974 -0.11820706 -0.12895316 -0.2686524 0.010746096 0.11820706
-0.17193754 0.042984385 -0.17193754 -0.13969925 -0.03223829 -0.21492192 -0.19342974 0.13969925
-0.20417583 0.11820706 -0.10746096 0.010746096 -0.15044534 0.07522267 0.11820706 0.09671487
-0.19342974 -0.12895316 0.13969925 -0.11820706 0.09671487 -0.13969925 -0.042984385 0.09671487
-0.05373048 0.15044534 0.010746096 -0.16119145 -0.010746096 0.12895316 -0.09671487 -0.19342974
-0.06447658 -0.09671487 0.042984385 -0.07522267 -0.17193754 0.010746096 -0.11820706 -0.03223829
-0.19342974 -0.19342974 -0.10746096 0.0 -0.06447658 0.08596877 0.042984385 -0.17193754
0.021492193 0.3223829 0.16119145 -0.38685948 0.30089068 -0.38685948 -0.021492193 0.21492192
-0.3223829 0.24716021 -0.333129 0.16119145 -0.12895316 -0.2793985 0.06447658 -0.09671487
-0.042984385 -0.25790632 0.44058993 0.19342974 0.05373048 0.23641412 -0.22566803 0.042984385
0.06447658 0.16119145 0.16119145 -0.2686524 -0.3116368 -0.3116368 0.333129 -0.10746096
-0.11820706 -0.22566803 0.2686524 0.3223829 0.30089068 -0.45133606 -0.2793985 -0.15044534
-0.10746096 0.11820706 0.333129 -0.12895316 0.18268363 0.042984385 0.30089068 0.30089068
0.07522267 0.10746096 -0.2901446 0.03223829 -0.15044534 0.16119145 -0.18268363 -0.5480509
0.21492192 0.0 -0.21492192 0.38685948 -0.35462117 0.24716021 -0.23641412 -0.021492193
-0.09671487 0.3116368 0.2901446 0.06447658 0.3223829 -0.042984385 0.05373048 0.38685948
0.010746096 0.34387508 0.09671487 -0.25790632 0.23641412 -0.03223829 0.16119145 0.10746096
0.2901446 -0.18268363 -0.15044534 0.16119145 -0.18268363 0.5373048 0.10746096 -0.25790632
-0.09671487 -0.22566803 -0.30089068 0.10746096 -0.30089068 0.11820706 -0.05373048 -0.17193754
-0.6232736 0.010746096 -0.22566803 0.333129 0.5050665 0.06447658 -0.09671487 -0.42984384
-0.8381955 -0.021492193 0.39760557 -0.23641412 -0.333129 -0.05373048 0.11820706 -0.44058993
-0.41909775 -0.18268363 -0.35462117 0.37611336 -0.3116368 0.0 -0.5265587 0.13969925
0.42984384 0.20417583 -0.11820706 0.07522267 0.2686524 -0.36536726 -0.35462117 -0.2901446
00000000: 0804 f601 ee00 f5ea 0008 f7fa ee09 f40a
00000010: ec07 f801 02f5 fffd f8f9 f3ff 0a07 00ff
00000020: f8fd f7f3 eefc fbf8 e808 f40a 09f0 04fc
00000030: 000a f208 f100 00fd f7f1 050a f4f8 02ee
00000040: faef ff0a 02f8 f4fd 0707 eef5 f4e7 010b
00000050: f004 f0f3 fdec ee0d ed0b f601 f207 0b09
00000060: eef4 0df5 09f3 fc09 fb0e 01f1 ff0c f7ee
00000070: faf7 04f9 f001 f5fd eeee f600 fa08 04f0
00000080: 021e 0fdc 1cdc fe14 e217 e10f f4e6 06f7
00000090: fce8 2912 0516 eb04 060f 0fe7 e3e3 1ff6
000000a0: f5eb 191e 1cd6 e6f2 f60b 1ff4 1104 1c1c
000000b0: 070a e503 f20f efcd 1400 ec24 df17 eafe
000000c0: f71d 1b06 1efc 0524 0120 09e8 16fd 0f0a
000000d0: 1bef f20f ef32 0ae8 f7eb e40a e40b fbf0
000000e0: c601 eb1f 2f06 f7d8 b2fe 25ea e1fb 0bd7
000000f0: d9ef df23 e300 cf0d 2813 f507 19de dfe5

sequential/dense_1/MatMul f4 [1, 64]
0.19661103 0.26575404 -0.08881109 0.2244745 0.116419084 -0.007847772 -0.0056916745 -0.06465683
0.124924965 0.07666006 -0.026003907 -0.08200805 0.046497483 -0.07547252 -0.41862965 0.060558446
-0.1787741 0.20837533 -0.00354981 0.09438003 0.21781194 -0.08100412 0.19741215 -0.09907673
-0.019244662 -0.036403343 0.09532694 0.030115325 -0.10806244 0.14686784 -0.0032789719 0.028990451
-0.057572503 -0.01742938 0.054012824 0.24773826 0.1405237 0.19815545 0.08931891 0.024127146
-0.18528503 0.0866787 0.25068307 0.0038557737 0.34909692 0.20650534 0.15950136 -0.2539217
-0.10750275 -0.3975703 0.19861709 -0.077278905 -0.23772596 0.11408472 0.07792831 -0.044546135
0.2442675 -0.0011947389 0.004085595 -0.14175978 0.061909385 0.031574905 0.053310797 0.12578373
00000000: 6754 493e ea10 883e 97e2 b5bd a5dc 653e
00000010: 216d ee3d f193 00bc 3a81 babb cd6a 84bd
00000020: a9d8 ff3d f3ff 9c3d 2506 d5bc d6f3 a7bd
00000030: 2574 3e3d 5691 9abd a056 d6be 220c 783d
00000040: 8f10 37be 5860 553e eea3 68bb 514a c13d
00000050: 180a 5f3e 7de5 a5bd 6926 4a3e bee8 cabd
00000060: fba6 9dbc ac1b 15bd c53a c33d 6ab4 f63c
00000070: d74f ddbd 8664 163e 05e4 56bb 627d ed3c
00000080: 25d1 6bbd 0fc8 8ebc 8d3c 5d3d 19af 7d3e
00000090: 72e5 0f3e 43e9 4a3e d5ec b63d 4ba6 c53c
000000a0: 5cbb 3dbe 9a84 b13d 8859 803e 26b1 7c3b
000000b0: d5bc b23e 2376 533e 5354 233e 0602 82be
000000c0: 672a dcbd 568e cbbe 4762 4b3e 6744 9ebd
000000d0: 6f6e 73be 40a5 e93d e198 9f3d 0276 36bd
000000e0: 4221 7a3e c998 9cba 74e0 853b 7a29 11be
000000f0: b294 7d3d b054 013d 6c5c 5a3d 73cd 003e

sequential/conv2d/Conv2D f4 [32, 3, 3, 3]
-0.021310162 -0.15015599 0.042118113 -0.13946378 -0.16406068 -0.09540093 -0.026901888 -0.12095182
0.03847268 -0.16319957 -0.058162265 -0.017273681 0.03233044 -0.030401688 0.028576665 0.030427536
0.0028885428 0.05386578 0.011169492 -0.056999758 -0.08387604 -0.07929617 -0.013985884 0.058864657
-0.15008055 -0.13143039 -0.030800598 0.20299736 0.29407293 0.07583808 0.04014933 0.43355447
0.13155666 0.19492836 0.11104381 0.27132484 -0.092456274 -0.029327411 -0.065693974 0.051057443
0.19333072 -0.12850696 -0.039678823 0.07196374 -0.09190004 -0.4498228 -0.27648747 -0.14281587
-0.45390704 -0.083326265 -0.3279181 -0.4057104 -0.2355358 -0.04052768 -0.010482122 0.09603853
0.12825032 -0.0020131133 -0.023676386 -0.183459 -0.15227956 -0.17777568 -0.010622435 0.12914762
0.25542095 0.2598846 0.12534525 0.1159754 0.10288407 -0.054243155 -0.13320258 0.15806594
0.12546287 0.11471834 0.2890566 -0.16420047 0.118918546 0.16453649 -0.20441613 -0.025093906
0.13389124 -0.13025305 -0.13817282 -0.0065277787 -0.40942296 -0.18087226 0.18677814 -0.1136577
-0.009350612 0.124177314 -0.24571973 -0.016405722 0.04523965 -0.58666104 -0.2744195 0.012472855
-0.053970013 -0.1845123 0.21881503 -0.3110403 -0.058594804 0.0007874273 -0.4637822 -0.29159898
0.13338503 -0.13337205 -0.105382726 0.24455513 0.14364304 0.047529202 -0.37300596 0.2371694
0.06750156 -0.19488162 0.006932651 -0.13229023 -0.22627918 0.18076187 -0.07164951 -0.2808382
0.2886071 0.26157415 -0.36990833 -0.13720913 -0.025070485 -0.2945853 0.033303156 -0.19046322
-0.47857782 0.18067089 0.15682286 -0.22750513 -0.08954924 -0.22058538 -0.35377556 -0.03244326
-0.15003538 -0.026215678 0.009423384 0.06200588 -0.047686443 -0.117993124 -0.039164603 0.028743591
0.10997115 0.020970363 0.0009619357 0.057614755 -0.120346 -0.11327859 -0.052080195 0.00012788216
-0.10930788 -0.106997825 -0.097481064 -0.04616205 0.000989705 -0.1497507 -0.13385127 -0.055726875
8.061601e-05 0.07623873 0.35846856 0.5117733 0.25386554 -0.1939587 -0.1309253 -0.2092662
0.0058247647 -0.022659926 -0.20657763 0.27061296 0.38167822 0.38791573 -0.2974439 -0.14951845
-0.32243997 0.0010298158 -0.14112465 -0.25109753 0.34714422 0.3233011 0.43338817 -0.10099056
-0.17989881 -0.24588399 -0.107337214 0.046427254 -0.104301564 -0.3365308 0.007824036 0.14060329
-0.38215816 -0.006492099 0.3582001 -0.13293669 -0.072243355 0.13439561 -0.23339559 0.09286035
0.30081207 -0.38667598 0.10479973 0.36405057 -0.26161745 -0.07641161 0.299854 -0.05678254
-0.014416961 0.23754336 -0.284661 0.050410684 0.3156357 -0.19940892 0.085930154 0.3563555
0.11929117 0.2899932 0.15255634 -0.16338389 -0.01898802 -0.12971343 -0.09377858 -0.23929359
-0.35529584 0.20663193 0.19801056 0.11736234 -0.113438584 -0.11157461 -0.0836345 -0.043073416
-0.005041713 -0.41984743 0.100353524 0.1264906 0.2799849 0.0148298405 -0.055688255 -0.15842673
-0.24559124 -0.17156543 -0.2709919 -0.12530468 0.11271584 -0.12237335 -0.29877996 0.07021368
-0.187873 0.18588632 0.55543643 0.39822456 -0.09592129 -0.08283846 -0.23331921 -0.13439123
00000000: a692 aebc 7ec2 19be 0b84 2c3d 98cf 0ebe
00000010: 86ff 27be 9061 c3bd 5961 dcbc 96b5 f7bd
00000020: 8795 1d3d ca1d 27be 8e3b 6ebd 8981 8dbc
00000030: ec6c 043d f60c f9bc 9c19 ea3c 2b43 f93c
00000040: b54d 3d3b 5da2 5c3d 3f00 373c 9478 69bd
00000050: 34c7 abbd 0866 a2bd 0d25 65bc 111c 713d
00000060: b7ae 19be b095 06be 8951 fcbc 8ade 4f3e
00000070: ba90 963e ff50 9b3d a073 243d dafa dd3e
00000080: cab6 063e 4d9b 473e f06a e33d 17eb 8a3e
00000090: b759 bdbd 0a40 f0bc 908a 86bd 9c21 513d
000000a0: 7df8 453e 5497 03be 4386 22bd ba61 933d
000000b0: 1736 bcbd 2d4f e6be c48f 8dbe 533e 12be
000000c0: 8166 e8be f6a6 aabd e2e4 a7be 46b9 cfbe
000000d0: 4c30 71be 5a00 26bd 35bd 2bbc d9af c43d
000000e0: 0d54 033e 70ee 03bb fbf4 c1bc addc 3bbe
000000f0: 2cef 1bbe d40a 36be b909 2ebc 463f 043e
00000100: 89c6 823e 980f 853e 815a 003e 8384 ed3d
00000110: e2b4 d23d 122e 5ebd 4266 08be 0adc 213e
00000120: 5779 003e 73f1 ea3d 3aff 933e 2b24 28be
00000130: 918b f33d 417c 283e 7652 51be bc91 cdbc
00000140: c91a 093e 0e61 05be 2d7d 0dbe fae6 d5bb
00000150: e39f d1be 9436 39be c542 3f3e 5ec5 e8bd
00000160: 4f33 19bc ad50 fe3d f49d 7bbe 4b65 86bc
00000170: 364d 393d 6b2f 16bf b680 8cbe f25a 4c3c
00000180: a90f 5dbd cbf0 3cbe 0c11 603e ad40 9fbe
00000190: 1b01 70bd 5a6b 4e3a dc74 edbe 764c 95be
000001a0: 1696 083e af92 08be e6d2 d7bd a96c 7a3e
000001b0: 2917 133e fbad 423d a3fa bebe 89dc 723e
000001c0: 423e 8a3d 0c8f 47be 4b2b e33b 1777 07be
000001d0: bbb5 67be a419 393e fabc 92bd 06ca 8fbe
000001e0: 4fc4 933e 0ced 853e a064 bdbe 8d80 0cbe
000001f0: 9e60 cdbc e2d3 96be e468 083d ca08 43be
00000200: 2708 f5be ca01 393e 2c96 203e 1bf7 68be
00000210: 9865 b7bd 22e1 61be 1222 b5be 39e3 04bd
00000220: e0a2 19be 43c2 d6bc 8a64 1a3c e1f9 7d3d
00000230: dc52 43bd 61a6 f1bd 106b 20bd ae77 eb3c
00000240: 8e38 e13d 0aca ab3c 692a 7c3a 73fd 6b3d
00000250: f777 f6bd 9bfe e7bd 0b52 55bd 1b18 0639
00000260: cfdc dfbd ad21 dbbd 27a4 c7bd 6b14 3dbd
00000270: fdb8 813a 3f58 19be 4f10 09be dd41 64bd
00000280: 6410 a938 0d23 9c3d 3189 b73e 9303 033f
00000290: aafa 813e 1c9d 46be 4811 06be e149 56be
000002a0: abdd be3b 4fa1 b9bc 1689 53be c88d 8a3e
000002b0: 546b c33e e49c c63e 914a 98be 5d1b 19be
000002c0: da16 a5be e2fa 863a fb82 10be db8f 80be
000002d0: e3bc b13e b987 a53e 0ee5 dd3e 24d4 cebd
000002e0: 6537 38be 03c9 7bbe 9dd3 dbbd 812a 3e3d
000002f0: 0f9c d5bd c44d acbe 6330 003c 4ffa 0f3e
00000300: 3caa c3be acbb d4bb 0166 b73e 8e20 08be
00000310: 53f4 93bd 019f 093e 41ff 6ebe 912d be3d
00000320: 0a04 9a3e 65fa c5be 3ea1 d63d d664 ba3e
00000330: b9f2 85be b17d 9cbd 7786 993e cf94 68bd
00000340: 1e35 6cbc 913e 733e 16bf 91be 6f7b 4e3d
00000350: 019b a13e da31 4cbe 26fc af3d 3a74 b63e
00000360: ee4e f43d fd79 943e bb37 1c3e 1b4e 27be
00000370: c48c 9bbc 99d3 04be fc0e c0bd 6109 75be
00000380: 56e9 b5be 5297 533e 48c3 4a3e ab5b f03d
00000390: 7d52 e8bd 3b81 e4bd 9148 abbd c06d 30bd
000003a0: f434 a5bb 3ef6 d6be 2686 cd3d c086 013e
000003b0: 2e5a 8f3e dcf8 723c 5e19 64bd 9e3a 22be
000003c0: 457c 7bbe d9ae 2fbe 73bf 8abe df4f 00be
000003d0: 90d7 e63d e19e fabd b0f9 98be 31cc 8f3d
000003e0: c861 40be fc58 3e3e 1531 0e3f 17e4 cb3e
000003f0: 6272 c4bd 36a7 a9bd 3beb 6ebe db9d 09be

sequential/conv2d_1/Conv2D i1 [64, 3, 3, 32]
7 3 -7 23 53 5 -36 -7
-3 79 28 -25 6 30 26 -38
16 -80 -32 2 45 8 41 47
12 -8 21 -23 -9 0 37 27
-13 -15 9 13 0 13 22 -43
11 52 -104 -18 -1 -12 48 -1
5 -15 -13 11 41 12 62 36
-28 8 -20 -11 -63 14 2 64
-11 35 -14 34 -56 3 -13 -71
46 -48 -54 -30 2 7 -37 2
-14 -11 -38 0 -1 7 -15 -75
35 -30 17 -25 -34 -5 -13 -34
9 -28 15 36 40 1 -27 8
-8 89 28 -33 0 12 19 23
25 -64 -43 -6 43 -6 28 56
9 23 26 -11 -10 11 48 6
-6 -40 26 -2 -2 -6 50 -20
17 42 -121 -20 13 3 40 15
-11 12 -13 -4 27 -4 45 40
-6 22 2 -18 -60 25 19 55
-11 13 -3 17 -52 -8 1 -43
63 -31 -41 -40 7 12 -35 -7
-8 -21 -39 12 -20 6 -43 -55
34 10 13 -32 -44 -22 -6 -75
5 -73 9 35 35 15 -33 12
-15 60 3 -53 8 30 37 -10
25 -74 -38 5 21 11 5 51
0 -79 24 -3 -4 -9 38 -73
8 -96 7 6 -10 -6 50 -27
-3 17 -127 -16 -10 -17 19 -3
3 -3 -31 15 38 -4 47 16
-18 -54 0 4 -59 18 11 12
00000000: 0703 f917 3505 dcf9 fd4f 1ce7 061e 1ada
00000010: 10b0 e002 2d08 292f 0cf8 15e9 f700 251b
00000020: f3f1 090d 000d 16d5 0b34 98ee fff4 30ff
00000030: 05f1 f30b 290c 3e24 e408 ecf5 c10e 0240
00000040: f523 f222 c803 f3b9 2ed0 cae2 0207 db02
00000050: f2f5 da00 ff07 f1b5 23e2 11e7 defb f3de
00000060: 09e4 0f24 2801 e508 f859 1cdf 000c 1317
00000070: 19c0 d5fa 2bfa 1c38 0917 1af5 f60b 3006
00000080: fad8 1afe fefa 32ec 112a 87ec 0d03 280f
00000090: f50c f3fc 1bfc 2d28 fa16 02ee c419 1337
000000a0: f50d fd11 ccf8 01d5 3fe1 d7d8 070c ddf9
000000b0: f8eb d90c ec06 d5c9 220a 0de0 d4ea fab5
000000c0: 05b7 0923 230f df0c f13c 03cb 081e 25f6
000000d0: 19b6 da05 150b 0533 00b1 18fd fcf7 26b7
000000e0: 08a0 0706 f6fa 32e5 fd11 81f0 f6ef 13fd
000000f0: 03fd e10f 26fc 2f10 eeca 0004 c512 0b0c

sequential/conv2d_2/Conv2D i1 [64, 3, 3, 64]
16 -15 -14 3 -18 1 -39 -106
-11 2 -102 27 2 6 -56 1
-37 6 -14 -5 -10 -18 5 25
-2 -11 -5 -12 -34 -32 -21 -11
-3 -6 -20 -11 -50 4 -22 -10
-56 -3 -6 -27 -7 -1 3 -3
13 -16 8 -5 -22 -43 -19 -27
5 -32 19 1 -4 -9 -19 4
-29 3 9 -6 4 -5 10 -30
-5 -15 -21 -3 4 -8 33 11
42 -2 70 36 -6 -5 23 36
1 -14 -8 58 -1 -13 -12 -19
3 4 -24 -6 -13 -11 -7 -3
-1 2 6 -27 2 7 7 4
31 -14 12 17 -10 -19 -10 3
24 -18 25 17 -7 10 8 -9
-16 16 -41 -6 8 -31 27 -48
-3 8 -3 -43 10 -4 36 5
-5 7 -17 -11 -33 -40 12 -14
-8 -6 -17 21 22 19 33 17
11 0 -7 18 -17 13 -24 -41
-6 1 -1 -14 10 -6 -8 7
37 -37 11 21 26 -23 1 -6
32 30 -8 40 4 31 -2 4
15 -28 -13 -9 -9 -8 -39 -127
-4 -5 -87 30 -2 7 -63 14
-43 2 2 8 -10 -12 -10 12
2 -16 -4 -9 -34 -47 -52 -9
-7 -6 -10 -59 -50 13 17 -21
-51 2 5 -4 -25 -1 5 -4
-37 -7 17 -67 -18 -45 -24 -24
7 -52 4 -13 9 -16 -31 -10
00000000: 10f1 f203 ee01 d996 f502 9a1b 0206 c801
00000010: db06 f2fb f6ee 0519 fef5 fbf4 dee0 ebf5
00000020: fdfa ecf5 ce04 eaf6 c8fd fae5 f9ff 03fd
00000030: 0df0 08fb ead5 ede5 05e0 1301 fcf7 ed04
00000040: e303 09fa 04fb 0ae2 fbf1 ebfd 04f8 210b
00000050: 2afe 4624 fafb 1724 01f2 f83a fff3 f4ed
00000060: 0304 e8fa f3f5 f9fd ff02 06e5 0207 0704
00000070: 1ff2 0c11 f6ed f603 18ee 1911 f90a 08f7
00000080: f010 d7fa 08e1 1bd0 fd08 fdd5 0afc 2405
00000090: fb07 eff5 dfd8 0cf2 f8fa ef15 1613 2111
000000a0: 0b00 f912 ef0d e8d7 fa01 fff2 0afa f807
000000b0: 25db 0b15 1ae9 01fa 201e f828 041f fe04
000000c0: 0fe4 f3f7 f7f8 d981 fcfb a91e fe07 c10e
000000d0: d502 0208 f6f4 f60c 02f0 fcf7 ded1 ccf7
000000e0: f9fa f6c5 ce0d 11eb cd02 05fc e7ff 05fc
000000f0: dbf9 11bd eed3 e8e8 07cc 04f3 09f0 e1f6

sequential/conv2d_3/Conv2D i1 [128, 3, 3, 64]
-15 -75 27 2 -76 -127 -31 -31
14 -33 -3 5 -38 -46 18 2
3 12 -31 20 -6 4 12 -77
-36 19 -3 -57 -1 -93 -22 1
3 -43 8 1 -35 1 -3 4
-1 -6 -16 -8 -3 4 -79 4
-7 -27 -5 -39 -4 -3 -10 -42
-37 -26 -33 -9 -14 -26 2 2
-11 -76 -31 4 -74 -117 -50 -79
-26 -35 -3 0 -44 -37 9 3
8 6 -38 13 -3 -6 -3 -73
-36 14 -4 -55 -2 -83 -31 10
1 -21 2 4 -20 -1 -19 4
15 -16 -6 -54 3 -3 -71 1
-10 -12 -17 -55 -5 4 -21 -48
-20 -21 -39 -18 -6 -36 3 3
33 -44 -34 0 -49 -85 -55 -32
-3 -6 -4 -3 18 5 -8 -4
4 1 -25 -27 -10 8 11 -31
-23 19 3 -46 -4 -33 -60 2
-3 4 -4 0 -45 -5 -21 -4
7 16 19 -79 1 -4 -19 1
-3 -51 0 -23 -2 0 -55 -40
-6 7 -46 -18 6 -26 -7 5
0 -25 8 -1 -57 -97 -55 -71
-10 -34 -3 3 -48 -10 -13 2
13 -43 -11 19 -22 1 -55 -46
0 5 2 -26 -8 -50 -66 -4
-2 -37 -41 2 -55 -1 -36 -5
-17 -5 -57 -15 -4 2 -49 -5
-12 23 -8 -26 14 0 23 -27
-50 -15 -37 -4 -14 -36 -12 -6
00000000: f1b5 1b02 b481 e1e1 0edf fd05 dad2 1202
00000010: 030c e114 fa04 0cb3 dc13 fdc7 ffa3 ea01
00000020: 03d5 0801 dd01 fd04 fffa f0f8 fd04 b104
00000030: f9e5 fbd9 fcfd f6d6 dbe6 dff7 f2e6 0202
00000040: f5b4 e104 b68b ceb1 e6dd fd00 d4db 0903
00000050: 0806 da0d fdfa fdb7 dc0e fcc9 fead e10a
00000060: 01eb 0204 ecff ed04 0ff0 faca 03fd b901
00000070: f6f4 efc9 fb04 ebd0 eceb d9ee fadc 0303
00000080: 21d4 de00 cfab c9e0 fdfa fcfd 1205 f8fc
00000090: 0401 e7e5 f608 0be1 e913 03d2 fcdf c402
000000a0: fd04 fc00 d3fb ebfc 0710 13b1 01fc ed01
000000b0: fdcd 00e9 fe00 c9d8 fa07 d2ee 06e6 f905
000000c0: 00e7 08ff c79f c9b9 f6de fd03 d0f6 f302
000000d0: 0dd5 f513 ea01 c9d2 0005 02e6 f8ce befc
000000e0: fedb d702 c9ff dcfb effb c7f1 fc02 cffb
000000f0: f417 f8e6 0e00 17e5 cef1 dbfc f2dc f4fa
