SteeringModels/LaneFollowingModel/model.tflite (tflite, 558736 bytes, 11 tensors)

sequential_3/conv2d_110/BiasAdd;sequential_3/conv2d_110/Conv2D;sequential_3/conv2d_110/BiasAdd/ReadVariableOp/resource f4 [128]
000000 24 c0 56 bc dd bd 7d bb 21 90 e0 3b 50 fd bc bd
       -0.013107333 -0.0038717904 0.006853119 -0.09228003
000010 54 38 e4 bb 8a b6 ec 3d 7e c5 0c 3c 80 7b 5e bc
       -0.0069647226 0.11558254 0.008592008 -0.013579249
000020 00 fd aa bc 79 54 24 3b a6 85 45 bc 8c 27 fa bb
       -0.020872593 0.0025074764 -0.01205579 -0.007634109
000030 3c f2 a6 bc 00 b4 c8 b9 a5 86 81 bc ac e1 06 be
       -0.020379178 -0.00038281083 -0.015811274 -0.13172024
000040 8e 8c 15 bd 75 dd 30 be 92 fc bb bd 39 75 99 bc
       -0.036510997 -0.17271979 -0.09179033 -0.018732654
000050 61 7a d4 bb ea 8f 84 bc b3 59 db 3c de 63 c1 bd
       -0.0064843153 -0.016181905 0.02677617 -0.09442876
000060 4f 19 a4 bd 98 05 b2 3a 04 d3 af bd 30 56 26 bd
       -0.0801264 0.0013581989 -0.0858517 -0.04060954
000070 b3 9c d6 bd 04 87 69 bc 14 72 65 bd 19 b8 3d bc
       -0.10479107 -0.014253382 -0.056016997 -0.011579537
000080 17 1e 78 bd 3c 5e 1c bc c4 46 66 bd 88 2e 61 bd
       -0.06057557 -0.009543952 -0.05621983 -0.054976016
000090 cc ae 13 be 65 68 32 bc 91 86 21 bd 15 5b b6 3d
       -0.14422148 -0.010889147 -0.039434973 0.08904091
0000a0 80 63 80 bc db d1 2f bd eb 69 a0 3d 22 79 b7 bc
       -0.015672445 -0.042924743 0.07832702 -0.022396628
0000b0 45 86 1a bc c9 65 46 bd a3 11 7c bc f0 d9 cb bb
       -0.009431426 -0.048436914 -0.015385064 -0.0062210485
0000c0 5f f9 4a bc 22 17 87 bd 9c c7 80 bc e7 ae de bc
       -0.012388556 -0.06596209 -0.015720181 -0.02718301
0000d0 16 88 37 3d f9 25 39 bc c9 51 49 3c 9d 23 eb 3d
       0.044807516 -0.011300557 0.0122875655 0.11481402
0000e0 3b 3e c0 bd 72 b5 12 ba a4 93 09 bd 9f 01 88 3c
       -0.093868695 -0.00055964955 -0.033588067 0.016602335
0000f0 64 09 5e bc ce 46 f8 bc 81 90 0b 3d e9 fa fa 3d
       -0.013552044 -0.0303072 0.034073357 0.122548886
000100 80 14 d9 bc 77 00 54 3b a8 e9 f8 bd 38 81 7e 3d
       -0.026499033 0.003234891 -0.121539414 0.06213495
000110 77 40 11 3e 77 71 cb 3c d8 4d cc bc f5 56 b7 3b
       0.14184748 0.024834378 -0.024939463 0.005595083
000120 d3 d9 11 bd 30 a6 fc bb 17 20 82 bd 16 3d 04 bc
       -0.035608124 -0.007710241 -0.06353777 -0.008071205
000130 6b 03 03 bd a1 a4 c7 bc 61 1b db 3c 80 32 a2 bc
       -0.03198568 -0.024370493 0.026746454 -0.01979947
000140 8f 15 74 3d 3b ec 30 bc 36 b5 ab bb 40 a1 5f 3a
       0.059590872 -0.010798509 -0.005240108 0.0008530803
000150 c5 00 b5 bc 25 51 16 3c 6e 34 49 bc 3c c6 ca bd
       -0.022095094 0.00917462 -0.012280567 -0.099010915
000160 de c5 a6 bb c7 5e 73 bc 34 99 ea bc 66 33 bf bc
       -0.0050895056 -0.01485414 -0.028637506 -0.023339938
000170 25 f1 ec 3c ca b5 a7 bc cc 92 db ba ea 5e 23 be
       0.02892358 -0.020472426 -0.0016752123 -0.15954176
000180 d2 0d 04 be a6 05 b7 bd 7d 32 6e bb 13 d0 c5 bd
       -0.12895897 -0.08936624 -0.0036346011 -0.09658828
000190 58 46 2d bd 6b 68 4f bd 02 35 e7 bc ca ca c4 bb
       -0.042303413 -0.05063669 -0.028223518 -0.0060056197
0001a0 c0 b9 31 3b 15 b2 56 bd 36 b1 7f ba d6 13 2c bc
       0.0027118772 -0.052415926 -0.00097538845 -0.010502776
0001b0 86 f7 23 3c 28 a9 ad bd 9f 0b cc bd cc f4 d3 3b
       0.010007745 -0.084795296 -0.09963154 0.006468391
0001c0 b5 4f 81 bb d5 08 f9 3d 44 b6 7e bd 20 97 5c 3b
       -0.0039462694 0.12159888 -0.06218554 0.0033659413
0001d0 c8 5f 7b bc 75 21 18 3e 21 28 37 be 32 6f d5 bb
       -0.01534266 0.14856513 -0.17886402 -0.0065134997
0001e0 c6 18 e2 bc c0 51 82 bc 17 a2 bc bc b4 c4 e1 b9
       -0.027599704 -0.015908122 -0.02302651 -0.000430619
0001f0 ac 8f 2b 3d 0f 3a 54 bc 7e 2a ad 3c 55 ea 0c 3b
       0.041885063 -0.012953295 0.021138426 0.0021501977

sequential_3/conv2d_109/BiasAdd;sequential_3/conv2d_108/Conv2D;sequential_3/conv2d_109/Conv2D;sequential_3/conv2d_109/BiasAdd/ReadVariableOp/resource f4 [64]
000000 d2 99 81 bd 3b 4c 08 be 34 7c 28 bd 6d 5d 0e bd
       -0.06328167 -0.1331033 -0.041134074 -0.034757067
000010 53 9c 79 3c 68 7a 70 be e7 3f 61 bd 7b 53 85 bd
       0.0152350245 -0.23484194 -0.054992583 -0.06510063
000020 3d e9 8d bd 22 87 3a bd b0 14 3e 3b 88 44 33 be
       -0.06929252 -0.04553903 0.002900403 -0.17506611
000030 01 83 2c bd 1a 2c d8 bc bb ba 8d bd c6 1d af ba
       -0.042117123 -0.026388217 -0.06920382 -0.0013360314
000040 6a fd de bb 5b a9 ed bd 9d bd b2 3c da 31 ca bc
       -0.0068051117 -0.116045676 0.02181893 -0.024681974
000050 f5 e8 54 bc d2 99 68 bc 31 3e bd bc 03 cb 80 bc
       -0.012994994 -0.01419683 -0.023100944 -0.015721804
000060 e8 55 fa bb 5c 40 27 bd 48 d9 2a bd a4 e6 4b bd
       -0.0076396354 -0.040832862 -0.04171112 -0.049780503
000070 a6 e9 76 ba 99 73 48 bd 91 93 dc bc 63 d2 1f 3d
       -0.00094189716 -0.048938368 -0.026925834 0.039019
000080 fa c7 27 3b d2 37 b8 bc 4a e7 a2 bc 53 ac 2e bd
       0.0025601373 -0.022487555 -0.019885678 -0.04264481
000090 26 ca c0 bd e4 c1 ba bd 14 65 50 bd 44 0e e0 bd
       -0.09413557 -0.09119013 -0.050877646 -0.10940221
0000a0 da 81 28 bd a1 65 5e bd 36 c2 09 bd f6 56 e5 bd
       -0.04113946 -0.05429614 -0.03363248 -0.11198227
0000b0 47 52 e4 bd 40 00 0e be 17 ca 45 bb d2 f2 f3 bc
       -0.11148506 -0.13867283 -0.003018027 -0.029778872
0000c0 73 77 88 bd 3a 81 e9 bc 5b 3d 54 bd 0b 38 52 bd
       -0.06663408 -0.028504003 -0.051816326 -0.051322978
0000d0 7a 31 88 bd 89 f2 4d be 2e 1d 23 bd ab e0 6c bd
       -0.06650062 -0.20112051 -0.03982275 -0.057831448
0000e0 f1 57 51 bd 98 98 94 bc ee 2c f3 bb 11 05 fa bc
       -0.051109258 -0.018139169 -0.0074211275 -0.030519994
0000f0 02 9c c2 bd b3 b8 37 bd c6 dd 90 bd 12 ea 2b 3c
       -0.095024124 -0.044853877 -0.0707355 0.010492818

sequential_3/conv2d_108/BiasAdd;sequential_3/conv2d_108/Conv2D;sequential_3/conv2d_108/BiasAdd/ReadVariableOp/resource f4 [64]
000000 4a 07 29 bd b5 92 af bd 7a 67 23 bd 6c 8f e3 bc
       -0.041266717 -0.08572904 -0.039893605 -0.02777835
000010 ec 8c 5c bc 37 10 9f bd 1e 83 c7 bc 94 c3 06 3c
       -0.013461333 -0.077667646 -0.024354514 0.00822534
000020 37 09 d5 bc 0c 3f 0e bd 56 a6 f7 bb ac 76 85 3d
       -0.02600537 -0.034728095 -0.0075576706 0.065167755
000030 62 14 87 bc d3 b0 e2 bc c9 d9 b1 bd bf 55 0d 3d
       -0.016489211 -0.027672207 -0.08684117 0.034505602
000040 cd 21 88 bd 95 37 df bc c9 f0 00 bd 6b 96 2e bd
       -0.06647072 -0.027248183 -0.03147963 -0.04262392
000050 69 b0 2c bc 3c b7 07 be 5c cd c4 bd 8c d5 71 bd
       -0.010540106 -0.13253492 -0.09609482 -0.059041545
000060 6f f5 df bc 09 21 37 bc b8 1b 2a bc 60 c7 7c bc
       -0.027338712 -0.01117731 -0.010382585 -0.015428394
000070 c0 05 c6 bc 6a f3 59 bd 05 fc 86 3c 59 d9 11 bd
       -0.024172664 -0.053210653 0.016477594 -0.03560767
000080 3a 4d 99 bd ec f4 c1 3c 07 a8 1b bd ed b8 3f bc
       -0.07485433 0.023676358 -0.03800204 -0.011701805
000090 aa 36 3d bd 74 de 39 be 90 f7 a5 bd ab 11 7b bd
       -0.04619471 -0.18151265 -0.081038594 -0.061296146
0000a0 c3 1f 76 bd 0a 68 8d bb fa 87 79 bd 56 5d 1f bd
       -0.060088884 -0.004315381 -0.060920693 -0.03890737
0000b0 62 66 0d be 55 b9 e9 3a ab 1e 0e 3c 75 0e 6b bb
       -0.13808587 0.0017831723 0.008674304 -0.0035866771
0000c0 2b 05 18 bd a3 bd 9f bc aa 66 76 bd 32 90 9d bb
       -0.037114304 -0.019499606 -0.0601565 -0.004808449
0000d0 f4 2c b9 bd 75 58 dc bd b4 7d ee bb f3 03 2d bc
       -0.09041777 -0.10759059 -0.0072781686 -0.010560024
0000e0 ba 34 b0 bc 86 e0 a6 bc 89 c0 46 3d 04 0a 12 3d
       -0.021509517 -0.020370733 0.04852346 0.035654083
0000f0 0a 46 0a be 04 06 d3 bc 96 cd 64 bd 30 9a 07 bd
       -0.1350328 -0.025759704 -0.055860125 -0.03310603

sequential_3/conv2d_107/BiasAdd;sequential_3/conv2d_107/Conv2D;sequential_3/conv2d_107/BiasAdd/ReadVariableOp/resource f4 [32]
000000 01 42 16 bd 31 25 c1 3c 2e 40 3a be 50 f3 c5 bc
       -0.03668404 0.023577305 -0.18188545 -0.024163872
000010 e1 b7 e8 3d 81 25 2a bd a3 d2 3b bd d5 aa 0a be
       0.11363197 -0.041539673 -0.045855176 -0.1354173
000020 e5 be af 3d 85 23 31 3d 18 d0 de bb 13 73 c4 bc
       0.08581332 0.043246765 -0.006799709 -0.023980653
000030 1b 53 05 be a2 4b cf 3d d4 33 6a 3d 86 ac 03 be
       -0.13019983 0.10121848 0.057178333 -0.12858781
000040 09 b1 39 3d 6a 6a 76 bd e2 3a 74 3b 92 7d e1 bd
       0.04533485 -0.060160078 0.0037266542 -0.11010279
000050 6f 25 fd bc 26 ee b1 3c ba 64 b5 bc c8 f9 4e be
       -0.030901639 0.021720003 -0.022142757 -0.20212471
000060 4e b3 96 bb c3 e1 d8 bb ec 47 e4 3d 3c 69 1b be
       -0.0045990115 -0.00661871 0.111465305 -0.15176862
000070 c9 bf 97 bc c4 34 b7 bd 87 f0 63 be b8 52 6e bc
       -0.018524067 -0.08945611 -0.22259723 -0.014546089

sequential_3/conv2d_110/Conv2D f4 [128, 3, 3, 64]
000000 b2 03 a6 3c 27 19 c7 bd 94 a8 1d be a2 7b 33 3e
       0.020265434 -0.09721594 -0.15396339 0.17527631
000010 fb 51 f4 bd 66 cb 5e be bc 6a ff 3c 02 62 42 bd
       -0.11929699 -0.21757278 0.031178825 -0.04745675
000020 1d 3e 0c be 14 5f 78 3b 1b 73 86 3d 59 6a e4 3d
       -0.1369557 0.0037898468 0.065649234 0.11153097
000030 0a 1a e3 bd 8c 17 bb bd f2 1d 6e 3d 72 aa b4 bd
       -0.11088951 -0.091353506 0.058134027 -0.08821572
000040 74 e1 12 be 4c 71 90 bb 2a 21 f5 ba 0f da 84 bd
       -0.14343816 -0.0044080373 -0.00187019 -0.06486904
000050 3c 2c d2 bc 22 76 cb 3c 7a 4f 8e 3c b3 5b a8 bd
       -0.025655858 0.024836604 0.017371882 -0.08220615
000060 69 1c 05 bd ba 63 85 bd 9b e7 0e bd 9e 94 04 bd
       -0.032497797 -0.06513162 -0.034888845 -0.032368295
000070 45 1c 01 be e3 b7 7d 3d bb 11 30 be fe e7 38 3c
       -0.1260844 0.061942946 -0.17194264 0.01128578
000080 85 a4 99 3c 03 09 a8 3d 72 da 14 3d 1c cf 2b bd
       0.018755207 0.08204844 0.03634114 -0.04194556
000090 e7 7c 08 be d3 21 a2 bd 31 85 2e 3c 0d 1c 84 bd
       -0.13328896 -0.07916608 0.0106518725 -0.06450663
0000a0 36 c1 75 3d 42 27 c1 bd 65 40 e3 bd 24 29 00 be
       0.059998713 -0.09431316 -0.11096267 -0.12515694
0000b0 0d 3e d0 bd ec 35 02 be 3b 7e 06 be 4b 40 c1 bd
       -0.10168085 -0.12715882 -0.1313409 -0.09436091
0000c0 9a 96 d6 bd fd 77 00 bd f1 7e ee bd b3 b3 1c bd
       -0.10477944 -0.03136443 -0.11645306 -0.038257312
0000d0 ca 37 ef 3c be 20 7e bc 4b 30 88 3d 36 e2 86 bd
       0.029201407 -0.015510736 0.06649836 -0.06586115
0000e0 2e f2 b9 3d d2 41 bf bb 6c 41 32 bd 60 70 e7 3c
       0.09079395 -0.005836704 -0.043519422 0.028251827
0000f0 a9 d7 11 3c ff bc 06 bd 04 26 3a be 61 27 d5 bd
       0.008901515 -0.032895084 -0.18178564 -0.104079016
000100 24 78 00 bd de 23 0f be af 01 2e be 70 ed 22 3e
       -0.031364575 -0.13978526 -0.1699283 0.15910888
000110 21 f6 0c be a0 ca 09 be e3 f8 da bc 9d 73 ea bd
       -0.13765766 -0.13456202 -0.026730007 -0.11447833
000120 5d ce 08 ba fe 90 86 3c ee 40 4d 3b 8d d2 7e bd
       -0.0005218739 0.01642656 0.0031319219 -0.062212516
000130 d2 fb 1f be 7e e0 68 3d 49 18 c1 bb 82 e9 8b 3d
       -0.15623406 0.056854717 -0.0058927876 0.068316475
000140 a5 35 1a 3d 1e b4 6c be a1 48 96 bc 08 f3 1b 3e
       0.037648816 -0.23115584 -0.018345179 0.15229428
000150 f0 40 87 3d a3 51 a1 3c a9 03 f9 3c fe fd 03 3e
       0.06604183 0.019692248 0.030397253 0.12889859
000160 37 b9 ce 3c ef 8f 46 3d fe a8 d1 3d dd a9 1c be
       0.025234802 0.04847711 0.10237311 -0.15299173
000170 b3 2d 01 be 15 91 61 bd 5b f0 14 be 3f 37 23 3e
       -0.12615089 -0.05507 -0.14544813 0.15939043
000180 15 97 8d bd c2 7d b4 3d 56 00 08 bb 38 f3 1b bd
       -0.06913582 0.08813049 -0.0020752153 -0.03807375
000190 01 34 eb bd c6 8b 20 be 6f b4 2a 3d 10 7d 9e bd
       -0.11484528 -0.1567832 0.04167598 -0.077386975
0001a0 de 12 c7 3c b5 09 d8 bd 68 45 ac bd 08 fe dc bd
       0.024300989 -0.105487265 -0.08411676 -0.1079064
0001b0 90 a0 a0 bd d9 8f dc bd d5 1e 46 be 6b 78 81 bd
       -0.07843125 -0.10769624 -0.19347699 -0.06321796
0001c0 77 fe 5a be 40 0d 38 3d 88 55 ba bd fa 2a 9f bd
       -0.21386133 0.04493451 -0.09098345 -0.07771869
0001d0 b2 63 9c bd 1d c4 22 3c 34 60 1b bd 3a 6c 61 be
       -0.07636203 0.009934452 -0.037933543 -0.22013941
0001e0 71 30 75 3d ff 28 63 bd e1 4b 35 3b ad 38 ac bd
       0.05986065 -0.05545902 0.0027663636 -0.084092475
0001f0 b6 f5 79 3d 9f 47 0a 3d 66 02 3e 3e 9c 23 30 3d
       0.061025344 0.03375971 0.18555602 0.04300271
000200 16 a3 ab 3d d4 c8 ce bd bf 5b 31 be 5e 0b ee 3d
       0.083807155 -0.10096899 -0.17320155 0.11623262
000210 ca 89 7a bd 36 73 1b be c4 41 56 bc 5c c2 4a bd
       -0.061166562 -0.15180668 -0.013077203 -0.04950176
000220 29 00 91 bd 20 8f 4e bd ed 01 55 3d 12 1a 0c bb
       -0.07080109 -0.050429463 0.05200379 -0.0021377844
000230 25 6b 63 be 60 87 87 bd ac 81 7c 3d 2b ce 2d 3d
       -0.22208841 -0.066176176 0.061647102 0.042432945
000240 44 3c 0f bd 3e 0d a0 bd 1b ed 86 3d fa 34 c2 bc
       -0.034969583 -0.07815026 0.06588193 -0.023706902
000250 e2 5d a0 3d 0d a7 cc 3d 28 7e 0a 3b 48 81 00 3e
       0.07830407 0.099928 0.0021132324 0.12549317
000260 e0 b0 da 3d 63 75 ca 3d 58 1c 3c 3d e0 01 cd bd
       0.106782675 0.09885671 0.04592547 -0.10010123
000270 16 dc 98 bd d4 a4 b3 bd da a7 76 be e2 42 4f 3d
       -0.07463853 -0.08771673 -0.24087468 0.050600894
000280 ff 3c ef bd a0 d9 f3 3d 8f 72 99 3d 02 85 f8 bd
       -0.11681556 0.11906743 0.074925534 -0.12134744
000290 b5 7e 8a bd 59 55 7a be 87 de 1a bd 19 fd 89 bd
       -0.06762449 -0.2444662 -0.037809875 -0.06737728
0002a0 aa cf 30 3d b3 2a a2 bd 44 88 c2 bd 70 1d f7 bd
       0.043166794 -0.079183005 -0.09498647 -0.12066162
0002b0 67 42 57 3d 75 bb f7 bd 18 8b 55 be ed 35 25 bd
       0.05255356 -0.120963015 -0.20853841 -0.04033463
0002c0 02 45 1b be cf 10 58 bd cb 8f 0f be 14 0f 61 bc
       -0.15163043 -0.052750405 -0.14019696 -0.013736505
0002d0 d4 5b 3f be b1 3c 54 bc 19 9b 8a bb 7f b0 3d be
       -0.18687373 -0.012953923 -0.004229915 -0.18524359
0002e0 09 b4 67 3c ab e6 92 bd 68 2c 3f 3c d4 8b 61 bd
       0.014142045 -0.07172903 0.011668302 -0.05506499
0002f0 bd e7 41 3c a6 2d 6d bd d0 d6 bd 3c 5f b8 e2 3b
       0.011835036 -0.057904862 0.02317372 0.0069189514
000300 d1 2a 1f 3d 0d 4a 9c bd 00 f5 eb bd a5 e1 4e 3d
       0.038859192 -0.076313116 -0.115213394 0.05050816
000310 3d 5e 80 bc f0 50 83 bd a8 23 9a 3d 0b 5c bc bd
       -0.015669936 -0.06411922 0.07526332 -0.09197243
000320 b4 5c 44 bd 4f 5e 0a 3d 9b ec f1 3d 6c c8 c3 3d
       -0.04793997 0.033781346 0.11812707 0.09559712
000330 71 27 9e bd 12 9e 9c bb ae 99 04 bc ab ea 92 3d
       -0.077223666 -0.0047795856 -0.008093281 0.071736656
000340 46 6f a6 bc db 7e 23 be 34 33 74 bd 3e 76 be bd
       -0.020316731 -0.1596636 -0.059619144 -0.09299897
000350 94 8e 46 bd e4 b9 d9 3c 6c 66 1f 3c 22 02 04 3d
       -0.048475817 0.026577897 0.009729009 0.032228597
000360 91 6a 4f bd bc f5 1f 3d 9b 47 42 bd 50 e5 6a 3d
       -0.05063874 0.03905271 -0.04743157 0.057347596
000370 d9 28 46 bd 58 63 ba 3d eb 23 12 be f3 f9 05 3d
       -0.0483788 0.091009796 -0.14271514 0.032709073
000380 98 28 64 3d 5d 9e de bc e4 20 36 3d ec 54 7f bd
       0.055702776 -0.027175123 0.04446496 -0.062336847
000390 eb d0 1f be c3 98 b4 bc ea 3b 14 3d af d3 20 bd
       -0.1560704 -0.022045499 0.03618995 -0.039264377
0003a0 04 c1 d4 bc 2b da 4a bd 7d 3d 20 be fb 46 73 bd
       -0.025970943 -0.049524467 -0.15648456 -0.059393864
0003b0 48 39 f9 3c e0 6a bf bd 59 33 96 3d 02 85 7d bd
       0.030422822 -0.09346557 0.073340125 -0.061894424
0003c0 aa da 82 bd ac 0a 55 3c b9 98 c9 bd 16 e5 de 3b
       -0.06389363 0.013003033 -0.09843583 0.0068022115
0003d0 24 6d ce bd ac cf 12 39 6d 15 c6 3d 28 d7 9d bd
       -0.10079411 0.00014001009 0.096720554 -0.077070534
0003e0 54 78 33 bc fe 4e a1 bd 51 f9 9e bd 38 d7 33 bd
       -0.010953981 -0.07876395 -0.07762397 -0.04390642
0003f0 00 83 ba 3d 09 02 4a bb a6 a7 11 be c0 1b f5 bd
       0.091070175 -0.0030823967 -0.14224109 -0.119681835

sequential_3/conv2d_109/Conv2D f4 [64, 3, 3, 64]
000000 fb 77 85 bd b6 c7 c3 bd e3 11 fe bc d3 34 05 bd
       -0.06517025 -0.09559576 -0.031014388 -0.03252108
000010 06 3e 00 3b 35 31 41 be 57 4b e1 bd 68 84 1d bb
       0.001956822 -0.18866427 -0.11000698 -0.002403522
000020 51 2f 35 be e6 e3 2c bd a8 94 92 3d 99 a7 c3 be
       -0.17693831 -0.04220953 0.0715726 -0.38213804
000030 fc e4 9d bd bd 4d 6c 3d 3d a8 8f bd 46 56 b5 bd
       -0.07709691 0.057691325 -0.07014511 -0.08854346
000040 ad a0 fe bd e5 ee 13 bc a9 10 46 bd e6 16 61 bd
       -0.1243299 -0.009029125 -0.048355732 -0.05495348
000050 02 ee 8d bd 2f 19 ee 3c 51 9d b4 bc 6b 37 8e bc
       -0.06930162 0.029064743 -0.02204767 -0.01736041
000060 c3 11 0f bc 5c 7e 54 bd 76 80 bf bc 00 b3 0f bd
       -0.008732262 -0.05187832 -0.023376685 -0.035082817
000070 14 cc b7 3c 15 cf dc bb fe de 73 3d bd a9 52 bd
       0.02243618 -0.0067385533 0.059538834 -0.051431406
000080 9e 58 de bd f5 1f ec bd 1f 49 f1 bd 7f 13 66 be
       -0.10856746 -0.11529533 -0.11781525 -0.22468375
000090 bf 4c 41 bd 4a e6 a8 bd 89 03 b3 bd 61 e6 e3 bd
       -0.04719233 -0.08247049 -0.08740909 -0.11127926
0000a0 d4 cc c8 bd a4 46 84 bd ca 93 aa 3d c4 44 a4 bb
       -0.09804693 -0.06458786 0.0832897 -0.0050130803
0000b0 52 99 92 bd c7 cb 42 bd 2a 73 09 3d 21 17 fd 3b
       -0.0715815 -0.04755762 0.033557095 0.0077237044
0000c0 4a 08 a5 bc 98 14 8a 3d 08 8a 17 be 0d ac 9f 3a
       -0.020145554 0.06742209 -0.14798748 0.0012182012
0000d0 d1 cd 73 3d 2e 07 74 bd c3 6c 22 bd 34 89 ac bc
       0.059522454 -0.05957716 -0.039654505 -0.021061517
0000e0 49 89 86 bd 1d 5b 9f bd e3 48 ef 3d fe 31 3f bd
       -0.06569154 -0.0778105 0.11683824 -0.046678536
0000f0 fb 5d eb bc c2 b3 01 bd 4f 59 2d be 5c 15 56 3c
       -0.028731337 -0.03166557 -0.169286 0.013066616
000100 39 d1 c3 3d 07 b6 e5 bd 10 4d af 3d 2a 7e 2b 3c
       0.095613904 -0.112163596 0.085596204 0.010467092
000110 62 17 d5 bd ed 27 46 3c 8f 3f 81 3d c5 e2 21 bc
       -0.104048505 0.01209448 0.06310951 -0.009880726
000120 4b ab 30 3d d6 65 11 be 35 54 12 bd f1 b9 9b be
       0.043132108 -0.14199004 -0.035724837 -0.304153
000130 31 74 58 bd 92 17 83 3c c5 c1 14 3d c8 5e 96 3d
       -0.052845184 0.01600245 0.036317606 0.07342297
000140 c3 66 42 bc d3 cb c4 bd 0b 39 92 bd f4 f1 a2 3d
       -0.011865321 -0.09609189 -0.07139786 0.07956305
000150 e1 c3 ac bb bc 0f 74 bd 31 b9 1d be 7d 1b 66 bd
       -0.005272374 -0.059585318 -0.15402676 -0.05617856
000160 ff b9 e6 bd 0f 60 22 bd df 14 d8 bc 62 31 da bc
       -0.11265945 -0.03964239 -0.02637714 -0.026634876
000170 cb 2c 5c bd a1 dd 1a bc a7 ea 0e 3d 3f a8 b3 3d
       -0.053753655 -0.0094522545 0.03489175 0.08772325
000180 13 ba 8e bd 3c d0 19 3d 07 75 0e be 19 fa 95 3d
       -0.069690846 0.037552103 -0.1391183 0.07323093
000190 d7 d2 95 3c 08 d2 23 3d 65 5e b6 bd 86 a2 4c 3c
       0.018289013 0.039995223 -0.08904723 0.0124899205
0001a0 e0 a4 4a be ae 24 be bd 92 f7 00 be 75 52 18 bb
       -0.19789457 -0.0928434 -0.1259444 -0.0023242508
0001b0 bb a8 a6 3d 5c 61 5d 3e 26 b3 48 3d 7d 0b 8c bd
       0.081376515 0.21619171 0.048998974 -0.06838129
0001c0 25 03 a5 bd d4 a9 dc bb 83 71 d1 3d 08 5f 6a bd
       -0.080572404 -0.0067341123 0.10226729 -0.057219535
0001d0 a3 12 1d 3d 2b 88 c9 bd 06 34 34 be 4e 20 cc bc
       0.03834785 -0.09840425 -0.1759797 -0.024917748
0001e0 33 02 ad bd f7 02 7e 3b 9e 0a 93 3c 71 62 12 3e
       -0.08447685 0.0038759091 0.017949399 0.14295365
0001f0 45 a7 27 3c a1 8b 83 3d 26 ab 9f bd b8 b0 1e bb
       0.010232751 0.064231165 -0.07796316 -0.002421422
000200 cc 37 65 3d c5 89 40 bd 15 b4 b6 3d 56 b2 a9 3d
       0.055961415 -0.047006387 0.08921067 0.08285968
000210 15 d2 09 be ca 2f 90 bd 76 3b fd 3b 3b 08 c6 3d
       -0.13459046 -0.07040365 0.0077280356 0.096695386
000220 fe 84 99 3d e3 6c f5 bd 01 88 89 3d 29 ee bc bd
       0.07496069 -0.11983659 0.06715394 -0.09225113
000230 64 d3 7a bd aa a4 a0 bd b0 84 fa 3c 85 75 32 3e
       -0.061236754 -0.07843907 0.030580848 0.17427643
000240 1d 12 c3 bd 4e e0 46 bd fb 9c f3 bc 63 31 c5 3c
       -0.09524939 -0.048553757 -0.02973794 0.024071401
000250 ba 6c 5f 3d 6b 75 9f 3b 1f d0 ba 3c ca dc e3 3d
       0.05454705 0.0048662922 0.022804318 0.111260965
000260 cf 32 0a 3d 79 d1 d5 3c c2 62 05 3e 6e 42 65 3b
       0.03373986 0.02610086 0.13025954 0.0034982222
000270 ad e4 69 3d 53 16 c2 3c 74 7d fd 3c c5 76 ae 3d
       0.057102848 0.023692286 0.03094361 0.08518747
000280 99 f6 64 3d 0a 86 a5 3d a4 00 00 bd 69 b9 05 bd
       0.055899236 0.080822065 -0.03125061 -0.032647524
000290 9e 36 0c bd 42 e5 56 3d 1e 76 1e be 04 a6 23 3e
       -0.034231775 0.05246473 -0.15474746 0.15981299
0002a0 0f b9 7f be 88 d4 bb bd 96 2f b1 bc dd b9 b9 bd
       -0.24972938 -0.091713965 -0.021629136 -0.09068654
0002b0 1a fa a3 3d 17 29 7b 3e 04 14 2a 3d 79 07 c6 bd
       0.080066875 0.24527393 0.041522995 -0.09669394
0002c0 12 7b 8a bd b1 f3 8a bc e2 85 d8 3d ce 2e 05 be
       -0.06761755 -0.016961904 0.10572411 -0.13006136
0002d0 5a 6b f0 3c 9e 05 ac bd e8 15 f6 bd 95 c4 6d be
       0.029348064 -0.08399509 -0.12015897 -0.23219521
0002e0 3a 1b fb bd 33 22 0e 3d 8f 23 16 3d f5 4f 38 3e
       -0.122610524 0.034700584 0.036655005 0.17999251
0002f0 23 35 8a 3c e9 5b 61 bd fa d4 24 be ee 3f 19 bc
       0.01687104 -0.055019293 -0.16096869 -0.009353621
000300 d1 42 0c be f5 63 12 be dc 6c ea bd 53 39 ca bd
       -0.13697363 -0.14295943 -0.114465445 -0.09874215
000310 1f 69 fe 3c 86 67 19 be 86 71 47 bd 84 d5 7c 3d
       0.031055985 -0.14980897 -0.04869225 0.061727062
000320 61 25 69 bd c0 bf 12 3d 49 7d 8b bb 87 ce a9 be
       -0.056920413 0.0358274 -0.0042568785 -0.3316538
000330 2d fd 1e 3d 9b 8a 16 bd 0a f7 b2 bd b4 16 02 be
       0.038815666 -0.03675328 -0.08738525 -0.12703973
000340 82 aa 8d bd 09 a7 90 bc 04 69 42 3d a4 2c fe bb
       -0.069172874 -0.017657774 0.047463432 -0.0077567864
000350 59 3a 66 3c e7 1e 21 3d de f0 ab 3c f6 48 1e bd
       0.014051997 0.03933611 0.020988878 -0.0386438
000360 57 b9 87 bd f2 55 5a 3c 6f 4e 13 be 12 e6 86 bd
       -0.06627148 0.013326155 -0.14385389 -0.06586851
000370 ae b9 c0 bd f8 62 90 3c 42 f7 3d 3d ad 2f b7 3d
       -0.094104156 0.017625317 0.04637838 0.0894464
000380 c4 ae f4 bc 13 70 29 be bf d1 aa bd cb 15 c8 bd
       -0.029868491 -0.16546659 -0.08340787 -0.09769782
000390 e1 d2 d6 3c 48 a0 1b be a5 35 cf bc fb f8 94 bd
       0.026223602 -0.15197861 -0.025294134 -0.07274052
0003a0 1c 2e 9e 3d 3b 51 df 39 28 f2 25 3d 0b b4 52 bd
       0.077236384 0.00042594396 0.04051414 -0.051441234
0003b0 55 c1 21 be 36 ef c2 bd b3 81 da bd ff 9f 5c 3b
       -0.15796407 -0.09518282 -0.106692694 0.00336647
0003c0 d3 d6 d0 3c a7 d6 01 bd 3e e6 af bc 6e 09 05 bd
       0.025493061 -0.03169885 -0.021472093 -0.032479696
0003d0 f9 a0 8c bc 2f 86 d8 bd b8 6b d1 3c ed c6 99 bc
       -0.017166601 -0.105724685 0.02556406 -0.018771613
0003e0 48 a3 7e bd fb 40 78 bd 52 62 e2 bd 0d 32 94 bd
       -0.062167436 -0.060608845 -0.11053909 -0.07236109
0003f0 6c 66 c0 3b 76 46 3f 3d 81 07 01 be d6 cc 71 3d
       0.0058715846 0.046698056 -0.12600519 0.059033237

sequential_3/conv2d_108/Conv2D f4 [64, 3, 3, 32]
000000 2f 33 c8 3d 44 8e db bd d6 d5 25 be ee 37 a3 bd
       0.097753875 -0.107204944 -0.16194853 -0.07969652
000010 05 a1 01 3e 4d a4 18 3e 3b 67 69 be 0a 4d 8b bd
       0.1265908 0.14906426 -0.22793286 -0.068018034
000020 e3 e7 af 3d 59 fe fe 3d 5b 24 6b 39 cb dc f3 bd
       0.08589151 0.12450857 0.0002242489 -0.11907347
000030 34 02 01 bd 4c c5 0c 3e eb 1f 10 3c 53 87 4d be
       -0.03149624 0.13747138 0.008796672 -0.20071153
000040 2f 03 45 be 4a 0d 7b 3c 19 62 ca 3c 48 7f cc bc
       -0.19239496 0.015322993 0.02470498 -0.024963036
000050 f6 a7 61 3e e6 d0 e4 3d 92 86 1e bc 68 f2 fa 3c
       0.22036728 0.11172657 -0.009675639 0.030633166
000060 03 7f 8b 3d c3 a9 59 3e 4c c0 4a bb b2 ac 90 bd
       0.06811335 0.21256165 -0.0030937372 -0.07064189
000070 f4 28 66 3d 78 85 23 38 c8 39 47 be 3d 84 88 bd
       0.0561914 3.898653e-05 -0.19455636 -0.066658475
000080 d6 12 8f bd 8b e8 07 be 2d 71 ff bc 65 85 8e bd
       -0.069860145 -0.13272302 -0.031181896 -0.06959037
000090 97 c5 05 3e bf 07 f3 bd bf 93 11 3d 14 6a e9 ba
       0.13063656 -0.11866712 0.035541292 -0.0017808103
0000a0 c9 0c fe 3d 73 78 9e 3d 18 58 06 bd 96 d9 83 3a
       0.12404782 0.077378176 -0.032798856 0.0010059352
0000b0 82 66 37 bd 01 c7 80 bd ba 75 58 3d 98 c4 1c 3d
       -0.044775493 -0.06287957 0.052846648 0.038273424
0000c0 c7 2c 6f 3b 1e c2 00 be 27 74 49 bb db d3 93 3d
       0.0036495195 -0.1257405 -0.0030739398 0.072181426
0000d0 be 14 88 be e6 49 42 3e d6 82 ed bc e4 37 b4 bd
       -0.26578325 0.18973503 -0.028993051 -0.08799723
0000e0 44 c9 ce 3d ee 61 c4 3c f6 94 55 be eb ac 57 bd
       0.10096982 0.023972478 -0.20857605 -0.05265514
0000f0 18 d3 82 3d a9 e1 da 3c 2f 58 bc bd ce b8 ca bd
       0.06387919 0.026718931 -0.09196507 -0.0989853
000100 f3 6c e8 bd ca 4a 91 be 8c 98 ff bd d1 29 46 bd
       -0.113489054 -0.28377372 -0.12480268 -0.048379723
000110 e6 b8 0d 3e 7f 5f ff bd a1 89 1a bc 7a 9d 12 be
       0.13840064 -0.12469386 -0.009432227 -0.14317885
000120 f2 b3 aa bd 00 55 cf ba af 48 7c bd 27 c4 eb bd
       -0.08335103 -0.0015818179 -0.061592754 -0.115120225
000130 c8 ed 88 bd ac 51 a4 bd 65 a8 20 3e b2 51 c7 bd
       -0.06685978 -0.0802339 0.15689237 -0.09732379
000140 67 fa 9b 3d 61 30 9d bd 1e c1 c2 bd b8 a9 8f bd
       0.0761612 -0.07675243 -0.095094904 -0.07014793
000150 56 f3 04 be 0b c9 a6 3d af ec 90 3d c2 0a 6b bd
       -0.1298345 0.08143815 0.07076394 -0.057383306
000160 c4 54 91 3d 90 98 1e 3e bf d9 39 3e 33 48 a6 3d
       0.07096246 0.15487885 0.1814947 0.0811924
000170 94 f1 cc bc 82 11 8f bd f3 a3 ff bd d2 92 ad bd
       -0.025017537 -0.06985761 -0.12482443 -0.084752694
000180 bd c5 6d 3d 5e b0 9d bd 22 da e8 bd 34 2b 5b 3c
       0.058049906 -0.07699655 -0.113697305 0.013377
000190 53 00 d5 3d f0 d7 09 3e 09 9d e4 bd 78 e3 07 be
       0.104004525 0.1346128 -0.111627646 -0.13270366
0001a0 4b eb dd bc d6 84 1e 3c 3b 11 26 bd 67 bf b0 bd
       -0.027089735 0.009675225 -0.040543776 -0.08630257
0001b0 27 09 91 3c 54 e2 1f 3e 28 05 c1 3d 72 de 08 be
       0.01770456 0.15613681 0.094248116 -0.13366106
0001c0 af 43 68 be 45 5b cd 3d 92 f4 61 3d 2a e3 f0 3c
       -0.22682069 0.10027174 0.05516488 0.029405195
0001d0 73 23 24 3e 49 09 33 3c 92 fe 27 3d e8 39 18 bc
       0.16029148 0.010927507 0.04101426 -0.00929115
0001e0 51 08 07 3e 73 64 5a 3e 90 5d 1e be 80 2c 09 bd
       0.13186766 0.21327381 -0.15465379 -0.033489704
0001f0 1d 39 80 3d e5 2c 8c bd 4b 08 38 be 2b e2 2f be
       0.062608935 -0.068445005 -0.17971914 -0.1717612
000200 78 c0 39 bd 97 ce 21 bd 4b ec 12 3d f4 22 a2 3d
       -0.045349568 -0.03950366 0.035869878 0.07916823
000210 00 c3 45 3d 03 93 0d be 15 90 4f bc 6e 2a 89 bc
       0.04828167 -0.13825612 -0.012668629 -0.016743865
000220 5e 7b 2c 3e 42 b2 8e 3d 14 38 f1 bd ed d9 01 bc
       0.16843936 0.06967594 -0.11778274 -0.007925493
000230 8e 7a 10 be 87 00 87 bc fb 9d 46 3c b8 c8 40 bd
       -0.14109251 -0.016479744 0.012122626 -0.04706642
000240 22 66 c7 bd 17 fc 95 bd 83 0c 17 3d 9d ad 3c 3c
       -0.09736277 -0.07323473 0.036877166 0.011516002
000250 18 f7 33 be e8 92 4a 3e f5 d0 8e bd 51 5a ed bd
       -0.17574728 0.19782603 -0.06973449 -0.11589492
000260 d8 db 01 3e cb d0 6e 3d cb 06 67 be 05 2a 0c 3d
       0.1268152 0.05830459 -0.22561185 0.03421976
000270 a3 a6 90 bd 05 ad 9b bb 90 b6 ea bd 0b de 48 be
       -0.070630334 -0.00475085 -0.11460602 -0.19615953
000280 b7 0c ee bd 20 c5 76 be 7e 84 a3 bd a8 a6 a8 3c
       -0.11623519 -0.24098635 -0.07984255 0.02058728
000290 b0 76 2c 3d 96 c4 a9 bd 48 ff 87 3d 16 ce ad bc
       0.042105377 -0.08289449 0.06640488 -0.021216433
0002a0 27 5d 03 be 23 5c 57 3d 1e a8 3a be 5d e6 34 be
       -0.12828504 0.052578103 -0.18228194 -0.17666002
0002b0 dc b0 be bd 55 86 be bd 55 64 a7 3d 56 62 b5 bd
       -0.09311077 -0.093029656 0.08173434 -0.08856647
0002c0 a9 2b d1 bd 6c 6c 73 bd 92 18 80 3d 03 4c e2 3d
       -0.10213406 -0.05942957 0.062546864 0.11049654
0002d0 42 e1 78 bd 73 1c 65 3d 6f 64 c1 bd ae b6 16 be
       -0.060761698 0.055935334 -0.09442984 -0.14718124
0002e0 44 e1 f8 bb ad 0c 35 3e 81 61 67 3d 78 2b 49 bd
       -0.007595213 0.17680617 0.05648947 -0.04911372
0002f0 68 62 9b bc b3 63 7b bd 5e 3f 34 be eb 6c 0c be
       -0.018967822 -0.061374377 -0.17602298 -0.13713424
000300 66 55 62 3d bb ae c6 bd b4 22 85 bd 65 ee 01 3e
       0.055257224 -0.09701296 -0.0650076 0.12688597
000310 f7 c5 e4 3d 50 42 a0 3d 6b 5a 8c 3c ce c6 c3 bb
       0.11170571 0.07825148 0.017132958 -0.005974627
000320 17 89 2a 3e fd 19 6a 3b 52 0d 8f bd 0b c5 5a bc
       0.16653858 0.0035721057 -0.069849625 -0.013352643
000330 29 f5 97 3c 88 18 c7 3d 43 d1 0a bd 5e 06 c0 bc
       0.018549519 0.09721476 -0.033890974 -0.023440536
000340 89 c9 6b be 5c 9e 51 3d 8e 00 92 bd 98 fa cf 3d
       -0.23026098 0.051176414 -0.07129012 0.10155219
000350 65 e5 78 3e 8e 8b 88 3d 40 46 01 3d aa 45 8b 3d
       0.24306257 0.06667243 0.031561136 0.06800397
000360 5b d7 d4 3c 86 73 08 3e 65 90 81 be 69 d0 68 3e
       0.025981596 0.13325319 -0.25305477 0.22735752
000370 e8 8c a7 3d 7a 49 9e ba 65 ab 8c bd 8a 44 27 bc
       0.081811726 -0.0012076341 -0.068686284 -0.010209212
000380 98 3d b0 bd 5a 52 1a bd 2c d4 90 3c 42 10 e4 3d
       -0.08605498 -0.037676193 0.017679296 0.111359134
000390 63 dd 6f bd 4d 52 e5 bc 43 95 39 3d c3 37 83 3d
       -0.05856074 -0.027993346 0.045308363 0.0640712
0003a0 94 30 58 3e bf 1e f7 3c 57 66 49 3c 9d 33 cd bc
       0.21112281 0.030166028 0.012292466 -0.025049025
0003b0 5f d6 b6 bd 40 89 b1 bd 77 8b 9f bc e3 5b aa 3d
       -0.08927607 -0.086687565 -0.019475682 0.08318307
0003c0 0f ab 31 bd 76 74 3b be 56 63 b4 3c e8 44 71 3d
       -0.043376025 -0.18306145 0.022020023 0.058903605
0003d0 2e 21 19 be 82 82 47 3d 65 fc 48 3d 31 ec b8 3b
       -0.14954063 0.048708446 0.049068827 0.0056433906
0003e0 1d 8e 0b 3e 95 42 e4 3d 9a 26 8b be ce 94 a7 3e
       0.1362843 0.11145512 -0.27177888 0.32730716
0003f0 82 03 f7 3c 74 5d 45 bd bd 7a 1c be 70 ef 4c bd
       0.03015304 -0.048184827 -0.15281196 -0.050033033

sequential_3/conv2d_107/Conv2D f4 [32, 3, 3, 3]
000000 9c 83 40 3d 19 c9 e2 3d f0 5a 02 3d 1d f8 9e bd
       0.047000512 0.110735126 0.031825006 -0.077621676
000010 69 0e 6e bd b5 72 d0 bd 32 9e 43 3a dc eb 63 3d
       -0.05811921 -0.10178129 0.00074622326 0.055644855
000020 8a 7c 07 3e 52 d9 c9 ba 61 eb ab 3d 54 7b 15 be
       0.13231102 -0.001539985 0.08394504 -0.14597827
000030 df 70 b6 3c cd 3c d7 3c 13 ff 8b bd c8 cd a5 3c
       0.022270618 0.02627411 -0.06835761 0.020239726
000040 87 ad 11 3e 13 67 26 bd c7 19 84 bd 51 5e 7c 3d
       0.14226352 -0.040625643 -0.06450229 0.061613385
000050 9a 13 c4 bd 9f 63 b8 bd 36 75 6b 3d 57 d2 1d be
       -0.09574051 -0.09003376 0.057484828 -0.1541227
000060 8f 50 32 3e a4 2e 1b 3e 45 d8 a3 3d 6b e0 00 3c
       0.17413543 0.1515451 0.080002345 0.007866005
000070 5b de 3e be dd 21 e4 bd ea 64 19 bd 12 f0 00 be
       -0.1863951 -0.111392714 -0.037449755 -0.1259158
000080 a4 31 48 be 4b 2e 60 3d e3 bc 4d 3e 2c 8c c1 3d
       -0.19550186 0.05473165 0.20091586 0.09450564
000090 79 37 b6 bc 8a dd 9a bc 25 da 00 bd 8a 5a 5a be
       -0.022243248 -0.018904466 -0.03145804 -0.213236
0000a0 31 1a 49 be 29 26 2e be 65 38 14 bd 78 5c cf 3d
       -0.19638897 -0.17006744 -0.036186595 0.10125059
0000b0 49 7f 68 3e c9 ad 1a bd 0b 1b 64 be de 1f c8 bd
       0.22704805 -0.03776339 -0.22275941 -0.09771703
0000c0 fa 14 9b bd f3 37 52 be b4 a4 53 be be 72 4b 3e
       -0.0757236 -0.20529155 -0.20668298 0.1986799
0000d0 f7 4a ce 3d f0 8d b7 3d be eb 23 3e 36 c6 02 3e
       0.10072892 0.08962619 0.16007897 0.12770924
0000e0 4b e9 2a 3e 05 08 4c 3e 46 de 4a bd f1 ff cc 3b
       0.16690557 0.19924934 -0.049528383 0.0062560965
0000f0 e1 aa e8 bc e3 3f 35 3d f4 af 47 3d f2 ec e6 3d
       -0.028401794 0.04425038 0.048751786 0.112756625
000100 f5 17 53 3d e7 5a 0c 3e 53 d8 e0 3c 2d fe 76 bd
       0.05153652 0.13706551 0.027446901 -0.060300995
000110 b7 ec 84 bd 39 0c 1b 3e 1a 96 a6 bb e8 85 44 3d
       -0.06490462 0.15141381 -0.0050838115 0.047979265
000120 e3 95 ec bc 6d 1a d6 3d 04 8b fa 3d d7 2c 10 bd
       -0.028880065 0.10454259 0.122335464 -0.035199013
000130 f0 53 28 bd 22 e3 a7 3d c6 62 cd bd 69 5c e3 bd
       -0.041095674 0.08197619 -0.10028605 -0.1110161
000140 0a 07 c0 bc 85 0d 73 be b4 94 d9 bd 39 7f 3d 3e
       -0.023440856 -0.23735626 -0.10624066 0.18505563
000150 70 79 6d bd 35 86 4a 3d c6 6f 1a 3d ab 05 45 be
       -0.05797714 0.049444396 0.03770425 -0.19240443
000160 a8 2f bd bd ac 8b f7 3d 54 92 a1 bd c6 29 74 3d
       -0.09237605 0.12087187 -0.07889238 0.05961015
000170 2e 72 8c 3e 61 85 4b be 54 9a 37 ba ce 71 32 3e
       0.27430862 -0.19875099 -0.00070038927 0.17426226
000180 c2 99 e5 bd 69 7e 99 3d 5b 12 17 3d 7b a7 2e be
       -0.112109676 0.07494814 0.03688274 -0.17056076
000190 e4 0b 3d b9 2d 3e 74 3e dc ac b5 bd 77 6f b2 3d
       -0.00018028874 0.23851843 -0.08870861 0.087126665
0001a0 ee 07 e0 3d 8b 90 af bc 02 0d 55 3d 9f 67 90 3d
       0.109390125 -0.021431228 0.05201436 0.07051014
0001b0 32 73 17 be 05 4b d4 bc 78 cb 17 be e0 8f 77 3d
       -0.14790037 -0.025914678 -0.14823711 0.060439944
0001c0 b6 12 95 3c 21 68 83 bd 70 9a 75 bd f8 d9 1e be
       0.018197399 -0.064163454 -0.059961736 -0.15512836
0001d0 03 26 9c bc cc a2 3c be 3f e5 11 3d 53 ce 5e be
       -0.019061094 -0.18421477 0.035619017 -0.21758394
0001e0 52 66 7a bd 0e 94 1e 3e 68 83 aa 3c 03 c3 c3 bd
       -0.061132737 0.15486166 0.020814613 -0.0955868
0001f0 63 4d 06 3d a4 47 19 be 36 7a 4b be cc 95 4e ba
       0.032788645 -0.14968735 -0.19870839 -0.0007880598
000200 0a 79 2b 3d 46 8c cc 3d 0a 87 dc 3d 02 31 c4 bb
       0.04186348 0.099876925 0.10767944 -0.0059872875
000210 a1 e1 33 be 81 08 90 bd bc 7f 5c be ab 49 d9 bd
       -0.1756654 -0.07032872 -0.21533102 -0.10609754
000220 21 8b b9 bd 09 a1 47 be f9 5a 6e 3d 37 7d af 3c
       -0.0905974 -0.19495024 0.058192227 0.021422012
000230 ee dc d0 3c c9 94 3d 3c 96 f3 af bd cf 2b c4 bd
       0.025495972 0.011571118 -0.08591382 -0.09578668
000240 dd 67 0e be 9b ff 42 bd 6e d8 8e bc c8 08 2e 3e
       -0.13906808 -0.047607046 -0.017437186 0.16995537
000250 d4 bd d6 3c 7a 27 19 3c 06 c3 3c bc c1 5d 87 bc
       0.026213564 0.009347791 -0.011521107 -0.016524198
000260 a6 bd 4a 3c 06 ad 22 bd c0 00 68 3d 54 0c db 3c
       0.012374317 -0.03971579 0.05664134 0.026739277
000270 92 28 2d 3e 78 0b 73 3e 7c a7 83 3d 86 89 ec 3c
       0.16910008 0.23734844 0.064284295 0.02887417
000280 09 1e b4 3d 02 be 69 3d cd ff af bd 1a 6a 00 be
       0.08794791 0.05706597 -0.08593712 -0.12540475
000290 cf 09 f8 3c 46 a2 b1 bd d1 27 b1 bd 29 5e 5d be
       0.030278115 -0.08673529 -0.086501725 -0.2161795
0002a0 73 61 37 be 32 2a 48 be 8e 3c 34 be ba 72 04 3e
       -0.17908268 -0.19547346 -0.17601225 0.1293439
0002b0 f5 aa 3d 3e c0 e9 fd 3d e5 e4 a8 3d 7b 3c 7b 3d
       0.18522246 0.123981 0.08246783 0.061336976
0002c0 84 f5 88 3d 4d eb bc bd fd c2 90 3d 65 c5 53 bc
       0.066874534 -0.092245676 0.07068441 -0.0129254805
0002d0 0f b9 91 3e 4d 29 7a 3d 1a 8f 81 3e f5 fa 40 3d
       0.284615 0.061074544 0.2530449 0.04711433
0002e0 73 b9 e4 3d 7c 4c 5a 3d 63 6c 6c bc 9c a2 b7 bc
       0.11168184 0.053295597 -0.014430138 -0.022416405
0002f0 80 88 05 3e e0 a1 b2 3d 6e 82 0c bc 8c f3 3d 3c
       0.13040352 0.087222815 -0.008576019 0.011593711
000300 57 59 80 3d 69 0e eb bb dd dd b6 3d 7b 2c de bd
       0.0626704 -0.0071733487 0.08929036 -0.10848328
000310 b4 ba 37 bd 78 07 4e 3d cc da 3d 3e e5 ba a0 3d
       -0.04485579 0.05030009 0.18540496 0.07848147
000320 b0 1b 49 3e 84 2b 94 3c 50 89 af 3c 13 1c 58 3d
       0.19639468 0.018087156 0.02142778 0.05276115
000330 6e 14 eb 3d 12 0f d7 bd 67 49 87 3d 23 c6 68 bd
       0.11478506 -0.10500921 0.06605797 -0.056829583
000340 a2 10 88 3d 17 46 09 3e 4e 4a 00 bd 0f b8 74 3d
       0.066437975 0.13405643 -0.031320862 0.059745844
000350 4a 1c f0 3d b8 39 d4 bd 4b 2e 79 3c 11 a3 26 3e
       0.11724146 -0.103625715 0.015208791 0.16273142
000360 0b 82 c1 3d cf a9 1a bd 2e 97 58 3e b6 6a 18 3d
       0.09448632 -0.0377596 0.2115142 0.037211142
000370 7a b8 8a 3d 0d 33 02 be a5 78 0e 3e 30 f3 ef 3d
       0.06773467 -0.12714787 0.1391321 0.11716306
000380 c0 6d d5 bd ad c6 49 3c ee 78 5a bd 25 8c c7 bd
       -0.10421324 0.012315434 -0.053337984 -0.09743527
000390 3b 92 21 3e 0f b3 c7 3d 9d c2 58 bd 44 d8 cb 3c
       0.15778439 0.097509496 -0.052919973 0.024883397
0003a0 9b 02 81 3c e3 01 64 be 43 c2 32 be 89 c4 8e be
       0.015748313 -0.22266345 -0.17456917 -0.2788432
0003b0 99 89 aa be fa c0 e5 bd 79 a3 8e bd d5 b6 57 be
       -0.33308104 -0.11218448 -0.06964774 -0.21065839
0003c0 1b fa 11 be 39 69 ce bc 03 cc b2 bd 49 93 b5 3d
       -0.14255564 -0.025196658 -0.087303184 0.08865983
0003d0 4c ec bf bd e0 75 aa bd f1 0b de bd cb 74 ab bd
       -0.09371242 -0.08323264 -0.108421214 -0.08371886
0003e0 df f4 41 be 8d 47 00 3e da 8d 06 3b da bb c5 bd
       -0.18941067 0.12527294 0.0020531327 -0.096549705
0003f0 80 6d 7b 3d 67 70 c5 3d 71 55 43 be 5f 99 e5 3d
       0.061383724 0.0964058 -0.19075562 0.11210894

sequential_3/dense_42/BiasAdd/ReadVariableOp/resource f4 [64]
000000 ab dd 04 bd a8 73 a8 bc 72 2a b1 bc 4d 42 86 3d
       -0.03243796 -0.020562962 -0.021626685 0.065556146
000010 93 d9 91 3c c3 23 5d 3d 65 90 9f bd 54 e2 6d bc
       0.017803943 0.053989183 -0.07791213 -0.014519293
000020 99 70 d2 3d 20 f6 98 3d 52 eb e2 bc fe dc 0c 3d
       0.102753825 0.074688196 -0.0277001 0.034390442
000030 d5 d8 bd bc 9a 06 57 bc ea 3e 57 bd 4c 03 ef bc
       -0.023174683 -0.0131241325 -0.052550234 -0.029176377
000040 63 ae b1 3d ed 20 60 bc cb 8f ae 3c 6b 39 29 3d
       0.0867584 -0.013679725 0.0213088 0.041314524
000050 12 35 5c bd 8c 86 e4 3d 3e e6 91 bc c8 20 57 3d
       -0.05376155 0.11158475 -0.017809983 0.052521497
000060 a4 d6 44 3d 5e a1 ae bc 85 8f 35 3d 46 44 82 3d
       0.04805626 -0.02131718 0.044326324 0.063606784
000070 50 ba b3 bb 3c 03 ac bd af 3f 6c bc 99 9b 91 3d
       -0.0054848567 -0.083990544 -0.01441948 0.07109756
000080 80 81 06 3e 73 b6 89 3d 5f 73 a2 3d 67 61 17 3d
       0.13135338 0.067242526 0.079321615 0.036958124
000090 63 c3 38 3d af a3 2f 3d c7 ec 95 3d 75 5d 40 3d
       0.04510821 0.04288071 0.07320552 0.046964128
0000a0 08 fd 2b 3d 10 3c 74 3d 1b 38 fd bc a6 5b 93 3d
       0.041989356 0.059627593 -0.030910542 0.07195215
0000b0 3a 2b 13 bd 15 cc 63 3d da 0c bf 3d a5 fe e5 3d
       -0.035929896 0.05561455 0.09328623 0.1123021
0000c0 cc 08 05 bc 61 52 83 bc 4f 72 98 3d 1f 4e 59 bc
       -0.008119773 -0.016030492 0.07443678 -0.013263254
0000d0 6a 28 7c 3d 71 71 a9 bc b8 31 ad 3d cd 88 5b 3d
       0.06156198 -0.020683976 0.08456749 0.05359726
0000e0 7c 16 c7 bd 9e ef 21 bd b7 ba 1c 3d be 7a 67 bc
       -0.097210854 -0.039535157 0.038264003 -0.014128385
0000f0 19 c2 2d bd 08 13 0a 3d cc 25 70 3d b0 3d c2 3d
       -0.042421434 0.033709556 0.058629796 0.09484422

sequential_3/dense_42/MatMul f4 [64, 128]
000000 82 ba 15 3d 4a 7a 12 be c7 d9 89 3c 8e 86 a7 bd
       0.03655482 -0.14304462 0.016827477 -0.08179961
000010 96 28 14 be e7 60 2a be ef 78 0b 3e bc 29 c6 3d
       -0.14468607 -0.16638528 0.13620351 0.09675929
000020 53 d4 0d be d5 94 3b be 1f 4a 09 3d 22 9f 11 be
       -0.13850527 -0.18318494 0.033517953 -0.1422086
000030 5b 26 fa 3d 79 49 9c 3d 50 a5 c1 3c e6 e5 d6 bd
       0.12214347 0.07631201 0.023638397 -0.104930684
000040 61 ac 1d be ba 56 59 be 94 82 66 3d b2 df a9 bd
       -0.15397789 -0.2122449 0.056276873 -0.082946196
000050 f0 e7 fd bd bd 3c 25 be 4f 8c 83 3d 09 a6 3b be
       -0.12397754 -0.16136451 0.06423246 -0.18325056
000060 44 4a e3 bd 7c 26 fa bd d7 74 f9 3c bf 77 99 bc
       -0.110981494 -0.122143716 0.030451221 -0.018733857
000070 80 99 ee bd 4a 0d a2 3d 43 bf de 3d a7 02 0f 3e
       -0.116503716 0.07912691 0.10876324 0.13965856
000080 34 1f 19 bd 7b c8 5c be 8f 70 65 bc 14 1b 05 be
       -0.037383273 -0.21560852 -0.014003887 -0.1299861
000090 6d 69 e9 3d c3 a6 44 be f5 e1 e6 3d 3e 4a 92 bd
       0.113970615 -0.1920424 0.11273567 -0.07143067
0000a0 31 15 66 3d 54 11 17 3d c1 b8 bf 3c a0 89 50 3d
       0.056172553 0.03688176 0.023403527 0.0509125
0000b0 ac 49 4e bc 87 bb e6 bd 71 a3 bf bd 0d e2 08 3e
       -0.012590807 -0.11266237 -0.09357346 0.13367482
0000c0 4a fe 17 be ba 73 5a be d7 ec 7d 3c 93 a5 fa 39
       -0.14843097 -0.21333209 0.015498362 0.00047807078
0000d0 51 e0 f7 bd fa 1f 65 bd 29 09 e6 3d 6c a0 d5 bc
       -0.12103332 -0.0559387 0.11232216 -0.026077472
0000e0 68 a9 cd bd 12 cc 0b 3e 35 47 92 bd 1b d0 04 3e
       -0.10042077 0.13652065 -0.07142488 0.12970011
0000f0 f3 e4 47 be 57 15 ca bc 13 ba fc bd 51 2c 0a be
       -0.19520931 -0.024668379 -0.12340178 -0.13493468
000100 f8 de 41 be a5 52 16 3e c9 57 08 3c 38 88 ad bd
       -0.18932712 0.14679964 0.008321711 -0.08473247
000110 e9 aa da 3d 8e e6 1e be 0a 4c a2 bd 32 30 e4 bd
       0.1067713 -0.15517637 -0.079246596 -0.11142005
000120 e9 45 ce 3c a4 2e 8e 3d a9 57 2a bd 00 39 4b be
       0.02517982 0.0694249 -0.041587505 -0.19845963
000130 d3 93 b1 3d 29 df 59 be 3b 1e ea 3d 7b dd 51 bd
       0.08670773 -0.21276535 0.11431547 -0.05123661
000140 63 77 a3 bd e8 57 f5 bd c8 14 0b 3e ff 1a 2b be
       -0.079817556 -0.119796574 0.13582146 -0.16709517
000150 63 a6 53 be 22 e1 5f 3d 74 d1 76 3d 93 9e 81 bb
       -0.2066894 0.054658063 0.060258344 -0.003955671
000160 b2 81 3a be ce 14 ab bc d1 4d b3 3c 90 9e aa 3c
       -0.18213537 -0.020883944 0.021887692 0.020827562
000170 27 96 fa 3c fa 40 dc bd 0a 7a 46 be e8 f4 b9 bd
       0.030589176 -0.10754581 -0.19382492 -0.09079915
000180 ba b5 3e be ae b8 bd bd 32 8c 55 3d 52 2a 01 3e
       -0.1862401 -0.092637405 0.052135654 0.126138
000190 11 2f 5b be 0a 57 32 be 31 b5 9d 3d 73 1b f8 39
       -0.21404673 -0.17416015 0.07700575 0.00047322697
0001a0 79 e1 62 3d af 61 bc bd db 4e ff bd 1f b9 0d 3e
       0.05539081 -0.09198319 -0.12466212 0.1384015
0001b0 e0 3a 3a be 48 78 fc 3d 48 39 6f 3d 3a 8e 67 3d
       -0.18186522 0.12327629 0.058404237 0.056532122
0001c0 9f dc a7 bd 33 75 aa bd 82 c3 0f be 4c 70 d5 bd
       -0.08196377 -0.08323135 -0.14039424 -0.104218096
0001d0 15 f6 b5 bd b1 0d b5 bd 12 ae b8 3c c1 2c bc 39
       -0.08884827 -0.08840502 0.02254394 0.000358915
0001e0 09 18 1e bd 40 30 4a 3d 4e 36 23 be a3 cf 4c be
       -0.03859714 0.04936242 -0.15938684 -0.20001082
0001f0 f5 48 e8 bc 4e f9 a0 bd 73 8a be 3d 35 58 00 bd
       -0.028355101 -0.07860051 0.09303751 -0.03133412
000200 79 44 20 be 86 c4 a1 3d 08 60 a2 bd 46 a7 d4 3c
       -0.1565112 0.07898812 -0.07928473 0.025958668
000210 18 46 df 3d b7 aa 77 bd 1f 94 65 3d 0b 55 d1 bd
       0.10902041 -0.06046554 0.056049462 -0.10221299
000220 47 b1 97 bc 1c 3b 37 3e 10 51 ac 3d e3 14 dc bc
       -0.01851715 0.17893642 0.08413899 -0.026865428
000230 7c 6a 18 be f6 89 12 3c 81 42 3f be 6d 6b 17 be
       -0.1488437 0.008944025 -0.18677713 -0.14787073
000240 5a a3 09 be 0a ce b4 3d 44 8c 2d 3d a5 84 c9 3d
       -0.1344122 0.08828361 0.042370096 0.09839753
000250 a0 28 cf bd 73 25 aa 3d 69 f3 58 bd 59 2e 23 be
       -0.101151705 0.08307924 -0.05296651 -0.15935649
000260 cc af ba 3d f8 e6 81 3d 82 a8 8a 3d 04 9a 89 3c
       0.09115562 0.06342882 0.067704216 0.016797073
000270 aa 13 93 bd 00 22 d2 3d cf b6 42 bd 72 60 6e 3d
       -0.07181485 0.10260391 -0.04753762 0.058197446
000280 c0 fd 31 be 20 e5 38 be 7e 0e 63 be 52 24 a2 bd
       -0.17381954 -0.18056154 -0.22173497 -0.07917084
000290 9a 8e 0f 3d 9f 3b 56 3d dd 0e 4e 3d c5 8f ea bd
       0.035048105 0.052302953 0.050307143 -0.11453203
0002a0 42 55 8d 3c 73 98 07 be e0 c6 ec bd d4 d5 d8 3b
       0.017252568 -0.13241749 -0.1156137 0.006617287
0002b0 87 49 72 bd 6a f0 7e 3d 4e cb 63 3d 40 a3 fc 3d
       -0.059152152 0.062240995 0.05561381 0.12335825
0002c0 c6 13 0d 3d b0 a8 79 3d 43 b0 52 be 36 19 e9 bd
       0.034442686 0.06095189 -0.20575051 -0.11381762
0002d0 21 90 8e bd 14 b0 59 bd fa ec 5c be cb f6 ad bd
       -0.06961084 -0.053146437 -0.21574774 -0.08494338
0002e0 2f 4c 45 be f9 a5 cb 3d a2 cf e4 3c 7c a3 a7 bd
       -0.19267343 0.09943766 0.027931038 -0.08185479
0002f0 14 77 d2 bd 2a a3 53 bd b5 08 00 3e e7 22 e2 bc
       -0.102766186 -0.051669277 0.12503321 -0.027604533
000300 4b 7e ef 3d 77 37 5a bc 07 9e 26 3e 47 61 28 3d
       0.1169401 -0.013318888 0.1627122 0.041108396
000310 ad b5 59 bc c2 a1 b7 3d 2a e3 88 bd a0 e1 02 bd
       -0.013287944 0.089664 -0.06683953 -0.031953454
000320 93 3b 5a 3d 20 29 c1 bd 95 43 cc bc 21 78 d0 bd
       0.05327947 -0.09431672 -0.02493457 -0.10179163
000330 36 9c bf 3d 83 09 e6 3d 57 6e f3 3c 34 62 a4 bd
       0.09355967 0.11232283 0.0297157 -0.08026543
000340 60 ed 30 be ce ba 23 be f0 0f 05 be bd c5 6d 3d
       -0.17278051 -0.15989229 -0.12994361 0.058049906
000350 9a c1 5c be 3e 94 01 3e 86 b8 75 bd 2b ba e3 bd
       -0.21558228 0.12654206 -0.05999043 -0.11119493
000360 c0 8f 17 3e a9 82 87 be 78 06 2f 3d 5f 13 09 be
       0.1480093 -0.26466873 0.04273078 -0.13386296
000370 53 4a 07 3d 6f 95 4f be 8c 69 4e be f0 d0 f4 bc
       0.033029865 -0.20271848 -0.2015745 -0.029884785
000380 43 5d 74 3d aa 50 55 3d eb 67 3b be c1 04 6f bd
       0.059659254 0.05207888 -0.1830136 -0.058354143
000390 66 1f 2c be 7f ba 39 be 3c 36 6b be 57 b2 f7 3d
       -0.16808853 -0.18137549 -0.22969908 0.120945625
0003a0 f8 36 d9 bd 5d ba 20 3d 25 59 41 3c 34 1c c0 3d
       -0.106061876 0.03924023 0.011801039 0.09380379
0003b0 d6 aa 6b 3d 7c c9 84 bc 7e a0 52 be c2 50 4f 3c
       0.05753597 -0.016209356 -0.20569035 0.0126535315
0003c0 09 53 62 be 9e 05 e8 bd 2b 30 dd bd 8c 56 d4 3c
       -0.22101988 -0.113291964 -0.10800203 0.025920175
0003d0 f1 71 16 be bf 66 20 be 04 c2 ca bd 41 67 3e be
       -0.14691903 -0.15664195 -0.09900287 -0.18594076
0003e0 79 1d 90 bd 47 5c 15 3d 2d bd 8e 3d d6 fc 80 3d
       -0.070368715 0.036464956 0.06969676 0.06298225
0003f0 64 ef 0f 3e 29 af 0c 3d d9 bb 51 be f2 23 04 bc
       0.14056164 0.034346733 -0.20481814 -0.008065211

sequential_3/dense_43/MatMul f4 [1, 64]
000000 26 a5 62 3e 81 c8 2a be b8 00 05 bf 2f 44 82 3e
       0.22133312 -0.16678049 -0.5195422 0.25442645
000010 52 a8 dc bd 92 e7 4e be c2 75 fb 3e d8 b1 80 be
       -0.10774292 -0.20205525 0.4911328 -0.25135684
000020 08 cc 30 be 04 e5 6e 3e 08 06 f0 3d 66 d4 f1 3c
       -0.17265332 0.2332955 0.117199 0.029520225
000030 9c 84 0d 3d 36 99 a9 3d 3f ec 3b 3c f2 d2 36 be
       0.034550294 0.08281176 0.0114699 -0.17853907
000040 64 e3 c3 bd 0e ae 24 3e 70 12 a7 be 91 c4 da bd
       -0.09564856 0.16082022 -0.32631254 -0.10682023
000050 27 78 13 be 19 ce c0 3d 0a dd 41 3c 0c 71 b6 be
       -0.14401303 0.0941431 0.011832485 -0.35633123
000060 7a 52 53 3d f6 c2 7d 3c 5d cc b1 be fa d1 ee 3d
       0.051592328 0.015488377 -0.3472623 0.116611436
000070 b4 aa bf 3c 22 20 00 3f 36 05 78 be 59 00 5c 3e
       0.023396827 0.5004903 -0.24220738 0.21484508
000080 2b f4 27 be cb e6 77 3e 3a 53 a8 be 0a b3 43 be
       -0.16401736 0.24209134 -0.32875997 -0.19111267
000090 6f 47 8d 3e 27 04 19 be 19 ce ad be ae 68 90 be
       0.27593562 -0.1494299 -0.33946303 -0.28204864
0000a0 8e 68 89 be bd 1b 81 bd 5a 7a b5 bd 66 68 a5 3d
       -0.2683758 -0.06304119 -0.08861227 0.08076553
0000b0 5b 5d 7c bd f3 b6 bd 3e fa 2d 8d be 00 c1 81 be
       -0.06161247 0.37053642 -0.2757414 -0.2534256
0000c0 d4 d6 9f 3b 49 5f 40 3e 28 50 25 3e 15 a7 6c 3e
       0.0048779044 0.18786348 0.16143858 0.23110612
0000d0 62 c7 9b 3e ad c3 6e bd 19 a2 04 3e 34 e3 e1 bd
       0.30425555 -0.05829208 0.1295246 -0.11029664
0000e0 86 02 20 3f 67 a5 1d 3e 2c 4e f3 3d 35 3d dd 3d
       0.6250385 0.15395127 0.118801445 0.1080269
0000f0 cd 06 20 bd df 2c 9a 3e 5c 10 b3 be d8 25 e3 3d
       -0.039068986 0.3011236 -0.3497342 0.110912025
