LaneFollowingModel/dq_pruned_model.tflite (tflite, 151880 bytes, 11 tensors)

dense_33/bias f4 [64]
0.12832628 -0.0062679667 0.19256553 -0.12368785 -0.069267 0.123840876 -0.082109265 -0.04812461
0.1240986 0.15452468 0.13901113 0.07705012 0.091992475 0.09345378 -0.13155952 -0.040322848
-0.035115387 -0.056329444 -0.09655837 -0.0555185 -0.04570454 0.09377673 -0.03150798 0.11694233
-0.062721044 -0.039238557 0.11880014 0.16647168 0.1512594 0.09465175 0.16775951 -0.04891904
0.062414832 0.11612216 -0.06178757 0.1560404 -0.048862077 -0.067841426 0.11990529 0.19177307
0.14403282 0.09524469 0.07451257 -0.040082775 -0.0433714 -0.053099547 0.06050924 -0.020866489
0.09621375 0.002415278 -0.030994307 -0.03483481 -0.042515498 0.08882624 0.16332324 0.12930988
0.043429296 0.20456737 0.16275531 0.0993646 0.143878 -0.055790666 -0.11031449 -0.042625185
00000000: f767 033e 8463 cdbb e62f 453e 0e50 fdbd
00000010: dbdb 8dbd 49a0 fd3d e728 a8bd 501e 45bd
00000020: 6827 fe3d b83b 1e3e ef58 0e3e 74cc 9d3d
00000030: 8d66 bc3d b264 bf3d 8ab7 06be 9229 25bd
00000040: 27d5 0fbd b4b9 66bd 65c0 c5bd 5e67 63bd
00000050: af34 3bbd 040e c03d 830e 01bd 767f ef3d
00000060: e473 80bd 9cb8 20bd 7d4d f33d 8d77 2a3e
00000070: bfe3 1a3e c7d8 c13d 26c9 2b3e 555f 48bd
00000080: b2a6 7f3d 74d1 ed3d f714 7dbd 0ec9 1f3e
00000090: 9a23 48bd 72f0 8abd e890 f53d 2960 443e
000000a0: 577d 133e a60f c33d 0c9a 983d d62d 24bd
000000b0: 36a6 31bd e97e 59bd 89d8 773d 33f0 aabc
000000c0: b70b c53d a449 1e3b c6e7 fdbc f2ae 0ebd
000000d0: bb24 2ebd 88ea b53d 353e 273e cf69 043e
000000e0: ebe2 313d 1c7a 513e 54a9 263e ab7f cb3d
000000f0: c154 133e c184 64bd 90ec e1bd bf97 2ebd

conv2d_106/bias f4 [128]
0.0014671516 -0.053869694 -0.07284682 0.12955198 -0.04513862 -0.08098682 -0.039947104 -0.19049361
-0.31248972 0.15395552 -0.115169026 -0.053185932 -0.0015800676 -0.007948958 -0.09703283 -0.07049809
-0.061247244 -0.06623837 -0.017604018 -0.017535849 -0.061968103 -0.049961317 -0.10065916 -0.053223345
-0.014407175 -0.046966825 -0.04426 -0.34291798 -0.06235093 -0.07801538 -0.078609824 -0.03580368
-0.093524076 -0.01670498 -0.058699943 0.030435866 -0.064600036 -0.077967785 -0.030888222 -0.13983336
-0.017886627 -0.2906702 -0.08728264 -0.01471886 -0.08855925 -0.009517277 -0.10448008 0.20314112
-0.08103748 -0.4020785 -0.45426407 -0.033330075 -0.027397947 -0.0854355 -0.02194612 -0.11218065
-0.12525488 0.21949936 -0.14833796 -0.035868645 -0.015574259 -0.09258583 -0.010940697 -0.07936527
-0.12771796 -0.07707811 -0.1483717 -0.11749855 -0.0385924 -0.18900695 -0.04310767 -0.279063
-0.03678757 -0.043092616 -0.056996237 -0.08666096 -0.009097643 0.04564739 -0.06045362 -0.04056786
9.7739365e-05 0.0240094 -0.049170237 -0.16537163 -0.26074004 -0.042089734 -0.13347326 -0.04644443
-0.015886916 -0.07413586 -0.114403985 -0.077626325 -0.10291292 -0.11726638 -0.027366957 -0.05244239
-0.0856264 -0.12091159 0.19170769 -0.021917451 -0.033374373 -0.0582395 -0.2946193 -0.2109354
-0.11164787 -0.15207946 -0.0600201 -0.077236794 -0.025171477 -0.40419704 -0.041394252 -0.055993944
-0.0037360673 0.0956513 -0.27790695 -0.04552947 -0.23888667 -0.075339004 0.040099837 -0.10127349
-0.27821115 -0.003852838 -0.03963312 -0.185568 -0.022750014 0.3129593 -0.16871034 -0.104304634
00000000: 704d c03a 78a6 5cbd b730 95bd 46a9 043e
00000010: 46e3 38bd 6bdc a5bd 939f 23bd c210 43be
00000020: a7fe 9fbe 84a6 1d3e bddd ebbd 7ed9 59bd
00000030: 451a cfba 593c 02bc 26b9 c6bd 4d61 90bd
00000040: 64de 7abd fca7 87bd 4d36 90bc 57a7 8fbc
00000050: 44d2 7dbd 3da4 4cbd 6426 cebd b900 5abd
00000060: 120c 6cbc 4960 40bd f949 35bd f292 afbe
00000070: b063 7fbd 87c6 9fbd 30fe a0bd e1a6 12bd
00000080: 8d89 bfbd e2d8 88bc 5a6f 70bd a354 f93c
00000090: 064d 84bd 93ad 9fbd 4c09 fdbc 7a30 0fbe
000000a0: fa86 92bc b9d2 94be 3ec1 b2bd 6027 71bc
000000b0: 8d5e b5bd 5aee 1bbc a7f9 d5bd 3a04 503e
000000c0: faf6 a5bd 3cdd cdbe 4d95 e8be 1e85 08bd
000000d0: a971 e0bc cff8 aebd 59c8 b3bc f8be e5bd
000000e0: d142 00be 71c4 603e e8e5 17be 00eb 12bd
000000f0: 2d2b 7fbc a49d bdbd 9c40 33bc 428a a2bd
00000100: 7fc8 02be 21db 9dbd c0ee 17be 14a3 f0bd
00000110: 1013 1ebd 0a8b 41be ab91 30bd 58e1 8ebe
00000120: 90ae 16bd e281 30bd e374 69bd 4d7b b1bd
00000130: 480e 15bc c2f8 3a3d 379e 77bd 7c2a 26bd
00000140: 6cf9 cc38 5caf c43c bb66 49bd 2e57 29be
00000150: b87f 85be 4966 2cbd 37ad 08be 843c 3ebd
00000160: 4725 82bc 8bd4 97bd a34c eabd 8dfa 9ebd
00000170: 02c4 d2bd 5b29 f0bd ab30 e0bc d5cd 56bd
00000180: e55c afbd 7fa0 f7bd 054f 443e 3a8c b3bc
00000190: 91b3 08bd 8b8c 6ebd 57d8 96be 73ff 57be
000001a0: a3a7 e4bd b8ba 1bbe a3d7 75bd 532e 9ebd
000001b0: 6a34 cebc eaf2 cebe 058d 29bd e859 65bd
000001c0: cfd8 74bb d4e4 c33d d249 8ebe 1c7d 3abd
000001d0: b59e 74be 564b 9abd ba3f 243d 7a68 cfbd
000001e0: b171 8ebe e57f 7cbb 5756 22bd 8a05 3ebe
000001f0: 3d5e babc 343c a03e 67c2 2cbe ab9d d5bd

conv2d_105/bias f4 [64]
-0.0316021 -0.04522206 -0.035444964 0.00662531 -0.0962819 0.003225827 -0.1693964 -0.23976701
-0.53791076 -0.09317985 -0.06086743 -0.06661016 -0.10251375 0.00147477 -0.050958555 -0.01894613
-0.09399226 0.030327305 -0.12524259 -0.012314715 -0.05472827 0.007834103 -0.086626776 -0.3560793
0.06921675 -0.0567542 0.02840107 -0.0079753455 -0.11770439 0.037473094 -0.022607202 -0.30361712
0.018071111 -0.08698853 -0.10684067 -0.04039225 0.008560025 -0.09728151 -0.17946672 -0.1723335
0.035459034 -0.28164646 0.006282435 0.0077735223 -0.18424803 -0.026041668 -0.012271511 -0.045084707
-0.03770952 -0.02893926 -0.063464575 -0.043501563 0.040140033 -0.03619206 -0.20129368 -0.00692897
-0.055912666 -0.019787129 -0.030606192 0.05579554 0.0528863 -0.03233128 -0.20611566 -0.20526141
00000000: 3471 01bd c43a 39bd bd2e 11bd 2119 d93b
00000010: 722f c5bd 6568 533b 4076 2dbe 7c85 75be
00000020: 85b4 09bf 14d5 bebd 2050 79bd e86a 88bd
00000030: bbf2 d1bd 124d c13a ebb9 50bd ea34 9bbc
00000040: 047f c0bd f870 f83c 983f 00be a9c3 49bc
00000050: c02a 60bd 9c5a 003c 6169 b1bd 0750 b6be
00000060: 83c1 8d3d 1877 68bd 5ca9 e83c 06ab 02bc
00000070: 000f f1bd 637d 193d bd32 b9bc b473 9bbe
00000080: de09 943c 0b27 b2bd 48cf dabd 5872 25bd
00000090: 593f 0c3c 873b c7bd 20c6 37be 3178 30be
000000a0: 7e3d 113d f733 90be e2dc cd3b 08b9 fe3b
000000b0: 84ab 3cbe 5655 d5bc 730e 49bc beaa 38bd
000000c0: 4c75 1abd 0712 edbc b7f9 81bd b22e 32bd
000000d0: e069 243d 203e 14bd ee1f 4ebe 6a0c e3bb
000000e0: ae04 65bd 9e18 a2bc d6b9 fabc dd89 643d
000000f0: 4e9f 583d ce6d 04bd fc0f 53be 0c30 52be

conv2d_104/bias f4 [64]
-0.017238842 -0.047639806 -0.006832127 -0.04545794 0.021807544 0.028920323 -0.15817468 -0.03129872
0.13208191 -0.14113559 -0.014184306 -0.057038955 -0.19868107 -0.031847883 -0.099166945 -0.11574989
-0.032748763 0.09861981 -0.119646296 -0.19742888 -0.052233588 -0.03266652 -0.14373557 0.027601447
-0.07601836 -0.30139798 -0.15141843 -0.097175226 -0.056392923 -0.00064464024 -0.08540631 -0.5354547
-0.15463416 -0.1578623 -0.23726188 -0.1628283 -0.1573715 0.11128128 -0.24869804 -0.2424244
0.074597105 -0.020426936 -0.006014248 -0.04071895 0.011871607 -0.039347425 -0.05579559 -0.09964968
-0.017621297 -0.0764569 0.0068732356 -0.230968 -0.08326159 0.007826717 0.08336263 0.061093383
-0.07131527 -0.033239696 -0.072638385 -0.12597784 -0.067361414 0.009991767 -0.029456357 -0.071493365
00000000: 7938 8dbc f521 43bd 09e0 dfbb 1b32 3abd
00000010: bca5 b23c 50ea ec3c 8bf8 21be 1633 00bd
00000020: 7b40 073e d985 10be 4b65 68bc aea1 69bd
00000030: 0d73 4bbe ed72 02bd 0a18 cbbd 470e edbd
00000040: 9123 06bd 2ff9 c93d 1e09 f5bd cc2a 4abe
00000050: e3f2 55bd 54cd 05bd 6b2f 13be 6e1c e23c
00000060: 84af 9bbd d650 9abe 6f0d 1bbe ce03 c7bd
00000070: 44fc 66bd 13fd 28ba 81e9 aebd 8f13 09bf
00000080: 6b58 1ebe a8a6 21be c7f4 72be 76bc 26be
00000090: ff25 21be 71e7 e33d b3aa 7ebe 1a3e 78be
000000a0: 5ec6 983d 6456 a7bc 2b13 c5bb eac8 26bd
000000b0: 2181 423c c42a 21bd eb89 64bd 2215 ccbd
000000c0: 8a5a 90bc 6f95 9cbd e138 e13b e082 6cbe
000000d0: 0d85 aabd a13b 003c 07ba aa3d 0e3d 7a3d
000000e0: be0d 92bd 5926 08bd 6fc3 94bd 5600 01be
000000f0: c8f4 89bd 82b4 233c 754e f1bc 1d6b 92bd

conv2d_103/bias f4 [32]
-0.037398033 -0.050948255 0.09703546 -0.0020143073 -0.15009385 -0.07539833 -0.0017877917 -0.03898731
0.059548534 0.015734436 -0.084285274 -0.22881101 0.09894746 0.049289845 -0.22226052 0.18845361
-0.074595906 0.06908377 0.14301048 -0.04555902 0.041566923 -0.32592484 -0.049004342 0.006491009
-0.029728306 -0.023567565 -0.19262257 0.028291948 -0.13943882 0.006609848 -0.007955495 -0.14262578
00000000: ae2e 19bd 1eaf 50bd 87ba c63d 7802 04bb
00000010: 34b2 19be 716a 9abd 5654 eaba 28b1 1fbd
00000020: 2ae9 733d 81e5 803c c29d acbd 6f4d 6abe
00000030: f7a4 ca3d 26e4 493d 4398 63be fcf9 403e
00000040: bdc5 98bd cb7b 8d3d 5771 123e 189c 3abd
00000050: 1442 2a3d 9fdf a6be c7b8 48bd 88b2 d43b
00000060: c788 f3bc c410 c1bc da3e 45be 84c4 e73c
00000070: 0dc9 0ebe 6c97 d83b c457 02bc 7e0c 12be

sequential_2/dense_33/MatMul i1 [64, 128] scale=0.008790822 zero_point=0
0.19339807 0.0 0.24614301 0.0 0.24614301 0.16702561 0.0 0.0
0.0 0.0 0.0 0.0 0.0 0.0 0.0 -0.2021889
-0.34284204 0.15823479 0.0 0.0 -0.50986767 0.0 0.0 0.0
0.23735219 0.0 0.0 0.19339807 0.0 0.0 0.0 0.21097973
0.0 0.0 0.0 0.0 0.24614301 0.0 -0.50986767 0.0
0.0 0.0 0.0 0.0 0.0 0.18460725 0.14944397 0.0
-0.29009712 0.0 -0.17581643 -0.18460725 0.0 -0.42195946 0.0 0.0
0.0 0.0 0.0 0.0 0.0 0.0 -0.34284204 -0.5626126
0.24614301 0.0 0.0 0.39558697 0.0 0.0 0.0 -0.43075028
0.24614301 0.0 -0.27251548 0.0 0.0 0.0 -0.2021889 0.18460725
-0.24614301 0.0 0.0 0.0 0.0 0.0 0.0 0.27251548
0.0 -0.24614301 0.0 0.33405122 0.21977055 0.26372465 0.0 -0.34284204
0.31646958 0.14944397 0.18460725 0.3252604 0.0 0.23735219 -0.2021889 -0.17581643
-0.29888794 -0.2813063 0.0 -0.29009712 -0.22856137 -0.18460725 0.21977055 -0.36042368
0.21977055 0.0 -0.4395411 0.14944397 0.0 0.0 0.0 0.15823479
0.0 -0.25493383 0.0 0.0 -0.22856137 0.2021889 -0.33405122 0.14944397
0.0 0.0 0.0 0.0 -0.17581643 0.0 0.0 0.0
0.0 0.0 0.0 0.0 0.0 0.0 0.0 -0.15823479
0.0 0.0 0.0 -0.16702561 0.0 -0.17581643 0.0 0.0
0.0 -0.14065315 0.0 0.0 0.0 -0.14944397 -0.19339807 0.0
0.15823479 0.0 0.0 0.0 0.14944397 0.0 0.0 -0.15823479
0.0 0.14944397 -0.19339807 0.0 0.0 0.0 0.17581643 0.0
0.0 0.0 -0.18460725 0.0 0.0 -0.18460725 0.0 0.0
-0.17581643 0.0 0.0 -0.14944397 0.0 0.0 -0.14944397 0.0
0.0 0.0 0.0 0.0 0.0 0.0 0.0 0.0
0.0 0.0 0.0 -0.14944397 0.0 0.0 0.0 0.0
0.0 0.0 0.0 0.0 0.0 0.0 -0.14944397 0.0
0.14944397 0.0 0.0 -0.17581643 0.0 0.0 0.0 0.0
0.0 0.0 0.0 -0.17581643 0.0 0.0 0.0 0.0
0.0 0.0 -0.16702561 0.0 0.0 0.0 0.0 -0.16702561
-0.17581643 0.0 0.0 0.0 0.0 0.0 0.0 -0.19339807
0.0 0.14065315 0.0 0.0 0.0 0.0 0.0 0.0
00000000: 1600 1c00 1c13 0000 0000 0000 0000 00e9
00000010: d912 0000 c600 0000 1b00 0016 0000 0018
00000020: 0000 0000 1c00 c600 0000 0000 0015 1100
00000030: df00 eceb 00d0 0000 0000 0000 0000 d9c0
00000040: 1c00 002d 0000 00cf 1c00 e100 0000 e915
00000050: e400 0000 0000 001f 00e4 0026 191e 00d9
00000060: 2411 1525 001b e9ec dee0 00df e6eb 19d7
00000070: 1900 ce11 0000 0012 00e3 0000 e617 da11
00000080: 0000 0000 ec00 0000 0000 0000 0000 00ee
00000090: 0000 00ed 00ec 0000 00f0 0000 00ef ea00
000000a0: 1200 0000 1100 00ee 0011 ea00 0000 1400
000000b0: 0000 eb00 00eb 0000 ec00 00ef 0000 ef00
000000c0: 0000 0000 0000 0000 0000 00ef 0000 0000
000000d0: 0000 0000 0000 ef00 1100 00ec 0000 0000
000000e0: 0000 00ec 0000 0000 0000 ed00 0000 00ed
000000f0: ec00 0000 0000 00ea 0010 0000 0000 0000

sequential_2/dense_34/MatMul f4 [1, 64]
0.33072904 0.0 0.47034416 -0.53564864 -0.0 -0.33062437 -0.0 0.0
0.0 0.31378722 -0.0 -0.26658452 -0.0 -0.5239878 0.58965635 -0.0
-0.0 -0.0 0.40711707 -0.0 -0.0 -0.33103803 -0.0 -0.0
-0.0 -0.0 -0.30873868 -0.35224676 0.0 -0.0 0.0 0.2504532
0.0 -0.34024617 -0.0 -0.0 0.0 -0.0 0.3787058 -0.41910198
-0.0 -0.0 -0.0 0.0 0.0 -0.28502133 0.35813794 -0.0
-0.0 -0.0 0.0 0.0 -0.0 0.35968426 -0.0 0.39718103
-0.2867483 0.0 -0.0 -0.24853303 -0.29372323 -0.0 -0.0 0.0
00000000: 5155 a93e 0000 0000 f3d0 f03e 4520 09bf
00000010: 0000 0080 9947 a9be 0000 0080 0000 0000
00000020: 0000 0000 b8a8 a03e 0000 0080 c47d 88be
00000030: 0000 0080 1124 06bf b8f3 163f 0000 0080
00000040: 0000 0080 0000 0080 a671 d03e 0000 0080
00000050: 0000 0080 d17d a9be 0000 0080 0000 0080
00000060: 0000 0080 0000 0080 ff12 9ebe b059 b4be
00000070: 0000 0000 0000 0080 0000 0000 673b 803e
00000080: 0000 0000 bf34 aebe 0000 0080 0000 0080
00000090: 0000 0000 0000 0080 bae5 c13e 8994 d6be
000000a0: 0000 0080 0000 0080 0000 0080 0000 0000
000000b0: 0000 0000 51ee 91be db5d b73e 0000 0080
000000c0: 0000 0080 0000 0080 0000 0000 0000 0000
000000d0: 0000 0080 8928 b83e 0000 0080 505b cb3e
000000e0: acd0 92be 0000 0000 0000 0080 717f 7ebe
000000f0: e462 96be 0000 0080 0000 0080 0000 0000

sequential_2/conv2d_103/Conv2D f4 [32, 3, 3, 3]
0.0 0.19338182 0.15323523 -0.0 0.1634699 0.0 -0.0 -0.0
-0.15460792 0.24019827 0.30943915 0.0 -0.0 0.0 0.0 -0.0
0.0 0.0 0.17910881 0.28218734 0.0 -0.16514497 0.0 -0.2777458
-0.24881259 0.0 -0.25211003 -0.0 -0.0 -0.0 -0.21712683 0.0
-0.21697563 -0.0 0.0 -0.16132088 -0.0 -0.0 -0.17176405 -0.0
-0.0 -0.0 -0.0 -0.0 0.0 -0.16198826 0.0 -0.15084341
0.0 -0.0 -0.0 -0.0 -0.14796993 -0.0 0.15728378 0.0
-0.15992185 0.2444392 0.0 0.0 0.19881748 -0.15074496 -0.20551081 0.0
0.0 -0.15342422 0.0 0.0 -0.2445242 0.22669712 0.0 -0.24709497
0.0 0.0 -0.2275357 0.0 -0.19199446 0.0 0.0 0.0
-0.19578551 -0.18378413 -0.0 -0.0 0.17711551 0.39439246 -0.0 -0.0
0.2786345 -0.0 -0.16269173 -0.0 -0.26305798 -0.0 0.20569584 -0.0
-0.0 -0.0 -0.0 -0.21374601 -0.0 -0.17054936 -0.0 0.2998769
-0.0 -0.0 -0.0 -0.0 0.18393491 0.0 0.0 0.23664623
0.0 0.0 0.0 0.0 0.0 0.0 0.0 0.0
0.0 0.0 0.0 0.20915046 0.15001471 0.0 0.0 0.15047652
0.0 0.2057186 0.0 0.15096904 0.0 0.0 0.0 -0.0
0.22356726 -0.0 0.22809292 0.17062257 -0.0 0.20992264 -0.0 0.15592961
0.16115586 0.1848522 0.17645353 -0.0 -0.0 -0.0 -0.0 -0.0
-0.0 -0.27381888 -0.4185126 -0.44110486 -0.35241118 -0.14846891 -0.33895385 -0.15441707
-0.34211266 -0.25714073 -0.33932275 0.0 0.0 -0.27269354 0.0 0.0
-0.27656493 0.0 0.0 -0.22294712 0.0 0.0 -0.2250718 0.0
0.1742544 0.0 0.0 0.24283887 0.0 0.0 0.2627362 0.0
0.0 0.0 0.0 0.17578118 0.36370718 0.0 0.0 0.0
0.0 0.0 -0.16375874 0.0 0.0 0.0 -0.0 -0.15222669
-0.0 -0.0 -0.0 -0.0 -0.0 -0.0 -0.0 -0.0
-0.0 -0.0 -0.0 -0.0 -0.0 -0.0 -0.0 -0.0
-0.0 -0.18065274 -0.0 -0.2119829 -0.28875673 -0.20612234 -0.0 -0.0
-0.0 -0.0 -0.29829407 -0.15522498 -0.18945417 -0.18294911 -0.3048868 -0.15304746
-0.16136247 -0.0 -0.0 -0.28604716 -0.21675088 -0.25332004 -0.39886713 -0.15912187
-0.16930044 -0.0 -0.0 -0.0 -0.0 -0.0 -0.0 -0.0
-0.17836261 -0.0 -0.0 -0.0 -0.0 -0.0 -0.22507071 -0.0
00000000: 0000 0000 e205 463e b2e9 1c3e 0000 0080
00000010: a764 273e 0000 0000 0000 0080 0000 0080
00000020: 8a51 1ebe 89f6 753e cf6e 9e3e 0000 0000
00000030: 0000 0080 0000 0000 0000 0000 0000 0080
00000040: 0000 0000 0000 0000 4d68 373e dc7a 903e
00000050: 0000 0000 c31b 29be 0000 0000 b334 8ebe
00000060: bac8 7ebe 0000 0000 9114 81be 0000 0080
00000070: 0000 0080 0000 0080 7f56 5ebe 0000 0000
00000080: dc2e 5ebe 0000 0080 0000 0000 4d31 25be
00000090: 0000 0080 0000 0080 eae2 2fbe 0000 0080
000000a0: 0000 0080 0000 0080 0000 0080 0000 0080
000000b0: 0000 0000 40e0 25be 0000 0000 b276 1abe
000000c0: 0000 0000 0000 0080 0000 0080 0000 0080
000000d0: 6e85 17be 0000 0080 000f 213e 0000 0000
000000e0: 8ec2 23be 454e 7a3e 0000 0000 0000 0000
000000f0: cf96 4b3e e35c 1abe 6d71 52be 0000 0000
00000100: 0000 0000 3d1b 1dbe 0000 0000 0000 0000
00000110: 8d64 7abe 4a23 683e 0000 0000 7706 7dbe
00000120: 0000 0000 0000 0000 1eff 68be 0000 0000
00000130: 329a 44be 0000 0000 0000 0000 0000 0000
00000140: ff7b 48be e831 3cbe 0000 0080 0000 0080
00000150: c55d 353e cfed c93e 0000 0080 0000 0080
00000160: 2ea9 8e3e 0000 0080 a998 26be 0000 0080
00000170: 89af 86be 0000 0080 eea1 523e 0000 0080
00000180: 0000 0080 0000 0080 0000 0080 3ce0 5abe
00000190: 0000 0080 7ea4 2ebe 0000 0080 7789 993e
000001a0: 0000 0080 0000 0080 0000 0080 0000 0080
000001b0: 6f59 3c3e 0000 0000 0000 0000 6453 723e
000001c0: 0000 0000 0000 0000 0000 0000 0000 0000
000001d0: 0000 0000 0000 0000 0000 0000 0000 0000
000001e0: 0000 0000 0000 0000 0000 0000 8a2b 563e
000001f0: 759d 193e 0000 0000 0000 0000 8416 1a3e
00000200: 0000 0000 e6a7 523e 0000 0000 a197 1a3e
00000210: 0000 0000 0000 0000 0000 0000 0000 0080
00000220: d1ee 643e 0000 0080 3191 693e afb7 2e3e
00000230: 0000 0080 f6f5 563e 0000 0080 03ac 1f3e
00000240: 0b06 253e e549 3d3e 3cb0 343e 0000 0080
00000250: 0000 0080 0000 0080 0000 0080 0000 0080
00000260: 0000 0080 fd31 8cbe 4947 d6be 7fd8 e1be
00000270: 3d6f b4be 3c08 18be 5c8b adbe 821f 1ebe
00000280: 6429 afbe f3a7 83be b6bb adbe 0000 0000
00000290: 0000 0000 7d9e 8bbe 0000 0000 0000 0000
000002a0: eb99 8dbe 0000 0000 0000 0000 404c 64be
000002b0: 0000 0000 0000 0000 3979 66be 0000 0000
000002c0: bf6f 323e 0000 0000 0000 0000 c1aa 783e
000002d0: 0000 0000 0000 0000 5c85 863e 0000 0000
000002e0: 0000 0000 0000 0000 0000 0000 fbff 333e
000002f0: d437 ba3e 0000 0000 0000 0000 0000 0000
00000300: 0000 0000 0000 0000 5fb0 27be 0000 0000
00000310: 0000 0000 0000 0000 0000 0080 50e1 1bbe
00000320: 0000 0080 0000 0080 0000 0080 0000 0080
00000330: 0000 0080 0000 0080 0000 0080 0000 0080
00000340: 0000 0080 0000 0080 0000 0080 0000 0080
00000350: 0000 0080 0000 0080 0000 0080 0000 0080
00000360: 0000 0080 08fd 38be 0000 0080 0c12 59be
00000370: ecd7 93be bc11 53be 0000 0080 0000 0080
00000380: 0000 0080 0000 0080 00ba 98be 4cf3 1ebe
00000390: 4600 42be 0357 3bbe 1f1a 9cbe 79b8 1cbe
000003a0: 343c 25be 0000 0080 0000 0080 c674 92be
000003b0: f1f3 5dbe 2ab3 81be 5038 ccbe d8f0 22be
000003c0: 185d 2dbe 0000 0080 0000 0080 0000 0080
000003d0: 0000 0080 0000 0080 0000 0080 0000 0080
000003e0: b0a4 36be 0000 0080 0000 0080 0000 0080
000003f0: 0000 0080 0000 0080 f078 66be 0000 0080

sequential_2/conv2d_104/Conv2D i1 [64, 3, 3, 32]
0 0 0 52 -41 -37 0 0
0 0 32 0 73 54 -65 36
0 -27 127 -41 -27 -34 0 0
0 0 -32 47 0 -35 43 0
-42 0 0 0 0 -38 -37 0
0 0 28 -25 61 0 -55 39
-48 31 39 -40 0 -40 -45 0
0 -83 0 0 -55 -89 0 0
0 0 28 26 0 -60 -59 0
0 0 0 0 86 0 -52 52
35 0 91 -37 28 -47 55 0
0 0 0 0 0 0 -24 -45
-33 0 0 41 -31 0 66 0
0 0 0 0 39 29 -84 0
0 -25 55 0 -34 -69 0 -43
0 0 0 42 0 -72 27 0
-50 0 0 0 0 0 0 0
-68 0 40 0 50 0 -51 0
-60 24 0 0 32 -33 -29 -43
0 0 0 0 -40 -103 0 0
0 0 0 0 0 0 0 0
-39 0 0 0 48 0 -46 0
38 42 0 -34 0 -70 64 -41
0 50 0 0 0 -47 -60 0
0 0 -35 0 0 0 28 0
-43 0 0 0 0 -31 -49 -29
0 -45 27 -31 -26 -53 0 0
0 0 -34 0 0 -39 34 0
0 0 -35 0 0 91 0 0
-46 0 30 0 0 0 -44 -63
-51 0 0 0 0 -41 0 0
0 0 0 0 0 -27 0 43
00000000: 0000 0034 d7db 0000 0000 2000 4936 bf24
00000010: 00e5 7fd7 e5de 0000 0000 e02f 00dd 2b00
00000020: d600 0000 00da db00 0000 1ce7 3d00 c927
00000030: d01f 27d8 00d8 d300 00ad 0000 c9a7 0000
00000040: 0000 1c1a 00c4 c500 0000 0000 5600 cc34
00000050: 2300 5bdb 1cd1 3700 0000 0000 0000 e8d3
00000060: df00 0029 e100 4200 0000 0000 271d ac00
00000070: 00e7 3700 debb 00d5 0000 002a 00b8 1b00
00000080: ce00 0000 0000 0000 bc00 2800 3200 cd00
00000090: c418 0000 20df e3d5 0000 0000 d899 0000
000000a0: 0000 0000 0000 0000 d900 0000 3000 d200
000000b0: 262a 00de 00ba 40d7 0032 0000 00d1 c400
000000c0: 0000 dd00 0000 1c00 d500 0000 00e1 cfe3
000000d0: 00d3 1be1 e6cb 0000 0000 de00 00d9 2200
000000e0: 0000 dd00 005b 0000 d200 1e00 0000 d4c1
000000f0: cd00 0000 00d7 0000 0000 0000 00e5 002b

sequential_2/conv2d_105/Conv2D i1 [64, 3, 3, 64]
0 0 0 0 -108 0 0 0
0 0 0 0 0 0 0 0
0 0 0 0 0 0 0 0
0 0 0 0 0 0 0 0
0 0 0 0 0 0 0 0
0 0 0 0 0 0 0 0
0 0 0 0 0 0 0 0
0 0 0 0 0 0 0 0
0 0 0 0 0 0 -120 0
0 0 0 0 0 0 0 0
0 0 0 0 0 0 0 0
0 0 0 0 0 0 0 0
0 0 0 0 0 0 0 0
0 0 0 0 0 0 0 0
0 0 0 0 0 0 0 0
0 0 0 0 0 0 0 0
0 0 0 0 -123 0 0 0
0 0 0 0 0 0 0 0
0 0 0 0 0 0 0 0
0 0 0 0 0 0 0 0
0 0 0 0 0 -127 0 0
0 0 0 0 0 0 0 0
0 0 0 0 0 0 0 0
0 0 0 0 0 0 0 0
0 0 0 -115 0 0 0 0
0 0 0 0 0 0 0 0
0 0 0 0 0 0 0 0
0 0 0 0 0 0 0 0
0 0 0 0 0 0 0 0
0 0 0 0 0 0 0 0
0 0 0 0 0 0 0 0
0 0 0 0 0 0 0 0
00000000: 0000 0000 9400 0000 0000 0000 0000 0000
00000010: 0000 0000 0000 0000 0000 0000 0000 0000
00000020: 0000 0000 0000 0000 0000 0000 0000 0000
00000030: 0000 0000 0000 0000 0000 0000 0000 0000
00000040: 0000 0000 0000 8800 0000 0000 0000 0000
00000050: 0000 0000 0000 0000 0000 0000 0000 0000
00000060: 0000 0000 0000 0000 0000 0000 0000 0000
00000070: 0000 0000 0000 0000 0000 0000 0000 0000
00000080: 0000 0000 8500 0000 0000 0000 0000 0000
00000090: 0000 0000 0000 0000 0000 0000 0000 0000
000000a0: 0000 0000 0081 0000 0000 0000 0000 0000
000000b0: 0000 0000 0000 0000 0000 0000 0000 0000
000000c0: 0000 008d 0000 0000 0000 0000 0000 0000
000000d0: 0000 0000 0000 0000 0000 0000 0000 0000
000000e0: 0000 0000 0000 0000 0000 0000 0000 0000
000000f0: 0000 0000 0000 0000 0000 0000 0000 0000

sequential_2/conv2d_106/Conv2D i1 [128, 3, 3, 64]
0 -127 0 0 0 -52 -51 0
0 0 0 -27 -91 -29 -94 -35
0 0 -55 0 -32 0 -85 -27
-41 0 0 0 -118 -43 -53 -118
0 -31 -100 -92 0 0 -43 -104
-32 -65 -37 -41 -67 0 -92 0
-30 -63 -37 -44 0 -80 -27 0
0 -67 0 -35 -48 0 0 -41
0 -99 0 0 0 0 -58 32
-53 -70 0 0 0 0 -85 0
0 0 0 0 0 40 0 0
-48 0 0 38 -80 0 0 -44
0 0 -50 -63 32 34 0 -33
0 0 0 0 0 0 -72 26
0 0 -57 0 0 -48 0 0
0 0 0 0 -34 0 0 0
0 -65 0 0 0 0 -37 0
-48 0 0 0 0 0 -70 0
0 0 29 0 0 0 0 0
0 -27 27 0 -51 0 0 0
0 0 -42 -49 0 42 0 0
0 -40 0 0 -33 0 -40 47
0 0 -44 0 0 0 0 0
-42 0 0 0 0 0 -47 0
0 -82 0 0 -55 0 -67 0
-69 0 0 26 0 0 -39 -36
-32 0 -73 -39 0 0 -64 -27
-77 0 0 47 -74 0 -47 -47
45 0 -55 -41 0 51 -55 -79
0 -35 -42 -47 0 0 -38 30
0 0 -47 0 -35 -69 0 0
-50 0 0 38 0 0 -87 -47
00000000: 0081 0000 00cc cd00 0000 00e5 a5e3 a2dd
00000010: 0000 c900 e000 abe5 d700 0000 8ad5 cb8a
00000020: 00e1 9ca4 0000 d598 e0bf dbd7 bd00 a400
00000030: e2c1 dbd4 00b0 e500 00bd 00dd d000 00d7
00000040: 009d 0000 0000 c620 cbba 0000 0000 ab00
00000050: 0000 0000 0028 0000 d000 0026 b000 00d4
00000060: 0000 cec1 2022 00df 0000 0000 0000 b81a
00000070: 0000 c700 00d0 0000 0000 0000 de00 0000
00000080: 00bf 0000 0000 db00 d000 0000 0000 ba00
00000090: 0000 1d00 0000 0000 00e5 1b00 cd00 0000
000000a0: 0000 d6cf 002a 0000 00d8 0000 df00 d82f
000000b0: 0000 d400 0000 0000 d600 0000 0000 d100
000000c0: 00ae 0000 c900 bd00 bb00 001a 0000 d9dc
000000d0: e000 b7d9 0000 c0e5 b300 002f b600 d1d1
000000e0: 2d00 c9d7 0033 c9b1 00dd d6d1 0000 da1e
000000f0: 0000 d100 ddbb 0000 ce00 0026 0000 a9d1
