LaneFollowingModel/dq_pruned_model.tflite (tflite, 151880 bytes, 11 tensors)

dense_33/bias f4 [64]
000000 9d 8d 0d 3e 84 63 cd bb a5 71 49 3e b6 36 01 be
       0.13823552 -0.0062679667 0.19672258 -0.12618527
000010 db db 8d bd b8 a2 1a 3e e7 28 a8 bd 50 1e 45 bd
       -0.069267 0.15101135 -0.082109265 -0.04812461
000020 b4 38 f8 3d 24 2c 28 3e 6e 7d 10 3e 89 4f 27 3d
       0.1212019 0.16423088 0.14110348 0.040847335
000030 b0 79 c5 3d 0a 6f c8 3d 96 c0 08 be 92 29 25 bd
       0.09642351 0.09786804 -0.13354716 -0.040322848
000040 27 d5 0f bd b4 b9 66 bd 01 1e c3 bd 5e 67 63 bd
       -0.035115387 -0.056329444 -0.09527207 -0.0555185
000050 a6 ad 06 bd 35 91 b7 3d 83 0e 01 bd 9b e9 f0 3d
       -0.032880448 0.08963243 -0.03150798 0.11763307
000060 e4 73 80 bd 9c b8 20 bd c2 26 fe 3d d3 1c 25 3e
       -0.062721044 -0.039238557 0.12409736 0.16124277
000070 c9 1f 22 3e 22 0b b0 3d 65 66 2d 3e 55 5f 48 bd
       0.15832438 0.085958734 0.16933592 -0.04891904
000080 53 a6 4d 3d cc c8 f0 3d f7 14 7d bd f1 67 29 3e
       0.050207447 0.11757049 -0.06178757 0.16543557
000090 9a 23 48 bd fe 84 c8 bd 9a 27 fb 3d cb 33 4a 3e
       -0.048862077 -0.09790991 0.12263413 0.1974632
0000a0 c2 fe 14 3e 77 f5 c7 3d af 05 99 3d d6 2d 24 bd
       0.14550307 0.097636156 0.07471787 -0.040082775
0000b0 36 a6 31 bd bb 6f 6b bd 65 68 84 3d 81 4d e3 bc
       -0.0433714 -0.0574796 0.06465224 -0.027746918
0000c0 23 8b c3 3d b5 06 81 bb c6 e7 fd bc f2 ae 0e bd
       0.095480226 -0.003937567 -0.030994307 -0.03483481
0000d0 bb 24 2e bd b0 4d bb 3d 9a 7b 1f 3e b5 a9 00 3e
       -0.042515498 0.09145677 0.15574494 0.12564738
0000e0 ae e8 36 3d e4 df 46 3e 7c ab 2d 3e 5b 16 cd 3d
       0.044655494 0.19421345 0.16959947 0.100140296
0000f0 f3 01 18 3e c1 84 64 bd 65 1e df bd bf 97 2e bd
       0.14844494 -0.055790666 -0.10894469 -0.042625185

conv2d_106/bias f4 [128]
000000 d8 90 e9 3c 53 c2 39 bd 15 16 b7 bd df 11 04 3e
       0.02851145 -0.045351338 -0.08939759 0.12897442
000010 d5 a6 1f bd e4 61 80 bd f4 4a 93 bc b4 8a 1c be
       -0.038977463 -0.06268671 -0.017980076 -0.15287286
000020 f4 24 a3 be c3 89 1e 3e a1 55 ff bd 50 8a 69 bd
       -0.3186413 0.1548224 -0.12467504 -0.05701667
000030 f3 58 8e 3c 6d 4e b3 bc cb 8f be bd a1 a5 84 bd
       0.017376399 -0.021887982 -0.0930477 -0.06476904
000040 44 0d 6f bd d4 8e 33 bd a3 df 49 bc a3 7c 49 3a
       -0.05836226 -0.043837383 -0.012321386 0.0007686114
000050 bb 94 78 bd fe a4 f6 bc 5b 76 bd bd 74 44 12 bd
       -0.060688715 -0.030107971 -0.0925109 -0.035709813
000060 0a e2 59 39 39 cb 6e bd 79 46 0e bd 95 12 b2 be
       0.00020778939 -0.058299277 -0.034735177 -0.34779802
000070 40 1c 30 bd 58 b7 7d bd 57 7f a0 bd 00 d3 be bc
       -0.04299569 -0.06194243 -0.07836788 -0.023293972
000080 47 10 95 bd 70 9b 96 bc 3d cd 1d bd cd a7 58 bc
       -0.07278495 -0.018384665 -0.03852581 -0.013223601
000090 07 b7 44 bd a6 67 91 bd 16 24 39 bd 0b 71 06 be
       -0.04802611 -0.070998475 -0.04520043 -0.1312906
0000a0 7e 5b 15 bc a5 9f 98 be 8d 7d d1 bd 8f 19 11 bd
       -0.009116052 -0.298093 -0.10229025 -0.035424765
0000b0 d2 04 a4 bd fe 26 66 bb b3 e9 da bd 66 96 5a 3e
       -0.08008732 -0.0035118456 -0.10689106 0.21346435
0000c0 2e 4a aa bd ea 5a cf be 9d e5 e3 be 52 b0 04 bd
       -0.0831493 -0.4049905 -0.4451112 -0.032394715
0000d0 4d 9f ce bb 1b 49 ba bd 1b d6 e7 bc 2d b7 ab bd
       -0.006305611 -0.09095975 -0.028300336 -0.083845474
0000e0 80 9d 0b be 67 c2 6b 3e 04 e8 2a be 11 07 d4 bc
       -0.136343 0.23023377 -0.1669007 -0.025882276
0000f0 a3 0b 86 bc 26 17 ac bd 5c 39 b4 bc fb fc b9 bd
       -0.01636297 -0.08402853 -0.022000007 -0.09081455
000100 8f e9 0b be ad 43 bf bd c6 72 01 be 8c d2 f9 bd
       -0.13663314 -0.0933908 -0.12641439 -0.12198362
000110 6c 66 14 bd 59 a4 62 be 9e 34 44 bd 69 20 75 be
       -0.03623049 -0.22133006 -0.047901742 -0.23938145
000120 93 07 cb bc b7 7a 38 bd 59 1c 91 bd bd ea 99 bd
       -0.024783885 -0.045038905 -0.07085485 -0.07515476
000130 a8 ee 44 ba e7 36 40 3d 24 35 5c bd af cb 12 bd
       -0.0007512369 0.04692736 -0.053761616 -0.03583878
000140 37 8c 5a bc b9 ee e0 3c 59 d8 61 bd ef 97 22 be
       -0.013339094 0.027457582 -0.055137966 -0.1587827
000150 57 c6 86 be 9b f1 29 bd 6b db 07 be 7c 0e df bc
       -0.26323196 -0.04149018 -0.13267295 -0.027228586
000160 5b 1a b5 bc f7 fd 83 bd 4e 23 b4 bd 5d 2b b5 bd
       -0.022107294 -0.06444924 -0.08795796 -0.088461615
000170 5a 86 f1 bd d4 d7 ed bd a3 e9 c6 bc 4c 28 59 bd
       -0.11793204 -0.116134316 -0.024281329 -0.053016946
000180 f4 c0 a3 bd 49 84 ef bd 46 05 3b 3e 97 3b 92 bc
       -0.07995787 -0.11695153 0.1826373 -0.01785068
000190 b2 39 12 bd b4 79 65 bd d2 2a 98 be 50 45 55 be
       -0.035699554 -0.05602427 -0.2972017 -0.20827222
0001a0 91 0b e9 bd aa cc 28 be 44 30 56 bc 65 e9 67 bd
       -0.11379159 -0.16484323 -0.013073031 -0.056619067
0001b0 8e 8e 92 bc cc f1 e0 be ff ef 2e bd d9 65 70 bd
       -0.017890241 -0.43934476 -0.042709347 -0.05869088
0001c0 a6 ab 28 bc e9 e6 e7 3d 67 87 88 be 16 73 4f bd
       -0.01029483 0.113233395 -0.26665804 -0.050646864
0001d0 84 1b 7b be 35 7b 97 bd a0 49 b9 3c 69 dc ac bd
       -0.24522215 -0.07396547 0.022618115 -0.084404774
0001e0 ee 62 97 be e5 1a 26 bb 5b e0 e1 bc ee 2e 50 be
       -0.29567665 -0.002534562 -0.027572801 -0.20330402
0001f0 35 c2 0b bd 3b ff 9a 3e 10 b5 dc bd 22 45 e7 bd
       -0.034120757 0.3027285 -0.107767224 -0.11292483

conv2d_105/bias f4 [64]
000000 34 71 01 bd 39 1f 32 bd 07 cd 83 bc 62 6c df 3b
       -0.0316021 -0.043486807 -0.016088976 0.00681834
000010 a5 c0 be bd 58 bb 9a bb bb a3 2d be 6e 4a 8a be
       -0.09314088 -0.00472204 -0.1695699 -0.2700991
000020 1a 59 07 bf 89 59 e6 bd 20 50 79 bd da 85 99 bd
       -0.52870333 -0.11247546 -0.06086743 -0.07496233
000030 9e 3e df bd 8e 6f c2 3c 2d fc 6c bd 86 a0 30 bd
       -0.10900615 0.023734834 -0.05785768 -0.043121837
000040 27 27 a4 bd e4 02 74 3c 9f 90 f0 bd f8 c1 89 3c
       -0.0801528 0.014893267 -0.11746334 0.016816124
000050 bd bd 80 bd a3 79 c3 3c 21 25 c8 bd d4 27 a8 be
       -0.0628619 0.023861712 -0.09772707 -0.32842886
000060 e2 39 8a 3d c4 38 83 bd fd 0d d7 3c 11 0d b8 bc
       0.067493215 -0.064073116 0.026251787 -0.022467168
000070 34 14 01 be 1a 1d 10 3d 2e 92 13 bc 1f 71 9e be
       -0.12605363 0.035184003 -0.00900702 -0.3094568
000080 f7 7f 48 3c 45 9a b1 bd d1 6c bd bd bd 88 63 bd
       0.01223754 -0.08672003 -0.09249271 -0.055550326
000090 29 9c 22 bd 80 a7 a4 bd c1 b4 26 be 33 d9 32 be
       -0.039699707 -0.080397606 -0.1627989 -0.17465667
0000a0 ff dc 25 3c 43 5b 92 be e3 6d 58 3c 62 2a f4 3b
       0.01012349 -0.28585252 0.013209793 0.0074513415
0000b0 0e 12 39 be fd 8e fc bc ac 88 86 3c 38 8e bc bc
       -0.18073294 -0.0308299 0.016422592 -0.023017034
0000c0 2b ff 0e bd b9 95 44 bb 22 6b 86 bd 34 56 8c 39
       -0.034911316 -0.0029996468 -0.06563403 0.00026767107
0000d0 36 86 7c 3d c0 3a 68 bc 0a b2 52 be c0 4a 19 bd
       0.06165143 -0.014174163 -0.20575729 -0.037424803
0000e0 a3 ba 2b bd c0 49 37 bd c9 47 02 bd ee a4 7a 3d
       -0.041926038 -0.044748068 -0.03180674 0.061192445
0000f0 25 b8 5d 3d ce 6d 04 bd 0d c9 4e be e7 8d 75 be
       0.054130692 -0.03233128 -0.20193882 -0.23979913

conv2d_104/bias f4 [64]
000000 ba 80 b5 bc fe fe 40 bd 28 2c ae bc 6c c4 58 bd
       -0.022156108 -0.04711818 -0.02126129 -0.052921697
000010 e8 6c 59 3c a0 9d 5d 3d 9d ff 1c be 74 88 de bc
       0.013270594 0.0541054 -0.15331884 -0.027164675
000020 74 1d ff 3d 63 d8 10 be 22 97 86 bc bc 0e 3d bd
       0.124567896 -0.14145045 -0.016429488 -0.04615663
000030 1b e4 38 be d6 77 1d bd 6f 36 bf bd 03 77 d7 bd
       -0.18055765 -0.038444363 -0.09336554 -0.105207466
000040 ac 16 17 bd 17 37 a6 3d b0 20 e4 bd ba 87 35 be
       -0.036886856 0.08115976 -0.11139047 -0.17727557
000050 f9 82 42 bd 05 76 3b bd 94 79 23 be 85 b7 fb 3c
       -0.047488187 -0.04576685 -0.15964347 0.030727157
000060 d4 52 8c bd 4a 99 9e be 7e e9 ee bd 9f cd ea bd
       -0.06851736 -0.30976325 -0.11665629 -0.11465
000070 23 39 17 bd 8b c7 92 bc 4e d6 b8 bd 80 bb 05 bf
       -0.036919724 -0.017917415 -0.090252504 -0.5223923
000080 54 8f 1d be 62 fc ff bd ab 36 5b be 67 26 15 be
       -0.15386707 -0.1249931 -0.21407573 -0.1456543
000090 f1 09 24 be dd e9 d3 3d 73 6f 55 be e2 ca 85 be
       -0.16019417 0.1034734 -0.20843296 -0.2613135
0000a0 a5 30 a1 3d 13 af 47 bd 93 8f 0b 3c 16 65 e2 bc
       0.07870606 -0.04875095 0.0085181175 -0.027636092
0000b0 5a dc a4 b9 80 d7 2f bd e7 df 86 bd 64 85 d6 bd
       -0.00031444692 -0.042930126 -0.06585675 -0.10474661
0000c0 63 aa 1f bc 8e 55 36 bd 1c f3 2a 3b d3 2a 6d be
       -0.009745213 -0.044515185 0.0026084846 -0.23160867
0000d0 fc ef c7 bd b5 98 f2 bc b6 71 9d 3d 8a 77 59 3d
       -0.0976257 -0.029613832 0.07687704 0.053092517
0000e0 57 12 8d bd 1e 51 3a bd 0a 0b bf bd 99 2a 00 be
       -0.06888264 -0.045487516 -0.093282774 -0.1251625
0000f0 ca 9a 7a bd 6d 3e f6 3a 0a b2 e2 bc 1d 6b 92 bd
       -0.061182775 0.0018786915 -0.027672786 -0.071493365

conv2d_103/bias f4 [32]
000000 95 4b 23 bd be f0 51 bd e1 2b b8 3d a2 28 9e 3b
       -0.039867003 -0.05125498 0.08992744 0.004826621
000010 30 5d 15 be a2 e2 b2 bd 2e a2 71 bc 0d 94 61 bd
       -0.1458633 -0.08734633 -0.014748139 -0.055072833
000020 93 9b b3 3d cb e4 86 bb 26 81 9d bd 03 af 63 be
       0.08769908 -0.0041166297 -0.07690649 -0.2223473
000030 33 8b b0 3d 43 0f 80 3d 54 99 65 be 1f 04 4e 3e
       0.086203 0.06252911 -0.22421771 0.2011876
000040 cf 77 8e bd 34 26 8b 3d 63 f6 0b 3e e1 7f 14 bd
       -0.069564454 0.06794396 0.13668208 -0.036254767
000050 c1 81 2d 3d 93 15 a3 be ca 2a 45 bd 3a 69 77 ba
       0.04236007 -0.31852397 -0.04813651 -0.0009437982
000060 63 b1 19 bd b4 f1 f0 bc ef d1 3d be 96 6b f1 3c
       -0.037522685 -0.029412128 -0.18537115 0.029470246
000070 8a 40 16 be df d9 6a 3a 69 f8 42 3c 85 dc 11 be
       -0.14673057 0.0008958857 0.011900046 -0.14244278

sequential_2/dense_33/MatMul i1 [64, 128] scale=0.008831583 zero_point=0
000000 17 ef 1d 00 1d 14 00 00 00 00 00 00 00 00 00 ec
       0.2031264 -0.15013692 0.2561159 0.0 0.2561159 0.17663166 0.0 0.0 0.0 0.0 0.0 0.0 0.0 0.0 0.0 -0.17663166
000010 dc 14 00 00 ca 00 00 00 1c 00 00 19 00 00 00 19
       -0.317937 0.17663166 0.0 0.0 -0.47690547 0.0 0.0 0.0 0.24728432 0.0 0.0 0.22078958 0.0 0.0 0.0 0.22078958
000020 00 00 00 e9 1f 00 cb 00 00 00 00 00 00 15 14 12
       0.0 0.0 0.0 -0.2031264 0.27377906 0.0 -0.4680739 0.0 0.0 0.0 0.0 0.0 0.0 0.18546325 0.17663166 0.1589685
000030 e1 00 eb ec 00 d0 00 00 00 00 00 00 00 00 db c0
       -0.27377906 0.0 -0.18546325 -0.17663166 0.0 -0.42391598 0.0 0.0 0.0 0.0 0.0 0.0 0.0 0.0 -0.32676858 -0.5652213
000040 1b 00 00 2c 00 00 00 d4 1d 00 e2 00 00 00 ec 15
       0.23845273 0.0 0.0 0.38858965 0.0 0.0 0.0 -0.38858965 0.2561159 0.0 -0.26494747 0.0 0.0 0.0 -0.17663166 0.18546325
000050 e5 00 00 00 00 00 00 1d 00 e9 00 26 1d 1f 00 d9
       -0.23845273 0.0 0.0 0.0 0.0 0.0 0.0 0.2561159 0.0 -0.2031264 0.0 0.33560014 0.2561159 0.27377906 0.0 -0.34443173
000060 28 13 15 27 00 1b e9 ee de e3 00 e3 ec eb 1b db
       0.35326332 0.16780007 0.18546325 0.34443173 0.0 0.23845273 -0.2031264 -0.1589685 -0.30027384 -0.2561159 0.0 -0.2561159 -0.17663166 -0.18546325 0.23845273 -0.32676858
000070 1a 00 ce 00 00 00 00 12 00 e6 00 00 e8 16 db 00
       0.22962116 0.0 -0.44157916 0.0 0.0 0.0 0.0 0.1589685 0.0 -0.22962116 0.0 0.0 -0.21195799 0.19429483 -0.32676858 0.0
000080 00 00 00 00 ec 00 00 00 00 00 00 00 00 00 00 ee
       0.0 0.0 0.0 0.0 -0.17663166 0.0 0.0 0.0 0.0 0.0 0.0 0.0 0.0 0.0 0.0 -0.1589685
000090 00 00 00 ed 00 ec 00 00 00 f0 00 00 00 ef ea 00
       0.0 0.0 0.0 -0.16780007 0.0 -0.17663166 0.0 0.0 0.0 -0.14130533 0.0 0.0 0.0 -0.15013692 -0.19429483 0.0
0000a0 12 00 00 00 11 00 00 ef 00 11 ea 00 00 00 14 00
       0.1589685 0.0 0.0 0.0 0.15013692 0.0 0.0 -0.15013692 0.0 0.15013692 -0.19429483 0.0 0.0 0.0 0.17663166 0.0
0000b0 00 00 eb 00 00 eb 00 00 ed 00 00 ef 00 00 ef 00
       0.0 0.0 -0.18546325 0.0 0.0 -0.18546325 0.0 0.0 -0.16780007 0.0 0.0 -0.15013692 0.0 0.0 -0.15013692 0.0
0000c0 00 00 00 00 00 00 00 00 00 00 00 ef 00 00 00 00
       0.0 0.0 0.0 0.0 0.0 0.0 0.0 0.0 0.0 0.0 0.0 -0.15013692 0.0 0.0 0.0 0.0
0000d0 00 00 00 00 00 00 ef 00 11 00 00 ec 00 00 00 00
       0.0 0.0 0.0 0.0 0.0 0.0 -0.15013692 0.0 0.15013692 0.0 0.0 -0.17663166 0.0 0.0 0.0 0.0
0000e0 00 00 00 ec 00 00 00 00 00 00 ed 00 00 00 00 ed
       0.0 0.0 0.0 -0.17663166 0.0 0.0 0.0 0.0 0.0 0.0 -0.16780007 0.0 0.0 0.0 0.0 -0.16780007
0000f0 ec 00 00 00 00 00 00 ea 00 10 00 00 00 00 00 00
       -0.17663166 0.0 0.0 0.0 0.0 0.0 0.0 -0.19429483 0.0 0.14130533 0.0 0.0 0.0 0.0 0.0 0.0

sequential_2/dense_34/MatMul f4 [1, 64]
000000 bc 5c a6 3e 00 00 00 80 1f a9 f4 3e 47 7a 0a bf
       0.32492626 -0.0 0.4778528 -0.5409283
000010 00 00 00 80 17 99 b8 be 00 00 00 80 00 00 00 00
       -0.0 -0.36054298 -0.0 0.0
000020 00 00 00 00 bb 73 b6 3e 00 00 00 00 1e bd 8d be
       0.0 0.3563517 0.0 -0.27683347
000030 00 00 00 00 e5 1c 0f bf 3a 9c 15 3f 00 00 00 80
       0.0 -0.55903465 0.5844151 -0.0
000040 00 00 00 80 00 00 00 80 4b 7f d1 3e 00 00 00 80
       -0.0 -0.0 0.4091743 -0.0
000050 00 00 00 00 4f 3a a3 be 00 00 00 80 00 00 00 00
       0.0 -0.31880423 -0.0 0.0
000060 00 00 00 80 00 00 00 80 de ea 98 be 0e 29 ba be
       -0.0 -0.0 -0.2986669 -0.36359447
000070 00 00 00 00 00 00 00 80 00 00 00 00 67 3b 80 3e
       0.0 -0.0 0.0 0.2504532
000080 00 00 00 00 5a b9 ac be 00 00 00 80 00 00 00 80
       0.0 -0.33735162 -0.0 -0.0
000090 00 00 00 00 00 00 00 00 83 62 c3 3e 17 28 cf be
       0.0 0.0 0.38161096 -0.40460274
0000a0 00 00 00 00 00 00 00 00 00 00 00 80 00 00 00 00
       0.0 0.0 -0.0 0.0
0000b0 00 00 00 00 a1 e3 95 be b4 80 be 3e 00 00 00 00
       0.0 -0.2927523 0.37207568 0.0
0000c0 00 00 00 80 00 00 00 80 00 00 00 00 00 00 00 00
       -0.0 -0.0 0.0 0.0
0000d0 00 00 00 80 35 3e b9 3e 00 00 00 80 80 34 d3 3e
       -0.0 0.36180273 -0.0 0.41250992
0000e0 e8 ff 92 be 00 00 00 00 00 00 00 80 30 93 7f be
       -0.28710866 0.0 -0.0 -0.24958491
0000f0 7b d0 97 be 00 00 00 80 00 00 00 00 00 00 00 00
       -0.29651245 -0.0 0.0 0.0

sequential_2/conv2d_103/Conv2D f4 [32, 3, 3, 3]
000000 00 00 00 80 d9 7c 48 3e 67 c9 22 3e 00 00 00 80
       -0.0 0.19578876 0.15897141 -0.0
000010 d0 a2 29 3e 00 00 00 80 00 00 00 80 00 00 00 80
       0.16566014 -0.0 -0.0 -0.0
000020 6d da 17 be b1 6d 77 3e a2 cd 9f 3e 00 00 00 80
       -0.14829417 0.24162938 0.31211573 -0.0
000030 00 00 00 80 00 00 00 80 00 00 00 80 00 00 00 80
       -0.0 -0.0 -0.0 -0.0
000040 00 00 00 80 00 00 00 80 88 23 3d 3e 6b 3b 94 3e
       -0.0 -0.0 0.18470585 0.28951582
000050 00 00 00 80 7d cb 22 be 00 00 00 80 01 2b 88 be
       -0.0 -0.15897937 -0.0 -0.2659531
000060 59 2f 79 be 00 00 00 80 5c 7f 75 be 00 00 00 00
       -0.24334468 -0.0 -0.23974365 0.0
000070 00 00 00 00 00 00 00 00 79 0d 5e be 00 00 00 80
       0.0 0.0 -0.21684827 -0.0
000080 4c e3 5d be 00 00 00 80 00 00 00 00 4d 31 25 be
       -0.21668738 -0.0 0.0 -0.16132088
000090 00 00 00 80 00 00 00 80 ba c1 2b be 00 00 00 80
       -0.0 -0.0 -0.1677312 -0.0
0000a0 00 00 00 80 00 00 00 00 00 00 00 80 00 00 00 80
       -0.0 0.0 -0.0 -0.0
0000b0 00 00 00 00 40 e0 25 be 00 00 00 00 b2 76 1a be
       0.0 -0.16198826 0.0 -0.15084341
0000c0 00 00 00 00 00 00 00 80 00 00 00 80 00 00 00 80
       0.0 -0.0 -0.0 -0.0
0000d0 6e 85 17 be 00 00 00 80 a6 bc 17 3e 00 00 00 80
       -0.14796993 -0.0 0.14818057 -0.0
0000e0 96 1c 21 be 16 c0 6a 3e 00 00 00 80 00 00 00 80
       -0.15733561 0.22924837 -0.0 -0.0
0000f0 fb 5c 3d 3e ae 47 2e be b1 5f 5a be 00 00 00 80
       0.184925 -0.17019531 -0.21325566 -0.0
000100 00 00 00 80 dd 42 20 be 00 00 00 80 00 00 00 80
       -0.0 -0.15650506 -0.0 -0.0
000110 9c ac 84 be 05 2b 58 3e 00 00 00 80 ae 8d 84 be
       -0.2591294 0.2111016 -0.0 -0.25889343
000120 00 00 00 80 00 00 00 80 db 1f 62 be 00 00 00 80
       -0.0 -0.0 -0.22082464 -0.0
000130 ab c3 55 be 00 00 00 80 00 00 00 80 00 00 00 80
       -0.20875423 -0.0 -0.0 -0.0
000140 00 7b 4c be 13 35 45 be 00 00 00 80 00 00 00 80
       -0.19968796 -0.19258527 -0.0 -0.0
000150 53 81 2b 3e c5 a3 c6 3e 00 00 00 80 00 00 00 80
       0.16748552 0.3879682 -0.0 -0.0
000160 68 40 8e 3e 00 00 00 80 31 e6 2f be 00 00 00 80
       0.27783513 -0.0 -0.17177655 -0.0
000170 58 38 88 be 00 00 00 80 ef f9 4c 3e 00 00 00 80
       -0.26605487 -0.0 0.20017217 -0.0
000180 00 00 00 80 00 00 00 80 00 00 00 80 63 e8 64 be
       -0.0 -0.0 -0.0 -0.22354273
000190 00 00 00 80 6a e7 31 be 00 00 00 80 59 7b 96 3e
       -0.0 -0.17373434 -0.0 0.29390982
0001a0 f4 ec 15 be 00 00 00 80 00 00 00 80 00 00 00 80
       -0.14641172 -0.0 -0.0 -0.0
0001b0 14 95 3a 3e 00 00 00 00 00 00 00 00 6f 27 72 3e
       0.18220931 0.0 0.0 0.23647855
0001c0 00 00 00 00 00 00 00 00 00 00 00 80 00 00 00 80
       0.0 0.0 -0.0 -0.0
0001d0 00 00 00 80 00 00 00 00 00 00 00 00 00 00 00 00
       -0.0 0.0 0.0 0.0
0001e0 00 00 00 00 00 00 00 00 00 00 00 00 25 52 56 3e
       0.0 0.0 0.0 0.20929773
0001f0 66 fa 1d 3e 00 00 00 00 00 00 00 00 00 00 00 00
       0.1542755 0.0 0.0 0.0
000200 00 00 00 00 84 b6 50 3e 00 00 00 00 1f 9b 1b 3e
       0.0 0.20382124 0.0 0.15195893
000210 00 00 00 00 00 00 00 00 00 00 00 00 00 00 00 00
       0.0 0.0 0.0 0.0
000220 32 15 55 3e 00 00 00 80 ee ce 53 3e e1 28 1f 3e
       0.20808867 -0.0 0.20684406 0.15542938
000230 00 00 00 80 bb 76 3f 3e 00 00 00 00 00 00 00 80
       -0.0 0.18697636 0.0 -0.0
000240 00 00 00 00 cb de 36 3e 06 00 34 3e 00 00 00 00
       0.0 0.17858426 0.17578134 0.0
000250 00 00 00 00 00 00 00 80 00 00 00 00 00 00 00 00
       0.0 -0.0 0.0 0.0
000260 00 00 00 00 17 c3 91 be 46 fd da be b2 83 e7 be
       0.0 -0.28469154 -0.42771357 -0.45217663
000270 80 fb ba be e4 cc 23 be e2 8a b4 be 41 a7 2d be
       -0.36520004 -0.15996128 -0.3526221 -0.16958334
000280 2b 65 b6 be 23 25 8c be bc 0e ad be 00 00 00 00
       -0.3562406 -0.27372083 -0.33800304 0.0
000290 00 00 00 00 bc 27 89 be 00 00 00 00 00 00 00 00
       0.0 -0.26788127 0.0 0.0
0002a0 3b f9 89 be 00 00 00 00 00 00 00 00 f1 6a 6d be
       -0.2694796 0.0 0.0 -0.23185326
0002b0 00 00 00 00 00 00 00 00 66 f0 6b be 00 00 00 00
       0.0 0.0 -0.23040923 0.0
0002c0 79 90 2e 3e 00 00 00 00 00 00 00 00 a9 35 77 3e
       0.170473 0.0 0.0 0.24141563
0002d0 00 00 00 80 00 00 00 00 40 da 81 3e 00 00 00 80
       -0.0 0.0 0.25361824 -0.0
0002e0 00 00 00 00 00 00 00 00 00 00 00 00 6d b3 2c 3e
       0.0 0.0 0.0 0.1686532
0002f0 d0 a7 b7 3e 00 00 00 80 00 00 00 80 00 00 00 80
       0.35870218 -0.0 -0.0 -0.0
000300 00 00 00 80 00 00 00 80 4f f2 1f be 00 00 00 80
       -0.0 -0.0 -0.15619777 -0.0
000310 00 00 00 80 00 00 00 80 00 00 00 80 e5 c2 1d be
       -0.0 -0.0 -0.0 -0.15406378
000320 78 6e 15 be 00 00 00 80 00 00 00 80 00 00 00 80
       -0.14592922 -0.0 -0.0 -0.0
000330 00 00 00 80 00 00 00 80 00 00 00 80 00 00 00 80
       -0.0 -0.0 -0.0 -0.0
000340 00 00 00 80 00 00 00 80 00 00 00 80 00 00 00 80
       -0.0 -0.0 -0.0 -0.0
000350 00 00 00 80 00 00 00 80 00 00 00 80 00 00 00 80
       -0.0 -0.0 -0.0 -0.0
000360 00 00 00 00 00 00 00 00 00 00 00 00 74 7f 3f be
       0.0 0.0 0.0 -0.18700963
000370 80 5c 8a be a2 88 4e be 00 00 00 00 00 00 00 00
       -0.27023697 -0.20169309 0.0 0.0
000380 00 00 00 00 00 00 00 00 d9 5a 7e be 00 00 00 00
       0.0 0.0 -0.24839343 0.0
000390 75 70 22 be fe 25 27 be 76 cb a8 be 3c f2 23 be
       -0.15863211 -0.16323087 -0.32967728 -0.16010374
0003a0 8d 55 2d be 00 00 00 00 00 00 00 00 4c e2 6f be
       -0.16927166 0.0 0.0 -0.23426169
0003b0 b6 ac 30 be 88 8f 62 be 5c b1 c0 be dd 8c 39 be
       -0.17253384 -0.22125065 -0.37635314 -0.18120141
0003c0 79 4a 30 be 00 00 00 00 00 00 00 00 00 00 00 80
       -0.17215909 0.0 0.0 -0.0
0003d0 00 00 00 80 00 00 00 80 00 00 00 80 00 00 00 80
       -0.0 -0.0 -0.0 -0.0
0003e0 1f 93 42 be 00 00 00 00 ef 4d 3b be 00 00 00 00
       -0.19001435 0.0 -0.18291448 0.0
0003f0 00 00 00 80 00 00 00 80 d7 f2 54 be 00 00 00 00
       -0.0 -0.0 -0.20795761 0.0

sequential_2/conv2d_104/Conv2D i1 [64, 3, 3, 32]
000000 00 00 00 2f d1 e1 00 00 00 00 19 00 44 3a c1 20
       0 0 0 47 -47 -31 0 0 0 0 25 0 68 58 -63 32
000010 00 00 7f d0 00 e5 00 00 00 00 e2 2a 00 e2 29 00
       0 0 127 -48 0 -27 0 0 0 0 -30 42 0 -30 41 0
000020 d2 00 00 18 00 e1 e5 00 00 00 1d e7 38 00 cf 22
       -46 0 0 24 0 -31 -27 0 0 0 29 -25 56 0 -49 34
000030 d4 21 28 df 00 da d9 00 00 b1 00 00 c5 af 00 00
       -44 33 40 -33 0 -38 -39 0 0 -79 0 0 -59 -81 0 0
000040 00 00 1d 00 00 ca cd 00 00 00 00 00 50 00 d6 2d
       0 0 29 0 0 -54 -51 0 0 0 0 0 80 0 -42 45
000050 20 00 5b e1 1a d8 33 00 00 00 00 00 00 00 00 d5
       32 0 91 -31 26 -40 51 0 0 0 0 0 0 0 0 -43
000060 d7 00 00 27 dd e2 44 00 00 00 00 00 22 1b ba 00
       -41 0 0 39 -35 -30 68 0 0 0 0 0 34 27 -70 0
000070 00 00 38 00 dc c8 00 d3 00 00 00 23 00 c1 1a 00
       0 0 56 0 -36 -56 0 -45 0 0 0 35 0 -63 26 0
000080 cc 00 00 18 00 00 00 00 ba 00 29 00 2d 00 e0 00
       -52 0 0 24 0 0 0 0 -70 0 41 0 45 0 -32 0
000090 c7 1a 00 00 20 00 00 d9 00 00 00 00 de a1 00 00
       -57 26 0 0 32 0 0 -39 0 0 0 0 -34 -95 0 0
0000a0 00 00 00 00 00 00 00 00 d3 00 00 00 2a 00 e2 00
       0 0 0 0 0 0 0 0 -45 0 0 0 42 0 -30 0
0000b0 22 29 00 e1 00 c8 3d dd 00 30 00 00 00 d8 ca 00
       34 41 0 -31 0 -56 61 -35 0 48 0 0 0 -40 -54 0
0000c0 00 00 df 00 e6 19 1b 00 d3 00 00 00 00 e0 db e1
       0 0 -33 0 -26 25 27 0 -45 0 0 0 0 -32 -37 -31
0000d0 00 d2 1c e8 00 d9 00 00 00 00 da 00 00 e2 24 00
       0 -46 28 -24 0 -39 0 0 0 0 -38 0 0 -30 36 0
0000e0 00 00 e0 00 00 60 00 00 d1 00 1b 00 00 00 dd be
       0 0 -32 0 0 96 0 0 -47 0 27 0 0 0 -35 -66
0000f0 d4 00 00 00 00 dd 00 00 00 00 00 00 e7 00 00 2e
       -44 0 0 0 0 -35 0 0 0 0 0 0 -25 0 0 46

sequential_2/conv2d_105/Conv2D i1 [64, 3, 3, 64]
000000 00 00 00 00 00 00 00 00 00 00 00 00 00 00 00 00
       0 0 0 0 0 0 0 0 0 0 0 0 0 0 0 0
000010 00 00 00 00 00 00 00 00 00 00 00 00 00 00 00 00
       0 0 0 0 0 0 0 0 0 0 0 0 0 0 0 0
000020 00 00 00 00 00 00 00 00 00 00 00 00 00 00 00 00
       0 0 0 0 0 0 0 0 0 0 0 0 0 0 0 0
000030 00 00 00 00 00 00 00 00 00 00 00 00 00 00 00 00
       0 0 0 0 0 0 0 0 0 0 0 0 0 0 0 0
000040 00 00 00 00 00 00 88 00 00 00 00 00 00 00 00 00
       0 0 0 0 0 0 -120 0 0 0 0 0 0 0 0 0
000050 00 00 00 00 00 00 00 00 00 00 00 00 00 00 00 00
       0 0 0 0 0 0 0 0 0 0 0 0 0 0 0 0
000060 00 00 00 00 00 00 00 00 00 00 00 00 00 00 00 00
       0 0 0 0 0 0 0 0 0 0 0 0 0 0 0 0
000070 00 00 00 00 00 00 00 00 00 00 00 00 00 00 00 00
       0 0 0 0 0 0 0 0 0 0 0 0 0 0 0 0
000080 00 00 00 00 85 00 00 00 00 00 00 00 00 00 00 00
       0 0 0 0 -123 0 0 0 0 0 0 0 0 0 0 0
000090 00 00 00 00 00 00 00 00 00 00 00 00 00 00 00 00
       0 0 0 0 0 0 0 0 0 0 0 0 0 0 0 0
0000a0 00 00 00 00 00 81 00 00 00 00 00 00 00 00 00 00
       0 0 0 0 0 -127 0 0 0 0 0 0 0 0 0 0
0000b0 00 00 00 00 00 00 00 00 00 00 00 00 00 00 00 00
       0 0 0 0 0 0 0 0 0 0 0 0 0 0 0 0
0000c0 00 00 00 8d 00 00 00 00 00 00 00 00 00 00 00 00
       0 0 0 -115 0 0 0 0 0 0 0 0 0 0 0 0
0000d0 00 00 00 00 00 00 00 00 00 00 00 00 00 00 00 00
       0 0 0 0 0 0 0 0 0 0 0 0 0 0 0 0
0000e0 00 00 00 00 00 00 00 00 00 00 00 00 00 00 00 00
       0 0 0 0 0 0 0 0 0 0 0 0 0 0 0 0
0000f0 00 00 00 00 00 00 00 00 00 00 00 00 00 00 00 00
       0 0 0 0 0 0 0 0 0 0 0 0 0 0 0 0

sequential_2/conv2d_106/Conv2D i1 [128, 3, 3, 64]
000000 00 86 00 00 00 d1 c5 00 00 00 00 dc a3 da 98 de
       0 -122 0 0 0 -47 -59 0 0 0 0 -36 -93 -38 -104 -34
000010 00 00 bf 00 00 00 ad db d6 00 00 00 81 d3 cc a1
       0 0 -65 0 0 0 -83 -37 -42 0 0 0 -127 -45 -52 -95
000020 00 db a4 a9 00 00 e3 9b e3 b3 da db be 00 99 00
       0 -37 -92 -87 0 0 -29 -101 -29 -77 -38 -37 -66 0 -103 0
000030 d5 b6 d7 de 00 b0 00 00 00 ca 00 00 d1 00 00 c3
       -43 -74 -41 -34 0 -80 0 0 0 -54 0 0 -47 0 0 -61
000040 00 98 00 00 00 00 c4 1a c1 af 00 00 00 da 9d d9
       0 -104 0 0 0 0 -60 26 -63 -81 0 0 0 -38 -99 -39
000050 00 00 00 00 00 00 00 00 d2 00 00 27 a7 00 00 cf
       0 0 0 0 0 0 0 0 -46 0 0 39 -89 0 0 -49
000060 00 00 c9 c3 00 1e 00 00 00 00 00 00 00 00 b5 00
       0 0 -55 -61 0 30 0 0 0 0 0 0 0 0 -75 0
000070 00 00 ca 00 00 c7 00 00 00 00 00 00 df 00 00 00
       0 0 -54 0 0 -57 0 0 0 0 0 0 -33 0 0 0
000080 00 bc 00 d2 00 00 d9 00 c9 00 00 00 20 00 b7 00
       0 -68 0 -46 0 0 -39 0 -55 0 0 0 32 0 -73 0
000090 00 de 00 00 00 00 00 e0 00 e3 1d 00 c8 00 00 00
       0 -34 0 0 0 0 0 -32 0 -29 29 0 -56 0 0 0
0000a0 00 00 dc cf 00 25 00 00 00 d1 00 00 d9 00 e2 30
       0 0 -36 -49 0 37 0 0 0 -47 0 0 -39 0 -30 48
0000b0 de 00 d2 00 e1 00 00 00 d7 00 00 00 00 00 d2 00
       -34 0 -46 0 -31 0 0 0 -41 0 0 0 0 0 -46 0
0000c0 00 b1 00 00 cc 00 bc 00 b9 00 00 00 00 00 d2 e3
       0 -79 0 0 -52 0 -68 0 -71 0 0 0 0 0 -46 -29
0000d0 00 00 b5 d6 00 e3 bd 00 b7 e1 00 2a b7 00 d8 e2
       0 0 -75 -42 0 -29 -67 0 -73 -31 0 42 -73 0 -40 -30
0000e0 2b 00 c9 00 00 2e cc b3 00 d8 dc da df 00 d5 1f
       43 0 -55 0 0 46 -52 -77 0 -40 -36 -38 -33 0 -43 31
0000f0 00 00 cc 00 e1 b7 00 00 c0 00 00 27 00 00 b0 cb
       0 0 -52 0 -31 -73 0 0 -64 0 0 39 0 0 -80 -53
