LaneFollowingModel/f16q_pruned_model.tflite (tflite, 283120 bytes, 11 tensors)

sequential/dense/BiasAdd/ReadVariableOp/resource f2 [64]
0	0xadf6	-0.09314
1	0x336f	0.2323
2	0x290d	0.03946
3	0xad53	-0.0832
4	0x3510	0.3164
5	0xadc4	-0.0901
6	0xae9b	-0.1032
7	0xb404	-0.251
8	0xb08d	-0.1422
9	0x2c7a	0.06995
10	0xac62	-0.0685
11	0x31a7	0.1766
12	0xb0cb	-0.1498
13	0x30ce	0.1501
14	0x33a4	0.2388
15	0xa9c9	-0.0452
16	0x334b	0.2279
17	0x33db	0.2455
18	0xabf5	-0.06216
19	0x31ff	0.1874
20	0xb38a	-0.2356
21	0xad5a	-0.0836
22	0x34aa	0.2915
23	0xad7d	-0.08575
24	0x2039	0.00825
25	0xae3a	-0.0973
26	0xa851	-0.03372
27	0xae3c	-0.0974
28	0x349e	0.2886
29	0x326b	0.2006
30	0x25fc	0.02338
31	0xac1f	-0.0644
32	0x34e7	0.3064
33	0xaf27	-0.11176
34	0xae5a	-0.09924
35	0xaddf	-0.09174
36	0xa865	-0.03433
37	0x34f1	0.3088
38	0x282d	0.03262
39	0xac0a	-0.0631
40	0x365c	0.3975
41	0x3563	0.3367
42	0x3247	0.1962
43	0xaca7	-0.0727
44	0xb3d1	-0.2443
45	0xa99b	-0.0438
46	0xac47	-0.06683
47	0x350d	0.3157
48	0xac64	-0.0686
49	0xb282	-0.2034
50	0xaf3e	-0.11316
51	0x2618	0.0238
52	0xaad6	-0.0534
53	0xa14a	-0.01033
54	0x281c	0.0321
55	0x2de7	0.0922
56	0xab41	-0.05667
57	0xac56	-0.06775
58	0xacae	-0.0731
59	0x2935	0.04068
60	0xac24	-0.0647
61	0x2a5f	0.04977
62	0xabc8	-0.0608
63	0x3635	0.388

sequential/conv2d_3/BiasAdd/ReadVariableOp/resource f2 [128]
0	0xa548	-0.02063
1	0xb2ec	-0.2163
2	0xb083	-0.141
3	0xb2cc	-0.2124
4	0x30a0	0.1445
5	0xacd7	-0.0756
6	0xacfe	-0.078
7	0xa561	-0.02101
8	0xaca0	-0.07227
9	0xad02	-0.07825
10	0xb53f	-0.328
11	0xb461	-0.2737
12	0xb633	-0.3875
13	0xb314	-0.2212
14	0xb596	-0.349
15	0xba01	-0.7505
16	0xb01d	-0.1285
17	0xba67	-0.8003
18	0xb42d	-0.261
19	0xb1e1	-0.1837
20	0xb112	-0.1584
21	0xb797	-0.4744
22	0xae05	-0.09406
23	0xb199	-0.1749
24	0xadfa	-0.0934
25	0xb20f	-0.1893
26	0xa1f1	-0.011604
27	0xb216	-0.1902
28	0xae05	-0.09406
29	0xb6fd	-0.4368
30	0xb407	-0.2517
31	0xb631	-0.387
32	0xa792	-0.02957
33	0xa170	-0.01062
34	0xaad5	-0.05338
35	0xab12	-0.05524
36	0x9f3a	-0.007057
37	0xb4a8	-0.291
38	0xb4bf	-0.2966
39	0xb8cf	-0.601
40	0x296d	0.0424
41	0xb22f	-0.1932
42	0xacc3	-0.0744
43	0xb49c	-0.288
44	0xa774	-0.02911
45	0x2e5a	0.09924
46	0xb32f	-0.2245
47	0xb0be	-0.1482
48	0xb69a	-0.4126
49	0x9189	-0.0006757
50	0xa042	-0.008316
51	0xadaa	-0.0885
52	0xa7ef	-0.03099
53	0xb637	-0.3884
54	0xad5b	-0.0837
55	0xb2f2	-0.217
56	0xafa5	-0.11945
57	0xac74	-0.0696
58	0xabca	-0.06085
59	0xac99	-0.07184
60	0xb2f7	-0.2177
61	0xb3df	-0.246
62	0xb12c	-0.1616
63	0xb231	-0.1935
64	0xb234	-0.1938
65	0xb592	-0.3481
66	0xae7d	-0.1014
67	0xb71c	-0.4443
68	0xb282	-0.2034
69	0x91ed	-0.0007234
70	0xb2e9	-0.216
71	0xb2e3	-0.2152
72	0xad74	-0.0852
73	0xb523	-0.321
74	0xaefd	-0.1092
75	0xb29f	-0.2069
76	0xb1c1	-0.1798
77	0xb03c	-0.1323
78	0xb3aa	-0.2395
79	0xb4c5	-0.298
80	0xb81a	-0.5127
81	0xb0d7	-0.1512
82	0xb4cc	-0.2998
83	0xb269	-0.2003
84	0xaf24	-0.1116
85	0xb112	-0.1584
86	0xb456	-0.271
87	0xb698	-0.412
88	0xb5cc	-0.3623
89	0xb2cd	-0.2125
90	0xb5e7	-0.369
91	0xb54f	-0.3318
92	0xacee	-0.077
93	0xb477	-0.279
94	0xaa22	-0.0479
95	0xb87c	-0.5605
96	0xb5a0	-0.3516
97	0xaef4	-0.10864
98	0x9297	-0.0008044
99	0xabac	-0.05994
100	0xab74	-0.05823
101	0xb25b	-0.1986
102	0xb1aa	-0.177
103	0x9f79	-0.007298
104	0xaf85	-0.1175
105	0xb097	-0.1434
106	0xaf40	-0.1133
107	0xb1b5	-0.1783
108	0xa6ed	-0.02705
109	0xa5ea	-0.0231
110	0x2a0c	0.04724
111	0xb7ee	-0.4956
112	0xae6b	-0.1003
113	0xb9a8	-0.707
114	0xb269	-0.2003
115	0xb2a4	-0.2075
116	0xb29a	-0.2063
117	0x2a48	0.04907
118	0xb51b	-0.319
119	0x3947	0.6597
120	0xb15a	-0.1672
121	0xba2c	-0.7715
122	0xb52e	-0.3237
123	0xb293	-0.2054
124	0xb9c2	-0.7197
125	0xae12	-0.09485
126	0xad23	-0.08026
127	0xaf0c	-0.1101

sequential/conv2d_2/BiasAdd/ReadVariableOp/resource f2 [64]
0	0x2a1f	0.04782
1	0x9552	-0.001299
2	0xb144	-0.1646
3	0xac24	-0.0647
4	0xb481	-0.2815
5	0x28a7	0.03635
6	0x286e	0.0346
7	0xb15f	-0.1678
8	0xb060	-0.1367
9	0xb5a7	-0.3533
10	0xaf0c	-0.1101
11	0x1e35	0.00606
12	0xb42c	-0.2607
13	0xac1e	-0.06433
14	0xb46d	-0.2766
15	0xad15	-0.0794
16	0xab8d	-0.059
17	0xb141	-0.1642
18	0xb0dd	-0.152
19	0x262c	0.02411
20	0xaed9	-0.107
21	0xb6ac	-0.417
22	0xacac	-0.073
23	0xa3ee	-0.01549
24	0xb204	-0.188
25	0xb258	-0.1982
26	0xad39	-0.0816
27	0xb6cb	-0.4246
28	0xac42	-0.0665
29	0xae3b	-0.09735
30	0xb8c3	-0.595
31	0xb6fc	-0.4365
32	0xae0b	-0.0944
33	0x3237	0.1942
34	0xb189	-0.173
35	0xac1d	-0.0643
36	0xb72c	-0.4482
37	0xaf4b	-0.11395
38	0xb81f	-0.515
39	0xae0d	-0.09454
40	0xb1f1	-0.1857
41	0xacad	-0.07306
42	0xb5e6	-0.3687
43	0xb585	-0.345
44	0xadb1	-0.0889
45	0xa8a2	-0.0362
46	0x20e3	0.009544
47	0xac08	-0.063
48	0xac50	-0.0674
49	0xb5c5	-0.3606
50	0xb317	-0.2216
51	0xb69d	-0.4133
52	0x2074	0.0087
53	0xae3c	-0.0974
54	0xb23e	-0.1951
55	0xb3d9	-0.2452
56	0xafed	-0.12384
57	0xaebc	-0.1052
58	0xb203	-0.1879
59	0x270c	0.02753
60	0x2a57	0.04953
61	0xad60	-0.084
62	0x25af	0.0222
63	0xad4a	-0.08264

sequential/conv2d_1/BiasAdd/ReadVariableOp/resource f2 [64]
0	0xb8a6	-0.581
1	0xb1c3	-0.18
2	0xadbd	-0.08966
3	0x2f97	0.1186
4	0x1e2c	0.006027
5	0xa947	-0.04123
6	0xabaa	-0.05988
7	0x2a9e	0.0517
8	0xabd1	-0.06107
9	0xb43f	-0.2654
10	0xaedf	-0.10736
11	0xb6ba	-0.4204
12	0xae42	-0.0978
13	0xa9da	-0.04572
14	0xab3d	-0.05655
15	0xa39f	-0.014885
16	0xb123	-0.1605
17	0xae61	-0.0997
18	0x289e	0.03607
19	0xb2d6	-0.2136
20	0x2993	0.04355
21	0xa444	-0.01666
22	0xb0e3	-0.1527
23	0x3421	0.258
24	0xaa27	-0.04807
25	0xb216	-0.1902
26	0x3116	0.1589
27	0xa091	-0.00892
28	0xb325	-0.2233
29	0xb41f	-0.2576
30	0xb293	-0.2054
31	0xb0f0	-0.1543
32	0xa976	-0.04266
33	0xad5b	-0.0837
34	0xb8b0	-0.586
35	0xb462	-0.274
36	0x2c3e	0.0663
37	0xadab	-0.08856
38	0xae38	-0.09717
39	0x339f	0.2382
40	0x3359	0.2296
41	0xab27	-0.05588
42	0xaf4e	-0.11414
43	0xb80c	-0.506
44	0xa861	-0.0342
45	0xa951	-0.04153
46	0xb084	-0.1411
47	0xac1c	-0.0642
48	0x2ea2	0.10364
49	0xb4da	-0.3032
50	0xaf72	-0.11633
51	0xb13b	-0.1635
52	0xada7	-0.0883
53	0xb1e9	-0.1847
54	0xacdc	-0.0759
55	0xac0d	-0.0633
56	0xb019	-0.128
57	0xb40c	-0.253
58	0xb411	-0.2542
59	0xb21b	-0.1908
60	0xb35b	-0.2299
61	0xa9a0	-0.04395
62	0xb523	-0.321
63	0xaabd	-0.05264

sequential/conv2d/BiasAdd/ReadVariableOp/resource f2 [32]
0	0xae26	-0.09607
1	0xaa36	-0.04852
2	0xb285	-0.2037
3	0x3095	0.1432
4	0x3242	0.1956
5	0xaa6b	-0.05014
6	0xaf02	-0.1095
7	0x21cc	0.01132
8	0xb311	-0.2208
9	0xad4a	-0.08264
10	0x3224	0.1919
11	0x2c8a	0.0709
12	0xa897	-0.03586
13	0x31b4	0.1782
14	0x2b15	0.05533
15	0xb111	-0.1583
16	0x31e2	0.1838
17	0xa480	-0.01758
18	0xb3ab	-0.2396
19	0xa963	-0.04208
20	0xa857	-0.0339
21	0xa9de	-0.04584
22	0xb7ef	-0.4958
23	0x29e9	0.04617
24	0x2b37	0.05637
25	0xb35e	-0.2302
26	0x9f0d	-0.006886
27	0xb41b	-0.2566
28	0x2da4	0.08813
29	0xb6c2	-0.4224
30	0xb48e	-0.2847
31	0xb36f	-0.2323

sequential/dense/MatMul f2 [64, 128]
0	0x0000	0.0
1	0x0000	0.0
2	0x8000	-0.0
3	0x0000	0.0
4	0xb239	-0.1945
5	0x0000	0.0
6	0x8000	-0.0
7	0xb371	-0.2325
8	0x8000	-0.0
9	0x0000	0.0
10	0x8000	-0.0
11	0x8000	-0.0
12	0xb205	-0.1881
13	0x0000	0.0
14	0x8000	-0.0
15	0x0000	0.0
16	0xb2e0	-0.2148
17	0x0000	0.0
18	0x8000	-0.0
19	0x0000	0.0
20	0x0000	0.0
21	0x8000	-0.0
22	0x8000	-0.0
23	0x8000	-0.0
24	0x8000	-0.0
25	0x8000	-0.0
26	0x8000	-0.0
27	0x8000	-0.0
28	0x0000	0.0
29	0x0000	0.0
30	0x0000	0.0
31	0x8000	-0.0
32	0x8000	-0.0
33	0x8000	-0.0
34	0x8000	-0.0
35	0x8000	-0.0
36	0xb247	-0.1962
37	0x8000	-0.0
38	0x8000	-0.0
39	0x8000	-0.0
40	0xb435	-0.263
41	0x0000	0.0
42	0x8000	-0.0
43	0x0000	0.0
44	0x0000	0.0
45	0xb15b	-0.1674
46	0x0000	0.0
47	0x8000	-0.0
48	0x0000	0.0
49	0x0000	0.0
50	0x8000	-0.0
51	0x0000	0.0
52	0xb131	-0.1622
53	0x0000	0.0
54	0x8000	-0.0
55	0x8000	-0.0
56	0x8000	-0.0
57	0xb145	-0.1647
58	0x0000	0.0
59	0x0000	0.0
60	0x8000	-0.0
61	0x8000	-0.0
62	0x0000	0.0
63	0xb231	-0.1935
64	0x8000	-0.0
65	0xb1b2	-0.178
66	0x8000	-0.0
67	0x0000	0.0
68	0x0000	0.0
69	0x8000	-0.0
70	0x8000	-0.0
71	0x8000	-0.0
72	0x0000	0.0
73	0x0000	0.0
74	0xb250	-0.1973
75	0x8000	-0.0
76	0x8000	-0.0
77	0xb45b	-0.2722
78	0x0000	0.0
79	0x0000	0.0
80	0xb17d	-0.1715
81	0x0000	0.0
82	0xb16a	-0.1692
83	0x8000	-0.0
84	0x8000	-0.0
85	0xb2bf	-0.2108
86	0xb233	-0.1937
87	0x0000	0.0
88	0xb282	-0.2034
89	0x0000	0.0
90	0x8000	-0.0
91	0x0000	0.0
92	0x8000	-0.0
93	0x0000	0.0
94	0x0000	0.0
95	0x0000	0.0
96	0xb256	-0.198
97	0x8000	-0.0
98	0x0000	0.0
99	0x8000	-0.0
100	0x0000	0.0
101	0x8000	-0.0
102	0x8000	-0.0
103	0x0000	0.0
104	0x8000	-0.0
105	0x0000	0.0
106	0x0000	0.0
107	0xb154	-0.1665
108	0x8000	-0.0
109	0x0000	0.0
110	0x8000	-0.0
111	0xb253	-0.1976
112	0x8000	-0.0
113	0x8000	-0.0
114	0x0000	0.0
115	0x8000	-0.0
116	0xb155	-0.1666
117	0x0000	0.0
118	0x8000	-0.0
119	0x8000	-0.0
120	0xb21b	-0.1908
121	0xb22a	-0.1926
122	0x8000	-0.0
123	0x0000	0.0
124	0x8000	-0.0
125	0x0000	0.0
126	0x0000	0.0
127	0xb1a3	-0.1761
128	0x0000	0.0
129	0x3628	0.3848
130	0x31b0	0.1777
131	0xb653	-0.3953
132	0x3530	0.3242
133	0xb64a	-0.393
134	0x8000	-0.0
135	0x33a7	0.2391
136	0xb5f2	-0.3716
137	0x33cd	0.2438
138	0xb519	-0.3186
139	0x322d	0.193
140	0x8000	-0.0
141	0xb461	-0.2737
142	0x0000	0.0
143	0x0000	0.0
144	0x0000	0.0
145	0xb44b	-0.2683
146	0x36e2	0.4302
147	0x3245	0.1959
148	0x0000	0.0
149	0x3348	0.2275
150	0xb33a	-0.2258
151	0x0000	0.0
152	0x0000	0.0
153	0x3148	0.165
154	0x3232	0.1936
155	0xb44e	-0.269
156	0xb4e3	-0.3054
157	0xb4d7	-0.3025
158	0x3561	0.3362
159	0x8000	-0.0
160	0x0000	0.0
161	0xb355	-0.2291
162	0x3463	0.2742
163	0x3533	0.325
164	0x3501	0.3127
165	0xb6ef	-0.4333
166	0xb4a3	-0.2898
167	0x8000	-0.0
168	0x8000	-0.0
169	0x8000	-0.0
170	0x352c	0.3232
171	0x8000	-0.0
172	0x31c6	0.1804
173	0x8000	-0.0
174	0x3514	0.3174
175	0x34fc	0.3115
176	0x0000	0.0
177	0x0000	0.0
178	0xb424	-0.2588
179	0x0000	0.0
180	0x0000	0.0
181	0x8000	-0.0
182	0xb235	-0.194
183	0xb842	-0.532
184	0x3237	0.1942
185	0x8000	-0.0
186	0xb36d	-0.232
187	0x3619	0.381
188	0xb587	-0.3455
189	0x3435	0.263
190	0xb383	-0.2347
191	0x8000	-0.0
192	0x0000	0.0
193	0x34e8	0.3066
194	0x3503	0.3132
195	0x8000	-0.0
196	0x353b	0.327
197	0x8000	-0.0
198	0x0000	0.0
199	0x361c	0.3818
200	0x8000	-0.0
201	0x35ea	0.3696
202	0x0000	0.0
203	0xb3e0	-0.2461
204	0x3449	0.2678
205	0x8000	-0.0
206	0x0000	0.0
207	0x8000	-0.0
208	0x3508	0.3145
209	0xb26c	-0.2007
210	0x8000	-0.0
211	0x8000	-0.0
212	0xb166	-0.1687
213	0x382f	0.523
214	0x0000	0.0
215	0xb4e1	-0.305
216	0x0000	0.0
217	0xb2ed	-0.2164
218	0xb48f	-0.285
219	0x0000	0.0
220	0xb500	-0.3125
221	0x0000	0.0
222	0x8000	-0.0
223	0xb265	-0.1998
224	0xb8b3	-0.5874
225	0x8000	-0.0
226	0xb31f	-0.2225
227	0x3566	0.3374
228	0x3817	0.511
229	0x8000	-0.0
230	0x0000	0.0
231	0xb6d8	-0.4277
232	0xba46	-0.784
233	0x8000	-0.0
234	0x3664	0.3994
235	0xb2df	-0.2147
236	0xb542	-0.3286
237	0x0000	0.0
238	0x8000	-0.0
239	0xb748	-0.455
240	0xb652	-0.395
241	0x8000	-0.0
242	0xb62f	-0.3865
243	0x360b	0.3777
244	0xb4d4	-0.3018
245	0x0000	0.0
246	0xb831	-0.524
247	0x0000	0.0
248	0x36fd	0.4368
249	0x3280	0.2031
250	0x0000	0.0
251	0x0000	0.0
252	0x345f	0.2732
253	0xb5da	-0.3657
254	0xb4eb	-0.3074
255	0xb46d	-0.2766

sequential/dense_1/MatMul f2 [1, 64]
0	0x324b	0.1967
1	0x344b	0.2683
2	0x0000	0.0
3	0x332f	0.2245
4	0x0000	0.0
5	0x8000	-0.0
6	0x8000	-0.0
7	0x0000	0.0
8	0x0000	0.0
9	0x0000	0.0
10	0x8000	-0.0
11	0x8000	-0.0
12	0x0000	0.0
13	0x8000	-0.0
14	0xb746	-0.4546
15	0x0000	0.0
16	0xb356	-0.2292
17	0x32ad	0.2086
18	0x8000	-0.0
19	0x0000	0.0
20	0x3241	0.1954
21	0x8000	-0.0
22	0x3352	0.2288
23	0x8000	-0.0
24	0x0000	0.0
25	0x8000	-0.0
26	0x0000	0.0
27	0x0000	0.0
28	0x8000	-0.0
29	0x3218	0.1904
30	0x8000	-0.0
31	0x0000	0.0
32	0x8000	-0.0
33	0x8000	-0.0
34	0x0000	0.0
35	0x33ed	0.2477
36	0x0000	0.0
37	0x338e	0.2361
38	0x0000	0.0
39	0x0000	0.0
40	0xb286	-0.2039
41	0x0000	0.0
42	0x345d	0.2727
43	0x0000	0.0
44	0x3534	0.3252
45	0x329c	0.2065
46	0x311b	0.1595
47	0xb3a7	-0.2391
48	0x8000	-0.0
49	0xb68a	-0.4087
50	0x325b	0.1986
51	0x8000	-0.0
52	0xb39b	-0.2377
53	0x8000	-0.0
54	0x8000	-0.0
55	0x0000	0.0
56	0x33d1	0.2443
57	0x8000	-0.0
58	0x0000	0.0
59	0xb19c	-0.1753
60	0x0000	0.0
61	0x0000	0.0
62	0x0000	0.0
63	0x308b	0.142

sequential/conv2d/Conv2D f2 [32, 3, 3, 3]
0	0x8000	-0.0
1	0x8000	-0.0
2	0x0000	0.0
3	0x8000	-0.0
4	0x8000	-0.0
5	0x8000	-0.0
6	0x8000	-0.0
7	0x8000	-0.0
8	0x0000	0.0
9	0x8000	-0.0
10	0x8000	-0.0
11	0x8000	-0.0
12	0x0000	0.0
13	0x8000	-0.0
14	0x0000	0.0
15	0x0000	0.0
16	0x0000	0.0
17	0x0000	0.0
18	0x0000	0.0
19	0x8000	-0.0
20	0x8000	-0.0
21	0x8000	-0.0
22	0x8000	-0.0
23	0x0000	0.0
24	0x8000	-0.0
25	0x8000	-0.0
26	0x8000	-0.0
27	0x334b	0.2279
28	0x3522	0.3208
29	0x0000	0.0
30	0x0000	0.0
31	0x375b	0.4597
32	0x0000	0.0
33	0x32fc	0.2183
34	0x0000	0.0
35	0x34be	0.2964
36	0x0000	0.0
37	0x0000	0.0
38	0x0000	0.0
39	0x0000	0.0
40	0x32fb	0.2181
41	0x0000	0.0
42	0x0000	0.0
43	0x0000	0.0
44	0x0000	0.0
45	0xb6ea	-0.4321
46	0xb403	-0.2507
47	0x0000	0.0
48	0xb708	-0.4395
49	0x0000	0.0
50	0xb4d2	-0.3013
51	0xb651	-0.3948
52	0xb2ec	-0.2163
53	0x0000	0.0
54	0x0000	0.0
55	0x0000	0.0
56	0x0000	0.0
57	0x0000	0.0
58	0x0000	0.0
59	0x0000	0.0
60	0x0000	0.0
61	0x0000	0.0
62	0x0000	0.0
63	0x0000	0.0
64	0x348a	0.2837
65	0x34a6	0.2905
66	0x0000	0.0
67	0x0000	0.0
68	0x0000	0.0
69	0x0000	0.0
70	0x0000	0.0
71	0x0000	0.0
72	0x0000	0.0
73	0x0000	0.0
74	0x3504	0.3135
75	0x0000	0.0
76	0x0000	0.0
77	0x3218	0.1904
78	0x0000	0.0
79	0x0000	0.0
80	0x0000	0.0
81	0x8000	-0.0
82	0x8000	-0.0
83	0x0000	0.0
84	0xb6f4	-0.4346
85	0xb27f	-0.203
86	0x8000	-0.0
87	0x8000	-0.0
88	0x8000	-0.0
89	0x8000	-0.0
90	0xb410	-0.254
91	0x8000	-0.0
92	0x8000	-0.0
93	0xb8df	-0.609
94	0xb4a2	-0.2896
95	0x8000	-0.0
96	0x8000	-0.0
97	0xb2d5	-0.2135
98	0x32da	0.2141
99	0xb518	-0.3184
100	0x8000	-0.0
101	0x0000	0.0
102	0xb7ca	-0.4868
103	0xb4ee	-0.308
104	0x8000	-0.0
105	0x8000	-0.0
106	0x8000	-0.0
107	0x33a3	0.2386
108	0x8000	-0.0
109	0x8000	-0.0
110	0xb5ea	-0.3696
111	0x339a	0.2375
112	0x8000	-0.0
113	0x8000	-0.0
114	0x8000	-0.0
115	0x8000	-0.0
116	0xb3ae	-0.24
117	0x8000	-0.0
118	0x0000	0.0
119	0xb48d	-0.2844
120	0x3499	0.2874
121	0x341e	0.2573
122	0xb5f3	-0.3718
123	0x8000	-0.0
124	0x8000	-0.0
125	0xb4fc	-0.3115
126	0x0000	0.0
127	0xb247	-0.1962
128	0xb7c7	-0.486
129	0x8000	-0.0
130	0x0000	0.0
131	0xb382	-0.2346
132	0x8000	-0.0
133	0xb392	-0.2366
134	0xb5f2	-0.3716
135	0x8000	-0.0
136	0x8000	-0.0
137	0x8000	-0.0
138	0x0000	0.0
139	0x0000	0.0
140	0x8000	-0.0
141	0x8000	-0.0
142	0x8000	-0.0
143	0x0000	0.0
144	0x0000	0.0
145	0x0000	0.0
146	0x0000	0.0
147	0x0000	0.0
148	0x8000	-0.0
149	0x8000	-0.0
150	0x8000	-0.0
151	0x0000	0.0
152	0x8000	-0.0
153	0x8000	-0.0
154	0x8000	-0.0
155	0x8000	-0.0
156	0x0000	0.0
157	0x8000	-0.0
158	0x8000	-0.0
159	0x8000	-0.0
160	0x0000	0.0
161	0x0000	0.0
162	0x358a	0.3462
163	0x37f5	0.4973
164	0x33aa	0.2395
165	0xb2fa	-0.218
166	0x8000	-0.0
167	0xb37a	-0.2336
168	0x8000	-0.0
169	0x8000	-0.0
170	0xb3f7	-0.2489
171	0x3423	0.2585
172	0x35e2	0.3677
173	0x35fa	0.3735
174	0xb51f	-0.32
175	0x8000	-0.0
176	0xb58b	-0.3464
177	0x8000	-0.0
178	0xb20f	-0.1893
179	0xb4c1	-0.297
180	0x3548	0.33
181	0x34de	0.3042
182	0x36a6	0.4155
183	0x0000	0.0
184	0xb2a4	-0.2075
185	0xb450	-0.2695
186	0x8000	-0.0
187	0x0000	0.0
188	0x0000	0.0
189	0xb54d	-0.3313
190	0x0000	0.0
191	0x0000	0.0
192	0xb608	-0.377
193	0x0000	0.0
194	0x3621	0.383
195	0x0000	0.0
196	0x0000	0.0
197	0x0000	0.0
198	0xb389	-0.2355
199	0x0000	0.0
200	0x3514	0.3174
201	0xb629	-0.385
202	0x0000	0.0
203	0x361d	0.382
204	0xb426	-0.2593
205	0x0000	0.0
206	0x351c	0.3193
207	0x0000	0.0
208	0x0000	0.0
209	0x3414	0.255
210	0xb47b	-0.28
211	0x0000	0.0
212	0x3557	0.3337
213	0xb238	-0.1943
214	0x0000	0.0
215	0x35fc	0.374
216	0x0000	0.0
217	0x3460	0.2734
218	0x0000	0.0
219	0x8000	-0.0
220	0x0000	0.0
221	0x0000	0.0
222	0x0000	0.0
223	0xb3a5	-0.2389
224	0xb59b	-0.3503
225	0x324b	0.1967
226	0x0000	0.0
227	0x0000	0.0
228	0x0000	0.0
229	0x0000	0.0
230	0x0000	0.0
231	0x0000	0.0
232	0x0000	0.0
233	0xb6a5	-0.4153
234	0x0000	0.0
235	0x0000	0.0
236	0x3437	0.2634
237	0x0000	0.0
238	0x0000	0.0
239	0x0000	0.0
240	0xb3dc	-0.2456
241	0x0000	0.0
242	0xb446	-0.267
243	0x0000	0.0
244	0x0000	0.0
245	0x0000	0.0
246	0xb4eb	-0.3074
247	0x0000	0.0
248	0xb254	-0.1978
249	0x0000	0.0
250	0x3885	0.565
251	0x3667	0.4001
252	0x0000	0.0
253	0x0000	0.0
254	0xb438	-0.2637
255	0x0000	0.0

sequential/conv2d_1/Conv2D f2 [64, 3, 3, 32]
0	0x0000	0.0
1	0x0000	0.0
2	0x0000	0.0
3	0x0000	0.0
4	0x347b	0.28
5	0x0000	0.0
6	0xb354	-0.229
7	0x0000	0.0
8	0x8000	-0.0
9	0x367d	0.4055
10	0x305e	0.1365
11	0xb07d	-0.1403
12	0x0000	0.0
13	0x8000	-0.0
14	0x0000	0.0
15	0xb337	-0.2255
16	0x8000	-0.0
17	0xb7cf	-0.488
18	0xb208	-0.1885
19	0x0000	0.0
20	0x3435	0.263
21	0x0000	0.0
22	0x3325	0.2233
23	0x3396	0.237
24	0x8000	-0.0
25	0x0000	0.0
26	0x0000	0.0
27	0x8000	-0.0
28	0x8000	-0.0
29	0x0000	0.0
30	0x32d9	0.214
31	0x31ec	0.185
32	0x8000	-0.0
33	0x0000	0.0
34	0x8000	-0.0
35	0x8000	-0.0
36	0x8000	-0.0
37	0x0000	0.0
38	0x8000	-0.0
39	0xb3e4	-0.2466
40	0x0000	0.0
41	0x3454	0.2705
42	0xb8c2	-0.5947
43	0x8000	-0.0
44	0x8000	-0.0
45	0x8000	-0.0
46	0x3428	0.2598
47	0x0000	0.0
48	0x8000	-0.0
49	0x8000	-0.0
50	0x8000	-0.0
51	0x0000	0.0
52	0x33a2	0.2385
53	0x0000	0.0
54	0x3553	0.3328
55	0x31be	0.1794
56	0xb102	-0.1565
57	0x0000	0.0
58	0x8000	-0.0
59	0x8000	-0.0
60	0xb574	-0.3408
61	0x8000	-0.0
62	0x8000	-0.0
63	0x3631	0.387
64	0x8000	-0.0
65	0x3371	0.2325
66	0x8000	-0.0
67	0x3265	0.1998
68	0xb5ab	-0.3542
69	0x0000	0.0
70	0x8000	-0.0
71	0xb6c2	-0.4224
72	0x3457	0.2712
73	0xb505	-0.3137
74	0xb56a	-0.3384
75	0xb305	-0.2194
76	0x0000	0.0
77	0x8000	-0.0
78	0xb3b2	-0.2405
79	0x0000	0.0
80	0x8000	-0.0
81	0x8000	-0.0
82	0xb2fd	-0.2184
83	0x0000	0.0
84	0x8000	-0.0
85	0x0000	0.0
86	0x8000	-0.0
87	0xb6e2	-0.4302
88	0x3237	0.1942
89	0xb194	-0.1743
90	0x8000	-0.0
91	0xb09b	-0.1439
92	0xb209	-0.1886
93	0x8000	-0.0
94	0x0000	0.0
95	0xb2d3	-0.2133
96	0x0000	0.0
97	0xb1c6	-0.1804
98	0x0000	0.0
99	0x311f	0.16
100	0x328f	0.205
101	0x0000	0.0
102	0xb169	-0.1691
103	0x0000	0.0
104	0x0000	0.0
105	0x377e	0.4683
106	0x0000	0.0
107	0xb1a9	-0.1769
108	0x8000	-0.0
109	0x8000	-0.0
110	0x0000	0.0
111	0x0000	0.0
112	0x8000	-0.0
113	0xb658	-0.3965
114	0xb3ee	-0.2478
115	0x8000	-0.0
116	0x3401	0.2502
117	0x8000	-0.0
118	0x3105	0.1569
119	0x34b3	0.2937
120	0x8000	-0.0
121	0x8000	-0.0
122	0x0000	0.0
123	0x8000	-0.0
124	0x8000	-0.0
125	0x0000	0.0
126	0x3485	0.2825
127	0x0000	0.0
128	0x8000	-0.0
129	0xb43f	-0.2654
130	0x8000	-0.0
131	0x8000	-0.0
132	0x8000	-0.0
133	0x8000	-0.0
134	0x3468	0.2754
135	0x0000	0.0
136	0x0000	0.0
137	0x32f9	0.2179
138	0xb97f	-0.687
139	0x8000	-0.0
140	0x0000	0.0
141	0x8000	-0.0
142	0x32f0	0.2168
143	0x8000	-0.0
144	0x8000	-0.0
145	0x8000	-0.0
146	0x8000	-0.0
147	0x8000	-0.0
148	0x3104	0.1567
149	0x8000	-0.0
150	0x3403	0.2507
151	0x3256	0.198
152	0x8000	-0.0
153	0x0000	0.0
154	0x8000	-0.0
155	0x8000	-0.0
156	0xb523	-0.321
157	0x8000	-0.0
158	0x8000	-0.0
159	0x35b3	0.3562
160	0x8000	-0.0
161	0x8000	-0.0
162	0x8000	-0.0
163	0x8000	-0.0
164	0xb557	-0.3337
165	0x8000	-0.0
166	0x8000	-0.0
167	0xb407	-0.2517
168	0x35e5	0.3684
169	0xb2ea	-0.2161
170	0xb3f8	-0.249
171	0xb44d	-0.2688
172	0x0000	0.0
173	0x8000	-0.0
174	0xb331	-0.2247
175	0x8000	-0.0
176	0x8000	-0.0
177	0xb1a2	-0.176
178	0xb33b	-0.226
179	0x0000	0.0
180	0x8000	-0.0
181	0x0000	0.0
182	0xb474	-0.2783
183	0xb51e	-0.3198
184	0x320e	0.1892
185	0x0000	0.0
186	0x0000	0.0
187	0xb1f7	-0.1864
188	0xb408	-0.252
189	0xb18e	-0.1736
190	0x0000	0.0
191	0xb6b0	-0.418
192	0x0000	0.0
193	0xb641	-0.3909
194	0x0000	0.0
195	0x30fc	0.1558
196	0x319b	0.1752
197	0x0000	0.0
198	0xb24d	-0.1969
199	0x0000	0.0
200	0x8000	-0.0
201	0x34e3	0.3054
202	0x0000	0.0
203	0xb4ae	-0.2925
204	0x0000	0.0
205	0x8000	-0.0
206	0x3233	0.1937
207	0x8000	-0.0
208	0x8000	-0.0
209	0xb722	-0.4458
210	0xb301	-0.2189
211	0x0000	0.0
212	0x0000	0.0
213	0x0000	0.0
214	0x0000	0.0
215	0x343f	0.2654
216	0x8000	-0.0
217	0xb762	-0.4614
218	0x0000	0.0
219	0x8000	-0.0
220	0x8000	-0.0
221	0x0000	0.0
222	0x33ca	0.2434
223	0xb634	-0.3877
224	0x0000	0.0
225	0xb82e	-0.5225
226	0x8000	-0.0
227	0x8000	-0.0
228	0x8000	-0.0
229	0x8000	-0.0
230	0x347d	0.2805
231	0x0000	0.0
232	0x0000	0.0
233	0x8000	-0.0
234	0xb9e2	-0.7354
235	0x8000	-0.0
236	0x8000	-0.0
237	0x8000	-0.0
238	0x8000	-0.0
239	0x8000	-0.0
240	0x8000	-0.0
241	0x8000	-0.0
242	0xb1d3	-0.182
243	0x0000	0.0
244	0x330a	0.22
245	0x8000	-0.0
246	0x3450	0.2695
247	0x8000	-0.0
248	0x8000	-0.0
249	0xb4f5	-0.3098
250	0x8000	-0.0
251	0x0000	0.0
252	0xb525	-0.3215
253	0x8000	-0.0
254	0x8000	-0.0
255	0x0000	0.0

sequential/conv2d_2/Conv2D f2 [64, 3, 3, 64]
0	0x305f	0.1366
1	0x0000	0.0
2	0x8000	-0.0
3	0x0000	0.0
4	0xb0a9	-0.1456
5	0x0000	0.0
6	0xb650	-0.3945
7	0xbb36	-0.9014
8	0x8000	-0.0
9	0x0000	0.0
10	0xbac9	-0.848
11	0x327a	0.2024
12	0x0000	0.0
13	0x0000	0.0
14	0xb769	-0.4631
15	0x0000	0.0
16	0xb581	-0.344
17	0x0000	0.0
18	0x8000	-0.0
19	0x8000	-0.0
20	0x0000	0.0
21	0xb2da	-0.2141
22	0x0000	0.0
23	0x32ff	0.2186
24	0x8000	-0.0
25	0x8000	-0.0
26	0x0000	0.0
27	0x0000	0.0
28	0xb44a	-0.268
29	0xb471	-0.2776
30	0xb260	-0.1992
31	0x8000	-0.0
32	0x0000	0.0
33	0x8000	-0.0
34	0xb15f	-0.1678
35	0x0000	0.0
36	0xb767	-0.4626
37	0x8000	-0.0
38	0xb407	-0.2517
39	0x8000	-0.0
40	0xb7d2	-0.4888
41	0x8000	-0.0
42	0x8000	-0.0
43	0xb285	-0.2037
44	0x0000	0.0
45	0x8000	-0.0
46	0x0000	0.0
47	0x8000	-0.0
48	0x0000	0.0
49	0xb11b	-0.1595
50	0x0000	0.0
51	0x0000	0.0
52	0xb25b	-0.1986
53	0xb5b5	-0.3567
54	0xb218	-0.1904
55	0xb443	-0.2664
56	0x8000	-0.0
57	0xb48e	-0.2847
58	0x3128	0.1611
59	0x8000	-0.0
60	0x8000	-0.0
61	0x8000	-0.0
62	0xb129	-0.1613
63	0x0000	0.0
64	0xb2b7	-0.2098
65	0x0000	0.0
66	0x8000	-0.0
67	0x0000	0.0
68	0x8000	-0.0
69	0x8000	-0.0
70	0x0000	0.0
71	0xb46d	-0.2766
72	0x8000	-0.0
73	0xb0b2	-0.1467
74	0xb254	-0.1978
75	0x0000	0.0
76	0x0000	0.0
77	0x8000	-0.0
78	0x3491	0.2854
79	0x0000	0.0
80	0x35ae	0.355
81	0x8000	-0.0
82	0x38ab	0.5835
83	0x34c8	0.2988
84	0x0000	0.0
85	0x8000	-0.0
86	0x324e	0.197
87	0x34ee	0.308
88	0x0000	0.0
89	0xb041	-0.1329
90	0x0000	0.0
91	0x37a9	0.4788
92	0x0000	0.0
93	0x0000	0.0
94	0x8000	-0.0
95	0xb107	-0.1571
96	0x8000	-0.0
97	0x0000	0.0
98	0xb335	-0.2252
99	0x0000	0.0
100	0x0000	0.0
101	0x0000	0.0
102	0x0000	0.0
103	0x8000	-0.0
104	0x8000	-0.0
105	0x0000	0.0
106	0x0000	0.0
107	0xb3b3	-0.2406
108	0x8000	-0.0
109	0x0000	0.0
110	0x0000	0.0
111	0x0000	0.0
112	0x328f	0.205
113	0x8000	-0.0
114	0x0000	0.0
115	0x30e1	0.1525
116	0x8000	-0.0
117	0xb135	-0.1627
118	0x0000	0.0
119	0x8000	-0.0
120	0x330f	0.2206
121	0xb15d	-0.1676
122	0x3270	0.2012
123	0x30d4	0.1509
124	0x8000	-0.0
125	0x8000	-0.0
126	0x0000	0.0
127	0x8000	-0.0
128	0x8000	-0.0
129	0x8000	-0.0
130	0xb4dc	-0.3037
131	0x0000	0.0
132	0x8000	-0.0
133	0xb486	-0.2827
134	0x3161	0.1681
135	0xb6f8	-0.4355
136	0x8000	-0.0
137	0x0000	0.0
138	0x8000	-0.0
139	0xb5d2	-0.3638
140	0x0000	0.0
141	0x8000	-0.0
142	0x34e0	0.3047
143	0x0000	0.0
144	0x8000	-0.0
145	0x0000	0.0
146	0xb0e7	-0.1532
147	0x8000	-0.0
148	0xb468	-0.2754
149	0xb602	-0.3755
150	0x8000	-0.0
151	0x0000	0.0
152	0x8000	-0.0
153	0x8000	-0.0
154	0x0000	0.0
155	0x30b0	0.1465
156	0x3205	0.1881
157	0x30b2	0.1467
158	0x341c	0.2568
159	0x3044	0.1333
160	0x8000	-0.0
161	0x8000	-0.0
162	0x8000	-0.0
163	0x3125	0.1608
164	0xb0da	-0.1516
165	0x0000	0.0
166	0xb27b	-0.2025
167	0xb5f1	-0.3713
168	0x0000	0.0
169	0x0000	0.0
170	0x8000	-0.0
171	0x8000	-0.0
172	0x0000	0.0
173	0x8000	-0.0
174	0x8000	-0.0
175	0x0000	0.0
176	0x3442	0.266
177	0xb4d8	-0.3027
178	0x0000	0.0
179	0x31cc	0.1812
180	0x333a	0.2258
181	0xb236	-0.1941
182	0x8000	-0.0
183	0x8000	-0.0
184	0x348b	0.284
185	0x3443	0.2664
186	0x0000	0.0
187	0x3579	0.342
188	0x0000	0.0
189	0x33f8	0.249
190	0x8000	-0.0
191	0x0000	0.0
192	0x2fd1	0.12213
193	0xb350	-0.2285
194	0x8000	-0.0
195	0x0000	0.0
196	0x0000	0.0
197	0x0000	0.0
198	0xb552	-0.3325
199	0xbc51	-1.079
200	0x8000	-0.0
201	0x8000	-0.0
202	0xb9bb	-0.7163
203	0x32bc	0.2104
204	0x8000	-0.0
205	0x0000	0.0
206	0xb82b	-0.521
207	0x2fb1	0.1202
208	0xb58b	-0.3464
209	0x0000	0.0
210	0x0000	0.0
211	0x0000	0.0
212	0x0000	0.0
213	0x8000	-0.0
214	0x0000	0.0
215	0x0000	0.0
216	0x0000	0.0
217	0xb04b	-0.1342
218	0x0000	0.0
219	0x0000	0.0
220	0xb4a3	-0.2898
221	0xb6b4	-0.419
222	0xb67c	-0.4053
223	0x8000	-0.0
224	0x0000	0.0
225	0x8000	-0.0
226	0x8000	-0.0
227	0xb793	-0.4734
228	0xb758	-0.459
229	0x0000	0.0
230	0x306d	0.1383
231	0xb1ef	-0.1854
232	0xb768	-0.463
233	0x0000	0.0
234	0x0000	0.0
235	0x0000	0.0
236	0xb403	-0.2507
237	0x8000	-0.0
238	0x0000	0.0
239	0x8000	-0.0
240	0xb3c1	-0.2423
241	0x8000	-0.0
242	0x30a1	0.1447
243	0xb868	-0.551
244	0xb0cf	-0.1503
245	0xb60d	-0.3782
246	0xb381	-0.2345
247	0xb40d	-0.2532
248	0x8000	-0.0
249	0xb74b	-0.4558
250	0x0000	0.0
251	0x8000	-0.0
252	0x0000	0.0
253	0x0000	0.0
254	0xb425	-0.259
255	0x8000	-0.0

sequential/conv2d_3/Conv2D f2 [128, 3, 3, 64]
0	0x8000	-0.0
1	0xba81	-0.813
2	0x340e	0.2534
3	0x0000	0.0
4	0xba9c	-0.826
5	0xbde2	-1.471
6	0xb660	-0.3984
7	0xb5e4	-0.3682
8	0x0000	0.0
9	0xb5ae	-0.355
10	0x8000	-0.0
11	0x8000	-0.0
12	0xb712	-0.442
13	0xb7b0	-0.4805
14	0x33c3	0.2426
15	0x0000	0.0
16	0x0000	0.0
17	0x0000	0.0
18	0xb4f5	-0.3098
19	0x3357	0.2294
20	0x0000	0.0
21	0x0000	0.0
22	0x0000	0.0
23	0xbaf3	-0.8687
24	0xb5c6	-0.3608
25	0x326a	0.2004
26	0x8000	-0.0
27	0xb8a0	-0.578
28	0x8000	-0.0
29	0xbc4d	-1.075
30	0xb244	-0.1958
31	0x0000	0.0
32	0x0000	0.0
33	0xb818	-0.5117
34	0x8000	-0.0
35	0x0000	0.0
36	0xb78e	-0.4722
37	0x0000	0.0
38	0x0000	0.0
39	0x0000	0.0
40	0x8000	-0.0
41	0x0000	0.0
42	0xb25b	-0.1986
43	0x8000	-0.0
44	0x8000	-0.0
45	0x0000	0.0
46	0xbb0f	-0.8823
47	0x8000	-0.0
48	0x0000	0.0
49	0xb4e9	-0.307
50	0x0000	0.0
51	0xb748	-0.455
52	0x8000	-0.0
53	0x8000	-0.0
54	0x8000	-0.0
55	0xb778	-0.4668
56	0xb66e	-0.4019
57	0xb528	-0.3223
58	0xb573	-0.3406
59	0x0000	0.0
60	0x0000	0.0
61	0xb55a	-0.3345
62	0x8000	-0.0
63	0x0000	0.0
64	0x8000	-0.0
65	0xbae7	-0.863
66	0xb570	-0.3398
67	0x0000	0.0
68	0xba8a	-0.8174
69	0xbd94	-1.395
70	0xb912	-0.634
71	0xbb65	-0.9243
72	0xb4b1	-0.2932
73	0xb631	-0.387
74	0x8000	-0.0
75	0x8000	-0.0
76	0xb7d2	-0.4888
77	0xb661	-0.3987
78	0x0000	0.0
79	0x0000	0.0
80	0x0000	0.0
81	0x0000	0.0
82	0xb58c	-0.3467
83	0x8000	-0.0
84	0x0000	0.0
85	0x0000	0.0
86	0x0000	0.0
87	0xba4a	-0.786
88	0xb5a3	-0.3523
89	0x8000	-0.0
90	0x8000	-0.0
91	0xb8aa	-0.583
92	0x8000	-0.0
93	0xbb91	-0.946
94	0xb53e	-0.3276
95	0x0000	0.0
96	0x0000	0.0
97	0xb44f	-0.2693
98	0x8000	-0.0
99	0x0000	0.0
100	0xb38f	-0.2362
101	0x8000	-0.0
102	0xb2bf	-0.2108
103	0x0000	0.0
104	0x8000	-0.0
105	0x0000	0.0
106	0x8000	-0.0
107	0xb8ac	-0.584
108	0x0000	0.0
109	0x8000	-0.0
110	0xba6a	-0.802
111	0x0000	0.0
112	0x0000	0.0
113	0x0000	0.0
114	0xb21b	-0.1908
115	0xb8d9	-0.606
116	0x0000	0.0
117	0x0000	0.0
118	0xb467	-0.2751
119	0xb87d	-0.561
120	0xb3a4	-0.2388
121	0xb2e8	-0.2158
122	0xb6f8	-0.4355
123	0xb2e0	-0.2148
124	0x8000	-0.0
125	0xb779	-0.467
126	0x8000	-0.0
127	0x0000	0.0
128	0x35c6	0.3608
129	0xb85f	-0.5464
130	0xb667	-0.4001
131	0x0000	0.0
132	0xb7f3	-0.4968
133	0xbbdb	-0.982
134	0xb969	-0.6763
135	0xb56d	-0.339
136	0x0000	0.0
137	0x8000	-0.0
138	0x8000	-0.0
139	0x0000	0.0
140	0x3201	0.1876
141	0x8000	-0.0
142	0x0000	0.0
143	0x8000	-0.0
144	0x0000	0.0
145	0x0000	0.0
146	0xb323	-0.223
147	0xb5c4	-0.3604
148	0x0000	0.0
149	0x0000	0.0
150	0x0000	0.0
151	0xb58f	-0.3474
152	0xb454	-0.2705
153	0x32c5	0.2115
154	0x0000	0.0
155	0xb7af	-0.4802
156	0x8000	-0.0
157	0xb628	-0.3848
158	0xb8fb	-0.6226
159	0x8000	-0.0
160	0x8000	-0.0
161	0x0000	0.0
162	0x8000	-0.0
163	0x8000	-0.0
164	0xb75a	-0.4595
165	0x8000	-0.0
166	0xb3af	-0.2401
167	0x8000	-0.0
168	0x8000	-0.0
169	0x0000	0.0
170	0x334b	0.2279
171	0xbafd	-0.8735
172	0x0000	0.0
173	0x8000	-0.0
174	0xb3e4	-0.2466
175	0x8000	-0.0
176	0x0000	0.0
177	0xb8ea	-0.6143
178	0x0000	0.0
179	0x0000	0.0
180	0x8000	-0.0
181	0x8000	-0.0
182	0xb922	-0.6416
183	0xb701	-0.4377
184	0x0000	0.0
185	0x0000	0.0
186	0xb844	-0.533
187	0xb36f	-0.2323
188	0x8000	-0.0
189	0xb574	-0.3408
190	0x8000	-0.0
191	0x0000	0.0
192	0x0000	0.0
193	0xb52a	-0.3228
194	0x0000	0.0
195	0x8000	-0.0
196	0xb913	-0.6343
197	0xbc9d	-1.153
198	0xb968	-0.676
199	0xbad7	-0.855
200	0x8000	-0.0
201	0xb665	-0.3997
202	0x8000	-0.0
203	0x0000	0.0
204	0xb88b	-0.568
205	0x0000	0.0
206	0x0000	0.0
207	0x0000	0.0
208	0x8000	-0.0
209	0xb7c1	-0.4846
210	0x0000	0.0
211	0x31f9	0.1866
212	0xb2a8	-0.208
213	0x0000	0.0
214	0xb8d7	-0.605
215	0xb840	-0.5312
216	0x8000	-0.0
217	0x0000	0.0
218	0x0000	0.0
219	0xb41a	-0.2563
220	0x8000	-0.0
221	0xb8c0	-0.5938
222	0xb9df	-0.734
223	0x8000	-0.0
224	0x8000	-0.0
225	0xb70e	-0.441
226	0xb6aa	-0.4165
227	0x0000	0.0
228	0xb908	-0.629
229	0x8000	-0.0
230	0xb66c	-0.4014
231	0x8000	-0.0
232	0xb315	-0.2213
233	0x8000	-0.0
234	0xb97c	-0.6855
235	0xb2e9	-0.216
236	0x8000	-0.0
237	0x0000	0.0
238	0xb852	-0.54
239	0x0000	0.0
240	0x0000	0.0
241	0x32fd	0.2184
242	0x0000	0.0
243	0xb3eb	-0.2474
244	0x8000	-0.0
245	0x0000	0.0
246	0x33b6	0.241
247	0xb464	-0.2744
248	0xb8b6	-0.589
249	0x0000	0.0
250	0xb704	-0.4385
251	0x0000	0.0
252	0xb1f5	-0.1862
253	0xb630	-0.3867
254	0x8000	-0.0
255	0x8000	-0.0
