LaneFollowingModel/fiq_pruned_model.tflite (tflite, 151616 bytes, 6 tensors)

sequential/conv2d/Conv2D i1 [32, 3, 3, 3]
000000 f0 8c 21 94 81 b6 eb a2 1e 82 d3 f3 19 e8 16 18
       -16 -116 33 -108 -127 -74 -21 -94 30 -126 -45 -13 25 -24 22 24
000010 02 2a 09 d4 bf c3 f5 2e 8c 9a e8 39 52 15 0b 79
       2 42 9 -44 -65 -61 -11 46 -116 -102 -24 57 82 21 11 121
000020 25 37 1f 4c e6 f8 ee 0e 36 dc f5 14 e6 82 b3 d8
       37 55 31 76 -26 -8 -18 14 54 -36 -11 20 -26 -126 -77 -40
000030 81 e9 a4 8e be f5 fb 2a 38 ff f6 af bd b2 fb 39
       -127 -23 -92 -114 -66 -11 -5 42 56 -1 -10 -81 -67 -78 -5 57
000040 70 72 37 33 2d e8 c5 45 37 32 7f b8 34 48 a6 f5
       112 114 55 51 45 -24 -59 69 55 50 127 -72 52 72 -90 -11
000050 3b e4 e2 ff a7 d9 28 e7 fe 1b cb fc 0a 81 c5 03
       59 -28 -30 -1 -89 -39 40 -25 -2 27 -53 -4 10 -127 -59 3
000060 f4 d8 2f bd f3 00 9c c1 1d e3 e9 35 26 0d 9d 3f
       -12 -40 47 -67 -13 0 -100 -63 29 -29 -23 53 38 13 -99 63
000070 12 cc 02 dd c4 30 ed b5 4d 45 9e dc f9 b2 09 cd
       18 -52 2 -35 -60 48 -19 -75 77 69 -98 -36 -7 -78 9 -51
000080 81 30 2a c4 e8 c5 a2 e5 81 ea 08 34 d8 9c df 18
       -127 48 42 -60 -24 -59 -94 -27 -127 -22 8 52 -40 -100 -33 24
000090 5d 12 01 31 9a a0 d4 00 a3 a5 ad d9 01 81 8f d1
       93 18 1 49 -102 -96 -44 0 -93 -91 -83 -39 1 -127 -113 -47
0000a0 00 41 59 7f 3f d0 e0 cc 01 fa cd 43 5f 60 b6 db
       0 65 89 127 63 -48 -32 -52 1 -6 -51 67 95 96 -74 -37
0000b0 b0 00 dd c2 56 50 6c e7 d3 c3 e5 0c e6 91 03 2e
       -80 0 -35 -62 86 80 108 -25 -45 -61 -27 12 -26 -111 3 46
0000c0 82 fe 76 d4 e8 2c b3 1e 63 81 22 78 aa e7 62 ed
       -126 -2 118 -44 -24 44 -77 30 99 -127 34 120 -86 -25 98 -19
0000d0 fb 4e a3 11 68 bf 1c 75 24 58 2e cf fa d9 e4 b8
       -5 78 -93 17 104 -65 28 117 36 88 46 -49 -6 -39 -28 -72
0000e0 95 3f 3c 24 de de e7 f3 fe 81 1e 26 55 04 ef d0
       -107 63 60 36 -34 -34 -25 -13 -2 -127 30 38 85 4 -17 -48
0000f0 b6 cc ae e4 19 e5 be 0f d7 29 7a 58 eb ee cd e2
       -74 -52 -82 -28 25 -27 -66 15 -41 41 122 88 -21 -18 -51 -30

sequential/conv2d_1/Conv2D i1 [64, 3, 3, 32]
000000 07 03 f9 17 35 05 dc f9 fd 4f 1c e7 06 1e 1a da
       7 3 -7 23 53 5 -36 -7 -3 79 28 -25 6 30 26 -38
000010 10 b0 e0 02 2d 08 29 2f 0c f8 15 e9 f7 00 25 1b
       16 -80 -32 2 45 8 41 47 12 -8 21 -23 -9 0 37 27
000020 f3 f1 09 0d 00 0d 16 d5 0b 34 98 ee ff f4 30 ff
       -13 -15 9 13 0 13 22 -43 11 52 -104 -18 -1 -12 48 -1
000030 05 f1 f3 0b 29 0c 3e 24 e4 08 ec f5 c1 0e 02 40
       5 -15 -13 11 41 12 62 36 -28 8 -20 -11 -63 14 2 64
000040 f5 23 f2 22 c8 03 f3 b9 2e d0 ca e2 02 07 db 02
       -11 35 -14 34 -56 3 -13 -71 46 -48 -54 -30 2 7 -37 2
000050 f2 f5 da 00 ff 07 f1 b5 23 e2 11 e7 de fb f3 de
       -14 -11 -38 0 -1 7 -15 -75 35 -30 17 -25 -34 -5 -13 -34
000060 09 e4 0f 24 28 01 e5 08 f8 59 1c df 00 0c 13 17
       9 -28 15 36 40 1 -27 8 -8 89 28 -33 0 12 19 23
000070 19 c0 d5 fa 2b fa 1c 38 09 17 1a f5 f6 0b 30 06
       25 -64 -43 -6 43 -6 28 56 9 23 26 -11 -10 11 48 6
000080 fa d8 1a fe fe fa 32 ec 11 2a 87 ec 0d 03 28 0f
       -6 -40 26 -2 -2 -6 50 -20 17 42 -121 -20 13 3 40 15
000090 f5 0c f3 fc 1b fc 2d 28 fa 16 02 ee c4 19 13 37
       -11 12 -13 -4 27 -4 45 40 -6 22 2 -18 -60 25 19 55
0000a0 f5 0d fd 11 cc f8 01 d5 3f e1 d7 d8 07 0c dd f9
       -11 13 -3 17 -52 -8 1 -43 63 -31 -41 -40 7 12 -35 -7
0000b0 f8 eb d9 0c ec 06 d5 c9 22 0a 0d e0 d4 ea fa b5
       -8 -21 -39 12 -20 6 -43 -55 34 10 13 -32 -44 -22 -6 -75
0000c0 05 b7 09 23 23 0f df 0c f1 3c 03 cb 08 1e 25 f6
       5 -73 9 35 35 15 -33 12 -15 60 3 -53 8 30 37 -10
0000d0 19 b6 da 05 15 0b 05 33 00 b1 18 fd fc f7 26 b7
       25 -74 -38 5 21 11 5 51 0 -79 24 -3 -4 -9 38 -73
0000e0 08 a0 07 06 f6 fa 32 e5 fd 11 81 f0 f6 ef 13 fd
       8 -96 7 6 -10 -6 50 -27 -3 17 -127 -16 -10 -17 19 -3
0000f0 03 fd e1 0f 26 fc 2f 10 ee ca 00 04 c5 12 0b 0c
       3 -3 -31 15 38 -4 47 16 -18 -54 0 4 -59 18 11 12

sequential/conv2d_2/Conv2D i1 [64, 3, 3, 64]
000000 10 f1 f2 03 ee 01 d9 96 f5 02 9a 1b 02 06 c8 01
       16 -15 -14 3 -18 1 -39 -106 -11 2 -102 27 2 6 -56 1
000010 db 06 f2 fb f6 ee 05 19 fe f5 fb f4 de e0 eb f5
       -37 6 -14 -5 -10 -18 5 25 -2 -11 -5 -12 -34 -32 -21 -11
000020 fd fa ec f5 ce 04 ea f6 c8 fd fa e5 f9 ff 03 fd
       -3 -6 -20 -11 -50 4 -22 -10 -56 -3 -6 -27 -7 -1 3 -3
000030 0d f0 08 fb ea d5 ed e5 05 e0 13 01 fc f7 ed 04
       13 -16 8 -5 -22 -43 -19 -27 5 -32 19 1 -4 -9 -19 4
000040 e3 03 09 fa 04 fb 0a e2 fb f1 eb fd 04 f8 21 0b
       -29 3 9 -6 4 -5 10 -30 -5 -15 -21 -3 4 -8 33 11
000050 2a fe 46 24 fa fb 17 24 01 f2 f8 3a ff f3 f4 ed
       42 -2 70 36 -6 -5 23 36 1 -14 -8 58 -1 -13 -12 -19
000060 03 04 e8 fa f3 f5 f9 fd ff 02 06 e5 02 07 07 04
       3 4 -24 -6 -13 -11 -7 -3 -1 2 6 -27 2 7 7 4
000070 1f f2 0c 11 f6 ed f6 03 18 ee 19 11 f9 0a 08 f7
       31 -14 12 17 -10 -19 -10 3 24 -18 25 17 -7 10 8 -9
000080 f0 10 d7 fa 08 e1 1b d0 fd 08 fd d5 0a fc 24 05
       -16 16 -41 -6 8 -31 27 -48 -3 8 -3 -43 10 -4 36 5
000090 fb 07 ef f5 df d8 0c f2 f8 fa ef 15 16 13 21 11
       -5 7 -17 -11 -33 -40 12 -14 -8 -6 -17 21 22 19 33 17
0000a0 0b 00 f9 12 ef 0d e8 d7 fa 01 ff f2 0a fa f8 07
       11 0 -7 18 -17 13 -24 -41 -6 1 -1 -14 10 -6 -8 7
0000b0 25 db 0b 15 1a e9 01 fa 20 1e f8 28 04 1f fe 04
       37 -37 11 21 26 -23 1 -6 32 30 -8 40 4 31 -2 4
0000c0 0f e4 f3 f7 f7 f8 d9 81 fc fb a9 1e fe 07 c1 0e
       15 -28 -13 -9 -9 -8 -39 -127 -4 -5 -87 30 -2 7 -63 14
0000d0 d5 02 02 08 f6 f4 f6 0c 02 f0 fc f7 de d1 cc f7
       -43 2 2 8 -10 -12 -10 12 2 -16 -4 -9 -34 -47 -52 -9
0000e0 f9 fa f6 c5 ce 0d 11 eb cd 02 05 fc e7 ff 05 fc
       -7 -6 -10 -59 -50 13 17 -21 -51 2 5 -4 -25 -1 5 -4
0000f0 db f9 11 bd ee d3 e8 e8 07 cc 04 f3 09 f0 e1 f6
       -37 -7 17 -67 -18 -45 -24 -24 7 -52 4 -13 9 -16 -31 -10

sequential/conv2d_3/Conv2D i1 [128, 3, 3, 64]
000000 f1 b5 1b 02 b4 81 e1 e1 0e df fd 05 da d2 12 02
       -15 -75 27 2 -76 -127 -31 -31 14 -33 -3 5 -38 -46 18 2
000010 03 0c e1 14 fa 04 0c b3 dc 13 fd c7 ff a3 ea 01
       3 12 -31 20 -6 4 12 -77 -36 19 -3 -57 -1 -93 -22 1
000020 03 d5 08 01 dd 01 fd 04 ff fa f0 f8 fd 04 b1 04
       3 -43 8 1 -35 1 -3 4 -1 -6 -16 -8 -3 4 -79 4
000030 f9 e5 fb d9 fc fd f6 d6 db e6 df f7 f2 e6 02 02
       -7 -27 -5 -39 -4 -3 -10 -42 -37 -26 -33 -9 -14 -26 2 2
000040 f5 b4 e1 04 b6 8b ce b1 e6 dd fd 00 d4 db 09 03
       -11 -76 -31 4 -74 -117 -50 -79 -26 -35 -3 0 -44 -37 9 3
000050 08 06 da 0d fd fa fd b7 dc 0e fc c9 fe ad e1 0a
       8 6 -38 13 -3 -6 -3 -73 -36 14 -4 -55 -2 -83 -31 10
000060 01 eb 02 04 ec ff ed 04 0f f0 fa ca 03 fd b9 01
       1 -21 2 4 -20 -1 -19 4 15 -16 -6 -54 3 -3 -71 1
000070 f6 f4 ef c9 fb 04 eb d0 ec eb d9 ee fa dc 03 03
       -10 -12 -17 -55 -5 4 -21 -48 -20 -21 -39 -18 -6 -36 3 3
000080 21 d4 de 00 cf ab c9 e0 fd fa fc fd 12 05 f8 fc
       33 -44 -34 0 -49 -85 -55 -32 -3 -6 -4 -3 18 5 -8 -4
000090 04 01 e7 e5 f6 08 0b e1 e9 13 03 d2 fc df c4 02
       4 1 -25 -27 -10 8 11 -31 -23 19 3 -46 -4 -33 -60 2
0000a0 fd 04 fc 00 d3 fb eb fc 07 10 13 b1 01 fc ed 01
       -3 4 -4 0 -45 -5 -21 -4 7 16 19 -79 1 -4 -19 1
0000b0 fd cd 00 e9 fe 00 c9 d8 fa 07 d2 ee 06 e6 f9 05
       -3 -51 0 -23 -2 0 -55 -40 -6 7 -46 -18 6 -26 -7 5
0000c0 00 e7 08 ff c7 9f c9 b9 f6 de fd 03 d0 f6 f3 02
       0 -25 8 -1 -57 -97 -55 -71 -10 -34 -3 3 -48 -10 -13 2
0000d0 0d d5 f5 13 ea 01 c9 d2 00 05 02 e6 f8 ce be fc
       13 -43 -11 19 -22 1 -55 -46 0 5 2 -26 -8 -50 -66 -4
0000e0 fe db d7 02 c9 ff dc fb ef fb c7 f1 fc 02 cf fb
       -2 -37 -41 2 -55 -1 -36 -5 -17 -5 -57 -15 -4 2 -49 -5
0000f0 f4 17 f8 e6 0e 00 17 e5 ce f1 db fc f2 dc f4 fa
       -12 23 -8 -26 14 0 23 -27 -50 -15 -37 -4 -14 -36 -12 -6

sequential/dense/MatMul i1 [64, 128] scale=0.010746096 zero_point=0
000000 08 04 f6 01 ee 00 f5 ea 00 08 f7 fa ee 09 f4 0a
       0.08596877 0.042984385 -0.10746096 0.010746096 -0.19342974 0.0 -0.11820706 -0.23641412 0.0 0.08596877 -0.09671487 -0.06447658 -0.19342974 0.09671487 -0.12895316 0.10746096
000010 ec 07 f8 01 02 f5 ff fd f8 f9 f3 ff 0a 07 00 ff
       -0.21492192 0.07522267 -0.08596877 0.010746096 0.021492193 -0.11820706 -0.010746096 -0.03223829 -0.08596877 -0.07522267 -0.13969925 -0.010746096 0.10746096 0.07522267 0.0 -0.010746096
000020 f8 fd f7 f3 ee fc fb f8 e8 08 f4 0a 09 f0 04 fc
       -0.08596877 -0.03223829 -0.09671487 -0.13969925 -0.19342974 -0.042984385 -0.05373048 -0.08596877 -0.25790632 0.08596877 -0.12895316 0.10746096 0.09671487 -0.17193754 0.042984385 -0.042984385
000030 00 0a f2 08 f1 00 00 fd f7 f1 05 0a f4 f8 02 ee
       0.0 0.10746096 -0.15044534 0.08596877 -0.16119145 0.0 0.0 -0.03223829 -0.09671487 -0.16119145 0.05373048 0.10746096 -0.12895316 -0.08596877 0.021492193 -0.19342974
000040 fa ef ff 0a 02 f8 f4 fd 07 07 ee f5 f4 e7 01 0b
       -0.06447658 -0.18268363 -0.010746096 0.10746096 0.021492193 -0.08596877 -0.12895316 -0.03223829 0.07522267 0.07522267 -0.19342974 -0.11820706 -0.12895316 -0.2686524 0.010746096 0.11820706
000050 f0 04 f0 f3 fd ec ee 0d ed 0b f6 01 f2 07 0b 09
       -0.17193754 0.042984385 -0.17193754 -0.13969925 -0.03223829 -0.21492192 -0.19342974 0.13969925 -0.20417583 0.11820706 -0.10746096 0.010746096 -0.15044534 0.07522267 0.11820706 0.09671487
000060 ee f4 0d f5 09 f3 fc 09 fb 0e 01 f1 ff 0c f7 ee
       -0.19342974 -0.12895316 0.13969925 -0.11820706 0.09671487 -0.13969925 -0.042984385 0.09671487 -0.05373048 0.15044534 0.010746096 -0.16119145 -0.010746096 0.12895316 -0.09671487 -0.19342974
000070 fa f7 04 f9 f0 01 f5 fd ee ee f6 00 fa 08 04 f0
       -0.06447658 -0.09671487 0.042984385 -0.07522267 -0.17193754 0.010746096 -0.11820706 -0.03223829 -0.19342974 -0.19342974 -0.10746096 0.0 -0.06447658 0.08596877 0.042984385 -0.17193754
000080 02 1e 0f dc 1c dc fe 14 e2 17 e1 0f f4 e6 06 f7
       0.021492193 0.3223829 0.16119145 -0.38685948 0.30089068 -0.38685948 -0.021492193 0.21492192 -0.3223829 0.24716021 -0.333129 0.16119145 -0.12895316 -0.2793985 0.06447658 -0.09671487
000090 fc e8 29 12 05 16 eb 04 06 0f 0f e7 e3 e3 1f f6
       -0.042984385 -0.25790632 0.44058993 0.19342974 0.05373048 0.23641412 -0.22566803 0.042984385 0.06447658 0.16119145 0.16119145 -0.2686524 -0.3116368 -0.3116368 0.333129 -0.10746096
0000a0 f5 eb 19 1e 1c d6 e6 f2 f6 0b 1f f4 11 04 1c 1c
       -0.11820706 -0.22566803 0.2686524 0.3223829 0.30089068 -0.45133606 -0.2793985 -0.15044534 -0.10746096 0.11820706 0.333129 -0.12895316 0.18268363 0.042984385 0.30089068 0.30089068
0000b0 07 0a e5 03 f2 0f ef cd 14 00 ec 24 df 17 ea fe
       0.07522267 0.10746096 -0.2901446 0.03223829 -0.15044534 0.16119145 -0.18268363 -0.5480509 0.21492192 0.0 -0.21492192 0.38685948 -0.35462117 0.24716021 -0.23641412 -0.021492193
0000c0 f7 1d 1b 06 1e fc 05 24 01 20 09 e8 16 fd 0f 0a
       -0.09671487 0.3116368 0.2901446 0.06447658 0.3223829 -0.042984385 0.05373048 0.38685948 0.010746096 0.34387508 0.09671487 -0.25790632 0.23641412 -0.03223829 0.16119145 0.10746096
0000d0 1b ef f2 0f ef 32 0a e8 f7 eb e4 0a e4 0b fb f0
       0.2901446 -0.18268363 -0.15044534 0.16119145 -0.18268363 0.5373048 0.10746096 -0.25790632 -0.09671487 -0.22566803 -0.30089068 0.10746096 -0.30089068 0.11820706 -0.05373048 -0.17193754
0000e0 c6 01 eb 1f 2f 06 f7 d8 b2 fe 25 ea e1 fb 0b d7
       -0.6232736 0.010746096 -0.22566803 0.333129 0.5050665 0.06447658 -0.09671487 -0.42984384 -0.8381955 -0.021492193 0.39760557 -0.23641412 -0.333129 -0.05373048 0.11820706 -0.44058993
0000f0 d9 ef df 23 e3 00 cf 0d 28 13 f5 07 19 de df e5
       -0.41909775 -0.18268363 -0.35462117 0.37611336 -0.3116368 0.0 -0.5265587 0.13969925 0.42984384 0.20417583 -0.11820706 0.07522267 0.2686524 -0.36536726 -0.35462117 -0.2901446

sequential/dense_1/MatMul i1 [1, 64] scale=0.0032962963 zero_point=0
000000 3c 51 e5 44 23 fe fe ec 26 17 f8 e7 0e e9 81 12
       0.19777778 0.267 -0.089 0.22414815 0.11537037 -0.0065925927 -0.0065925927 -0.065925926 0.12525927 0.07581481 -0.02637037 -0.08240741 0.046148147 -0.07581481 -0.41862965 0.059333336
000010 ca 3f ff 1d 42 e7 3c e2 fa f5 1d 09 df 2d ff 09
       -0.178 0.20766667 -0.0032962963 0.095592596 0.21755555 -0.08240741 0.19777778 -0.09888889 -0.019777779 -0.03625926 0.095592596 0.029666668 -0.10877778 0.14833334 -0.0032962963 0.029666668
000020 ef fb 10 4b 2b 3c 1b 07 c8 1a 4c 01 6a 3f 30 b3
       -0.05603704 -0.016481481 0.05274074 0.24722223 0.14174074 0.19777778 0.089 0.023074074 -0.18459259 0.08570371 0.25051853 0.0032962963 0.3494074 0.20766667 0.15822223 -0.25381482
000030 df 87 3c e9 b8 23 18 f2 4a 00 01 d5 13 0a 10 26
       -0.10877778 -0.39885187 0.19777778 -0.07581481 -0.23733334 0.11537037 0.079111114 -0.046148147 0.24392593 0.0 0.0032962963 -0.14174074 0.06262963 0.032962963 0.05274074 0.12525927
