LaneFollowingModel/model_old.tflite (tflite, 558444 bytes, 11 tensors)

sequential_2/dense_33/BiasAdd/ReadVariableOp/resource f4 [64]
000000 4e a2 d7 3d 84 63 cd bb ef d9 22 3e 6e ce e0 bd
       0.10529004 -0.0062679667 0.15903448 -0.10976873
000010 db db 8d bd bc 30 e6 3d e7 28 a8 bd 50 1e 45 bd
       -0.069267 0.11239764 -0.082109265 -0.04812461
000020 ce 91 fd 3d bb 81 14 3e 76 94 0e 3e 84 a7 08 3d
       0.12381326 0.14502613 0.13923821 0.03336288
000030 d5 a7 be 3d 93 df c1 3d 2c 40 fa bd 92 29 25 bd
       0.09309355 0.094664715 -0.12219271 -0.040322848
000040 27 d5 0f bd b4 b9 66 bd a1 a4 b4 bd 5e 67 63 bd
       -0.035115387 -0.056329444 -0.08820463 -0.0555185
000050 55 b5 df bc fb bf b5 3d 83 0e 01 bd b4 6d ec 3d
       -0.027308146 0.08874508 -0.03150798 0.11544362
000060 e4 73 80 bd 9c b8 20 bd e0 52 d9 3d 72 55 22 3e
       -0.062721044 -0.039238557 0.1061151 0.15852907
000070 d0 7a 1c 3e 30 b8 c5 3d 39 11 28 3e 55 5f 48 bd
       0.15281224 0.096542716 0.1641282 -0.04891904
000080 34 e9 89 3d 6d 39 bb 3d f7 14 7d bd 0c 2a 28 3e
       0.06733933 0.091418125 -0.06178757 0.1642229
000090 9a 23 48 bd fa ac af bd 11 7e b7 3d 82 96 37 3e
       -0.048862077 -0.085779145 0.08959592 0.17928508
0000a0 7d 80 10 3e a9 5b c6 3d 94 43 a0 3d d6 2d 24 bd
       0.14111514 0.096854515 0.078253895 -0.040082775
0000b0 36 a6 31 bd fa 26 35 bd d1 32 10 3d 88 8c b9 bc
       -0.0433714 -0.044226624 0.035204712 -0.022650018
0000c0 c4 cf d1 3d 96 a5 d0 b9 c6 e7 fd bc f2 ae 0e bd
       0.10244706 -0.00039796223 -0.030994307 -0.03483481
0000d0 bb 24 2e bd 4a dc 82 3d da 9e 24 3e 1c 15 f6 3d
       -0.042515498 0.06389673 0.16076222 0.12015745
0000e0 d4 54 19 3d d9 f3 46 3e a1 3f 2e 3e 02 73 ae 3d
       0.037434414 0.19428958 0.1701646 0.0851803
0000f0 4c 7c 03 3e c1 84 64 bd ac e4 ac bd bf 97 2e bd
       0.12840384 -0.055790666 -0.08442053 -0.042625185

sequential_2/conv2d_106/BiasAdd/ReadVariableOp/resource f4 [128]
000000 9f 64 4e 3c 07 68 63 bd 64 19 94 bd f5 4d fa 3d
       0.012597232 -0.05551913 -0.072314054 0.122219004
000010 63 88 5f bd f7 1d b4 bd 87 30 46 bd 61 d0 3a be
       -0.054573428 -0.08794778 -0.048386123 -0.18243553
000020 aa e5 a6 be 12 af 10 3e e5 fe 0f be a2 c5 96 bd
       -0.32597095 0.14129284 -0.14062078 -0.07361914
000030 20 a0 df bb 3d 85 a2 bc b3 95 e2 bd 33 67 6d bd
       -0.0068245083 -0.019838924 -0.11063709 -0.057959747
000040 80 0e 7d bd be 30 5b bd 8a 1b c7 bc 93 28 16 bc
       -0.061781406 -0.05351328 -0.024305124 -0.009164947
000050 b0 b0 c2 bd f1 15 84 bd db 29 d5 bd d0 53 38 bd
       -0.09506357 -0.064494975 -0.10408374 -0.045001805
000060 21 4f bf bc 90 a2 8b bd b5 3e db bc 0b 9d aa be
       -0.023353161 -0.06818116 -0.0267633 -0.3332294
000070 d2 9b 84 bd 6b 8c 6a bd 3c 38 a4 bd b5 ce 21 bd
       -0.06475033 -0.05726282 -0.08018538 -0.03950377
000080 88 c6 c1 bd 18 d1 25 bc fe b5 5a bd 15 ba 88 bd
       -0.09461695 -0.010120653 -0.053396218 -0.06676117
000090 d7 45 7b bd 2a cf b9 bd fa ee 85 bd d7 af 0f be
       -0.0613459 -0.090727165 -0.06539722 -0.14031921
0000a0 8d 73 00 bd 98 eb 93 be 7e 3b d6 bd de 38 b8 bc
       -0.031360198 -0.2889068 -0.10460566 -0.022488054
0000b0 73 fc 89 bd 2b bd c8 bc e0 22 e8 bd 37 b9 49 3e
       -0.06737604 -0.024504265 -0.11334777 0.1969956
0000c0 4d da d0 bd 85 1a d4 be 42 03 dc be 72 7d 32 bd
       -0.101978876 -0.41426483 -0.42971236 -0.043576665
0000d0 b1 9f be bc 55 67 a7 bd 7f ad 19 bd 97 e7 b9 bd
       -0.023269506 -0.08174006 -0.037518974 -0.090773754
0000e0 8f 83 18 be 1c e7 6a 3e 9b 48 12 be bb 11 9a bc
       -0.14893936 0.22939724 -0.1428551 -0.018807283
0000f0 ac 4d ee bc 28 c9 d1 bd 8b 29 b6 bc 80 d5 a1 bd
       -0.029089771 -0.10243446 -0.022236606 -0.0790205
000100 c9 75 17 be 1e d4 ee bd 07 fc 10 be 51 60 e6 bd
       -0.14791025 -0.11661552 -0.14158641 -0.1124884
000110 09 c2 05 bd f8 83 4d be 80 a0 46 bd 58 f1 73 be
       -0.03265575 -0.20069873 -0.04849291 -0.23822534
000120 9a e6 4d bd 13 63 1d bd f7 50 82 bd e3 47 c9 bd
       -0.050268747 -0.038424563 -0.06363099 -0.098281644
000130 84 9b 1d bc 6f c7 1f 3d df 86 8b bd 8d db 17 bd
       -0.009619597 0.039008554 -0.06812834 -0.037074614
000140 b6 07 52 bd 7d f1 ef 3b 33 8c 83 bd 1d f9 35 be
       -0.051276885 0.007322489 -0.06423225 -0.1777081
000150 e3 0e 80 be 1a 4a 51 bd 40 85 11 be 78 7f 26 bd
       -0.25011358 -0.05109606 -0.14210987 -0.040648907
000160 80 39 53 bd 25 90 b2 bd 2e c0 ae bd ca cc ab bd
       -0.05156851 -0.087189 -0.08532749 -0.0838867
000170 5e 3c cc bd e5 5a de bd f6 cc a2 bc fb 8d 77 bd
       -0.099724516 -0.108571805 -0.019873124 -0.060438138
000180 44 2d af bd cd 2e 0a be a8 56 37 3e 07 8c 18 bd
       -0.085535556 -0.13494416 0.1790415 -0.037242915
000190 df 6e 7f bd 1c 14 7f bd 40 6e 94 be cb 38 51 be
       -0.062361594 -0.062275037 -0.28990364 -0.20431821
0001a0 90 eb dc bd fa 11 26 be 95 8c 44 bd 0c 06 a7 bd
       -0.107871175 -0.16217795 -0.047985632 -0.0815545
0001b0 a5 b2 f6 bc a3 28 dd be 21 8a 79 bd 48 83 95 bd
       -0.030114481 -0.43195066 -0.060922746 -0.073004305
0001c0 f0 4d 24 bc 8c 8a f8 3d dd d7 86 be 60 6c ba bd
       -0.010028347 0.12135801 -0.26336566 -0.09102702
0001d0 47 16 6f be 6f 88 9a bd 53 51 09 3c e5 c4 ca bd
       -0.23348342 -0.07545554 0.008381206 -0.09900836
0001e0 03 e0 95 be 3a 44 a4 bc 30 50 4f bd 6f b8 57 be
       -0.2927247 -0.020052064 -0.050613582 -0.2106645
0001f0 9b 04 05 bd bf d0 8e 3e 92 ab 0f be aa db de bd
       -0.032475095 0.27893636 -0.14030293 -0.10881741

sequential_2/conv2d_105/BiasAdd/ReadVariableOp/resource f4 [64]
000000 34 71 01 bd db 7c 19 bd df 94 11 bd 7f f1 66 bc
       -0.0316021 -0.037472587 -0.035542365 -0.014095663
000010 99 76 9e bd 28 f8 7d 3c a8 33 28 be 6f c2 6e be
       -0.077374645 0.01550106 -0.16425955 -0.23316358
000020 27 ed 05 bf 7a 59 d8 bd 20 50 79 bd 0a 1a 59 bd
       -0.5231499 -0.10563941 -0.06086743 -0.05300335
000030 f7 1b c6 bd 24 2b dd 3b b6 ca 46 bd 7f f0 d3 bc
       -0.096733026 0.0067495275 -0.048533164 -0.025871513
000040 c2 55 bc bd e3 37 34 3d 42 13 f2 bd 7c ab 28 bc
       -0.091960445 0.04399861 -0.118200794 -0.010294791
000050 5b 3a 59 bd d0 d7 98 3b dd 8e a3 bd 37 18 a3 be
       -0.053034168 0.0046643987 -0.079862334 -0.31854412
000060 ad 70 6b 3d b7 a1 74 bd 56 28 91 3c 8a 2f 6a bb
       0.057480503 -0.059724536 0.017719429 -0.0035733902
000070 be f4 00 be 0b 25 59 3d 01 23 b0 bc 01 3b 99 be
       -0.12593362 0.053013843 -0.021501066 -0.2992783
000080 55 63 2c 3c 79 0e c5 bd 11 b2 bf bd ca 63 3e bd
       0.0105217295 -0.09621901 -0.09360135 -0.046481885
000090 c6 84 15 bd 7c 2c d2 bd 0c df 2a be 79 17 1d be
       -0.036503576 -0.10262391 -0.16686648 -0.15340985
0000a0 36 60 3a 3c 6f a6 85 be 56 1e 92 bc 68 f4 2d 39
       0.011375478 -0.2610354 -0.01783673 0.00016589614
0000b0 87 ad 3f be fd 8e fc bc fa e3 6e bb 4a 67 0c bd
       -0.18718539 -0.0308299 -0.0036451803 -0.03427819
0000c0 44 c7 96 bd 6d ad ee bc 4a 0f 62 bd 78 e5 5d bc
       -0.07362226 -0.02913543 -0.055190362 -0.013543479
0000d0 61 2d db 3c 6f 75 ea bc 23 1e 50 be f1 bc ac bc
       0.026755037 -0.02862045 -0.20323996 -0.021086188
0000e0 67 98 27 bd 29 37 e0 bc 28 35 be bc 52 69 6b 3d
       -0.040916827 -0.027370052 -0.023218706 0.05747349
0000f0 b1 b7 52 3d ce 6d 04 bd 7d 0a 5f be a4 d4 68 be
       0.051444713 -0.03233128 -0.21781345 -0.22737366

sequential_2/conv2d_104/BiasAdd/ReadVariableOp/resource f4 [64]
000000 c7 95 5f ba 45 01 41 bd c3 a6 6b bc 1e 74 73 bd
       -0.00085290935 -0.04712035 -0.014383021 -0.05943691
000010 2e 78 ba 3c a8 3d a3 3c a6 3c 1c be 06 7c 2b bd
       0.022762384 0.01992686 -0.1525751 -0.041866325
000020 f0 32 e4 3d fa 07 25 be 2c 2c b7 ba 71 bd 35 bd
       0.11142528 -0.16116324 -0.0013974956 -0.04437012
000030 32 4f 4b be dc 92 2b bd d1 d5 bf bd ad bf ed bd
       -0.1985443 -0.041888103 -0.09366954 -0.11608825
000040 5c ba 48 bd fb 88 7a 3d ab 54 ce bd d5 92 32 be
       -0.04900585 0.06116579 -0.10074743 -0.17438824
000050 f0 18 26 bd cf 45 25 bd d3 cb 1d be ac 41 da ba
       -0.040551126 -0.040349778 -0.15409784 -0.0016651652
000060 55 fa 89 bd 69 6a 9a be 58 b7 23 be df cf e8 bd
       -0.067372 -0.3015931 -0.15987909 -0.11367773
000070 5a 11 34 bd 7e 57 32 bd 6e 10 a8 bd f2 51 fd be
       -0.04396186 -0.04354047 -0.08206259 -0.49476582
000080 a1 e5 28 be 86 8a 16 be cc b7 45 be f2 02 0d be
       -0.16493846 -0.1470128 -0.19308394 -0.13770655
000090 8a c2 3e be e3 aa e2 3d 31 87 5e be 34 13 6e be
       -0.18628898 0.1106775 -0.21731259 -0.23249513
0000a0 3a db 86 3d 5f 4d 13 bd ac 5c 5f b8 16 65 e2 bc
       0.06584783 -0.03596246 -5.325365e-05 -0.027636092
0000b0 72 89 93 3c 92 61 3d bd eb fc ae bd 95 3a a2 bd
       0.018009875 -0.04623563 -0.08544334 -0.0792133
0000c0 31 8f 24 bd 80 8e 50 bd db 43 30 bc c7 15 63 be
       -0.04017562 -0.05091715 -0.0107583655 -0.22176276
0000d0 df 94 b5 bd 9d 65 c9 bc 81 75 30 3d 52 29 35 3d
       -0.088662855 -0.024584586 0.04308081 0.04422886
0000e0 36 aa 94 bd 14 94 76 bd 19 1c de bd 65 4a 11 be
       -0.07259028 -0.060199812 -0.10845203 -0.14188536
0000f0 31 ec 38 bd 42 15 a9 ba b6 52 85 bc 1d 6b 92 bd
       -0.045147125 -0.0012900012 -0.016274791 -0.071493365

sequential_2/conv2d_103/BiasAdd/ReadVariableOp/resource f4 [32]
000000 0d 5e 10 bd de db 5c bd 3b f2 be 3d ed d6 eb 3b
       -0.035245944 -0.05392062 0.093235455 0.007197252
000010 a1 da 1a be 55 f0 d3 bd c4 f4 89 bc d3 eb 19 bd
       -0.15122463 -0.10348574 -0.016840346 -0.037578415
000020 57 96 c3 3d 37 4d 67 bc 87 a3 89 bd 33 37 69 be
       0.095501594 -0.014117531 -0.067206435 -0.22774963
000030 07 16 aa 3d 45 6f 87 3d 67 da 74 be f5 74 46 3e
       0.08304983 0.0661302 -0.23911439 0.19380553
000040 0c f7 7a bd 56 05 70 3d f5 67 18 3e 12 bf 4a bd
       -0.06127076 0.05859884 0.14883406 -0.049498625
000050 2e b0 47 3d eb 83 ac be 03 29 5e bd 56 38 0f bc
       0.048752002 -0.33694395 -0.05423833 -0.008741459
000060 fc 4c 12 bd 6e cc d6 bc 25 ca 27 be a3 49 5c 3c
       -0.03571795 -0.026220527 -0.16385706 0.013445291
000070 54 b5 03 be 57 0e 19 bc 2e a7 43 3b 0f 5e 22 be
       -0.1286214 -0.009341798 0.0029854286 -0.15856193

sequential_2/dense_33/MatMul f4 [64, 128]
000000 41 e6 24 3e eb fa 07 be 77 26 6c 3e 9f bb f8 3c
       0.1610346 -0.13279311 0.23061548 0.030362902
000010 d6 74 81 3e 1c e7 06 3e 74 11 e3 bd 7d 2b 97 bd
       0.2528445 0.13174099 -0.11087313 -0.073813416
000020 30 ff c0 bd 3e 3c 03 bd c3 51 70 3d e8 5c 59 bc
       -0.09423673 -0.032039873 0.058671724 -0.0132667795
000030 18 25 8a 3d 1b a9 20 bd 5c 16 00 3e 21 13 21 be
       0.06745356 -0.03922377 0.1250853 -0.15729953
000040 4a 7b 9b be 48 e3 22 3e 1b f2 9a bd 46 98 e0 bd
       -0.303675 0.15907013 -0.07565709 -0.10966544
000050 53 fe e0 be 5f e9 6b bd 1d 7f f3 bd c6 ea d7 3d
       -0.43944034 -0.057595607 -0.11889479 0.10542826
000060 44 af 78 3e 28 1e 51 bc 44 e5 34 3d 3d 4c 54 3e
       0.24285609 -0.0127635375 0.044163957 0.20732208
000070 f5 79 32 3d 68 3f db b9 34 8a 82 bb 85 05 55 3e
       0.04357334 -0.00041818176 -0.0039837603 0.20802887
000080 49 55 f2 bc 9f bb 0f 3d 38 b9 96 3d 7c e9 16 be
       -0.029581683 0.03509104 0.073595464 -0.14737505
000090 4d 68 81 3e 6a 34 a9 3d 77 e3 e0 be e2 fa 6b 3c
       0.25274888 0.0826195 -0.43923542 0.014403077
0000a0 e3 66 89 3d 21 1d 07 be 5a 8e 16 bc 03 a5 8e bd
       0.06709077 -0.13194706 -0.009189213 -0.06965067
0000b0 1e 67 d0 3c 1d 2c 1b 3e 94 33 2f 3e 1b eb e5 3d
       0.025439795 0.15153547 0.17109519 0.112264834
0000c0 39 69 90 be 1a 4f 01 3d 71 e9 2b be 24 60 2a be
       -0.2820528 0.031569578 -0.1678827 -0.16638237
0000d0 2c d5 8f bc 41 ea c5 be 28 4b ff 3d b5 9c ee 3d
       -0.017557703 -0.38655284 0.12465507 0.11650983
0000e0 d1 41 8b bd 27 81 5a bc a8 4d c7 bd d3 7a be 3d
       -0.06799663 -0.013336456 -0.09731609 0.093007706
0000f0 04 e2 af bc 6e e7 20 3c 6a 7b 88 be 01 65 03 bf
       -0.021470077 0.009820802 -0.26656657 -0.51325995
000100 15 42 6e 3e 32 01 8b bd 8d 00 cf 3d 35 3f ad 3e
       0.23267396 -0.06787337 0.10107527 0.33837286
000110 fe 59 1a 3d 91 24 2a bd 80 e9 27 bc 0d c4 ad be
       0.03768348 -0.04153878 -0.010248542 -0.33938637
000120 ba 4e 65 3e d9 87 66 bd ef 2c 75 be d9 36 20 bd
       0.22393313 -0.0562819 -0.23942922 -0.039114807
000130 ee 24 23 bd 13 92 57 bd 8d 07 3a be 88 16 1f 3e
       -0.03983014 -0.05262954 -0.18166943 0.15535939
000140 91 dc 6b be 2a be ce bd 2f df c2 bb b9 71 05 3e
       -0.23033358 -0.10094865 -0.0059470157 0.13031663
000150 d7 51 06 be fe ee 1b 3d a1 72 38 bc 75 33 80 3e
       -0.13117157 0.038069718 -0.011257798 0.2503926
000160 05 f2 b9 bc 2b fa 2d be 69 d1 ad 3c 37 2a a7 3e
       -0.022698412 -0.16989963 0.021218019 0.32649395
000170 a6 9b 4e 3e 2b 95 7e 3e cc 95 1e bd 3b 84 a6 be
       0.20176563 0.2486159 -0.038717076 -0.3252276
000180 ba bd 92 3e 57 39 06 3e 3b f8 16 3e e1 ef 9f 3e
       0.28660375 0.13107811 0.1474313 0.312377
000190 89 69 95 3d 93 7b 72 3e 32 67 4b be fc a8 13 be
       0.0729552 0.23679952 -0.19863585 -0.14419931
0001a0 65 34 80 be 27 40 76 be b7 d8 b8 bd 6a 9d 87 be
       -0.25039974 -0.2404791 -0.0902571 -0.26487285
0001b0 ae 47 55 be f1 fa 55 be f9 ed 45 3e 61 86 9c be
       -0.20828125 -0.20896508 0.1932906 -0.30571273
0001c0 55 3b 4a 3e d2 09 5a bd 22 d0 ca be 5a 02 0d 3e
       0.19749196 -0.05323202 -0.39611918 0.13770428
0001d0 16 fd f9 3d 4c 98 3c 3d 5f 3d 3d 3d 85 9c 1c 3e
       0.122064754 0.04604368 0.046201106 0.15294082
0001e0 ce d1 9e 3d fa 11 72 be 8e 64 cd 3c 94 88 6b 3d
       0.07754861 -0.2363967 0.025072362 0.057503298
0001f0 e9 67 5e be f5 d3 26 3e de f9 9c be 76 ff 05 3e
       -0.21719326 0.16291793 -0.30659384 0.13085732
000200 eb 27 95 3d f3 eb 39 bd ef 99 c1 3c 12 e1 c6 3b
       0.072830044 -0.045391034 0.023632972 0.006069311
000210 02 33 34 be fd 5d 3d 3d ad 97 e5 3d 5f 5c c6 bc
       -0.17597583 0.046232212 0.112105705 -0.024213968
000220 0d 10 ce bd 24 ab e6 bd ee 14 8e bd 0a b2 d6 3d
       -0.10061655 -0.11263111 -0.06937586 0.10483177
000230 60 38 5b bd 86 4c fa 3c 35 03 4b bd f0 8f 1e be
       -0.05352056 0.030554067 -0.049563605 -0.15484595
000240 d6 50 e8 bd aa b2 e9 3d 62 a5 ba bd c8 e9 2c be
       -0.11343543 0.114110306 -0.091135755 -0.16886055
000250 20 6c 8b bb b5 ab 34 be 54 d8 75 3d d0 4a 65 bb
       -0.004254833 -0.17643626 0.06002076 -0.0034987219
000260 d1 63 e0 bd 9e ea 13 be 0b 42 44 bd f3 3a 6d bd
       -0.109565385 -0.14444968 -0.047914546 -0.057917546
000270 c9 47 0e 3d d0 5e 16 be d8 9d 48 be ba 10 00 be
       0.03473643 -0.14684606 -0.19591463 -0.1250638
000280 05 ab 22 3e a6 7b 38 bd f9 a9 bb bb 7f 4f 9c bd
       0.15885551 -0.045039795 -0.0057270494 -0.0763235
000290 26 1e 1d 3e 14 2c 47 bd 19 8d 06 be e2 2e 1e be
       0.15343532 -0.04862602 -0.13139762 -0.15447572
0002a0 05 2c 9c 3d 09 56 19 3e 91 48 4a be 06 4b a6 3d
       0.076255836 0.14974226 -0.19754244 0.08119778
0002b0 df d6 be bd c5 35 86 bc d9 9e 31 3e 33 06 0a be
       -0.09318327 -0.016383061 0.17345752 -0.13478927
0002c0 36 42 a1 bd a2 55 40 3d 39 72 39 be 46 fd b2 3a
       -0.07873957 0.046956666 -0.18109979 0.0013655804
0002d0 46 6c 45 3d ba 6a 39 be c2 cc dc bd 4a e5 22 3d
       0.04819896 -0.18107119 -0.10781242 0.03976945
0002e0 6e a0 2f be 99 c4 7e bc ba 4e 8d bd 67 5a 18 be
       -0.17151043 -0.015549802 -0.068997815 -0.14878236
0002f0 12 73 b6 3d ed e9 d6 3c 12 16 1c be 04 6c 67 bd
       0.08908667 0.026234591 -0.15242794 -0.056499496
000300 60 da df bc d6 c5 89 3d 15 c1 96 3d 76 bb cc 3b
       -0.027325809 0.06727187 0.07361046 0.006247933
000310 d7 15 de bd 27 e8 c1 3d 1f 5b 26 bd 7f ff bb bc
       -0.10844009 0.09468108 -0.040614244 -0.022948978
000320 2f 35 ef 3d 16 d6 0f be 69 16 0f 3d 70 07 16 be
       0.11680066 -0.14046511 0.03493348 -0.14651275
000330 93 34 92 bc f9 e0 d8 bd a7 fb 0f be 9e 39 06 be
       -0.017847335 -0.10589785 -0.14060842 -0.13107917
000340 5d 44 cc 3c 0f 63 f6 3d 9a 25 9c bc 32 6e d2 bc
       0.024934942 0.12030613 -0.019060899 -0.02568731
000350 bc 45 ce bb dd 76 0f 3d 24 13 19 be 1c 8b 89 3c
       -0.006294934 0.035025466 -0.14948708 0.016789965
000360 aa bf 15 3e 93 17 12 3d 24 80 b7 3d 33 9f 37 be
       0.14623895 0.035667013 0.08959988 -0.17931823
000370 f0 67 0f 3e 0f 25 8e bc d8 8a 0f 3d 67 97 a3 3d
       0.14004493 -0.017351655 0.03504452 0.07987862
000380 77 d9 e4 bb 5d eb ef ba 1a 35 78 3d 29 52 37 be
       -0.0069839316 -0.0018304397 0.060597517 -0.17902435
000390 05 d1 f1 bd 1a f1 c3 bc ff f3 1e bc ca 1e ff bc
       -0.118074454 -0.023918677 -0.009701728 -0.031142611
0003a0 12 44 4b bd 11 85 f0 3d 2f 50 2d be 69 45 df 3c
       -0.049625464 0.117441304 -0.16925119 0.027254777
0003b0 dd 50 50 bd 6f 89 3f 3c 27 68 f9 bd 2b 0b 28 be
       -0.050858367 0.011690482 -0.121780686 -0.1641051
0003c0 76 de 34 be 32 d3 83 bd 64 26 72 bd ab da ff 3d
       -0.17662987 -0.06436767 -0.059118643 0.124928795
0003d0 60 1b a6 bd 31 e0 b9 bd 9d 59 6f bc 73 22 45 be
       -0.0811069 -0.09075964 -0.014608768 -0.19251423
0003e0 16 02 ec bd 82 5f 13 3e dc 43 c1 3c 37 ec 8c 3d
       -0.11523835 0.14391902 0.023591928 0.06880992
0003f0 af f7 4d bd 57 e6 07 3e 54 50 e0 bd c4 34 37 bd
       -0.050285038 0.13271461 -0.109528214 -0.044728056

sequential_2/dense_34/MatMul f4 [1, 64]
000000 a5 b5 8d 3e 51 e5 c7 3b 48 b1 ec 3e d8 3e 0f bf
       0.27677646 0.0061003347 0.46229005 -0.55955267
000010 8e 8d 8d bd 8d 87 8d be 2c 8b 4b bd 6c 3b 1c 3e
       -0.06911765 -0.2764248 -0.04969327 0.15257043
000020 7f 74 ca 3c a1 5e a0 3e f9 4a 01 3e 4f 17 7a be
       0.024713753 0.31322196 0.12626256 -0.24422954
000030 f0 3d a5 3d 47 8f 06 bf ae ca 16 3f 51 20 2f be
       0.08068454 -0.52562374 0.58903015 -0.17102171
000040 43 08 c0 bd dc 60 38 be 31 e5 d2 3e e7 d8 d1 bd
       -0.09376576 -0.18005699 0.41190484 -0.10246449
000050 10 1d 5d 3e 20 38 a0 be e0 6c 4b bd 0a 53 0b 3e
       0.21593118 -0.3129282 -0.04966438 0.13605896
000060 66 4d 4c be df 2b f2 bb 18 03 8d be d3 bd a8 be
       -0.199514 -0.0073904837 -0.27541423 -0.32957324
000070 38 17 dc 3d cf 78 50 bc a9 9e bd 3d 67 3b 80 3e
       0.10746616 -0.0127241155 0.09258778 0.2504532
000080 aa 81 36 3b d2 f8 9f be 53 b0 67 be a2 a1 c8 bd
       0.0027848282 -0.31244522 -0.22625856 -0.09796454
000090 6b e2 11 3d 1d ed 63 be 14 5d ae 3e 65 68 c7 be
       0.03561632 -0.2225842 0.34055388 -0.38946834
0000a0 4e 4f a4 3d 20 08 ad 3d 66 c0 20 be 00 ab 3f 3e
       0.08022939 0.08448815 -0.15698394 0.18717575
0000b0 bd 01 2f 3e ef e6 9e be cd 53 ad 3e 34 5a 0e be
       0.17090507 -0.31035563 0.33852997 -0.13901597
0000c0 1b 40 cf bd a0 02 b0 bc 05 61 21 3b d5 a9 bb 3d
       -0.10119649 -0.021485627 0.0024624479 0.09163252
0000d0 47 02 95 bd 0d c6 a3 3e db 70 4b be 07 0c a9 3e
       -0.07275825 0.31987038 -0.1986727 0.3301699
0000e0 ab d4 7e be 6a 05 49 3e dc 87 c5 bd 9c 8a 67 be
       -0.24885814 0.19630972 -0.09645054 -0.22611469
0000f0 da cc 86 be 74 6f 74 be 6f cd 55 3e 9e e0 13 3d
       -0.26328164 -0.23870641 0.20879148 0.036102884

sequential_2/conv2d_103/Conv2D f4 [32, 3, 3, 3]
000000 fc ae e6 3d 26 cb 30 3e b6 c8 0b 3e c5 e7 4e bd
       0.11263844 0.17264995 0.13650784 -0.050514
000010 96 c4 1b 3e fe b8 08 3d 72 7a a6 bc 10 58 e2 bb
       0.1521171 0.033379547 -0.020322058 -0.0069074705
000020 7b 80 1c be 41 56 70 3e 78 ad 96 3e 68 0c eb 3d
       -0.15283386 0.23470403 0.2942922 0.11476976
000030 a0 68 09 be 7b 42 fb 3d 84 22 3e 3c 12 70 b3 bd
       -0.13418818 0.122685395 0.011604909 -0.0876161
000040 f5 bd 81 bd 9f b1 80 bd 02 da 3d 3e cb b3 8f 3e
       -0.063350596 -0.062838785 0.18540195 0.2806686
000050 d0 53 c8 bd 2c 4d 1a be 64 5a 99 bc 7d 4b 88 be
       -0.09781611 -0.15068501 -0.01871986 -0.26620093
000060 5e b1 67 be 13 1c b6 bd 70 bf 6e be b6 54 03 bd
       -0.22626254 -0.088920735 -0.23315215 -0.03206321
000070 d0 9b 44 3d c5 c3 df 3d 79 0d 5e be 63 d7 c4 bd
       0.048000157 0.10926012 -0.21684827 -0.09611394
000080 4c e3 5d be 5f 1d 0b bd 9c 11 24 3d 4d 31 25 be
       -0.21668738 -0.033963557 0.040055856 -0.16132088
000090 39 42 93 bc 70 4b 6a bd 63 bc 2b be 28 be 00 be
       -0.017975913 -0.05720085 -0.16771083 -0.12572539
0000a0 90 98 a6 bd a6 23 5c 3d c6 78 12 bb 1b f3 fb bd
       -0.08134568 0.053744934 -0.0022349819 -0.12302228
0000b0 02 45 f1 3c 40 e0 25 be 4d 27 f4 3c b2 76 1a be
       0.02945185 -0.16198826 0.029803896 -0.15084341
0000c0 74 a8 82 3d 35 22 f1 bd 20 87 da bd 2d 38 34 bd
       0.06379786 -0.117741026 -0.10670304 -0.043998886
0000d0 6e 85 17 be bd 96 b8 ba 43 d2 20 3e 6c a3 2f 3d
       -0.14796993 -0.001408301 0.15705208 0.04288046
0000e0 38 13 15 be 55 e3 74 3e 58 a1 ac bd 20 9a a8 bc
       -0.14558113 0.23914845 -0.084292114 -0.020581305
0000f0 7e 71 48 3e d9 ef 19 be 1d 4e 4b be d3 aa be 3c
       0.19574544 -0.15032901 -0.19854017 0.023274815
000100 87 d6 1b bd 81 b6 10 be cb c8 a9 3d 9e 19 f6 bc
       -0.038046386 -0.1413212 0.08290251 -0.030041512
000110 42 93 76 be 0b 5a 64 3e c1 0d 7e bd ea 30 76 be
       -0.24079612 0.22299974 -0.062024835 -0.24042097
000120 fb 7b aa bd e8 d2 f0 bd cf 1a 53 be 93 b6 0e 3e
       -0.08324429 -0.11758977 -0.20615695 0.13936834
000130 4e 3d 40 be ee 02 09 be 02 ed f0 ba 8c d9 05 be
       -0.18773386 -0.13380024 -0.0018381181 -0.13071269
000140 5f a9 39 be bc b0 3d be bf d0 bb bc d8 bc ac bd
       -0.18131016 -0.1852445 -0.022926686 -0.084344566
000150 82 5d 28 3e 86 aa bf 3e 66 15 f8 3d 4f 45 fa 3c
       0.1644192 0.37434787 0.121134564 0.030550627
000160 c4 44 86 3e aa 58 9f bb 4c 05 20 be 12 19 34 3d
       0.2622434 -0.0048628645 -0.1562702 0.04396922
000170 ff 8e 83 be 8f fd 05 bd e7 e4 47 3e 8a 1a 80 3d
       -0.25695035 -0.032712515 0.19520913 0.06255062
000180 65 bc b2 bc 89 cb ae 3d 48 a6 70 bd 3d c5 4e be
       -0.02181835 0.08534915 -0.05875233 -0.20192428
000190 e6 83 5f bd 8d cc 21 be 24 cb 28 ba b0 9b 97 3e
       -0.054569148 -0.15800686 -0.0006438962 0.29610968
0001a0 78 56 0e be 7f 20 8d bd 4f 60 5a 3c 86 0c 9a bd
       -0.13900173 -0.06890964 0.013328626 -0.0752192
0001b0 2d a6 1e 3e 35 7c 82 3d a4 a8 7d bc 2e 9d 54 3e
       0.15493079 0.06371347 -0.015482102 0.20763084
0001c0 a6 f4 84 bd c7 e5 51 bb 37 57 e8 3d f7 3e 26 bd
       -0.064919755 -0.0032027827 0.1134476 -0.04058739
0001d0 18 ba 27 bd 87 10 9a 3d d0 60 b5 3d 0e c8 45 ba
       -0.040948957 0.075226836 0.08856356 -0.0007544764
0001e0 b3 71 eb 3d 34 1c 59 3d 54 0d 49 3d 0f 43 38 3e
       0.11496296 0.053005412 0.049084976 0.17994331
0001f0 3b 4d 06 3e b1 9a ca bc 23 8e 24 3d ee 60 07 3e
       0.13115399 -0.024731966 0.040174615 0.1322057
000200 e8 a7 16 3d a6 06 36 3e 6b 45 65 3d 86 40 0a 3e
       0.03678122 0.17775974 0.055974405 0.13501176
000210 4d 28 a9 bd 61 40 15 bd 79 3a 26 3c 54 52 03 3e
       -0.0825964 -0.03643835 0.010145777 0.12824374
000220 8e b2 51 3e 3a 3a 6c bc c3 29 58 3e 4d e2 1a 3e
       0.2047827 -0.014418179 0.21109681 0.1512539
000230 2a f9 05 3e 40 29 43 3e 96 89 a8 3d 49 aa 08 3e
       0.1308333 0.19058704 0.082293674 0.13346209
000240 35 a2 0f 3e 50 aa 23 3e 0a ad 1a 3e 43 2a 9c 3c
       0.14026721 0.15982938 0.15105072 0.01906312
000250 ca b9 32 3d e0 da b1 3d b0 75 ce 3c bb 2c d0 3d
       0.043634214 0.08684325 0.025202602 0.10164782
000260 88 58 f4 bd eb 97 84 be 71 7b d1 be 16 24 e2 be
       -0.119309485 -0.25897154 -0.4091449 -0.44168156
000270 98 8f ad be 1d 84 10 be da 34 af be 65 56 13 be
       -0.33898616 -0.14112897 -0.3422001 -0.14388426
000280 f8 f5 ac be 9d 04 87 be 2b f3 a9 be de c8 d5 3b
       -0.3378141 -0.26370707 -0.33193335 0.0065241894
000290 fe 7f 54 ba 0f 30 86 be 08 61 b3 bd 55 0f a0 bd
       -0.00081062305 -0.2620854 -0.087587416 -0.07815424
0002a0 66 f2 87 be 36 46 9b 3c f6 44 24 bc 9c 38 5f be
       -0.26552123 0.018954378 -0.010026207 -0.21798939
0002b0 6f af 88 bd 05 f0 62 bc f3 8a 5e be 9c 01 3d 3d
       -0.06674086 -0.01385117 -0.21732692 0.046144113
0002c0 fc c5 2b 3e 1b e4 6b bd 4a 55 84 3d 42 67 72 3e
       0.16774744 -0.057590585 0.0646158 0.23672202
0002d0 82 18 d8 bc 2d de 82 3d 65 cf 80 3e d6 85 d1 bd
       -0.026378874 0.06390033 0.2515823 -0.10230605
0002e0 3c 1a e9 3d 77 ec 07 3e 30 4b 7e 3d 34 93 2c 3e
       0.11381957 0.13273798 0.062083423 0.16853029
0002f0 e2 8f b5 3e c8 b6 c0 3d 17 1c 02 bc 0f db 08 3e
       0.35461336 0.09409863 -0.007941267 0.13364814
000300 94 cd cb bd bc 2d 75 bc e0 59 1d be ac ee 08 be
       -0.0995132 -0.014964517 -0.15366316 -0.13372296
000310 f1 4f 29 bd 77 17 96 3d bc 65 86 bd 92 dc 1b be
       -0.041336004 0.07328694 -0.06562373 -0.1522086
000320 88 59 13 be bc c9 67 bd 85 fb 06 be b8 df 27 3d
       -0.14389622 -0.056588873 -0.13181885 0.04098484
000330 9f af 9b 3d a9 1c 05 be 12 45 aa bb e7 8b 33 bd
       0.076018564 -0.12999214 -0.005196222 -0.043834593
000340 a0 21 c2 bd d4 c8 9d 3d 5e f0 c6 b8 06 22 1d 3d
       -0.0947907 0.077043205 -9.4861476e-05 0.038362525
000350 43 af 79 bd 93 81 01 be 85 f0 b1 3d 94 e5 76 3d
       -0.06095816 -0.12647085 0.086884536 0.060277537
000360 f2 38 d9 bb a7 1e 09 be 54 f9 f8 3d cd 34 30 be
       -0.006629103 -0.13390599 0.121569306 -0.17207642
000370 68 d1 81 be ba 8d 42 be fb 0a 09 bb d1 02 73 3d
       -0.25355077 -0.18999377 -0.0020911086 0.059328858
000380 41 d8 bd 3d c9 38 a4 bc 47 29 7d be 58 bc e6 bd
       0.09269763 -0.020046609 -0.24722777 -0.112663925
000390 80 de 0c be 00 65 0e be 1c e9 90 be 6d 70 11 be
       -0.13756752 -0.13905716 -0.28302848 -0.14203043
0003a0 b4 e8 18 be 15 05 90 3d d3 a0 b8 bd 3c 6d 6f be
       -0.14932519 0.07032219 -0.0901505 -0.23381513
0003b0 68 b2 30 be f8 8d 4f be a6 ec b5 be 6e 08 0c be
       -0.17255557 -0.20269 -0.3553211 -0.1367509
0003c0 47 98 20 be de 97 e5 bd 4a 1e 57 3d 6b 6e 7e 3c
       -0.15683089 -0.11210607 0.05251912 0.015529255
0003d0 09 69 07 3e fe 96 f2 bd f7 4a e4 bc 1d 65 75 bd
       0.13223661 -0.11845206 -0.027867777 -0.059910882
0003e0 a3 eb 24 be af 53 66 bd 61 fa 18 be d2 b9 eb bd
       -0.16105513 -0.05623215 -0.14939262 -0.11510052
0003f0 25 ae 90 bd 1b c6 03 bc 5b 1e 5b be c1 d1 70 3c
       -0.070644654 -0.0080428375 -0.21398298 0.014698447

sequential_2/conv2d_104/Conv2D f4 [64, 3, 3, 32]
000000 7f 2b db bc 0f 45 42 3d e6 04 22 3d 1e 67 64 3e
       -0.026754139 0.04742914 0.039555453 0.22304961
000010 f9 ce 5d be f5 db 27 be cc 9c 3e 3d 80 c9 46 bd
       -0.21660985 -0.163925 0.046536252 -0.04853201
000020 05 53 93 bd 71 1f ac 3c 4b 98 f1 3d 99 1b 1d bd
       -0.07193569 0.021011086 0.11796626 -0.038356397
000030 28 04 9c 3e 84 59 69 3e 8a aa 9f be 6e 36 c7 3d
       0.3047192 0.22788054 -0.31184798 0.097271785
000040 71 ff c1 3c 36 c7 e2 bd 49 f5 10 3f 23 52 6d be
       0.023681374 -0.11073153 0.56624275 -0.23175864
000050 94 ca e9 bd 16 3d 10 be c5 38 7b bd 23 b3 17 3d
       -0.11415592 -0.14085802 -0.061333437 0.037036072
000060 2a ae 6d 3d b8 12 c6 bd ee 4c 31 be 00 11 2d 3e
       0.058027424 -0.09671539 -0.17314503 0.16901016
000070 5a ac e0 3c fd d6 10 be 98 42 2c 3e 77 40 41 3c
       0.027425934 -0.14144512 0.16822278 0.011795155
000080 0b 35 4f be 43 ed 81 3d 00 f5 d0 3d d2 f1 d7 3d
       -0.20235078 0.06344082 0.1020298 0.105441704
000090 67 bc e2 bd 40 07 22 be 7c 34 3c be 05 73 93 bd
       -0.11071091 -0.15823078 -0.18379396 -0.071996726
0000a0 f1 ce 32 be 6e 1e 39 3d a9 40 ff 3d 0a 83 f5 bd
       -0.17461754 0.045195036 0.12463505 -0.11987884
0000b0 73 02 86 3e ae 72 1b 3d 5c 25 9f be e2 96 eb 3d
       0.26173744 0.037951164 -0.3108319 0.11503388
0000c0 8d e3 63 be 04 39 32 3e 67 74 30 3e 7e 76 2e be
       -0.22254772 0.17404562 0.17231904 -0.17037389
0000d0 ca f7 da 3d 38 d8 66 be 76 ac 56 be 1e 28 b5 3d
       0.10691793 -0.22543418 -0.20964226 0.08845542
0000e0 cb b1 ae bd 0b 6c c6 be 11 3b e0 bd 16 62 57 bd
       -0.08530005 -0.38754305 -0.10948766 -0.052583776
0000f0 a7 92 9a be c6 da c4 be 6e a5 88 3d 9c cb 5d bd
       -0.30190012 -0.3844816 0.06672178 -0.054149255
000100 4e 73 07 3d 4c 77 cd 3c 8e b8 18 3e 8c 8f d0 3d
       0.033068947 0.0250813 0.14914152 0.101836294
000110 ba 5b 2c 3c 1e 64 87 be 6c 5e 8d be ef f7 80 bd
       0.010519916 -0.2644357 -0.276111 -0.062972896
000120 43 a6 eb bc 55 01 76 3d a4 ea de bd 87 59 9b 3c
       -0.028765803 0.060059864 -0.10884598 0.018963588
000130 1a 45 c4 3e b3 50 b0 3c d0 88 96 be ce 93 39 3e
       0.3833397 0.021522855 -0.29401255 0.1812279
000140 e0 bc 06 3e a1 f5 f7 3d 78 47 da 3e ab 94 30 be
       0.13157988 0.12107397 0.4263265 -0.17244212
000150 42 31 13 3e 62 9e 81 be 7f 63 5e 3e 2b c6 af 3d
       0.14374259 -0.2531615 0.21717642 0.085827194
000160 af 45 be bd 82 57 82 3d c5 d2 03 be 2e 77 64 3d
       -0.09290635 0.06364347 -0.12873371 0.05577772
000170 30 0c 0c 3d 98 00 89 bb ef ed e9 bd 7e 19 5a be
       0.03419131 -0.004180979 -0.11422335 -0.21298787
000180 20 c3 2c be f4 24 49 bc 65 bf b5 bd 19 04 3e 3e
       -0.1687131 -0.012276877 -0.08874396 0.1855625
000190 d4 c1 30 be ad 00 d2 bd 00 4c a2 3e 31 9b b1 bd
       -0.1726144 -0.10254035 0.31698608 -0.086721785
0001a0 8b 73 e1 bd a6 41 84 3d 0d d6 d9 3b be aa 52 3d
       -0.11008366 0.06457834 0.0066478313 0.051432364
0001b0 fe 43 10 3e 6b 38 f0 3d 34 bc ba be 15 ee fe bd
       0.14088437 0.11729511 -0.36471713 -0.12447754
0001c0 36 d4 c2 bc 45 7f d0 bd 30 2f 6a 3e 63 a4 98 bd
       -0.02378283 -0.10180525 0.22869563 -0.07453229
0001d0 36 2a 1a be 42 3c 85 be 23 76 c6 bc 49 82 4e be
       -0.15055165 -0.26022536 -0.024226254 -0.20166887
0001e0 d9 b0 56 3c 3d d8 5e 3d 21 20 46 bd b1 69 0f 3e
       0.013103687 0.05440544 -0.048370484 0.14005162
0001f0 a8 19 46 bc b7 df 93 be 14 b5 dc 3d d0 eb 82 bd
       -0.012091078 -0.28881618 0.107767254 -0.06392634
000200 ab 8e 6f be 1c 41 3f bd d8 7f 38 3d fa 28 e0 3d
       -0.23394267 -0.046692953 0.045043796 0.10945316
000210 e2 74 77 bd 37 dd 94 3b 9c 54 cc bd 6b 34 7f 3c
       -0.060414203 0.0045429724 -0.099770755 0.015576462
000220 3f ce c2 be c3 4b 04 bd b2 08 3b 3e 4d 85 26 bc
       -0.38047978 -0.032298815 0.18265036 -0.010163617
000230 a3 90 59 3e a8 37 78 3d 40 f0 6b be 6c 11 e0 bd
       0.21246581 0.060599953 -0.23040867 -0.10940823
000240 41 00 8f be 36 1f 0f 3e 95 87 b5 bd 45 da a6 bb
       -0.2792988 0.1397675 -0.08863751 -0.0050919377
000250 0b b8 2e 3e f3 1f 04 be d2 ca 06 be b9 48 37 be
       0.17062394 -0.12902813 -0.13163307 -0.17898835
000260 57 cf 17 bc 01 87 eb bc 8c f0 4e bd 68 06 0d 3d
       -0.009265742 -0.028750898 -0.050522372 0.034429938
000270 d9 ea 3b be bf a7 df be 87 85 fa 3c b4 a4 0e 3d
       -0.18351306 -0.43682668 0.030581249 0.034825042
000280 c3 98 ce 3c e6 a5 31 3d 9f ca 80 3d 80 4b 65 bd
       0.025219327 0.043371104 0.06288647 -0.055980206
000290 55 3c 7c 3c 16 8c 86 3d 12 56 63 3b e1 69 42 bc
       0.015395244 0.06569688 0.0034688753 -0.011866064
0002a0 b7 12 7d be dd 3d bc 3d d5 e3 69 bc 58 e8 3a bc
       -0.2471417 0.09191487 -0.014275511 -0.011407934
0002b0 26 59 4f 3e 76 d6 41 bd 1e 4b 64 be 68 f8 11 be
       0.20248851 -0.047323667 -0.2229428 -0.14254916
0002c0 15 c6 16 3e dd 80 5c 3e 5d 6f dc 3d 0a 4b 25 be
       0.14724 0.21533532 0.10763428 -0.16141906
0002d0 d7 20 ec 3d 69 bc a3 be 0f f1 86 3e 7c 86 2b be
       0.11529701 -0.31979683 0.26355788 -0.1675052
0002e0 41 d2 90 3d 4b 53 5f 3e bc 88 f8 bd 3b 18 21 3c
       0.07071353 0.21809117 -0.12135455 0.009832437
0002f0 62 a0 55 3d 84 06 52 be 35 55 8d be 49 85 f5 bc
       0.052154906 -0.20510298 -0.2760407 -0.029970782
000300 1c 0e 15 bd a9 e0 07 bd af c3 1b be fb ec 55 3d
       -0.03639041 -0.033173237 -0.15211366 0.052227955
000310 53 df f4 bd f7 ac c9 3d 5f db 08 3e 55 71 2d bd
       -0.11956658 0.098474436 0.13364933 -0.04234441
000320 9c 9c 89 be ee 83 64 3c 78 fb e5 3b c9 ef 9c 3d
       -0.26877296 0.01394747 0.007018503 0.07662923
000330 51 3a 3e 3d 66 2b 3a be 74 26 57 be 08 e6 4d be
       0.046442334 -0.18180618 -0.21010762 -0.20107281
000340 a8 e8 24 bd f6 f6 4a be 02 98 c6 3d 89 10 15 be
       -0.04026094 -0.1982077 0.09696962 -0.14557089
000350 69 d2 e6 bd e6 61 46 be 7a 31 13 bc 8f b0 1e 3c
       -0.11270601 -0.19373283 -0.008983964 0.00968565
000360 70 c2 1a 3c f8 46 ea 3c 2b 29 30 be ad 0f a7 3c
       0.009445772 0.028598294 -0.17203204 0.020393217
000370 59 cc b0 bd 17 35 2d be 6f ab 14 3e 93 55 54 3d
       -0.08632726 -0.16914783 0.14518522 0.051839422
000380 d0 ed fe bc 2d e8 cb bc 6b 6d 14 be f0 38 3d 3d
       -0.031119257 -0.024890983 -0.14494865 0.046196878
000390 bd 2a c1 3d 64 f3 dc 3e 13 4e 0a 3d be f3 80 bc
       0.0943198 0.43154442 0.033765864 -0.015741225
0003a0 19 f3 87 be b8 fc c1 3d 35 fa 0b 3e 1e 60 a1 3c
       -0.26552656 0.094720304 0.13669665 0.019699153
0003b0 53 18 c2 3d 5f 36 a5 bd 01 f1 5b be 98 7d b5 be
       0.09477296 -0.08067011 -0.21478654 -0.35447383
0003c0 70 fd 62 be 8c bd e4 38 2b 84 9f bd 14 fa 9c bd
       -0.22166991 0.00010907193 -0.07788881 -0.07664886
0003d0 14 dc e7 bb 12 d6 37 be 64 67 cb bd 8e 82 b5 3d
       -0.007075796 -0.17952755 -0.099318296 0.08862792
0003e0 a5 9d 38 bd 5f 05 ab bc 0a 19 b5 3c 2b 52 32 3d
       -0.045072217 -0.020876585 0.022106666 0.043535393
0003f0 d5 7f d2 bd c4 7d ed bd ab 26 28 3d 6a b3 41 3e
       -0.10278288 -0.115962535 0.0410525 0.18916097

sequential_2/conv2d_105/Conv2D f4 [64, 3, 3, 64]
000000 c6 27 69 bd 70 8f 23 3d 2c 79 a8 bc 0c 98 42 3a
       -0.056922697 0.039931715 -0.020565592 0.00074231694
000010 e9 e8 eb bd fd 32 32 bd 83 c8 92 bd a0 93 3b 3c
       -0.115190335 -0.043505657 -0.07167151 0.011448771
000020 2f cc 9c bd 59 64 e7 bd c6 cf 67 bc da 1f 5d 3d
       -0.076561324 -0.11298437 -0.014148658 0.053985454
000030 3a 0b 91 bd 4b 81 2b 3d 5b 36 9e bd 9f b2 f1 3b
       -0.070822194 0.04187135 -0.07725211 0.0073760296
000040 2d ba 37 3d 24 5c 50 3d 8b f2 e9 3c ac 64 60 bc
       0.044855285 0.050869122 0.028558036 -0.013695877
000050 48 e8 43 3b 86 7e 92 bd 86 b4 3f 3d c3 6b d9 3b
       0.002989309 -0.07153039 0.04680302 0.0066351607
000060 d0 8b 5d 3d 2e 2b fb bc 08 9b 83 3d a3 80 44 bd
       0.054088414 -0.030660238 0.06426054 -0.04797424
000070 64 34 40 3d 32 ea c9 3b a0 46 51 bd b5 70 f9 3c
       0.046924964 0.0061619515 -0.051092744 0.03044925
000080 f7 75 be bc 0b 83 7f bd 18 2e 5c bd 7b 46 c1 3c
       -0.02324961 -0.06238083 -0.053754896 0.023593178
000090 30 c0 3a 3d bd bb 64 bd e2 3f 6b bd f7 8e 6d bd
       0.04559344 -0.055843104 -0.05743397 -0.05799767
0000a0 d6 58 2b 3d 84 73 7d bd 5e 5e 40 3c ad fe d9 3d
       0.041832767 -0.061877742 0.011741249 0.10644279
0000b0 de 93 07 3d e5 54 0a 3c 3a 27 14 3d 28 0d 05 bd
       0.0331 0.008443092 0.036170222 -0.03248325
0000c0 61 32 27 3d 8b da 3d 3d 71 d1 09 bd 3a 65 07 3c
       0.04081953 0.046350997 -0.033647005 0.00826388
0000d0 39 77 e0 bc 87 b3 dd bc f6 58 71 bd 81 51 3f bc
       -0.0274006 -0.027063144 -0.05892273 -0.011677147
0000e0 33 af e8 bd c8 fb 46 3d 0c 20 3f bc db bf 44 bd
       -0.113615416 0.04857996 -0.011665355 -0.04803453
0000f0 e3 54 7d 3d d7 30 8e bd d1 52 89 3c 42 e0 ad bc
       0.061848532 -0.06942909 0.016763123 -0.021225099
000100 d7 b3 68 3d c0 76 7d bd b9 87 a2 bd 34 69 cf bd
       0.056812134 -0.061880827 -0.07936043 -0.10127488
000110 c8 96 8f bd 20 1f d6 bc 6e 26 03 be 19 af 84 3c
       -0.07011181 -0.026137888 -0.12807629 0.016196774
000120 ee 5a d3 bc 1c 4e d9 bd 3f ef 48 3c 84 16 3e bd
       -0.025800195 -0.10610601 0.012264072 -0.04640819
000130 b0 03 3b 3d 6c 97 97 bd 23 3d ad 3c 0a 1e 6b 3b
       0.045657814 -0.07401928 0.021147316 0.003587606
000140 78 9e 8b bc a9 4b db bb 6f b6 86 bd dd bb 25 bd
       -0.017043337 -0.006692369 -0.06577765 -0.040462364
000150 52 7f 0b bc 3a 57 fa bc 8f dd cd 3b 1a 86 d7 b8
       -0.008514242 -0.030559171 0.0062825154 -0.00010276977
000160 f2 94 a1 bc 9c 50 98 bd ff 55 7f 3d 67 03 70 bd
       -0.019724343 -0.0743725 0.06233787 -0.058596995
000170 0a 8c c3 3c 62 16 1a bd 86 4a db 3c 49 58 00 3d
       0.023870487 -0.037619002 0.026768934 0.031334195
000180 20 66 8f bd 6f 73 9b bd 56 e4 b3 bc c5 12 a4 bc
       -0.07001901 -0.075903766 -0.021959465 -0.020028481
000190 0f 5b b9 bd 89 18 38 bd cb b7 1c 3c 11 b5 ac bd
       -0.09050571 -0.044945274 0.009565304 -0.08432973
0001a0 ba b9 48 3d 00 2c b7 bc 86 94 2d bd bc 6b 09 3d
       0.049005248 -0.022359848 -0.04237797 0.03355001
0001b0 0d 8a b6 39 02 d5 33 3d 07 ce 20 3d ad cd 7d bd
       0.000348166 0.043904312 0.039258983 -0.061963726
0001c0 1e 99 4e bd 43 aa 0c bc cd 27 91 bd 84 cc c0 bc
       -0.050438993 -0.008585515 -0.070876695 -0.02353502
0001d0 8c 96 41 3d bb 76 dc bc af 68 21 3a 62 cc bd 3a
       0.047262713 -0.026912084 0.00061572617 0.0014480466
0001e0 0f ba 86 bb 41 59 aa bb 1b 5a 93 bd 93 29 f8 3c
       -0.0041115354 -0.005198628 -0.07194921 0.030293262
0001f0 7a 7e a4 bd 65 8a f2 3a fe 4a 25 bc af 23 28 3d
       -0.08031936 0.001850438 -0.01008868 0.041049656
000200 26 f2 01 3d 5e d2 6e bd 02 02 4f bd 35 b3 38 3c
       0.03172507 -0.05830609 -0.050539024 0.011273195
000210 38 20 07 be c1 7e 33 3c 92 dc db bc cc 51 a1 bd
       -0.13195884 0.010955513 -0.026838575 -0.0787693
000220 9b f5 38 bd b5 35 87 bc 5a c9 06 3d a1 25 33 3d
       -0.045156103 -0.016505102 0.032906868 0.043737058
000230 c3 f2 31 bb aa e6 48 bc 17 72 a6 bc 98 f5 2b bd
       -0.0027152754 -0.012262026 -0.020318074 -0.041982263
000240 9e 08 32 bc 50 68 8f bd 96 fd 17 bd b4 e0 21 3c
       -0.010866312 -0.07002318 -0.037107073 0.009880234
000250 11 c3 18 3a cf e9 32 bd b7 e6 2d bd a2 b2 b9 bd
       0.0005827407 -0.04368001 -0.042456355 -0.09067275
000260 be 0a a9 3a ef 45 93 bd 16 6d 8a bd 24 b5 f8 3c
       0.0012896878 -0.07191073 -0.06759088 0.030359812
000270 e6 3e 11 3d ea 8a 25 bd 48 32 55 3a f4 6e a2 bd
       0.035460375 -0.040415682 0.00081327977 -0.07931319
000280 43 08 34 3c 82 cb 1c 3c f6 39 94 3c ff f3 a8 3a
       0.010988298 0.009570004 0.018094044 0.0012890099
000290 d1 c5 e2 3b 1c 51 0b be e8 29 e3 ba 7c ba 4a bd
       0.006920554 -0.1360516 -0.0017331215 -0.04949425
0002a0 7b 7d 7e 3d f9 e4 96 bd 22 83 b0 3c 6f a7 c2 3d
       0.062131386 -0.07367892 0.021546904 0.09504592
0002b0 8f 17 a3 bd 0d a2 a1 bd 80 7d cd 3b 49 a6 4d ba
       -0.07963478 -0.07892237 0.0062710643 -0.0007844908
0002c0 84 fe 76 bd b9 3d 28 bb 5c 29 12 3d ad 59 23 bd
       -0.06030132 -0.0025671555 0.035683975 -0.039880443
0002d0 f1 23 06 3d a2 f3 23 bd ff 1f 16 bd 50 de 1d bd
       0.03274912 -0.04002727 -0.036651608 -0.03854209
0002e0 11 9c ed bc 06 ee a1 bd 44 d8 a2 bd 40 18 cd bd
       -0.029005082 -0.079067275 -0.07951406 -0.10014391
0002f0 a5 c1 14 3d e8 76 55 3c fe c9 c8 bd ac d9 80 3d
       0.036317486 0.013028838 -0.09804152 0.062915176
000300 51 ae 80 bd c6 53 3b 3d 9d 7f 58 3c cb 84 fb bd
       -0.06283248 0.04573419 0.013214019 -0.122811876
000310 3b b9 15 bd f7 c4 ac bc c6 ce c1 bb 28 ee ae bd
       -0.036553603 -0.021090014 -0.005914542 -0.085415184
000320 46 9e ce bc 20 6d 19 3c 2b a0 da bc 22 da fe 3a
       -0.025221955 0.009364396 -0.026687702 0.0019443671
000330 35 e1 73 3d 0b e8 a1 bb 78 26 d0 bc 71 de d6 bc
       0.059540946 -0.0049409918 -0.025408968 -0.026229115
000340 3d 22 8c 3c 51 ac 13 3d 86 6c c5 bc 15 52 8f bd
       0.01710617 0.036053006 -0.0240996 -0.06998078
000350 0f 26 27 bc 49 69 7c bc 9d c4 81 bc e5 a8 8d bd
       -0.010201945 -0.015405961 -0.015840823 -0.0691698
000360 d9 76 0d bd 4f 06 0e bd fe 02 0b 3d 93 22 60 bc
       -0.03453717 -0.034673985 0.0339384 -0.013680118
000370 0f 63 b9 bc 49 db 37 3d f6 53 76 bd db fe 09 3d
       -0.022630243 0.04488686 -0.060138665 0.033690315
000380 5c 65 30 bc fb b2 7b bd 2d ca 86 3d e1 1b 13 bb
       -0.010766353 -0.061449986 0.06581531 -0.0022447037
000390 f3 13 53 3b 00 69 c8 bd c6 1f 85 bd d7 38 a3 3c
       0.0032207936 -0.09785652 -0.06500201 0.019924564
0003a0 ce ab 7c bd 32 19 0e bd b5 f0 c9 bd 67 53 66 3d
       -0.061687283 -0.034691997 -0.09860364 0.056231882
0003b0 5b 69 04 3c de 00 7c 3d 4b f8 ab 3c 1f a5 81 bd
       0.008081759 0.061524265 0.020992419 -0.063303225
0003c0 7f e7 26 3c 45 a4 91 bc f7 a1 e3 bc f8 9b 72 3d
       0.010187029 -0.017778525 -0.027787192 0.059230775
0003d0 57 75 24 3d ec 65 c9 bc 65 9a df bc 93 a3 15 bd
       0.040150966 -0.024584733 -0.0272953 -0.03653295
0003e0 cf 39 99 bc 05 0a 50 bc a3 89 02 bd 87 8e a7 bc
       -0.018704323 -0.012697701 -0.03186954 -0.020453705
0003f0 a3 41 80 bd 19 aa 8b bd 37 23 25 bc 04 c0 10 bd
       -0.06262519 -0.06819553 -0.010079197 -0.03533937

sequential_2/conv2d_106/Conv2D f4 [128, 3, 3, 64]
000000 d8 f4 74 bd 69 50 1a bf cb eb 2b bc b8 e2 6a bd
       -0.059803814 -0.60278946 -0.010493229 -0.057345122
000010 18 f6 82 3c ab e8 78 be 65 a2 7e be 5f df 00 bc
       0.015986487 -0.24307506 -0.24866636 -0.007865756
000020 9b e8 fe bd 32 51 51 bd 91 aa 1d 3d 81 2e 38 be
       -0.1244671 -0.051102825 0.038492743 -0.1798649
000030 a8 87 e5 be 59 f5 16 be 20 20 ef be c9 fb 2b be
       -0.4483006 -0.1474203 -0.46704197 -0.16795267
000040 1c 4b 1f bd 78 41 96 bd 9b 6b 92 be c4 0c 60 bd
       -0.03888999 -0.07336706 -0.2859772 -0.054699674
000050 7a 2d f6 bd b7 0e 2c 3d c2 95 d5 be 9c 67 2d be
       -0.12020393 0.04200622 -0.4171582 -0.16934055
000060 46 4a 74 be 33 84 00 3d 7b d0 96 bb b3 ea df bd
       -0.23856458 0.031376075 -0.0046024895 -0.10933437
000070 da c9 17 bf 0a 5d 80 be 38 e8 8e be 2e 27 0e bf
       -0.59292376 -0.25070983 -0.27911544 -0.55528533
000080 ec bb d9 bc 4c 95 36 be 9d c3 e9 be d5 2e ea be
       -0.026578866 -0.1783039 -0.45657054 -0.45738855
000090 4e 89 ec bd 6f 86 cd bd 16 50 38 be 99 0c 04 bf
       -0.11549626 -0.10035407 -0.179993 -0.5158172
0000a0 df b1 fd bd db 6d af be 47 d5 58 be 73 62 45 be
       -0.12387442 -0.342635 -0.21175109 -0.19275837
0000b0 b4 bf 7e be b4 8e 17 3d 16 4e ee be ec 8c 8d 3c
       -0.24877816 0.037001327 -0.4654395 0.01727911
0000c0 dc b1 43 be 69 b5 bc be 24 0b 32 be 65 ca 28 be
       -0.19110817 -0.36857155 -0.17387062 -0.16483457
0000d0 e1 dd 6e 3d a4 21 c2 be d7 d6 fd bd 42 f2 bf bd
       0.05831707 -0.3791629 -0.12394493 -0.09372379
0000e0 78 f2 d6 bd 83 02 a8 be 70 ec 67 bb 55 06 14 be
       -0.10495466 -0.32814416 -0.003538873 -0.1445554
0000f0 ef 84 71 be bf 3b 85 bd d2 65 fd 3c 08 fd 89 be
       -0.23585866 -0.06505536 0.03093234 -0.2695086
000100 1e e6 bc 3a 66 b7 00 bf f3 73 73 3d 43 ee 8b 3d
       0.0014411842 -0.50279844 0.05943675 0.06832554
000110 ce 0a 95 3b 0a b3 db 3c 60 d2 95 be cc 93 22 3e
       0.004548407 0.02681877 -0.29262066 0.15876693
000120 99 b1 90 be ac d2 b8 be 6b f8 6d bd 24 37 e4 bd
       -0.28260496 -0.3609823 -0.058098238 -0.1114333
000130 93 ea 8d 3c 9c c3 1a be f5 5e e7 be 60 95 19 be
       0.017323768 -0.15113682 -0.45189634 -0.14998388
000140 41 c5 11 bd f0 cf 99 bd 5e 38 11 bd 12 c7 31 bd
       -0.035588507 -0.07510364 -0.035454147 -0.04340274
000150 50 01 82 3d 1e ce 27 3e a1 02 1a 3d 24 16 c3 bd
       0.063479066 0.16387221 0.037600163 -0.09525707
000160 27 94 70 be ab 1f 93 bc 55 de 84 bc 44 32 40 3e
       -0.23494016 -0.017959436 -0.016219297 0.18769175
000170 96 1e cb be a6 f6 83 bd ed 0d 24 3c 37 1b 6b be
       -0.39671773 -0.06443529 0.010013086 -0.229596
000180 6e 92 7d 3b d9 c1 18 3d c6 b0 7c be 8f 7a b2 be
       0.0038692015 0.037294243 -0.24676809 -0.3485913
000190 ed 7b ca 3d 49 21 1d 3e 55 cb bb 3d b2 2d fb bd
       0.09886918 0.15344729 0.09169642 -0.12264575
0001a0 eb 5b 66 bb ae 70 f4 bd 40 45 d5 bd d4 5c bb 3c
       -0.0035150002 -0.119355544 -0.10413599 0.022871412
0001b0 7c cc a0 bc e5 28 f5 3c 8c d8 a0 be f1 27 15 3e
       -0.019628756 0.029926727 -0.31415212 0.14566018
0001c0 cc 11 c4 bd 7e 82 f4 3c a4 24 66 be 25 c4 ff 3d
       -0.09573707 0.02984738 -0.22474915 0.124885835
0001d0 f3 4c 9d bc 3c c6 89 be 54 04 48 3d 17 70 ed bd
       -0.019201731 -0.26909053 0.048832253 -0.11593645
0001e0 75 b8 84 bd 7f 51 85 3d 69 cf 33 bd 53 3b d1 bd
       -0.06480495 0.06509685 -0.043898974 -0.10216393
0001f0 92 d0 22 be a7 87 a3 bc 57 8e b7 3c 2a e9 f9 bc
       -0.15899876 -0.019962145 0.02240674 -0.03050669
000200 aa 44 32 bd 26 ed a4 be d2 2c 67 3c f3 df 4d be
       -0.043522514 -0.3221218 0.014109807 -0.20104961
000210 f5 37 a8 3d de 36 d6 3d 1e 72 5f be ab 3a 0b 3e
       0.08213798 0.10459684 -0.21820876 0.13596599
000220 d1 5a 8d be fa 73 a3 bd a6 85 83 b9 a2 c0 65 3b
       -0.2760835 -0.07981105 -0.00025085843 0.0035057445
000230 ea 5e 2c 3e 3d a4 bb bd 48 1a a5 be 7d 69 ec bd
       0.16833082 -0.09162185 -0.32246614 -0.11543558
000240 2d ce 19 bb 1c 43 20 be 96 90 0e 3e d9 b7 15 3d
       -0.0023468838 -0.156506 0.13922343 0.036552284
000250 a5 ad 56 3d 4b 53 65 bc c8 23 8b 3d 5f f7 1d be
       0.052411694 -0.013996909 0.06793934 -0.15426396
000260 77 d3 00 bd db eb e5 bd d8 ee 30 3e 9b 5e b4 3d
       -0.03145167 -0.112266265 0.17278612 0.08807107
000270 f6 77 7f be 82 3d ba bd 54 e9 15 be 72 9b a3 bd
       -0.24948105 -0.09093763 -0.14639789 -0.07988633
000280 18 c2 ee bd e2 33 d7 3c ef a0 20 be 5d 88 84 be
       -0.11658114 0.026269857 -0.15686391 -0.25885287
000290 6b 30 a2 3d 9b 1a 3a 3e 43 4a 98 3c 6f b2 f6 3d
       0.07919391 0.18174212 0.018590098 0.12045752
0002a0 ee 53 f0 3d 03 53 7c be ee 4c 86 3d 6d df 43 bd
       0.11734758 -0.24641041 0.06557642 -0.047820497
0002b0 5c fb 1a be 81 98 90 bd e4 c0 22 be 0f 8c 72 3e
       -0.15134948 -0.07060338 -0.15893894 0.2368624
0002c0 8c 1d f9 bd 78 6a 0a be 4d 1b 5e be 8d 18 18 3c
       -0.12163839 -0.13517177 -0.21690102 0.009283197
0002d0 9c 61 12 be 32 0c b1 3d f6 53 6e 3c f2 4a bd 3d
       -0.14295048 0.08644904 0.014546385 0.0924281
0002e0 74 0d 53 be f3 bd 11 bd 52 e0 95 3d 2e cc dd bd
       -0.206106 -0.03558154 0.07318176 -0.1082996
0002f0 a2 38 9f 3b 0f 33 66 bd 90 82 7f be be 51 ae bd
       0.004859046 -0.056201037 -0.2495215 -0.08511685
000300 be 1e b4 3c d0 cd c8 be 87 09 86 3d 80 2e f2 3c
       0.021987315 -0.39219522 0.06544786 0.029563189
000310 44 a3 88 be 60 73 11 bd 48 b2 b1 be f6 4f 59 bd
       -0.26687062 -0.03551042 -0.3470633 -0.053054772
000320 f3 4a b2 be 84 d5 bb bc 5c 74 ce bc b0 6c f4 3d
       -0.34822807 -0.02292896 -0.025201969 0.11934793
000330 81 30 c2 3d 3d 98 a7 bd 38 54 75 be 48 a1 2f be
       0.09481908 -0.08183334 -0.23957908 -0.17151368
000340 27 c9 00 be 06 54 a3 bd 2a 58 b5 be 72 ae 3a be
       -0.12576734 -0.079750106 -0.35418826 -0.18230608
000350 a4 f4 bb bd 31 5f 23 be bf 97 a8 be d8 4b c9 bd
       -0.09177521 -0.15954281 -0.32928273 -0.09828919
000360 ab 66 c3 be f5 34 fc bd 7e ea 0e 3e 3c 1b 55 3e
       -0.38164267 -0.12314788 0.13956639 0.2081117
000370 d2 22 ba be 9b 09 fa 3d 22 f3 45 be e4 2b 51 be
       -0.3635469 0.12208863 -0.19331029 -0.20426899
000380 34 18 5c 3e 29 0c 83 3d aa 73 a3 be fb e6 1d be
       0.21493608 0.06398804 -0.31924182 -0.15420143
000390 a1 e0 18 bd ed aa 7e 3e df 3c 8b be ba 6a c4 be
       -0.037323598 0.2486989 -0.27194878 -0.38362676
0003a0 7e dd e2 3c 3c 95 49 be ee 85 5d be 84 03 4b be
       0.027693506 -0.19685835 -0.21633121 -0.1982556
0003b0 0f 0f 06 be fd 77 21 ba 1d aa 46 be 1b 0a 1a 3e
       -0.13091682 -0.0006159542 -0.1940083 0.15042917
0003c0 bd 99 a9 bc cf b3 1b bd e0 d0 64 be a2 5d ab 3c
       -0.020703191 -0.038013276 -0.22345304 0.020918671
0003d0 bb b4 2b be b7 5b b7 be b0 c0 1b 3d db e4 aa 3c
       -0.16768162 -0.3581216 0.038025558 0.02086108
0003e0 1a 87 92 be c6 f4 15 bd 2b ab 67 3d 76 75 3a 3e
       -0.286187 -0.036610387 0.056559723 0.1820887
0003f0 5d 5c 12 bd a3 ed 1b 3b 85 31 e3 be a0 f6 67 be
       -0.035732616 0.0023792766 -0.44373718 -0.22652674
