LaneFollowingModel/quantized_and_pruned_model.tflite (tflite, 152128 bytes, 11 tensors)

dense_33/bias f4 [64]
0	0x3e0e9d3f	0.13927172
1	0xbbcd6384	-0.0062679667
2	0x3e3886b8	0.18020141
3	0xbdf61fe1	-0.12017799
4	0xbd8ddbdb	-0.069267
5	0x3e057c0e	0.13035604
6	0xbda828e7	-0.082109265
7	0xbd451e50	-0.04812461
8	0x3df526a4	0.11970261
9	0x3e1f62db	0.15565054
10	0x3e0c0c71	0.13676621
11	0x3d3fe169	0.046845827
12	0x3dc3d2cb	0.0956169
13	0x3dce25ea	0.10065825
14	0xbe0af0ff	-0.13568495
15	0xbd252992	-0.040322848
16	0xbd0fd527	-0.035115387
17	0xbd66b9b4	-0.056329444
18	0xbdb8ef9d	-0.090300776
19	0xbd63675e	-0.0555185
20	0xbcdfb555	-0.027308146
21	0x3dc0739e	0.09397052
22	0xbd010e83	-0.03150798
23	0x3df2b3b9	0.118506856
24	0xbd8073e4	-0.062721044
25	0xbd20b89c	-0.039238557
26	0x3deda669	0.11604006
27	0x3e2be2f5	0.16785796
28	0x3e1f37e1	0.1554866
29	0x3db2c709	0.08729369
30	0x3e297593	0.16548757
31	0xbd485f55	-0.04891904
32	0x3d88a4c0	0.066720486
33	0x3def3122	0.11679293
34	0xbd7d14f7	-0.06178757
35	0x3e2d2018	0.16906774
36	0xbd48239a	-0.048862077
37	0xbdd50829	-0.10401947
38	0x3df5c007	0.11999517
39	0x3e3c18a2	0.18368772
40	0x3e0c3713	0.13692884
41	0x3dc710f8	0.097200334
42	0x3da6d8d6	0.08146827
43	0xbd242dd6	-0.040082775
44	0xbd31a636	-0.0433714
45	0xbd4ce214	-0.050020292
46	0x3d46b3bd	0.048511256
47	0xbcadbbc5	-0.0212077
48	0x3dcc6772	0.09980668
49	0x3b4a846f	0.003090169
50	0xbcfde7c6	-0.030994307
51	0xbd0eaef2	-0.03483481
52	0xbd2e24bb	-0.042515498
53	0x3daed47d	0.08536623
54	0x3e24f87d	0.16110416
55	0x3dfe51ba	0.12417932
56	0x3d5b1696	0.053488337
57	0x3e6142c3	0.21998124
58	0x3e3104f7	0.1728705
59	0x3dc8dc74	0.09807673
60	0x3e1233a9	0.1427752
61	0xbd6484c1	-0.055790666
62	0xbde6dabd	-0.1127219
63	0xbd2e97bf	-0.042625185

conv2d_106/bias f4 [128]
0	0x3a030052	0.0004997301
1	0xbd4f5d12	-0.05062587
2	0xbdaa7e01	-0.083248146
3	0x3e019ebb	0.12658207
4	0xbd49720b	-0.049181025
5	0xbd936d27	-0.071985535
6	0xbd1d2079	-0.038361046
7	0xbe0aa1de	-0.1353831
8	0xbe970003	-0.29492196
9	0x3e207085	0.15667923
10	0xbe006d5f	-0.12541722
11	0xbda364d2	-0.07978214
12	0x3b6df95f	0.0036311967
13	0xbcbac810	-0.022800475
14	0xbdd892f0	-0.10574901
15	0xbd57a4a9	-0.052647267
16	0xbd46ceb6	-0.04853698
17	0xbd427b7e	-0.047481053
18	0xbc3ca458	-0.011513792
19	0xbc6fa758	-0.0146273
20	0xbcc7fc22	-0.024412218
21	0xbd44e2c8	-0.048067838
22	0xbddbe98d	-0.10737906
23	0xbd359b42	-0.04433752
24	0xbca6f8f4	-0.020382382
25	0xbd2e578e	-0.042563967
26	0xbd2b0e4b	-0.041761678
27	0xbea99b20	-0.33126163
28	0xbd200c7f	-0.039074417
29	0xbd886602	-0.066600814
30	0xbd95b476	-0.07309811
31	0xbd059e20	-0.032621503
32	0xbd54b3d2	-0.051929303
33	0xbcdab6f1	-0.026698561
34	0xbd715c76	-0.05892607
35	0xbdacbeca	-0.084348276
36	0xbd9872d6	-0.07443778
37	0xbd872911	-0.0659963
38	0xbc85bb28	-0.016324595
39	0xbdef8568	-0.11695367
40	0xbc0ce57a	-0.008599633
41	0xbe954b62	-0.29159075
42	0xbdbfcdb3	-0.09365406
43	0xbcdbb059	-0.026817488
44	0xbdce4dff	-0.1007347
45	0xbd1a3f7d	-0.037658203
46	0xbd8e21a1	-0.06940008
47	0x3e5b1e04	0.21398169
48	0xbdae0127	-0.084963135
49	0xbecfbb4a	-0.40572578
50	0xbee4ea4b	-0.4471
51	0xbd0583ab	-0.03259627
52	0x3c358cf7	0.011080972
53	0xbd990159	-0.0747096
54	0xbd0efb5b	-0.03490768
55	0xbdd7132a	-0.10501702
56	0xbe12a6c9	-0.14321436
57	0x3e746705	0.23867424
58	0xbe21ca97	-0.15799938
59	0xbc1478ad	-0.0090619745
60	0xbcbdf197	-0.023186488
61	0xbdc45ae0	-0.095876455
62	0xbcca572e	-0.024699774
63	0xbdbb1a7a	-0.091359094
64	0xbdff9a4e	-0.12480603
65	0xbddbc77d	-0.10731409
66	0xbe275b61	-0.16343452
67	0xbdde01c6	-0.10840182
68	0xbd01d29e	-0.031695
69	0xbe410566	-0.18849716
70	0xbd631cef	-0.055447515
71	0xbe71060f	-0.23537467
72	0xbd34f985	-0.044183273
73	0xbc86fe6c	-0.01647874
74	0xbd7d2309	-0.06180099
75	0xbdb6e335	-0.08930055
76	0x3c335fd8	0.010948144
77	0x3d3a7013	0.04551704
78	0xbd8d8179	-0.069094606
79	0xbd479886	-0.048729442
80	0xbc48162b	-0.0122123165
81	0x3bf8d792	0.0075940574
82	0xbd081cfa	-0.03323076
83	0xbe200428	-0.15626585
84	0xbe85eb3e	-0.26156038
85	0xbd6ff5b5	-0.058583934
86	0xbe03b985	-0.12863739
87	0xbce19ff5	-0.027542094
88	0xbcf3257d	-0.029680962
89	0xbd986423	-0.074409746
90	0xbd97fa72	-0.074208155
91	0xbd7b3ad7	-0.06133541
92	0xbda6baf0	-0.08141124
93	0xbdfbe495	-0.12299458
94	0xbc45bfb6	-0.012069633
95	0xbd80dec0	-0.06292486
96	0xbdc4fbe6	-0.09618358
97	0xbdf9b23c	-0.12192199
98	0x3e435075	0.1907366
99	0xbce2296c	-0.027607642
100	0xbd22a64a	-0.039709367
101	0xbd2dac46	-0.04240062
102	0xbea60301	-0.32424167
103	0xbe517bdc	-0.20457405
104	0xbdd7342c	-0.10507998
105	0xbe2b7ef7	-0.16747652
106	0xbd2dad66	-0.042401694
107	0xbd7b3959	-0.061333988
108	0xbd2dd0ae	-0.04243534
109	0xbee1e678	-0.44121146
110	0xbd24ab26	-0.040202282
111	0xbd8746a9	-0.06605274
112	0xbce19e32	-0.027541254
113	0x3d91e805	0.07124332
114	0xbe8fa27b	-0.2805365
115	0xbd527c4b	-0.051388066
116	0xbe723de4	-0.23656422
117	0xbd5eb401	-0.054370884
118	0x3cc9c816	0.024631541
119	0xbdc96840	-0.09834337
120	0xbe911367	-0.28335115
121	0xbc4d3f99	-0.01252737
122	0xbd253f2f	-0.04034346
123	0xbe4c4b4e	-0.19950601
124	0xbce357de	-0.02775186
125	0x3e9d777f	0.3075523
126	0xbe03bc75	-0.1286486
127	0xbdc18fb4	-0.09451237

conv2d_105/bias f4 [64]
0	0xbd017134	-0.0316021
1	0xbd8b1223	-0.06790569
2	0xbd644e7b	-0.055738907
3	0x3a41b1a9	0.0007388839
4	0xbda70eee	-0.081571445
5	0x3c85d972	0.016339038
6	0xbe228d70	-0.15874267
7	0xbe87b19a	-0.26502687
8	0xbf0cb590	-0.5496454
9	0xbdb28d40	-0.087183475
10	0xbd795020	-0.06086743
11	0xbd44857d	-0.047978867
12	0xbde90a5e	-0.113789305
13	0x3b9ed1c7	0.0048467848
14	0xbd895ffd	-0.067077614
15	0xbd11d175	-0.035600144
16	0xbd650dbb	-0.055921298
17	0x3d493394	0.049121454
18	0xbde260b8	-0.11053604
19	0xbc21b16a	-0.009868959
20	0xbd114c65	-0.035473246
21	0x3cde735f	0.027154623
22	0xbdd06e80	-0.10177326
23	0xbe9b5bb0	-0.3034339
24	0x3d9d3a33	0.07677116
25	0xbd6b669e	-0.05747091
26	0x3d0cbc8a	0.034359492
27	0xbc90064f	-0.017581133
28	0xbde63b6b	-0.11241802
29	0x3d573800	0.05254364
30	0xbd15f73a	-0.036612727
31	0xbe980995	-0.2969481
32	0xbc7e560e	-0.015523447
33	0xbdc1e6a9	-0.09467823
34	0xbddf0f33	-0.10891571
35	0xbd841de4	-0.06451014
36	0xbd313c34	-0.043270305
37	0xbda1680e	-0.07881175
38	0xbe3ae541	-0.18251516
39	0xbe27e7a1	-0.16396953
40	0x3d1e7088	0.038681537
41	0xbe91fa9f	-0.2851152
42	0x3b82b36a	0.003988673
43	0xbb454938	-0.0030103456
44	0xbe2ec1b7	-0.17066084
45	0xbce32a0a	-0.027730007
46	0x3c551ea1	0.013007791
47	0xbd067b7f	-0.03283262
48	0xbd6604f5	-0.05615707
49	0xbca2d29f	-0.019875823
50	0xbd71a916	-0.058999144
51	0xbc7a7bf1	-0.015288339
52	0x3d5c5e51	0.053800885
53	0xbd008dba	-0.03138516
54	0xbe3f9b32	-0.18711546
55	0xbbcb637a	-0.006206927
56	0xbd2cf747	-0.04222801
57	0xbd02c404	-0.031925216
58	0xbd1f4ed4	-0.038893536
59	0x3d9a5d3a	0.07537313
60	0x3d971bac	0.07378325
61	0xbd046dce	-0.03233128
62	0xbe53058c	-0.20607585
63	0xbe7593e4	-0.23982197

conv2d_104/bias f4 [64]
0	0xbc8fab1e	-0.01753765
1	0xbd410275	-0.047121484
2	0xbbedab9d	-0.007253124
3	0xbd7b61ce	-0.06137257
4	0x3c1760d6	0.009239396
5	0x3d42e937	0.047585692
6	0xbe172882	-0.14761546
7	0xbcf434a0	-0.02981025
8	0x3e124f1b	0.14287989
9	0xbe0bcb6b	-0.13651817
10	0x3c1f7b64	0.009734008
11	0xbd3ce361	-0.046115283
12	0xbe523478	-0.20527828
13	0xbd177480	-0.036976337
14	0xbda6ce66	-0.08144836
15	0xbe09be92	-0.13451603
16	0xbd283d0d	-0.041073848
17	0x3dbe6629	0.09296829
18	0xbdec1580	-0.11527538
19	0xbe3657da	-0.1780695
20	0xbd50bd98	-0.05096206
21	0xbc9bfb62	-0.019040767
22	0xbe05d084	-0.13067824
23	0x3cef17d3	0.029186165
24	0xbd8ec1c4	-0.069705516
25	0xbe979b6e	-0.2961077
26	0xbe0ed5d3	-0.13948755
27	0xbdd2c27b	-0.102910005
28	0xbd37f51f	-0.0449115
29	0xbc599da0	-0.01328221
30	0xbdb23068	-0.08700639
31	0xbf059c98	-0.5219207
32	0xbe16facd	-0.1474411
33	0xbdfbc8fe	-0.122941956
34	0xbe571756	-0.21004996
35	0xbe0d5d91	-0.13805224
36	0xbe3f4c07	-0.18681346
37	0x3de0b8d3	0.109727524
38	0xbe64e45d	-0.22352739
39	0xbe852a2e	-0.26008743
40	0x3dad925b	0.08475181
41	0xbcd029d2	-0.025410566
42	0xbb39b4d8	-0.002833655
43	0xbd2e802a	-0.042602696
44	0x3ccc01c8	0.024903193
45	0xbd2ce4e2	-0.042210467
46	0xbd5d77db	-0.05406938
47	0xbd9d7cdb	-0.0768983
48	0xbcb2afcb	-0.02181234
49	0xbda3ab7d	-0.07991693
50	0xbb6a1270	-0.0035716556
51	0xbe6fe1b2	-0.2342594
52	0xbdbaab94	-0.09114757
53	0xbcf650ef	-0.030067889
54	0x3db86591	0.09003747
55	0x3d27911c	0.04090987
56	0xbd9e04d5	-0.077157654
57	0xbd041389	-0.032245193
58	0xbdc3b92b	-0.09556802
59	0xbe115a8a	-0.14194694
60	0xbd80bf89	-0.062865324
61	0xbca31c4e	-0.019910958
62	0xbc842991	-0.016133102
63	0xbd926b1d	-0.071493365

conv2d_103/bias f4 [32]
0	0xbd4a6caa	-0.049420036
1	0xbd5574d4	-0.05211337
2	0x3db0d706	0.086347625
3	0xbbeac83a	-0.007164982
4	0xbe221840	-0.15829563
5	0xbdb12554	-0.08649698
6	0xb98dbb2f	-0.00027033078
7	0xbd351c46	-0.044216417
8	0x3da78482	0.08179571
9	0xbd292d56	-0.041303
10	0xbdb24200	-0.08703995
11	0xbe5fde56	-0.21862158
12	0x3dbb3e0a	0.091426924
13	0x3d41b249	0.047289167
14	0xbe72bbc7	-0.23704444
15	0x3e4ea2b5	0.20179255
16	0xbda0b88d	-0.078477
17	0x3d8a89a3	0.06764533
18	0x3e0bd456	0.13655218
19	0xbd17e732	-0.03708572
20	0x3d30c78a	0.043159045
21	0xbea5c112	-0.32373863
22	0xbd672b89	-0.056438003
23	0x3c1dfa29	0.009642162
24	0xbd124cfc	-0.03571795
25	0xbcc48c2b	-0.023992619
26	0xbe29d5a2	-0.165854
27	0x3cabafaf	0.020957796
28	0xbe0d6f56	-0.13812003
29	0x3c08484a	0.008318016
30	0xbbe351f7	-0.006937261
31	0xbe0a916c	-0.13532037

sequential_2/dense_33/MatMul i1 [64, 128] scale=0.008667598 zero_point=0
0	0x17	0.19935474
1	0x00	0.0
2	0x1d	0.25136033
3	0x00	0.0
4	0x1e	0.26002792
5	0x00	0.0
6	0x00	0.0
7	0x00	0.0
8	0x00	0.0
9	0x00	0.0
10	0x00	0.0
11	0x00	0.0
12	0x00	0.0
13	0x00	0.0
14	0x00	0.0
15	0xe7	-0.21668994
16	0xd9	-0.3380363
17	0x16	0.19068715
18	0x00	0.0
19	0x00	0.0
20	0xc4	-0.52005583
21	0x00	0.0
22	0x00	0.0
23	0x00	0.0
24	0x1c	0.24269274
25	0x00	0.0
26	0x00	0.0
27	0x19	0.21668994
28	0x00	0.0
29	0x00	0.0
30	0x00	0.0
31	0x19	0.21668994
32	0x00	0.0
33	0x00	0.0
34	0x00	0.0
35	0xed	-0.16468436
36	0x21	0.2860307
37	0x00	0.0
38	0xc9	-0.47671786
39	0x00	0.0
40	0x00	0.0
41	0x00	0.0
42	0x00	0.0
43	0x00	0.0
44	0x00	0.0
45	0x12	0.15601675
46	0x15	0.18201955
47	0x00	0.0
48	0xe2	-0.26002792
49	0x00	0.0
50	0xeb	-0.18201955
51	0xec	-0.17335194
52	0x00	0.0
53	0xcf	-0.42471227
54	0x00	0.0
55	0x00	0.0
56	0x00	0.0
57	0x00	0.0
58	0x00	0.0
59	0x00	0.0
60	0x00	0.0
61	0x00	0.0
62	0xdc	-0.3120335
63	0xc1	-0.54605865
64	0x1c	0.24269274
65	0x00	0.0
66	0x00	0.0
67	0x2d	0.3900419
68	0x00	0.0
69	0x00	0.0
70	0x00	0.0
71	0xd0	-0.41604468
72	0x1e	0.26002792
73	0x00	0.0
74	0xe0	-0.27736312
75	0x00	0.0
76	0x00	0.0
77	0x00	0.0
78	0xeb	-0.18201955
79	0x17	0.19935474
80	0xe5	-0.23402514
81	0x00	0.0
82	0x00	0.0
83	0x00	0.0
84	0x00	0.0
85	0x00	0.0
86	0x00	0.0
87	0x20	0.27736312
88	0x00	0.0
89	0xec	-0.17335194
90	0x00	0.0
91	0x27	0.3380363
92	0x1a	0.22535753
93	0x20	0.27736312
94	0x00	0.0
95	0xd9	-0.3380363
96	0x26	0.3293687
97	0x15	0.18201955
98	0x16	0.19068715
99	0x28	0.3467039
100	0x00	0.0
101	0x1c	0.24269274
102	0xeb	-0.18201955
103	0xee	-0.15601675
104	0xdc	-0.3120335
105	0xe3	-0.25136033
106	0x00	0.0
107	0xe1	-0.26869553
108	0xea	-0.19068715
109	0xe8	-0.20802234
110	0x1c	0.24269274
111	0xda	-0.3293687
112	0x1b	0.23402514
113	0x00	0.0
114	0xcc	-0.45071507
115	0x15	0.18201955
116	0x00	0.0
117	0x00	0.0
118	0x00	0.0
119	0x14	0.17335194
120	0x00	0.0
121	0xe5	-0.23402514
122	0x00	0.0
123	0x00	0.0
124	0xe9	-0.19935474
125	0x19	0.21668994
126	0xda	-0.3293687
127	0x14	0.17335194
128	0x00	0.0
129	0x00	0.0
130	0x00	0.0
131	0x00	0.0
132	0xec	-0.17335194
133	0x00	0.0
134	0x00	0.0
135	0x00	0.0
136	0x00	0.0
137	0x00	0.0
138	0x00	0.0
139	0x00	0.0
140	0x00	0.0
141	0x00	0.0
142	0x00	0.0
143	0xee	-0.15601675
144	0x00	0.0
145	0x00	0.0
146	0x00	0.0
147	0xed	-0.16468436
148	0x00	0.0
149	0xec	-0.17335194
150	0x00	0.0
151	0x00	0.0
152	0x00	0.0
153	0xef	-0.14734916
154	0x00	0.0
155	0x00	0.0
156	0x00	0.0
157	0xef	-0.14734916
158	0xe9	-0.19935474
159	0x00	0.0
160	0x12	0.15601675
161	0x00	0.0
162	0x00	0.0
163	0x00	0.0
164	0x12	0.15601675
165	0x00	0.0
166	0x00	0.0
167	0xee	-0.15601675
168	0x00	0.0
169	0x11	0.14734916
170	0xe9	-0.19935474
171	0x00	0.0
172	0x00	0.0
173	0x00	0.0
174	0x14	0.17335194
175	0x00	0.0
176	0x00	0.0
177	0x00	0.0
178	0xeb	-0.18201955
179	0x00	0.0
180	0x00	0.0
181	0xeb	-0.18201955
182	0x00	0.0
183	0x00	0.0
184	0xec	-0.17335194
185	0x00	0.0
186	0x00	0.0
187	0xef	-0.14734916
188	0x00	0.0
189	0x00	0.0
190	0xee	-0.15601675
191	0x00	0.0
192	0x00	0.0
193	0x00	0.0
194	0x00	0.0
195	0x00	0.0
196	0x00	0.0
197	0x00	0.0
198	0x00	0.0
199	0x00	0.0
200	0x00	0.0
201	0x00	0.0
202	0x00	0.0
203	0xef	-0.14734916
204	0x00	0.0
205	0x00	0.0
206	0x00	0.0
207	0x00	0.0
208	0x00	0.0
209	0x00	0.0
210	0x00	0.0
211	0x00	0.0
212	0x00	0.0
213	0x00	0.0
214	0xef	-0.14734916
215	0x00	0.0
216	0x11	0.14734916
217	0x00	0.0
218	0x00	0.0
219	0xeb	-0.18201955
220	0x00	0.0
221	0x00	0.0
222	0x00	0.0
223	0x00	0.0
224	0x00	0.0
225	0x00	0.0
226	0x00	0.0
227	0xeb	-0.18201955
228	0x00	0.0
229	0x00	0.0
230	0x00	0.0
231	0x00	0.0
232	0x00	0.0
233	0x00	0.0
234	0xec	-0.17335194
235	0x00	0.0
236	0x00	0.0
237	0x00	0.0
238	0x00	0.0
239	0xed	-0.16468436
240	0xec	-0.17335194
241	0x00	0.0
242	0x00	0.0
243	0x00	0.0
244	0x00	0.0
245	0x00	0.0
246	0x00	0.0
247	0xea	-0.19068715
248	0x00	0.0
249	0x11	0.14734916
250	0x00	0.0
251	0x00	0.0
252	0x00	0.0
253	0x00	0.0
254	0x00	0.0
255	0x00	0.0

sequential_2/dense_34/MatMul f4 [1, 64]
0	0x3ea8d1df	0.3297262
1	0x80000000	-0.0
2	0x3f002abc	0.5006521
3	0xbf08a926	-0.533831
4	0x80000000	-0.0
5	0xbeae1b59	-0.3400524
6	0x80000000	-0.0
7	0x00000000	0.0
8	0x80000000	-0.0
9	0x3eacebf9	0.33773783
10	0x80000000	-0.0
11	0xbe8ad549	-0.2711585
12	0x00000000	0.0
13	0xbf0c3717	-0.5477156
14	0x3f16bd7b	0.58882874
15	0x80000000	-0.0
16	0x80000000	-0.0
17	0x80000000	-0.0
18	0x3ed33eb9	0.4125879
19	0x80000000	-0.0
20	0x80000000	-0.0
21	0xbea6db28	-0.32589078
22	0x80000000	-0.0
23	0x00000000	0.0
24	0x80000000	-0.0
25	0x80000000	-0.0
26	0xbe9ab367	-0.30214998
27	0xbebc5568	-0.3678391
28	0x80000000	-0.0
29	0x00000000	0.0
30	0x80000000	-0.0
31	0x3e803b67	0.2504532
32	0x80000000	-0.0
33	0xbeaf45c2	-0.34232908
34	0x80000000	-0.0
35	0x80000000	-0.0
36	0x00000000	0.0
37	0x80000000	-0.0
38	0x3ec0aff6	0.37634248
39	0xbed067f8	-0.40704322
40	0x80000000	-0.0
41	0x00000000	0.0
42	0x80000000	-0.0
43	0x00000000	0.0
44	0x00000000	0.0
45	0xbe8b4da7	-0.27207682
46	0x3eb5bd8f	0.35496184
47	0x80000000	-0.0
48	0x80000000	-0.0
49	0x80000000	-0.0
50	0x00000000	0.0
51	0x00000000	0.0
52	0x80000000	-0.0
53	0x3eb74b7b	0.35799775
54	0x80000000	-0.0
55	0x3ec88397	0.39162895
56	0xbe93c82d	-0.2886366
57	0x00000000	0.0
58	0x80000000	-0.0
59	0xbe7fec54	-0.24992496
60	0xbe987242	-0.29774672
61	0x80000000	-0.0
62	0x80000000	-0.0
63	0x00000000	0.0

sequential_2/conv2d_103/Conv2D f4 [32, 3, 3, 3]
0	0x00000000	0.0
1	0x3e424d49	0.18974794
2	0x00000000	0.0
3	0x00000000	0.0
4	0x3e20b48b	0.15693872
5	0x00000000	0.0
6	0x80000000	-0.0
7	0x80000000	-0.0
8	0xbe233b9f	-0.15940712
9	0x3e752489	0.23939718
10	0x3e9c35ae	0.30509704
11	0x00000000	0.0
12	0x00000000	0.0
13	0x00000000	0.0
14	0x00000000	0.0
15	0x80000000	-0.0
16	0x80000000	-0.0
17	0x80000000	-0.0
18	0x3e370dc3	0.17876343
19	0x3e8e1013	0.2774664
20	0x00000000	0.0
21	0xbe2d361c	-0.16915172
22	0x00000000	0.0
23	0xbe93b517	-0.28849098
24	0xbe7fb968	-0.2497307
25	0x80000000	-0.0
26	0xbe850ac7	-0.25984785
27	0x00000000	0.0
28	0x00000000	0.0
29	0x00000000	0.0
30	0xbe5dd885	-0.21664627
31	0x00000000	0.0
32	0xbe5dae58	-0.21648538
33	0x80000000	-0.0
34	0x00000000	0.0
35	0xbe25314d	-0.16132088
36	0x80000000	-0.0
37	0x80000000	-0.0
38	0xbe2bf8bc	-0.16794103
39	0x80000000	-0.0
40	0x80000000	-0.0
41	0x00000000	0.0
42	0x80000000	-0.0
43	0x80000000	-0.0
44	0x00000000	0.0
45	0xbe25e040	-0.16198826
46	0x00000000	0.0
47	0xbe1a76b2	-0.15084341
48	0x00000000	0.0
49	0x80000000	-0.0
50	0x80000000	-0.0
51	0x80000000	-0.0
52	0xbe17856e	-0.14796993
53	0x80000000	-0.0
54	0x00000000	0.0
55	0x00000000	0.0
56	0xbe31421c	-0.17310375
57	0x3e66f04c	0.22552603
58	0x00000000	0.0
59	0x00000000	0.0
60	0x3e3cfb7c	0.18455309
61	0xbe2e3f69	-0.17016377
62	0xbe5fb9d2	-0.21848229
63	0x00000000	0.0
64	0x00000000	0.0
65	0xbe2f0596	-0.17091975
66	0x00000000	0.0
67	0x00000000	0.0
68	0xbe88f593	-0.26749858
69	0x3e57ff93	0.21093588
70	0x00000000	0.0
71	0xbe86a2cd	-0.26296082
72	0x00000000	0.0
73	0x00000000	0.0
74	0xbe7237a3	-0.23654036
75	0x00000000	0.0
76	0xbe59f9d0	-0.21286702
77	0x00000000	0.0
78	0x00000000	0.0
79	0x00000000	0.0
80	0xbe52b517	-0.20576893
81	0xbe3f6b14	-0.18693191
82	0x00000000	0.0
83	0x00000000	0.0
84	0x3e302521	0.17201664
85	0x3ec7551b	0.38932118
86	0x00000000	0.0
87	0x00000000	0.0
88	0x3e8f5ca5	0.2800037
89	0x00000000	0.0
90	0xbe27bbf4	-0.16380292
91	0x00000000	0.0
92	0xbe8a56c2	-0.27019316
93	0x00000000	0.0
94	0x3e500cfd	0.20317455
95	0x00000000	0.0
96	0x00000000	0.0
97	0x00000000	0.0
98	0x00000000	0.0
99	0xbe5daf40	-0.21648884
100	0x00000000	0.0
101	0xbe37d730	-0.17953181
102	0x00000000	0.0
103	0x3e963753	0.29339084
104	0xbe1c55f0	-0.15267158
105	0x00000000	0.0
106	0x00000000	0.0
107	0x00000000	0.0
108	0x3e3400b4	0.17578393
109	0x80000000	-0.0
110	0x80000000	-0.0
111	0x3e6ae6cc	0.22939605
112	0x80000000	-0.0
113	0x80000000	-0.0
114	0x80000000	-0.0
115	0x80000000	-0.0
116	0x80000000	-0.0
117	0x80000000	-0.0
118	0x80000000	-0.0
119	0x80000000	-0.0
120	0x80000000	-0.0
121	0x80000000	-0.0
122	0x80000000	-0.0
123	0x3e5077c1	0.20358182
124	0x3e172fbb	0.14764301
125	0x80000000	-0.0
126	0x80000000	-0.0
127	0x3e17b828	0.14816344
128	0x80000000	-0.0
129	0x3e4d580a	0.20053115
130	0x80000000	-0.0
131	0x3e17ceaf	0.14824937
132	0x80000000	-0.0
133	0x80000000	-0.0
134	0x80000000	-0.0
135	0x00000000	0.0
136	0x3e5d4569	0.21608509
137	0x00000000	0.0
138	0x3e6129ca	0.21988598
139	0x3e27371e	0.1632962
140	0x00000000	0.0
141	0x3e4d32ac	0.20038861
142	0x00000000	0.0
143	0x00000000	0.0
144	0x3e234dc2	0.15947631
145	0x3e3e20a0	0.18567133
146	0x3e332b9b	0.17497103
147	0x00000000	0.0
148	0x00000000	0.0
149	0x00000000	0.0
150	0x00000000	0.0
151	0x00000000	0.0
152	0x00000000	0.0
153	0xbe89954b	-0.26871714
154	0xbed6e213	-0.41969356
155	0xbee8fbcd	-0.4550461
156	0xbeb23891	-0.34808782
157	0x00000000	0.0
158	0xbeb5917d	-0.3546256
159	0xbe1bbc21	-0.15208484
160	0xbeb16584	-0.34647763
161	0xbe8c9c1f	-0.2746286
162	0xbea595cc	-0.32340848
163	0x00000000	0.0
164	0x00000000	0.0
165	0xbe841416	-0.25796574
166	0x00000000	0.0
167	0x00000000	0.0
168	0xbe884cc3	-0.26621065
169	0x00000000	0.0
170	0x00000000	0.0
171	0xbe64df6a	-0.2235085
172	0x00000000	0.0
173	0x00000000	0.0
174	0xbe6725c0	-0.22572994
175	0x00000000	0.0
176	0x3e3351d5	0.17511685
177	0x00000000	0.0
178	0x00000000	0.0
179	0x3e79c36d	0.24390955
180	0x80000000	-0.0
181	0x80000000	-0.0
182	0x3e87ddfc	0.26536548
183	0x00000000	0.0
184	0x00000000	0.0
185	0x00000000	0.0
186	0x00000000	0.0
187	0x3e37c443	0.17945962
188	0x3ebbd290	0.36684084
189	0x80000000	-0.0
190	0x80000000	-0.0
191	0x80000000	-0.0
192	0x80000000	-0.0
193	0x80000000	-0.0
194	0xbe1c8b18	-0.15287435
195	0x80000000	-0.0
196	0x80000000	-0.0
197	0x80000000	-0.0
198	0x80000000	-0.0
199	0xbe1f1164	-0.15533978
200	0x80000000	-0.0
201	0x80000000	-0.0
202	0x80000000	-0.0
203	0x80000000	-0.0
204	0x80000000	-0.0
205	0x80000000	-0.0
206	0x80000000	-0.0
207	0x80000000	-0.0
208	0x80000000	-0.0
209	0x80000000	-0.0
210	0x80000000	-0.0
211	0x80000000	-0.0
212	0x80000000	-0.0
213	0x80000000	-0.0
214	0x80000000	-0.0
215	0x80000000	-0.0
216	0x00000000	0.0
217	0x00000000	0.0
218	0x3e184e68	0.1487366
219	0xbe554c67	-0.20829926
220	0xbe90ed30	-0.2830596
221	0xbe4a7b5a	-0.19773617
222	0x80000000	-0.0
223	0x00000000	0.0
224	0x80000000	-0.0
225	0x00000000	0.0
226	0xbe825f91	-0.25463536
227	0x00000000	0.0
228	0xbe32f730	-0.17477107
229	0xbe2f8efe	-0.17144391
230	0xbe99ca4f	-0.30037162
231	0xbe404ae6	-0.18778571
232	0xbe414cc0	-0.18876934
233	0x80000000	-0.0
234	0x00000000	0.0
235	0xbe77bb97	-0.24192654
236	0x00000000	0.0
237	0xbe76ce5a	-0.24102154
238	0xbec7bb73	-0.390102
239	0xbe27614c	-0.1634571
240	0xbe4f9a33	-0.20273666
241	0x00000000	0.0
242	0x00000000	0.0
243	0x80000000	-0.0
244	0x80000000	-0.0
245	0x80000000	-0.0
246	0x80000000	-0.0
247	0x80000000	-0.0
248	0xbe2a301a	-0.16619912
249	0x80000000	-0.0
250	0xbe2bdc25	-0.16783197
251	0x80000000	-0.0
252	0x80000000	-0.0
253	0x80000000	-0.0
254	0xbe601d47	-0.21886168
255	0x80000000	-0.0

sequential_2/conv2d_104/Conv2D i1 [64, 3, 3, 32]
0	0x00	0
1	0x00	0
2	0x00	0
3	0x35	53
4	0xcf	-49
5	0xde	-34
6	0x00	0
7	0x00	0
8	0x00	0
9	0x00	0
10	0x19	25
11	0x00	0
12	0x47	71
13	0x36	54
14	0xbd	-67
15	0x1a	26
16	0x00	0
17	0x00	0
18	0x7c	124
19	0xcb	-53
20	0x00	0
21	0xdc	-36
22	0x00	0
23	0x00	0
24	0x00	0
25	0x00	0
26	0xd8	-40
27	0x2a	42
28	0x00	0
29	0xe4	-28
30	0x2c	44
31	0x00	0
32	0xda	-38
33	0x00	0
34	0x00	0
35	0x1d	29
36	0x00	0
37	0xe0	-32
38	0xe3	-29
39	0x00	0
40	0xe3	-29
41	0x00	0
42	0x1f	31
43	0xe6	-26
44	0x3d	61
45	0x00	0
46	0xc1	-63
47	0x1f	31
48	0xd2	-46
49	0x26	38
50	0x26	38
51	0xd8	-40
52	0x1b	27
53	0xcf	-49
54	0xdc	-36
55	0x00	0
56	0x00	0
57	0xb5	-75
58	0x00	0
59	0x00	0
60	0xbe	-66
61	0xb2	-78
62	0x00	0
63	0x00	0
64	0x00	0
65	0x00	0
66	0x1d	29
67	0x00	0
68	0x00	0
69	0xc5	-59
70	0xd2	-46
71	0x00	0
72	0x00	0
73	0x00	0
74	0xe6	-26
75	0x00	0
76	0x56	86
77	0x00	0
78	0xc6	-58
79	0x2d	45
80	0x2a	42
81	0x1c	28
82	0x5b	91
83	0xe2	-30
84	0x24	36
85	0xc3	-61
86	0x39	57
87	0x00	0
88	0x00	0
89	0x00	0
90	0x00	0
91	0x00	0
92	0x00	0
93	0x00	0
94	0x00	0
95	0xcc	-52
96	0xdb	-37
97	0x00	0
98	0x00	0
99	0x2c	44
100	0xd6	-42
101	0xe3	-29
102	0x41	65
103	0x00	0
104	0x00	0
105	0x00	0
106	0x00	0
107	0x00	0
108	0x23	35
109	0x00	0
110	0xb2	-78
111	0x00	0
112	0x00	0
113	0xe6	-26
114	0x32	50
115	0x00	0
116	0xde	-34
117	0xbe	-66
118	0x00	0
119	0xcb	-53
120	0x00	0
121	0x00	0
122	0x00	0
123	0x20	32
124	0x00	0
125	0xbe	-66
126	0x1b	27
127	0x00	0
128	0xd1	-47
129	0x00	0
130	0x00	0
131	0x1d	29
132	0x00	0
133	0x00	0
134	0x00	0
135	0x00	0
136	0xb5	-75
137	0x00	0
138	0x2b	43
139	0x00	0
140	0x31	49
141	0x00	0
142	0xd1	-47
143	0x00	0
144	0xc4	-60
145	0x1a	26
146	0x00	0
147	0x00	0
148	0x26	38
149	0xe0	-32
150	0x00	0
151	0xd3	-45
152	0x00	0
153	0x00	0
154	0x00	0
155	0x00	0
156	0xd4	-44
157	0x9f	-97
158	0x00	0
159	0x00	0
160	0x00	0
161	0x00	0
162	0x00	0
163	0x00	0
164	0x00	0
165	0x00	0
166	0x00	0
167	0x00	0
168	0xcf	-49
169	0x00	0
170	0x00	0
171	0x00	0
172	0x2f	47
173	0x00	0
174	0xd6	-42
175	0x00	0
176	0x2c	44
177	0x2c	44
178	0x00	0
179	0xe4	-28
180	0x1b	27
181	0xb6	-74
182	0x41	65
183	0xd1	-47
184	0x00	0
185	0x31	49
186	0xe7	-25
187	0x00	0
188	0x00	0
189	0xd7	-41
190	0xc4	-60
191	0x00	0
192	0x00	0
193	0x00	0
194	0xdd	-35
195	0x00	0
196	0xe3	-29
197	0x1c	28
198	0x20	32
199	0x00	0
200	0xc9	-55
201	0x00	0
202	0x00	0
203	0x00	0
204	0x00	0
205	0xdb	-37
206	0xcf	-49
207	0xd7	-41
208	0x00	0
209	0xd5	-43
210	0x00	0
211	0x00	0
212	0x00	0
213	0xcf	-49
214	0x00	0
215	0x00	0
216	0x00	0
217	0x00	0
218	0xd9	-39
219	0x00	0
220	0xe7	-25
221	0xe1	-31
222	0x27	39
223	0x00	0
224	0x00	0
225	0x00	0
226	0xde	-34
227	0x00	0
228	0x00	0
229	0x66	102
230	0x00	0
231	0x00	0
232	0xcd	-51
233	0x00	0
234	0x22	34
235	0x00	0
236	0x19	25
237	0x00	0
238	0xd4	-44
239	0xb7	-73
240	0xcc	-52
241	0x00	0
242	0x00	0
243	0x00	0
244	0x00	0
245	0xdb	-37
246	0x00	0
247	0x00	0
248	0x00	0
249	0x00	0
250	0x00	0
251	0x00	0
252	0xe7	-25
253	0x00	0
254	0x00	0
255	0x2e	46

sequential_2/conv2d_105/Conv2D i1 [64, 3, 3, 64]
0	0x00	0
1	0x00	0
2	0x00	0
3	0x00	0
4	0x00	0
5	0x00	0
6	0x00	0
7	0x00	0
8	0x00	0
9	0x00	0
10	0x00	0
11	0x00	0
12	0x00	0
13	0x00	0
14	0x00	0
15	0x00	0
16	0x00	0
17	0x00	0
18	0x00	0
19	0x00	0
20	0x00	0
21	0x00	0
22	0x00	0
23	0x00	0
24	0x00	0
25	0x00	0
26	0x00	0
27	0x00	0
28	0x00	0
29	0x00	0
30	0x00	0
31	0x00	0
32	0x00	0
33	0x00	0
34	0x00	0
35	0x00	0
36	0x00	0
37	0x00	0
38	0x00	0
39	0x00	0
40	0x00	0
41	0x00	0
42	0x00	0
43	0x00	0
44	0x00	0
45	0x00	0
46	0x00	0
47	0x00	0
48	0x00	0
49	0x00	0
50	0x00	0
51	0x00	0
52	0x00	0
53	0x00	0
54	0x00	0
55	0x00	0
56	0x00	0
57	0x00	0
58	0x00	0
59	0x00	0
60	0x00	0
61	0x00	0
62	0x00	0
63	0x00	0
64	0x00	0
65	0x00	0
66	0x00	0
67	0x00	0
68	0x00	0
69	0x00	0
70	0x88	-120
71	0x00	0
72	0x00	0
73	0x00	0
74	0x00	0
75	0x00	0
76	0x00	0
77	0x00	0
78	0x00	0
79	0x00	0
80	0x00	0
81	0x00	0
82	0x00	0
83	0x00	0
84	0x00	0
85	0x00	0
86	0x00	0
87	0x00	0
88	0x00	0
89	0x00	0
90	0x00	0
91	0x00	0
92	0x00	0
93	0x00	0
94	0x00	0
95	0x00	0
96	0x00	0
97	0x00	0
98	0x00	0
99	0x00	0
100	0x00	0
101	0x00	0
102	0x00	0
103	0x00	0
104	0x00	0
105	0x00	0
106	0x00	0
107	0x00	0
108	0x00	0
109	0x00	0
110	0x00	0
111	0x00	0
112	0x00	0
113	0x00	0
114	0x00	0
115	0x00	0
116	0x00	0
117	0x00	0
118	0x00	0
119	0x00	0
120	0x00	0
121	0x00	0
122	0x00	0
123	0x00	0
124	0x00	0
125	0x00	0
126	0x00	0
127	0x00	0
128	0x00	0
129	0x00	0
130	0x00	0
131	0x00	0
132	0x85	-123
133	0x00	0
134	0x00	0
135	0x00	0
136	0x00	0
137	0x00	0
138	0x00	0
139	0x00	0
140	0x00	0
141	0x00	0
142	0x00	0
143	0x00	0
144	0x00	0
145	0x00	0
146	0x00	0
147	0x00	0
148	0x00	0
149	0x00	0
150	0x00	0
151	0x00	0
152	0x00	0
153	0x00	0
154	0x00	0
155	0x00	0
156	0x00	0
157	0x00	0
158	0x00	0
159	0x00	0
160	0x00	0
161	0x00	0
162	0x00	0
163	0x00	0
164	0x00	0
165	0x81	-127
166	0x00	0
167	0x00	0
168	0x00	0
169	0x00	0
170	0x00	0
171	0x00	0
172	0x00	0
173	0x00	0
174	0x00	0
175	0x00	0
176	0x00	0
177	0x00	0
178	0x00	0
179	0x00	0
180	0x00	0
181	0x00	0
182	0x00	0
183	0x00	0
184	0x00	0
185	0x00	0
186	0x00	0
187	0x00	0
188	0x00	0
189	0x00	0
190	0x00	0
191	0x00	0
192	0x00	0
193	0x00	0
194	0x00	0
195	0x8d	-115
196	0x00	0
197	0x00	0
198	0x00	0
199	0x00	0
200	0x00	0
201	0x00	0
202	0x00	0
203	0x00	0
204	0x00	0
205	0x00	0
206	0x00	0
207	0x00	0
208	0x00	0
209	0x00	0
210	0x00	0
211	0x00	0
212	0x00	0
213	0x00	0
214	0x00	0
215	0x00	0
216	0x00	0
217	0x00	0
218	0x00	0
219	0x00	0
220	0x00	0
221	0x00	0
222	0x00	0
223	0x00	0
224	0x00	0
225	0x00	0
226	0x00	0
227	0x00	0
228	0x00	0
229	0x00	0
230	0x00	0
231	0x00	0
232	0x00	0
233	0x00	0
234	0x00	0
235	0x00	0
236	0x00	0
237	0x00	0
238	0x00	0
239	0x00	0
240	0x00	0
241	0x00	0
242	0x00	0
243	0x00	0
244	0x00	0
245	0x00	0
246	0x00	0
247	0x00	0
248	0x00	0
249	0x00	0
250	0x00	0
251	0x00	0
252	0x00	0
253	0x00	0
254	0x00	0
255	0x00	0

sequential_2/conv2d_106/Conv2D i1 [128, 3, 3, 64]
0	0x00	0
1	0x81	-127
2	0x00	0
3	0x00	0
4	0x00	0
5	0xd2	-46
6	0xd3	-45
7	0x00	0
8	0x00	0
9	0x00	0
10	0x00	0
11	0x00	0
12	0xa6	-90
13	0x00	0
14	0xae	-82
15	0xde	-34
16	0x00	0
17	0x00	0
18	0xc8	-56
19	0x00	0
20	0x00	0
21	0x00	0
22	0xb0	-80
23	0xd8	-40
24	0xce	-50
25	0x00	0
26	0x00	0
27	0x00	0
28	0x8d	-115
29	0xcc	-52
30	0xc5	-59
31	0x8e	-114
32	0x00	0
33	0xde	-34
34	0xa7	-89
35	0xa1	-95
36	0x00	0
37	0x00	0
38	0xe1	-31
39	0x9a	-102
40	0x00	0
41	0xb3	-77
42	0xd8	-40
43	0xd2	-46
44	0xcd	-51
45	0x00	0
46	0xa7	-89
47	0x00	0
48	0xe3	-29
49	0xbf	-65
50	0xe1	-31
51	0xe3	-29
52	0x00	0
53	0xb0	-80
54	0x00	0
55	0x00	0
56	0x00	0
57	0xc1	-63
58	0x00	0
59	0xe5	-27
60	0xd0	-48
61	0x00	0
62	0x00	0
63	0xcc	-52
64	0x00	0
65	0x98	-104
66	0x00	0
67	0x00	0
68	0x00	0
69	0x00	0
70	0xc4	-60
71	0x23	35
72	0xc7	-57
73	0xb8	-72
74	0x00	0
75	0x00	0
76	0x00	0
77	0xe1	-31
78	0xa6	-90
79	0x00	0
80	0x00	0
81	0x00	0
82	0x00	0
83	0x00	0
84	0x00	0
85	0x1a	26
86	0x00	0
87	0x00	0
88	0xd4	-44
89	0x00	0
90	0x00	0
91	0x28	40
92	0xb3	-77
93	0x00	0
94	0x00	0
95	0xdb	-37
96	0x00	0
97	0x00	0
98	0xd3	-45
99	0xbf	-65
100	0x00	0
101	0x1c	28
102	0x00	0
103	0x00	0
104	0x00	0
105	0x00	0
106	0x00	0
107	0x00	0
108	0x00	0
109	0x00	0
110	0xbe	-66
111	0x20	32
112	0x00	0
113	0x00	0
114	0xd6	-42
115	0x00	0
116	0x00	0
117	0xce	-50
118	0x00	0
119	0xe3	-29
120	0x00	0
121	0x00	0
122	0x00	0
123	0x00	0
124	0xe2	-30
125	0x00	0
126	0x00	0
127	0x00	0
128	0x00	0
129	0xc0	-64
130	0x00	0
131	0xd7	-41
132	0x00	0
133	0x00	0
134	0xcb	-53
135	0x22	34
136	0xc9	-55
137	0x00	0
138	0x00	0
139	0x00	0
140	0x26	38
141	0x00	0
142	0xc3	-61
143	0x00	0
144	0x00	0
145	0xd7	-41
146	0x1e	30
147	0x00	0
148	0x00	0
149	0x00	0
150	0x00	0
151	0xe0	-32
152	0x00	0
153	0x00	0
154	0x2a	42
155	0x00	0
156	0xd2	-46
157	0x00	0
158	0x00	0
159	0x00	0
160	0x00	0
161	0x00	0
162	0xe0	-32
163	0xcb	-53
164	0x00	0
165	0x25	37
166	0x00	0
167	0x00	0
168	0x1c	28
169	0xcc	-52
170	0x00	0
171	0x00	0
172	0x00	0
173	0x00	0
174	0xdc	-36
175	0x36	54
176	0xe1	-31
177	0xde	-34
178	0xd7	-41
179	0x00	0
180	0x00	0
181	0x00	0
182	0x00	0
183	0x00	0
184	0xd8	-40
185	0x00	0
186	0x00	0
187	0x00	0
188	0x00	0
189	0x00	0
190	0xce	-50
191	0x00	0
192	0x00	0
193	0xaf	-81
194	0x00	0
195	0x00	0
196	0xce	-50
197	0x00	0
198	0xc1	-63
199	0x00	0
200	0xb9	-71
201	0x00	0
202	0x00	0
203	0x00	0
204	0x00	0
205	0x00	0
206	0xcf	-49
207	0xdb	-37
208	0x00	0
209	0x00	0
210	0xb4	-76
211	0xdd	-35
212	0x00	0
213	0xd6	-42
214	0xc9	-55
215	0x00	0
216	0xb0	-80
217	0x00	0
218	0x23	35
219	0x2f	47
220	0xb9	-71
221	0x00	0
222	0xda	-38
223	0xd8	-40
224	0x32	50
225	0x00	0
226	0xbf	-65
227	0xe2	-30
228	0x00	0
229	0x2e	46
230	0xc3	-61
231	0xc3	-61
232	0x00	0
233	0xde	-34
234	0xd0	-48
235	0xd1	-47
236	0xdf	-33
237	0x00	0
238	0xdb	-37
239	0x23	35
240	0x00	0
241	0x00	0
242	0xcd	-51
243	0x00	0
244	0xcf	-49
245	0xb6	-74
246	0x00	0
247	0x00	0
248	0xd0	-48
249	0x00	0
250	0x00	0
251	0x2b	43
252	0x00	0
253	0x00	0
254	0xab	-85
255	0xd3	-45
